project3-collaboration/results/session_submission/maddpg_critic_reacher_0.pth (torch_old, 96211 bytes, 9 tensors)

bn0.weight f4 [48]
0	0x3de4f003	0.11178591
1	0x3e0a5cd5	0.13511975
2	0x3a517262	0.00079897617
3	0x3c04d26e	0.008106811
4	0x3f348ea3	0.70530146
5	0x3ef6e43a	0.48220998
6	0x3d30a310	0.04312426
7	0x3da70e98	0.081570804
8	0xbbc54aa2	-0.00602086
9	0x3c54cd5c	0.012988415
10	0x3dde657f	0.108592026
11	0x3e1950ec	0.14972275
12	0x3ec93b7f	0.39303204
13	0xbbf52955	-0.007481734
14	0x3c6a7746	0.014310664
15	0x3a662118	0.0008778735
16	0x3f424c3b	0.7589757
17	0x3eb4be6a	0.35301524
18	0xbc632b18	-0.013865255
19	0xbc97c3a3	-0.018525904
20	0x3fa1e26e	1.2647226
21	0x3f597bf3	0.84954756
22	0x3e1181fd	0.14209743
23	0x3e967bff	0.29391477
24	0x3dd76801	0.10517884
25	0x3e0b0210	0.13575006
26	0x3d67ad19	0.056561563
27	0xbc4c3147	-0.0124629205
28	0x3eeb6ede	0.45983022
29	0x3c27187e	0.0101987105
30	0xbbc45e5f	-0.005992695
31	0x3d8e1df6	0.06939308
32	0x3a8e54b9	0.001085899
33	0xbb949aa4	-0.004535036
34	0x3c0da28e	0.008644713
35	0xbd120c1c	-0.03565608
36	0x3e9c2881	0.30499652
37	0x3edb4fff	0.4283447
38	0x3d61abda	0.05509553
39	0x3dfa9225	0.12234906
40	0x3f038d85	0.51387817
41	0x3e941f90	0.2893033
42	0x3c553e26	0.013015306
43	0xbce56c9e	-0.028005894
44	0x3f053aa1	0.52042586
45	0x3b9d2048	0.004795108
46	0x3dd76859	0.105179496
47	0x3e69ccfc	0.22832102

bn0.bias f4 [48]
0	0x3dea7c7f	0.11449527
1	0xbc998e62	-0.018744651
2	0xbad9da8c	-0.0016620918
3	0xbb81a524	-0.003956454
4	0x3da59f51	0.08087028
5	0x3ead7d7d	0.33884802
6	0x3ce93527	0.028467728
7	0xbcdf7b29	-0.027280407
8	0xbb96856a	-0.004593541
9	0x3ad4db01	0.0016239585
10	0x3d99e9e5	0.07515315
11	0xbd2f54d4	-0.042805508
12	0x3f066138	0.52492094
13	0x3b428a40	0.0029684454
14	0x3b7d74e8	0.0038674418
15	0xbb85021a	-0.0040590884
16	0x3d693ae0	0.056940913
17	0xbe93406a	-0.28760082
18	0x3b41487e	0.0029492672
19	0x3b43c963	0.0029874675
20	0x3e588d44	0.21147639
21	0x3f53fc26	0.82806623
22	0x3d12ec71	0.03587002
23	0xbd90ff1c	-0.07079908
24	0x3c4452ad	0.011982602
25	0xbde70f00	-0.11282158
26	0x3c6bfda0	0.014403731
27	0xbb8868d1	-0.0041628857
28	0xbdb709c6	-0.08937411
29	0x3c2d236a	0.010567525
30	0xbb20fb51	-0.0024563859
31	0x3cbc0fb3	0.022956705
32	0x3ba3923d	0.004991798
33	0xbb5faa82	-0.003412873
34	0x3ba5773c	0.0050496142
35	0x3c2720fa	0.010200733
36	0xbea45c8b	-0.32101855
37	0x3ec5f1dd	0.3866109
38	0x3d0b0e6c	0.0339493
39	0xbcae03ad	-0.021241987
40	0xbe51d847	-0.2049266
41	0xbd3a5eeb	-0.045500677
42	0xbb036d99	-0.002005434
43	0x3a7a5b85	0.00095503806
44	0xbf0b49ad	-0.54409295
45	0xbb866c42	-0.004102261
46	0x3d09d85a	0.033653595
47	0xbd9ac2f0	-0.075567126

bn0.running_mean f4 [48]
0	0xc0659a92	-3.5875592
1	0xbe923973	-0.28559455
2	0x417e67ad	15.900311
3	0xbd86a1dc	-0.06573841
4	0xbdd9339d	-0.106055476
5	0x407ed708	3.9818745
6	0x417e67ad	15.900311
7	0xbd86a1dc	-0.06573841
8	0xc0687f81	-3.6327822
9	0xbe9739f9	-0.29536417
10	0x417b20b9	15.695489
11	0xbd1fe26e	-0.0390343
12	0xbe148aa9	-0.1450602
13	0x4080cdae	4.0251074
14	0x417b20b9	15.695489
15	0xbd1fe26e	-0.0390343
16	0xc06c3d87	-3.6912553
17	0xbe974b7b	-0.29549775
18	0x4171684b	15.087962
19	0xbd506b3e	-0.050883524
20	0xbe294c90	-0.16533113
21	0x4081110b	4.0333304
22	0x4171684b	15.087962
23	0xbd506b3e	-0.050883524
24	0xc0a6e7af	-5.2157817
25	0xbf208855	-0.62708026
26	0x412e5c41	10.897523
27	0xbd928298	-0.07153815
28	0x3dd9339d	0.106055476
29	0x407ed708	3.9818745
30	0x412e5c41	10.897523
31	0xbd928298	-0.07153815
32	0xc0a89335	-5.2679696
33	0xbf2344aa	-0.6377665
34	0x412f3df8	10.952629
35	0xbdf173fe	-0.11789702
36	0x3e148aa9	0.1450602
37	0x4080cdae	4.0251074
38	0x412f3df8	10.952629
39	0xbdf173fe	-0.11789702
40	0xc0a7c9ba	-5.243375
41	0xbf25fa8e	-0.6483544
42	0x413251a1	11.144929
43	0xbe66507f	-0.22491644
44	0x3e294c90	0.16533113
45	0x4081110b	4.0333304
46	0x413251a1	11.144929
47	0xbe66507f	-0.22491644

bn0.running_var f4 [48]
0	0x41846684	16.550056
1	0x3f5b7a6c	0.85733676
2	0x43eafd66	469.97968
3	0x41902fc7	18.023329
4	0x41da2c2e	27.271572
5	0x400cd93b	2.2007587
6	0x43eafd66	469.97968
7	0x41902fc7	18.023329
8	0x418585a2	16.69025
9	0x3f5b4799	0.85656124
10	0x43f0abf3	481.34335
11	0x4190dbb2	18.107273
12	0x41dd22aa	27.641926
13	0x4009fbdd	2.1559975
14	0x43f0abf3	481.34335
15	0x4190dbb2	18.107273
16	0x4186bda2	16.842594
17	0x3f5be608	0.85897875
18	0x43fad19c	501.63757
19	0x418e8449	17.814592
20	0x41dcca1a	27.598682
21	0x400bc9ba	2.1841874
22	0x43fad19c	501.63757
23	0x418e8449	17.814592
24	0x41a0a4ae	20.08041
25	0x3f8fd527	1.1236924
26	0x43eb0db7	470.10715
27	0x416a27a5	14.634679
28	0x41da2c2e	27.271572
29	0x400cd93b	2.2007587
30	0x43eb0db7	470.10715
31	0x416a27a5	14.634679
32	0x419d0304	19.626472
33	0x3f8fe20e	1.1240861
34	0x43efcb7e	479.58978
35	0x416a7a3f	14.654845
36	0x41dd22aa	27.641926
37	0x4009fbdd	2.1559975
38	0x43efcb7e	479.58978
39	0x416a7a3f	14.654845
40	0x419b3a51	19.403475
41	0x3f902278	1.1260519
42	0x43f19de7	483.2336
43	0x416e4aa1	14.89322
44	0x41dcca1a	27.598682
45	0x400bc9ba	2.1841874
46	0x43f19de7	483.2336
47	0x416e4aa1	14.89322

fc1.weight f4 [128, 48]
0	0xbf23bed3	-0.6396305
1	0xbdcdea5f	-0.10054468
2	0x3ca9a60e	0.020709064
3	0xbda65b51	-0.08122886
4	0x3e06651e	0.1312451
5	0x3f6790ef	0.90455526
6	0x3e9dce54	0.30821478
7	0x3e1edb19	0.15513267
8	0x3d369964	0.04457988
9	0x3d977fad	0.07397399
10	0xbf000a17	-0.50015396
11	0x3e31bf49	0.17358126
12	0x3e14fcc5	0.14549549
13	0x3cac68be	0.021046039
14	0x3d42b267	0.04753342
15	0x3c3c4150	0.011490181
16	0x3eeadc76	0.45871323
17	0x3e6819fa	0.2266616
18	0xbdd0f444	-0.1020284
19	0xbd4cbae4	-0.04998292
20	0xbe9c2353	-0.304957
21	0xbfa953f2	-1.3228743
22	0xbebaaed1	-0.364615
23	0xbcec46cf	-0.028842358
24	0x3e2d3fcb	0.16918866
25	0xbd1f06e3	-0.038824927
26	0xbcc30625	-0.02380664
27	0x3d0f12af	0.034929927
28	0xbd20aac5	-0.03922536
29	0x3dd5b3f2	0.104347125
30	0x3d40fdc7	0.04711702
31	0xbe78d759	-0.24300899
32	0x3da13cd3	0.078729294
33	0xbcc8ad52	-0.024496708
34	0xbcc0ee7b	-0.023551216
35	0x3e11c378	0.14234722
36	0xbd5a87a4	-0.053352013
37	0x3d06fcaa	0.032955803
38	0x3e0348fd	0.12820812
39	0x3ec392fa	0.38198072
40	0xbd9d3dc9	-0.076778
41	0x3e999300	0.29994965
42	0xbd97df5d	-0.0741565
43	0xbd33900b	-0.043838542
44	0x3dc089b1	0.094012626
45	0x3ca55872	0.020183776
46	0xbe7067eb	-0.23477142
47	0xbdf622eb	-0.12018379
48	0xbe7e5308	-0.24836361
49	0xbe6a5956	-0.22885641
50	0xbc2b002f	-0.0104370555
51	0x3da4b242	0.080418125
52	0x3d7354e1	0.05940712
53	0x3ebbf468	0.36709905
54	0xbe21040b	-0.15724199
55	0x3c86f713	0.016475236
56	0xbb4a4823	-0.003086575
57	0xbd8d49e3	-0.068988584
58	0xbe5e3a0c	-0.2170183
59	0x3cf3ff2a	0.029784758
60	0x3e0000a0	0.12500238
61	0xbceb463e	-0.028720018
62	0xbd8ede0d	-0.069759466
63	0x3bcc136f	0.0062279026
64	0x3f33d11e	0.7024096
65	0xbe95deaf	-0.29271457
66	0x3d038e20	0.032117963
67	0x3c836460	0.016039073
68	0xbeb59779	-0.35467127
69	0x3d56c8f4	0.052437738
70	0xbeb2bd9c	-0.34910285
71	0x3e67796a	0.2260491
72	0xbed20d84	-0.41025937
73	0x3ec9075d	0.3926343
74	0x3e822e0f	0.25425765
75	0x3d0c1885	0.03420307
76	0xbe6588c0	-0.22415447
77	0xbc060a50	-0.00818117
78	0x3da15118	0.078767955
79	0x3e893660	0.26799297
80	0x3b3272e8	0.0027229134
81	0x3e30c32d	0.17261954
82	0x3cedac14	0.029012717
83	0x3d2b15e5	0.041768927
84	0xbe7d4725	-0.2473417
85	0x3f01ab8d	0.5065239
86	0x3c867a16	0.016415637
87	0xbe3ec33e	-0.18629166
88	0x3d20bc48	0.03924206
89	0xbe1b6aee	-0.15177509
90	0xbd89ea79	-0.06734175
91	0xbd75c7cc	-0.060004994
92	0x3e5a1ecf	0.21300815
93	0x3d4afeab	0.049559277
94	0xbe0811b2	-0.13288
95	0x3d0d97fc	0.03456877
96	0x3fac6bd1	1.3470403
97	0xbcdd099b	-0.02698212
98	0x3cfb31af	0.03066334
99	0xbda1e9d2	-0.07905926
100	0xbe6d7af5	-0.23191436
101	0x3f6a6d44	0.91572976
102	0x3dcdb916	0.10045068
103	0x3ee2134b	0.44155344
104	0x3c2d1720	0.010564595
105	0x3d23a27b	0.039949875
106	0x3f853f48	1.0409937
107	0x3eb3f3cd	0.35146943
108	0xbec96a92	-0.3933912
109	0x3d4ced42	0.050030954
110	0xbd84c778	-0.06483358
111	0x3e054025	0.1301275
112	0x3e0696ac	0.13143414
113	0x3ea1a97e	0.31574625
114	0x3d4d3d0a	0.05010704
115	0xbb2dc9bf	-0.0026517955
116	0x3f57adfe	0.84249866
117	0xbeda1be2	-0.42599398
118	0x3ec915f6	0.39274567
119	0xbe2c4f6c	-0.16827172
120	0xbe668f6a	-0.22515646
121	0x3f05a672	0.522071
122	0x3f143055	0.5788625
123	0xbd0160a0	-0.03158629
124	0x3ed0b298	0.40761256
125	0x3e501385	0.20319946
126	0x3c9c343e	0.01906788
127	0x3eaae708	0.33379388
128	0xbe0676ed	-0.13131304
129	0xbd5c3e31	-0.053770248
130	0x3b8b12de	0.0042441925
131	0x3d9641dd	0.07336781
132	0x3e6224c8	0.22084343
133	0x3e955cb6	0.29172295
134	0x3de495a8	0.11161357
135	0xbe9dc9f6	-0.30818146
136	0x3e72f6ba	0.23726931
137	0xbe671621	-0.22567035
138	0x3da65752	0.08122124
139	0x3da2e183	0.07953169
140	0xbe8b7891	-0.27240422
141	0xbbfa4de9	-0.007638682
142	0x3f3e6890	0.743783
143	0x3f381f8d	0.7192314
144	0xbf335996	-0.7005857
145	0xbf67d0c2	-0.90552914
146	0x3df2c9f1	0.118549235
147	0xbd836b33	-0.06416931
148	0x3dd5a337	0.104315214
149	0x3e990133	0.29883727
150	0x3f78d9e6	0.97207487
151	0x3ed71126	0.4200527
152	0xbdf875ac	-0.12131819
153	0xbd8b4863	-0.06800916
154	0x3eb2251f	0.34793946
155	0xbec67fd5	-0.38769403
156	0xbf4fba5f	-0.81143755
157	0xbcd89969	-0.02644034
158	0xbe26a325	-0.16273172
159	0xbd743358	-0.059619278
160	0x3e0f7300	0.14008713
161	0xbfac500f	-1.3461932
162	0xbd275824	-0.04085554
163	0xbd74bb48	-0.059748918
164	0x3d599aa5	0.053125996
165	0xbd0158c3	-0.03157879
166	0x3efa15cf	0.48844764
167	0xbf92d824	-1.1472211
168	0x3f6b3b74	0.91887593
169	0x3e6ae3fc	0.22938532
170	0xbe2ed546	-0.17073545
171	0x3be82d73	0.007085496
172	0xbdb6aa05	-0.089191474
173	0xbd1d56a6	-0.038412713
174	0x3c41f87e	0.01183903
175	0x3f97ef32	1.1869872
176	0xbe7961bc	-0.24353689
177	0xbc05addc	-0.008159127
178	0xbdaf83d7	-0.08570068
179	0xbdf1e510	-0.11811268
180	0x3ed111fb	0.4083403
181	0x3e6d6f5a	0.23187009
182	0x3e7a9a69	0.24472965
183	0xbd7698db	-0.060204368
184	0xbd173ca0	-0.03692305
185	0xbeb6ddd6	-0.35716122
186	0x3d47bc36	0.048763476
187	0x3d87f0bb	0.066377126
188	0x3eb5f2f1	0.35536912
189	0x3d0d64d0	0.03451997
190	0x3d127923	0.035760056
191	0xbe53073b	-0.20608227
192	0x3fb6a7b0	1.4269924
193	0x4028c979	2.637297
194	0x3d30d383	0.043170463
195	0x3cbcbec3	0.023040181
196	0xbee2e338	-0.4431398
197	0xbf9d7c7f	-1.2303618
198	0xbf3d0097	-0.73829025
199	0x3fadfddf	1.35931
200	0xbdb3c884	-0.0877848
201	0xbdd3c14d	-0.103396036
202	0xbe30d0ae	-0.17267105
203	0x3f853376	1.040633
204	0xbeddf285	-0.4334909
205	0xbd509760	-0.050925612
206	0x3e13d0d4	0.1443513
207	0x3e16900c	0.14703387
208	0xbe10c39b	-0.14137118
209	0xbf71510a	-0.9426428
210	0x3ce3ae65	0.027793119
211	0xbe8433aa	-0.25820667
212	0x3f107459	0.5642753
213	0x3fc652c8	1.5494013
214	0x3f45112d	0.76979333
215	0x3ec79316	0.38979405
216	0x401d298f	2.4556615
217	0x405426a1	3.3148577
218	0xbe9fc6fd	-0.31206504
219	0x3d8b3605	0.06797413
220	0x3eb466ee	0.3523478
221	0xbd295a20	-0.041345716
222	0xbd808832	-0.06275977
223	0x3f22ec97	0.6364226
224	0xbd9d85f5	-0.07691566
225	0x3d920a70	0.07130897
226	0xbe46601e	-0.19372603
227	0x3daa7df8	0.08324808
228	0x3d0886f0	0.03333181
229	0xbfa6ad84	-1.3021703
230	0x3f900975	1.1252886
231	0x3fdf731f	1.7457007
232	0xbf3e6761	-0.74376494
233	0xbfcca215	-1.5986964
234	0xbc35c3bc	-0.01109403
235	0xbd50480d	-0.050849963
236	0x3ea01a46	0.31270045
237	0x3e3e1b5d	0.18565126
238	0xbf13226f	-0.57474416
239	0x3f658b40	0.89665604
240	0x3f565626	0.837252
241	0x3f131ce4	0.5746596
242	0xbddadfa4	-0.10687187
243	0x3d355eda	0.04427991
244	0x3f40c749	0.75304085
245	0xbdf7fd19	-0.121088214
246	0xbc206868	-0.009790517
247	0xbc059f53	-0.008155662
248	0x3db9878c	0.09059057
249	0xbd00b7ef	-0.031425413
250	0x3ec28358	0.37990832
251	0xbd3fab08	-0.046793967
252	0x3dad55a2	0.08463599
253	0x3d9bd393	0.07608714
254	0x3c924c64	0.017858692
255	0xbd84d2eb	-0.06485542

fc1.bias f4 [128]
0	0x3e58bba1	0.21165325
1	0x3e01a444	0.12660319
2	0xbf843873	-1.0329727
3	0xbf557aae	-0.8339032
4	0xbfdd2375	-1.7276446
5	0xbedb4fb2	-0.4283424
6	0x3e8c9df0	0.27464247
7	0xbeb6091e	-0.3555383
8	0xbf45d4ff	-0.7727813
9	0xbf0c1b53	-0.54729193
10	0xbedfc7a9	-0.43707016
11	0x3d947824	0.072494775
12	0xbfa1839e	-1.2618291
13	0xbe517dcf	-0.20458148
14	0xbfcc1a16	-1.5945461
15	0xbf2e1387	-0.67998546
16	0xbf090a27	-0.53531116
17	0xbe9757e5	-0.29559246
18	0xbf636d0b	-0.8883826
19	0xbe2784d4	-0.16359264
20	0xbec46fa9	-0.3836644
21	0xbfb7be20	-1.4354897
22	0xbf1c8206	-0.611359
23	0xbf3b55c1	-0.73177725
24	0xbf157b4c	-0.5839126
25	0xbf2cc8c8	-0.6749387
26	0xbf7bcb5e	-0.9835719
27	0xbef81d21	-0.48459724
28	0xbd40298c	-0.046914622
29	0xbf0bbfbb	-0.5458943
30	0xbeb1bc5c	-0.3471402
31	0xbf795952	-0.97401917
32	0xbe42dbe6	-0.19029197
33	0x3daa9e20	0.08330941
34	0xbf52fc1c	-0.8241594
35	0xbf88db6f	-1.0691966
36	0xbeaff02c	-0.34362924
37	0xbff743e3	-1.9317592
38	0xbf07abec	-0.52996707
39	0xbe4421ad	-0.19153471
40	0xbebee91a	-0.37287217
41	0xbf1c29d5	-0.6100133
42	0xbf3ea579	-0.7447124
43	0xbf8865a3	-1.0656017
44	0xbead81fb	-0.3388823
45	0xbe3cbcf5	-0.18431456
46	0xbf276bb2	-0.65398705
47	0xbef52e97	-0.47887108
48	0xbf44c78f	-0.76867
49	0xbe28cf65	-0.16485365
50	0xbf84eaac	-1.0384116
51	0xbf37c50b	-0.7178504
52	0xbedd3c3b	-0.43210015
53	0xbf64fe1a	-0.8945023
54	0x3e93dc9c	0.2887925
55	0xbedd4e42	-0.43223768
56	0xbf9ea89b	-1.2395204
57	0x3e0ce1b2	0.13757971
58	0xbea95a72	-0.33076817
59	0xbf127c6f	-0.5722112
60	0xbec6b01e	-0.38806242
61	0xbf453f99	-0.7705017
62	0xbf95192e	-1.1648309
63	0xbf4de100	-0.8042145
64	0xbf49c50e	-0.78816307
65	0xbefb709e	-0.49109358
66	0xbf1a6a99	-0.60318905
67	0xbf121a80	-0.57071686
68	0xbef35ad1	-0.47530225
69	0xbf0685d6	-0.5254797
70	0xbf6ae551	-0.9175616
71	0xbf22a15d	-0.6352747
72	0xbf581047	-0.8439984
73	0xbf426698	-0.75937796
74	0xbf18b330	-0.5964842
75	0xbe0c8af7	-0.13724886
76	0xbeee0d57	-0.46494552
77	0xbf635954	-0.8880818
78	0xbdc06b7f	-0.09395503
79	0xbea71c1f	-0.32638642
80	0xbf46e6f5	-0.7769616
81	0xbf5e69a0	-0.8687992
82	0xbfc9f8c6	-1.5779045
83	0xbe0a509b	-0.13507311
84	0xbf1a94f2	-0.6038352
85	0xbed214d4	-0.41031516
86	0xbec96477	-0.3933446
87	0xbebbc489	-0.36673382
88	0xbedbe942	-0.429514
89	0xbeb7440d	-0.35794106
90	0xbfcb0ab3	-1.586264
91	0xbf0f586d	-0.559943
92	0xbece7e92	-0.4033094
93	0xbf613b1c	-0.8798082
94	0xbe34afff	-0.17645262
95	0xbf82a202	-1.0205691
96	0xbf916fc6	-1.1362236
97	0xbfa60aa8	-1.2972002
98	0xbf157dfa	-0.5839535
99	0xbdb6ee3a	-0.08932157
100	0xbeffea9f	-0.4998369
101	0x3d01fa59	0.03173289
102	0xbf759311	-0.9592753
103	0xbe0a06f9	-0.13479222
104	0xbd5f6023	-0.054535042
105	0xbf0afed7	-0.54295105
106	0x3efba51b	0.49149403
107	0xbf21d514	-0.63215756
108	0xbf2b1c48	-0.6684003
109	0xbe046673	-0.12929706
110	0xba7d463f	-0.00096616516
111	0xbf710321	-0.941454
112	0xbdcf979c	-0.10136339
113	0xbf130965	-0.5743621
114	0xbf50478d	-0.8135918
115	0xbecf11b7	-0.40443203
116	0xbfac5ae3	-1.3465236
117	0x3df41187	0.119174056
118	0xbeccc92d	-0.39997235
119	0xbf84329b	-1.0327944
120	0xbe98d969	-0.2985337
121	0xbf63d611	-0.88998514
122	0xbf17051a	-0.5899216
123	0xbf56d596	-0.83919656
124	0x3d9467e6	0.072463796
125	0xbec3fd6b	-0.3827928
126	0xbf709639	-0.9397922
127	0xbef53f7b	-0.47899994

fc2.weight f4 [128, 132]
0	0xbf3e8e3d	-0.7443579
1	0xbf01a3d1	-0.5064059
2	0xbfbcba37	-1.4744328
3	0x3f7c07c0	0.98449326
4	0xbf181e5b	-0.5942132
5	0xbfcbc700	-1.5920105
6	0xbfaafbc1	-1.3358079
7	0x3f182154	0.59425855
8	0x3dcfc297	0.10144537
9	0xbee02332	-0.43776852
10	0xbf84de38	-1.0380316
11	0xbf9854d2	-1.1900885
12	0xbebba8e2	-0.36652285
13	0x3e59109c	0.21197742
14	0xbd942e68	-0.07235414
15	0xbe2b2db2	-0.1671665
16	0xbeb9c018	-0.36279368
17	0x3f172314	0.590379
18	0xc01c0ba3	-2.4382102
19	0xbe0f2d29	-0.13982071
20	0xbffe4cdf	-1.9867209
21	0xbe926364	-0.28591454
22	0xbfaf25d7	-1.3683423
23	0xbf0281a0	-0.5097904
24	0xbea710b7	-0.3262994
25	0xbcaed217	-0.021340413
26	0xbe5f3b48	-0.21799958
27	0x3df2e04a	0.11859186
28	0xbcc86c7d	-0.024465794
29	0x3e35667e	0.17714879
30	0xbf2a0154	-0.66408277
31	0x3f09f3d5	0.53887683
32	0xbf52a228	-0.8227868
33	0xbc2d8b1c	-0.010592248
34	0xbe83cdb4	-0.25742877
35	0xbf141cc5	-0.578564
36	0xbf0d7cc8	-0.55268526
37	0xbe0e13ac	-0.13874692
38	0xbf8376d1	-1.0270635
39	0xbdc723b0	-0.09723604
40	0xbf216b32	-0.6305419
41	0xbf082d2e	-0.5319394
42	0xbd511105	-0.05104162
43	0x3e6a6d08	0.22893155
44	0xbf8c6987	-1.0969704
45	0x3dbc8f2f	0.092069976
46	0xbe990d01	-0.29892734
47	0xbe31adce	-0.17351457
48	0xbe8b85ce	-0.27250522
49	0xc00425d1	-2.0648081
50	0xbf167909	-0.58778435
51	0xbeb9f259	-0.3631771
52	0x3e4f7bdd	0.20262094
53	0x3de07ac7	0.10960918
54	0xbe9f0d21	-0.31064704
55	0xbf109ce8	-0.5648942
56	0xbf66816b	-0.90041226
57	0x3ecac74f	0.39605185
58	0xbec26bdb	-0.37972912
59	0x3f7485f8	0.9551692
60	0xbee673c1	-0.45010188
61	0x3f5d9b23	0.86564845
62	0x3f80a9eb	1.0051855
63	0xbf2cbad9	-0.67472607
64	0x3f334a09	0.70034844
65	0xbe43be31	-0.19115521
66	0xbf858f22	-1.0434306
67	0xbf09d355	-0.5383809
68	0xbf09f87a	-0.5389477
69	0xbe09b15a	-0.1344656
70	0x3f210287	0.6289448
71	0xbe6e81e4	-0.23291737
72	0x3ddf3666	0.108990476
73	0xbf89e200	-1.0772095
74	0xbfa74696	-1.3068416
75	0xbd1d1a6d	-0.03835528
76	0x3f4dec8c	0.80439067
77	0xbf119443	-0.56866854
78	0xbe8f7d10	-0.28025103
79	0x3eabaeb9	0.3353174
80	0xbf8c29fb	-1.0950311
81	0xbf14a5a5	-0.58065253
82	0xbe5e4447	-0.21705733
83	0xbe84351e	-0.25821775
84	0xbc91c1c0	-0.017792583
85	0x3df53934	0.11973801
86	0x3df8912e	0.12137066
87	0xbf5d6957	-0.8648886
88	0xbe823174	-0.25428355
89	0xbf8555d9	-1.0416824
90	0xbeafdfb8	-0.3435037
91	0xbf6234f3	-0.88362044
92	0xbbdc46ce	-0.0067223078
93	0x3eff0e79	0.4981573
94	0xbf3ec4ea	-0.74519217
95	0x3e784552	0.24245194
96	0xbe9af2f7	-0.30263492
97	0xbf00c9b2	-0.5030776
98	0x3ee37c9b	0.44431004
99	0xbf3bf7f8	-0.73425245
100	0xbfb19f60	-1.3876762
101	0xbf07a064	-0.5297911
102	0xbe867e00	-0.26268005
103	0x3f873495	1.0562922
104	0xbf8e877b	-1.1135095
105	0xbfa6d28f	-1.3033007
106	0x3e3a92d9	0.1822008
107	0x3a5d1d8e	0.0008434885
108	0x3dd54382	0.10413267
109	0xbf3695a1	-0.71322066
110	0xbf490459	-0.7852226
111	0xbf2e8f5d	-0.68187505
112	0xbee32e2b	-0.4437116
113	0xbf1a6dc4	-0.6032374
114	0xbeaa3105	-0.33240524
115	0x3dcf2fbb	0.10116526
116	0x3ecf93f3	0.40542564
117	0xbf112082	-0.5669023
118	0xbe52212b	-0.20520465
119	0xbeb11463	-0.34585866
120	0xbf880920	-1.0627785
121	0xbe60bfcb	-0.21948163
122	0xbf60bfdc	-0.87792754
123	0xbea1881b	-0.31549153
124	0x3f1a6c61	0.60321623
125	0xbe84b057	-0.25915787
126	0x3f054406	0.5205692
127	0xbf0593ba	-0.5217854
128	0x3d153ce1	0.03643501
129	0x3e9834fb	0.2972792
130	0xbf574a42	-0.84097683
131	0xbed7768b	-0.4208263
132	0x3eb90e8a	0.36143905
133	0xbf97b320	-1.185154
134	0xbfe957a8	-1.8229876
135	0x3ef27ac6	0.47359294
136	0x3e35c458	0.1775068
137	0xc07dcf90	-3.9657936
138	0xbea0eefc	-0.3143233
139	0xbf348302	-0.705124
140	0x3cc5e689	0.02415778
141	0xbf710c14	-0.94159055
142	0xbece5ef3	-0.40306816
143	0xbf92a640	-1.1456985
144	0x3f3e4f3d	0.7433966
145	0x3f50562a	0.81381476
146	0xbf417a3e	-0.7557715
147	0xbd8d90de	-0.06912397
148	0xc003b772	-2.0580716
149	0x3ee279e7	0.4423363
150	0xbfc9b0ed	-1.5757118
151	0x3f03caed	0.51481515
152	0xbff539db	-1.9158281
153	0x3f40d1b7	0.7532
154	0xbf3b5bda	-0.7318703
155	0xbe88f0f2	-0.26746327
156	0x3de4a277	0.111638
157	0xbecac20c	-0.3960117
158	0xbf9ef679	-1.2418967
159	0xbf2e780c	-0.68151927
160	0x3f0a913c	0.5412786
161	0xbf7138f6	-0.9422754
162	0xbe15f3ac	-0.14643735
163	0xbea36b07	-0.31917593
164	0xbf492cef	-0.7858419
165	0xbf18f1ac	-0.5974376
166	0xbf5500f6	-0.8320459
167	0x3e9e5236	0.30922097
168	0x3db7a43a	0.089668706
169	0xbf6b19f2	-0.91836464
170	0xbd2f01ac	-0.042726204
171	0xbe92f145	-0.286997
172	0x3edee0e3	0.4353095
173	0xbf43181a	-0.7620865
174	0x3f243283	0.64139575
175	0xbf0ddc78	-0.55414534
176	0xbf5f98b2	-0.8734237
177	0xbf5f848f	-0.87311643
178	0x3ea9d65b	0.33171353
179	0x3eab4bec	0.3345636
180	0x3face476	1.3507221
181	0xbdfd0a6a	-0.12355502
182	0xbfec4a2e	-1.8460138
183	0xbf72299b	-0.94594735
184	0xbeb11ebb	-0.34593758
185	0xbf2811f5	-0.656524
186	0xbed6da81	-0.4196358
187	0xc002f39d	-2.046119
188	0x3f1aae3e	0.6042212
189	0xbd23d5a4	-0.039998665
190	0xbfaa9896	-1.3327816
191	0x3f2530b9	0.6452747
192	0x3f6ed324	0.93290925
193	0x3f10037e	0.5625533
194	0xbf055c51	-0.5209399
195	0x3f19abcb	0.6002776
196	0x3f9636dc	1.1735492
197	0xbcfbfb11	-0.030759366
198	0xbe520263	-0.20508723
199	0xbf965361	-1.1744195
200	0xbe54b939	-0.20773782
201	0x3dc7bfb2	0.0975336
202	0x3f32dc27	0.69867176
203	0xbfbc426c	-1.470777
204	0xbe3e73b7	-0.18598829
205	0x3f11ce35	0.5695527
206	0xbf0a6690	-0.5406275
207	0xbf48b85c	-0.7840631
208	0x3effa700	0.49932098
209	0xbee69a56	-0.45039624
210	0xbf8d4d74	-1.1039262
211	0x3f6ce2f9	0.9253383
212	0xbebb33d2	-0.36562973
213	0x3f1ce164	0.6128142
214	0xbe677776	-0.22604164
215	0xbf8701c3	-1.0547413
216	0xbf3cca28	-0.73745966
217	0x3e0d7b3d	0.13816543
218	0x3dbd3f30	0.09240568
219	0xbe87b428	-0.26504636
220	0x3e8a5c9f	0.2702379
221	0x3f9c3422	1.220341
222	0xbda5c4b2	-0.08094157
223	0x3d5bdc1d	0.053676713
224	0xbef3e5f5	-0.4763638
225	0xbfe628f2	-1.7981246
226	0x3d454942	0.048165567
227	0x3da0aa6a	0.07845004
228	0xbdd9a16e	-0.106264934
229	0x3e2f7b2f	0.17136835
230	0x3dbb8b14	0.091573864
231	0xbf9e9d6e	-1.2391794
232	0x3da21c00	0.07915497
233	0x3f725ef0	0.94676113
234	0xbf52e981	-0.8238755
235	0x3e6e9223	0.23297934
236	0xbcf77fd9	-0.03021233
237	0xbf274edd	-0.6535471
238	0xbde22b44	-0.110434085
239	0xbf1b769c	-0.6072786
240	0xbfaeffc4	-1.3671803
241	0x3f1cbb73	0.61223525
242	0xbefdf9fc	-0.49604785
243	0x3caabb3a	0.02084123
244	0xbffd2cba	-1.9779274
245	0x3ed887d2	0.42291123
246	0x3fbd49bf	1.478813
247	0x3cf1710e	0.029472854
248	0xbff0109d	-1.875507
249	0x3e620819	0.22073402
250	0xbfd05e3c	-1.6278758
251	0xbf8f65a7	-1.1202897
252	0xbfbbf4f8	-1.4684134
253	0x3eba775b	0.36419186
254	0xbf45974c	-0.77183986
255	0xbe71b4ef	-0.23604177

fc2.bias f4 [128]
0	0xbebaa82c	-0.3645643
1	0xbf18379c	-0.59459853
2	0xbe20daa1	-0.157084
3	0xbe1ef5a0	-0.15523386
4	0xbd277385	-0.040881652
5	0x3d8ef54f	0.06980383
6	0xbebc94e9	-0.3683236
7	0x3f3b28a4	0.7310889
8	0xbe151e10	-0.14562249
9	0xbeada2bd	-0.33913222
10	0xbd88f8a7	-0.06688052
11	0xbe9f6397	-0.3113067
12	0xbf228e95	-0.6349881
13	0xbec09b1d	-0.37618342
14	0xbd826068	-0.06366044
15	0x3d97ac75	0.074059404
16	0xbda64c94	-0.08120075
17	0xbd60e80b	-0.054908793
18	0x3e02e083	0.12780957
19	0x3f0473dc	0.5173929
20	0xbea788eb	-0.32721648
21	0xbe411fdc	-0.1885981
22	0xbe6e01a4	-0.23242813
23	0xbf5292fe	-0.8225554
24	0xbd8f6b0f	-0.07002842
25	0x3f97fc70	1.1873913
26	0xbe35e649	-0.17763628
27	0xbe553fac	-0.2082507
28	0x3ef57e36	0.47947854
29	0xbfde6088	-1.7373209
30	0xbda9512d	-0.08267436
31	0xbfebaafe	-1.8411558
32	0x3ee9694b	0.45588145
33	0xbe04dd37	-0.12975012
34	0xbe7919c1	-0.2432623
35	0xbe63ab8d	-0.2223341
36	0xbe4ea7f9	-0.20181264
37	0xbdd7faae	-0.1054586
38	0xbf14658c	-0.5796745
39	0xbee845d5	-0.45365778
40	0x3ed636c3	0.41838655
41	0xbf23a84e	-0.6392869
42	0xbe59fc7c	-0.21287721
43	0xbe47061f	-0.19435929
44	0x3f172aef	0.59049886
45	0xbe719519	-0.23592032
46	0x3ecc035c	0.39846313
47	0xbe1bb9a3	-0.15207534
48	0xbfa42335	-1.2823244
49	0xbe04b8d5	-0.12961133
50	0xbe9f55b0	-0.31120062
51	0xbd9b6fb6	-0.075896665
52	0xbe868a56	-0.26277417
53	0xbe321cd3	-0.17393808
54	0xbd92f073	-0.07174768
55	0xbf059b0e	-0.5218972
56	0xbf0fbf04	-0.5615084
57	0xbe897e35	-0.268541
58	0x3ed5f61b	0.41789326
59	0xbd61be6e	-0.05511325
60	0x3d375933	0.0447628
61	0xbd99b75f	-0.075056784
62	0xbeba686f	-0.36407802
63	0xbe8a0404	-0.2695619
64	0x3ef1a929	0.4719937
65	0xbe5b12f9	-0.21393956
66	0xbf24393e	-0.64149845
67	0xbe333da8	-0.17503989
68	0xbe69461c	-0.22780651
69	0xbe3420ca	-0.17590633
70	0xbef79c52	-0.4836145
71	0xbd6c5a48	-0.057703286
72	0xbf601b9d	-0.87542135
73	0xbf245e3e	-0.642063
74	0xbe1d26d2	-0.1534684
75	0xbc85a004	-0.016311653
76	0x3e9ff999	0.31245115
77	0x3d785c65	0.06063499
78	0xbebc4df6	-0.3677823
79	0xbf8c6587	-1.0968484
80	0xbf1eea80	-0.6207657
81	0xbf0114f5	-0.504226
82	0x3de362d9	0.11102838
83	0xbf396f73	-0.72435683
84	0xbede6168	-0.4343369
85	0xbebdcc3f	-0.3706989
86	0xbf276a5f	-0.65396684
87	0xbe8d3b3f	-0.27584264
88	0xbf0f7069	-0.560309
89	0xbe9d096c	-0.3067125
90	0xbea453e8	-0.32095265
91	0xbeee0e3d	-0.46495238
92	0xbee2f608	-0.44328332
93	0x3cc7e9ad	0.024403417
94	0xbf53b322	-0.8269521
95	0xbe7f11b3	-0.24909095
96	0xbe1a9d3d	-0.15099044
97	0xbd785a4a	-0.06063298
98	0xbf5d7b80	-0.8651657
99	0x3d9a1407	0.07523351
100	0xbebacd8a	-0.3648494
101	0x3f31470d	0.6924904
102	0xbea23cfd	-0.31687155
103	0xbd567857	-0.05236086
104	0xbef2f0b2	-0.4744926
105	0xbe5d4c9b	-0.21611254
106	0xbefec976	-0.49763077
107	0xbee1706b	-0.4403108
108	0xbefa6b55	-0.48910013
109	0x3d5a0779	0.053229783
110	0x3db888ed	0.090104915
111	0xbe192a89	-0.14957632
112	0x3ea27853	0.31732425
113	0xbe0c6bcc	-0.13712996
114	0xbe9ce489	-0.30643108
115	0xbe970f49	-0.2950385
116	0xbf18df61	-0.5971585
117	0x3d395115	0.04524334
118	0xbf055870	-0.5208807
119	0xbf38a7aa	-0.72130835
120	0xbe1d959c	-0.15389103
121	0xbeb671f5	-0.35633817
122	0x3ee57457	0.44815323
123	0xbf3b69d3	-0.7320835
124	0xbe8401b3	-0.25782546
125	0xbef481c0	-0.4775524
126	0xbdde01fe	-0.10840224
127	0xbe157b4e	-0.14597818

fc3.weight f4 [1, 128]
0	0x3dbb7689	0.09153468
1	0x3d11a20d	0.035554934
2	0x3c922aff	0.017842768
3	0xbcd4adb6	-0.025961738
4	0x3d84a12c	0.064760536
5	0x3d8d938e	0.069129094
6	0x3d826ba1	0.06368185
7	0xbd015500	-0.031575203
8	0xbca559f4	-0.020184495
9	0xbcd7bfd7	-0.026336594
10	0x3d4c999e	0.04995119
11	0x3d2476da	0.04015241
12	0xbd78449b	-0.060612302
13	0x3d30d335	0.043170173
14	0x3c6cd084	0.014454011
15	0x3db8d5d5	0.0902516
16	0xbd739b8f	-0.059474524
17	0x3c22ee10	0.009944454
18	0x3c9ccb7d	0.01914
19	0x3d010fd5	0.03150924
20	0x3d2f8254	0.0428489
21	0x3d4ab12b	0.049485367
22	0xbcb81db7	-0.022475107
23	0x3cb385e0	0.021914423
24	0x3d4267e6	0.047462367
25	0x3d510d6d	0.051038194
26	0x3d95b7ad	0.07310424
27	0x3d28f072	0.04124493
28	0x3d7c62f1	0.061617795
29	0x3de91ed0	0.1138283
30	0xbcd41e4d	-0.025893355
31	0xbd4624b1	-0.048374835
32	0x3ce4cf21	0.027930798
33	0xbc76440f	-0.015030875
34	0x3d49e154	0.049287155
35	0xbd3558c2	-0.0442741
36	0x3dadd9d7	0.08488815
37	0x3b8d090c	0.004304057
38	0x3db17e4c	0.08666667
39	0xbd010558	-0.031499237
40	0xbd3c7617	-0.046011057
41	0xbcf5b60f	-0.029994039
42	0x3cbd0a59	0.023076223
43	0x3c693614	0.014234085
44	0x3d182142	0.037141092
45	0xbccd1412	-0.025033984
46	0x3cf72423	0.030168599
47	0x3d7169e8	0.05893889
48	0xbd227c2c	-0.0396692
49	0xbc2f4c92	-0.010699408
50	0xbdb27f5b	-0.087156974
51	0x3b87043f	0.004120379
52	0x3e4682b0	0.19385791
53	0xbb254e3d	-0.0025223636
54	0x3bb6a021	0.005573288
55	0x3cfe388c	0.031032823
56	0x3ddc11a5	0.10745553
57	0x3c056023	0.008140597
58	0xbdec51ca	-0.115390375
59	0xbb851be2	-0.004062162
60	0x3d9728aa	0.07380803
61	0x3d4d6192	0.05014188
62	0xbde8b7e7	-0.113632016
63	0xbd62ea6a	-0.055399336
64	0xbcae6e3b	-0.021292796
65	0xbdf2e6c1	-0.11860419
66	0x3d954893	0.07289233
67	0xbda289f1	-0.079364665
68	0x3cb4d227	0.022072865
69	0x3c004c75	0.007830729
70	0x3d308572	0.043096013
71	0xbc9f9813	-0.019481694
72	0xbd509fdf	-0.050933715
73	0xbda1f293	-0.079075955
74	0x3ccdbaf8	0.025113568
75	0x3d39a82c	0.045326397
76	0xbd298686	-0.041388057
77	0x3c9e79a4	0.019345112
78	0xbdc5c41f	-0.09656548
79	0xbda8e328	-0.082464516
80	0x3d3466b6	0.044043265
81	0xbcadb14d	-0.021202708
82	0xbd8608f2	-0.06544675
83	0x3d913213	0.07089629
84	0x3d58e728	0.052954823
85	0x3d041a78	0.032251805
86	0xbd6b6b51	-0.05747539
87	0xbdb5574c	-0.08854541
88	0x3d8329fc	0.06404492
89	0xbc6eb805	-0.014570241
90	0xbd3d74b4	-0.046253875
91	0xbd0d781f	-0.034538385
92	0xbd4b0183	-0.04956199
93	0xbd5c369f	-0.05376303
94	0xbd0f4284	-0.034975544
95	0x3c8e019d	0.017334754
96	0x3db29847	0.08720451
97	0x3ae79bd9	0.0017670348
98	0x3d21ea64	0.039530173
99	0x3d3b604f	0.045746144
100	0xbd729723	-0.059226166
101	0xbdcc5879	-0.09977812
102	0x3da2c708	0.079481184
103	0x3d86e80b	0.065872274
104	0xbd01a7f3	-0.03165431
105	0x3c8dee45	0.01732553
106	0xbcc83c9a	-0.02444296
107	0xbddce9a8	-0.10786754
108	0xbd1bd40b	-0.038044017
109	0xbdb4556b	-0.08805355
110	0x3c73c636	0.0148788
111	0xbca74ef9	-0.0204234
112	0xbd53df34	-0.051726535
113	0x3d6f53a1	0.058429364
114	0x3d57823e	0.052614443
115	0xbdb85bef	-0.0900191
116	0xbcef3148	-0.029198304
117	0x3cb7b166	0.022423457
118	0xbda623e6	-0.08112316
119	0x3cd15697	0.025553985
120	0xbcd23b80	-0.025663137
121	0x3d46750d	0.048451472
122	0xbd32a962	-0.043618567
123	0xbc886c82	-0.016653303
124	0xbcd841b2	-0.026398513
125	0x3caa9672	0.020823691
126	0x3daf0213	0.085453175
127	0x3bfdd340	0.00774613
