project3-collaboration/results/session_submission/maddpg_critic_reacher_1.pth (torch_old, 96211 bytes, 9 tensors)

bn0.weight f4 [48]
00000000: 0937 153e 3f2b dc3d fd32 863b 6207 823c
00000010: 8730 3d3f 2bd4 d63e 7158 b43c 115a 953d
00000020: 1809 f9bb 143d 343c 915a 933d 49cf 2dbc
00000030: 0377 ab3e e8e1 abbb 59c6 ba3d 0be1 a33d
00000040: e2aa 1b3f fb5c 4f3e 5936 25ba fa3e 03bb
00000050: e71c a43f 385c 333f 923d f93d dc30 4d3e
00000060: 9f08 dd3d 0e98 133e 0eb5 173d 1bd5 1e3c
00000070: 0d2c 203f 4877 e2bb 5b68 37ba 19ee a93d
00000080: 99ef 583b 307b ddba 3515 bb3b fc03 6cbb
00000090: ab9f 86ba b00f a53e e75b ba3d 7783 9b3d
000000a0: 405b 1f3f 2be7 ae3e 95bb a2bb c2d1 a93b
000000b0: bba9 0b3f 3363 40bb 3523 db3d d2f0 903e
0.14571775 0.10750436 0.0040954337 0.015872661 0.7390217 0.41958746 0.022014828 0.072925694
-0.007599961 0.01100089 0.071950085 -0.010608503 0.33489236 -0.005245436 0.09119863 0.08001908
0.6080762 0.20250313 -0.0006302349 -0.002002655 1.282132 0.7006259 0.12169947 0.2003817
0.1079266 0.14413473 0.0370379 0.009694363 0.62567216 -0.006911192 -0.0006996446 0.08297367
0.0033101796 -0.0016897675 0.005709315 -0.0036013117 -0.0010270973 0.3223853 0.0909956 0.07593434
0.6224861 0.34160742 -0.004966209 0.005182476 0.54555863 -0.0029356002 0.107000746 0.2830873

bn0.bias f4 [48]
00000000: f04e a83d 2db7 153c 42af f1bb 717d 0ebb
00000010: e8af 25be 291b 853e 2491 a4ba a71c 4c3b
00000020: 61a3 783c a37b ea3a 052e 2bbc 210f 9dbb
00000030: e807 d0be daa7 303b f9b9 5f3d cf18 30bc
00000040: 4e17 b2be 7e43 90bd b850 903b fe7b e33b
00000050: 89c9 8ebe d9f4 173f 2044 8a3d 72a4 803c
00000060: 335d f23c da75 dfbd aafd 8e3c 8f55 ea3b
00000070: 9ae6 5a3e dcae e03b 298a 7ebb dc4f 36bd
00000080: 73bd 723b 77b7 1a3a 63f2 b4bb 4d64 43bc
00000090: f3b3 d8ba 05ee bb3e eeba 243c 5966 06bd
000000a0: 2c26 fcbd f118 81be d465 b8bb d66f 77bc
000000b0: d9ba de3e 003b bf3a 70cc 413d d67e e0bd
0.08218181 0.009137911 -0.0073756287 -0.002174225 -0.16180384 0.25997284 -0.0012555462 0.0031145008
0.015175671 0.001788963 -0.010447984 -0.0047930633 -0.40631032 0.0026955516 0.054620717 -0.010748102
-0.34783405 -0.07044123 0.0044041537 0.0069422713 -0.27888134 0.5935798 0.06751275 0.015703414
0.029585456 -0.1091115 0.01745494 0.0071513127 0.2137703 0.0068567824 -0.0038839674 -0.044509754
0.003703919 0.0005901972 -0.005522059 -0.011925769 -0.0016533121 0.36705032 0.010054333 -0.03281245
-0.12311968 -0.2521434 -0.0056273732 -0.015102347 0.43501928 0.0014589727 0.047314107 -0.10961692

bn0.running_mean f4 [48]
00000000: 929a 65c0 7339 92be ad67 7e41 dca1 86bd
00000010: 9d33 d9bd 08d7 7e40 ad67 7e41 dca1 86bd
00000020: 817f 68c0 f939 97be b920 7b41 6ee2 1fbd
00000030: a98a 14be aecd 8040 b920 7b41 6ee2 1fbd
00000040: 873d 6cc0 7b4b 97be 4b68 7141 3e6b 50bd
00000050: 904c 29be 0b11 8140 4b68 7141 3e6b 50bd
00000060: afe7 a6c0 5588 20bf 415c 2e41 9882 92bd
00000070: 9d33 d93d 08d7 7e40 415c 2e41 9882 92bd
00000080: 3593 a8c0 aa44 23bf f83d 2f41 fe73 f1bd
00000090: a98a 143e aecd 8040 f83d 2f41 fe73 f1bd
000000a0: bac9 a7c0 8efa 25bf a151 3241 7f50 66be
000000b0: 904c 293e 0b11 8140 a151 3241 7f50 66be
-3.5875592 -0.28559455 15.900311 -0.06573841 -0.106055476 3.9818745 15.900311 -0.06573841
-3.6327822 -0.29536417 15.695489 -0.0390343 -0.1450602 4.0251074 15.695489 -0.0390343
-3.6912553 -0.29549775 15.087962 -0.050883524 -0.16533113 4.0333304 15.087962 -0.050883524
-5.2157817 -0.62708026 10.897523 -0.07153815 0.106055476 3.9818745 10.897523 -0.07153815
-5.2679696 -0.6377665 10.952629 -0.11789702 0.1450602 4.0251074 10.952629 -0.11789702
-5.243375 -0.6483544 11.144929 -0.22491644 0.16533113 4.0333304 11.144929 -0.22491644

bn0.running_var f4 [48]
00000000: 8466 8441 6c7a 5b3f 66fd ea43 c72f 9041
00000010: 2e2c da41 3bd9 0c40 66fd ea43 c72f 9041
00000020: a285 8541 9947 5b3f f3ab f043 b2db 9041
00000030: aa22 dd41 ddfb 0940 f3ab f043 b2db 9041
00000040: a2bd 8641 08e6 5b3f 9cd1 fa43 4984 8e41
00000050: 1aca dc41 bac9 0b40 9cd1 fa43 4984 8e41
00000060: aea4 a041 27d5 8f3f b70d eb43 a527 6a41
00000070: 2e2c da41 3bd9 0c40 b70d eb43 a527 6a41
00000080: 0403 9d41 0ee2 8f3f 7ecb ef43 3f7a 6a41
00000090: aa22 dd41 ddfb 0940 7ecb ef43 3f7a 6a41
000000a0: 513a 9b41 7822 903f e79d f143 a14a 6e41
000000b0: 1aca dc41 bac9 0b40 e79d f143 a14a 6e41
16.550056 0.85733676 469.97968 18.023329 27.271572 2.2007587 469.97968 18.023329
16.69025 0.85656124 481.34335 18.107273 27.641926 2.1559975 481.34335 18.107273
16.842594 0.85897875 501.63757 17.814592 27.598682 2.1841874 501.63757 17.814592
20.08041 1.1236924 470.10715 14.634679 27.271572 2.2007587 470.10715 14.634679
19.626472 1.1240861 479.58978 14.654845 27.641926 2.1559975 479.58978 14.654845
19.403475 1.1260519 483.2336 14.89322 27.598682 2.1841874 483.2336 14.89322

fc1.weight f4 [128, 48]
00000000: 5c1c bfbc 6aa9 653e 02a0 03bd 4f01 973b
00000010: 7f11 9d3f 9a61 d3bd 818f 09be 8731 da3d
00000020: 1cce 8a3d da4b 0b3c e84e 0d3d 2b22 9abd
00000030: 2c32 d23d 1dd8 2dbc b07a 28be f1ed 8e3d
00000040: 97bc 143d 60f3 d0bc d46b 40bc b134 33bd
00000050: c903 96bf d073 e83d 1544 18be 11aa fdbc
00000060: 07d1 27be 03ad 913d 59ea 26bc 8e02 453d
00000070: 33ea 93bf 6fb4 433c 25d2 963c 52c4 8f3b
00000080: b140 0fbd 144c 92bb c49d 99bc f61e 2e3c
00000090: a6e6 7cbc 9166 c03d 0aab 1bbe 8e68 b4bc
000000a0: c95e 073d 0f9b 54bd 75a3 c839 7f1f 01bd
000000b0: b1fb 813f 446b 95bc d131 babd 3ae9 4f3d
000000c0: 2726 05bf 9f2f b9be db96 113e 99ac 783e
000000d0: 95aa 1cbd 2bdc 9f3e 2d0f b33e 1b74 03bf
000000e0: 6667 aabd abe1 b23d f1b7 47be 5984 233d
000000f0: 937a 9cbd d6fe d93c e96a 25bf b7b9 9fbe
00000100: 1651 6b3e eac6 37be b05f acbd a3b9 2a3e
00000110: 64cb b63d ebcb c33e 10ec 9abf 8e76 ac3e
00000120: 5df4 62bf 9262 833d 3089 41bf 11d0 8abd
00000130: d03a 12be 37d1 15be f01c b9bd bade 763e
00000140: 48d7 733d 55de 983d 5d87 153e fa3f 9f3d
00000150: 4512 043d 9be9 58be 34f6 51bf e457 803f
00000160: c796 d53e 8c6f f93e 0e03 033c 40ac 6ebe
00000170: 4880 1d3d fd6c 783e c3bd 60bf be18 433f
00000180: fa00 9cbf 550d 083f 22fc bbbd 21a1 ac3b
00000190: 95ec 083f 37a3 bd3e 8dc0 1cbf 8017 283f
000001a0: ef60 7d3c 40c1 1bbd 6746 32be cab4 ee3b
000001b0: 0c68 083e 9097 db3c 1fc7 d0bf a2df 213f
000001c0: be72 cdbe b008 cb3f a21e a9bd a474 c9bd
000001d0: b30a d4be 68fa f9be 27dd e03e d6d1 4cbf
000001e0: 2cab 1abe 7bdc 37be cbff 903e 10ab 11bd
000001f0: 46d2 d1be 6cc2 84bd 4ddc 1ebe 71ed 0cbf
00000200: 9c6b b23c 9771 2f3c d0ca ca3b 3961 403d
00000210: 4b40 de3c 304a dfbf ce92 a0be 5ac1 543d
00000220: af38 913c 947e 903d 694d 50bd 197f fabd
00000230: 4baf 863e 41f8 9abd f9b9 8d3e 0549 a23d
00000240: 7c51 823d 1c5c f5bd 8fbc 033c 00a8 bbbd
00000250: 609c 49bf 2764 a1bc 6c96 4c3d 959d aa3c
00000260: d966 e3bc 96f3 aebd 49b3 c73e 287a 793d
00000270: 77f7 19bf 069f 2fbd 0f0d 55bd 2297 22bd
00000280: 2530 f2bc 1398 35be 33a8 9b3d 9c1c 0ebd
00000290: a461 633f e2ac d73e 7107 8d3d c7b9 143c
000002a0: f267 4b3d 6637 883e dfca abbd b7c0 17bd
000002b0: dde6 5a3f 9aa2 213d e1e0 a63c 6fce 85be
000002c0: 9108 483c f23a d13c edeb c6bc cff7 eb3b
000002d0: 3d9a 7cbc 2d59 2c3f c710 96be 35e5 0d3e
000002e0: 60d9 8dbd a7c7 a0bd b949 953d b95c 6b3d
000002f0: a899 78bf 15ed b1bd 3542 c2bd 824c 4e3e
00000300: 8c84 ccbc 34ca 383c 4b9c af3d eb2d 443d
00000310: 6b5c 32bf 6989 adbf 4bd9 b93c 0b46 433d
00000320: 9d4a 893d cb30 a8bd 3db1 963c 7d21 33bd
00000330: 06ae 89bd 7e6a e63c d65b 2b3d 11b8 abbd
00000340: 5d2b 90bb eabb 1f3d 2644 8ebd 0656 913d
00000350: deac 493f b41f 9a3f 5f1d 8ebc cae3 80bd
00000360: 1921 1a3e a7fd 0fbe fe16 52bc e377 8cbc
00000370: 5407 053f 9da2 ae3c 02ed 5fbd 4f28 453d
00000380: 07dc 763d fea2 493d 8ed5 f4bc 50d0 30bc
00000390: 0d18 19bc 3888 42bf 2258 0d3e 7222 313b
000003a0: 1a70 fdbc 385c 8d3d 613c 1f3d 13b1 a9bd
000003b0: 83d7 3cbf bafb c5bc cf72 b83c 2b3c b4bd
000003c0: 5582 babe 59a6 993d 134d 883d f30d 163d
000003d0: 7fdb 3fbe 5b47 fe3e 8fa4 703e 6a08 313e
000003e0: 0107 bbbd f956 4abb dcdb 71bd 90e3 9cbc
000003f0: 0403 86be b4da cd3d 41d2 a8be 9ceb f9bd
-0.023328952 0.22427908 -0.032135017 0.0046083103 1.2270964 -0.103213504 -0.13433649 0.10653978
0.067775935 0.008501971 0.03449908 -0.07526048 0.10263476 -0.010610607 -0.16453052 0.069789775
0.036312666 -0.025506675 -0.011744458 -0.043751422 -1.1719905 0.113502145 -0.14869721 -0.030964883
-0.16388331 0.071130775 -0.010187709 0.04809814 -1.1555847 0.011944874 0.018410752 0.004387417
-0.034973804 -0.0044646356 -0.018751986 0.010627499 -0.01543585 0.09394563 -0.15201965 -0.022022512
0.03304938 -0.051905688 0.00038268758 -0.031524178 1.0154935 -0.018239625 -0.09091533 0.05075953
-0.5201134 -0.36169145 0.14217703 0.24284591 -0.038248617 0.31222662 0.34972516 -0.5134904
-0.08320503 0.08734449 -0.19503762 0.03992114 -0.07640567 0.026610773 -0.64616257 -0.31196377
0.2298015 -0.17946973 -0.084166884 0.16672377 0.089255124 0.38241515 -1.210329 0.336842
-0.8865412 0.06415285 -0.75599957 -0.06777967 -0.14280248 -0.1463059 -0.090387225 0.24108401
0.05953148 0.074642815 0.14602418 0.077758744 0.032243986 -0.21182863 -0.820163 1.0026822
0.41716596 0.48717916 0.007996334 -0.23307896 0.038452417 0.24260326 -0.87789553 0.7620963
-1.2187798 0.53145343 -0.0917895 0.0052682315 0.53485996 0.37038586 -0.6123131 0.6566086
0.015465005 -0.038026094 -0.17409669 0.0072847353 0.1332094 0.02680567 -1.6310767 0.6323186
-0.40126604 1.5862026 -0.08257796 -0.098367006 -0.41414413 -0.48823857 0.43918726 -0.80007684
-0.1510436 -0.179552 0.28320155 -0.03556353 -0.40980738 -0.064823955 -0.15513726 -0.55049807
0.021779828 0.010708234 0.006188728 0.04696772 0.027130267 -1.7444515 -0.31362003 0.051942207
0.017727224 0.07055393 -0.050855074 -0.12231273 0.26305613 -0.07566882 0.27680948 0.079240836
0.06363198 -0.11980459 0.008040561 -0.09162903 -0.78754234 -0.019701077 0.04994814 0.020827094
-0.027759003 -0.08542554 0.3900397 0.060907513 -0.60143226 -0.042876266 -0.052014407 -0.039694913
-0.029563973 -0.17733793 0.07600441 -0.034695253 0.8882086 0.42124087 0.06886185 0.009077496
0.049659677 0.26604766 -0.08388304 -0.03704902 0.8550852 0.03946171 0.020370902 -0.2613406
0.012209074 0.025540803 -0.02428242 0.007201172 -0.015417633 0.6732357 -0.29309675 0.13856967
-0.069262266 -0.07850581 0.07289452 0.057461474 -0.9710946 -0.08687798 -0.09485284 0.20146373
-0.024965547 0.011278678 0.085747324 0.047895353 -0.6967227 -1.3557559 0.022686621 0.04767422
0.067036845 -0.082124315 0.01839506 -0.04373311 -0.067226455 0.028126951 0.04183563 -0.08384717
-0.0043997006 0.03899757 -0.06946592 0.07096486 0.787794 1.2040925 -0.01734799 -0.06293447
0.15051688 -0.14061604 -0.012822865 -0.01714701 0.51964307 0.021317774 -0.054669388 0.048134144
0.06026843 0.049227707 -0.029886987 -0.010791853 -0.009344113 -0.75989103 0.13803151 0.0027028588
-0.030937243 0.06902355 0.03887594 -0.08285727 -0.73766345 -0.024167884 0.022515683 -0.08800539
-0.3642756 0.075024314 0.06655326 0.036634397 -0.18736075 0.49663815 0.23500274 0.17288366
-0.09132195 -0.0030874594 -0.059047565 -0.019151479 -0.26174176 0.1005148 -0.3297291 -0.12203142

fc1.bias f4 [128]
00000000: fa61 eabc 0227 8dbe ad1c aabf eb3d 12be
00000010: 77fc fdbe 9208 a7be 8090 06be 9ace 7fbf
00000020: e016 aabc 90d2 3abf 703a 1fbf 5c88 12bf
00000030: 7017 9cbf 70ba 57be 77ad 6ebf 7308 6ebf
00000040: adcb 96be 31da d1bf e78e 70bf c866 aebe
00000050: bde6 aabf 73f0 42be a3ba 07bf 47cd 75bf
00000060: 0396 35bf e67c 8bbf 9065 8dbf 8ea8 0cbe
00000070: 77af 18bf 3df7 09bf 86da 87be 5770 81be
00000080: 372d 80bf a369 77bf 5b4a 05bf 5183 81be
00000090: a481 85bf e7cb dcbe 92c3 e5be adfd 0cbf
000000a0: 7efc 29bf e2e0 acbe 857c 08bf afff a4bf
000000b0: 3ad1 64be 2189 32bf 45e2 08bf af98 97bf
000000c0: f928 0fbf 695d 85bf 0552 11bf cee5 70be
000000d0: 03e5 64bf 8c05 32bf 2ae7 dabe 8633 c6be
000000e0: 3795 33bf d565 1dbf 6b0a 62bf 9d17 b1bf
000000f0: 793e 02bf 3cbc f6be 1899 99bf a84a cabd
00000100: 0fa4 c2be 09f4 69bf 6364 42bf 9c33 06be
00000110: f0ac 4abf bab2 fcbe ab0e 39bf c7f2 333e
00000120: 01b9 23be 3464 97be 5a4d 01bf 3808 d7bc
00000130: 08a3 9bbf 6282 89be 9cd0 49bf 759c 3fbf
00000140: 2284 0abf 48e9 5fbf 4702 86bf 1164 fcbe
00000150: 44d0 39be 6898 c63e 2511 22bf 4adb b5be
00000160: cdc8 bdbc 4a3b aebe aa55 3c3e 93ab 4ebf
00000170: d543 94be 5a3d 08be e4b3 d4be f181 06bf
00000180: 4312 89be 00bc eebe 4c21 29bf cf6a 1fbf
00000190: 07a9 c2be 8af2 05bf 07c0 a8be 1815 04bf
000001a0: fb03 8fbe 7809 95bf bbeb 10bf dc0d e5be
000001b0: 9a47 a3bd be50 b2be 6d17 0bbf 23a6 56be
000001c0: 56a0 3bbf 3ef2 39bf e542 16be 65fc cbbe
000001d0: 3073 39bf cc0a aa3e 0f95 5cbf 7d44 8dbe
000001e0: 5f09 62bf c54e adbf 4379 fcbf 2246 9fbf
000001f0: 43a2 e5bd 905a 73be fd04 16bf d6b3 6abf
-0.028611172 -0.27568823 -1.3290001 -0.14281432 -0.49606678 -0.32623726 -0.1314106 -0.99924624
-0.02076286 -0.7297754 -0.62198544 -0.5723932 -1.2194653 -0.21067214 -0.93233436 -0.9298164
-0.29452267 -1.6394712 -0.9396805 -0.3406279 -1.3351666 -0.19037037 -0.5301916 -0.96016353
-0.70932025 -1.0897491 -1.104662 -0.13736174 -0.5964274 -0.5389288 -0.26533908 -0.2528102
-1.0013798 -0.96645564 -0.5206658 -0.252955 -1.0430188 -0.43124315 -0.4487577 -0.5507458
-0.664009 -0.33765322 -0.53315 -1.2890528 -0.22345439 -0.6974049 -0.5347026 -1.184347
-0.55921894 -1.0419132 -0.56765777 -0.23525164 -0.89411944 -0.69539714 -0.4275449 -0.38711184
-0.7014956 -0.6148351 -0.88297147 -1.3835331 -0.50876576 -0.48190486 -1.1999846 -0.09877521
-0.38015792 -0.91387993 -0.7593443 -0.13105625 -0.7917013 -0.49355108 -0.72288007 0.17573081
-0.15988542 -0.29568636 -0.50508654 -0.026249036 -1.2159128 -0.26857287 -0.7883394 -0.7484811
-0.5410787 -0.87465334 -1.0469445 -0.49295095 -0.18145853 0.38788152 -0.6330741 -0.35518867
-0.023167038 -0.3402961 0.18392053 -0.8073055 -0.28958002 -0.13304654 -0.41543496 -0.52542025
-0.26771745 -0.46627808 -0.6606643 -0.6227235 -0.38019583 -0.5232321 -0.32959005 -0.51594687
-0.27932724 -1.1643515 -0.56609696 -0.44737136 -0.07972641 -0.34827226 -0.5433262 -0.20961814
-0.7329153 -0.7263526 -0.14673956 -0.39841 -0.7244139 0.33211362 -0.86164945 -0.27591315
-0.8829555 -1.3539664 -1.9724506 -1.2443278 -0.112125896 -0.23765016 -0.5860136 -0.9168066

fc2.weight f4 [128, 132]
00000000: b285 ed3e 8681 5fbf 7a0b 673d 36b4 5abf
00000010: c06d b0bf 9f09 c23e 4335 50be 757c 20bf
00000020: ad5a 41bf 3051 b9be 54fe 093f bccb b7be
00000030: afcb a6be 6802 11bd bded 8fbf c5b2 b9bc
00000040: e22d b8bd 6833 1abf 7f44 37bd 6fb5 78bf
00000050: c235 ebbc 43ab b9bd 976a 2bbf 4cfb bbbe
00000060: 3b2d 89bf 5c9f 5ebd b8b8 1ebe 3f4d a2bf
00000070: 6976 cdbe 95b4 9cbf 4f01 89bf e632 ccbf
00000080: 1523 b1bd 3514 12be 86ed 3fbf 0d57 00bf
00000090: ea8a 18be d5d3 103f bdb9 42bf ad3a a13d
000000a0: 4953 0fbf 8056 87be ee14 17be 3b38 74bc
000000b0: c00d c83e 106a 42bf f97a a8be c5a3 9dbe
000000c0: 7aee 3ebe 29b1 cdbe 735c 8abe 7531 2bbf
000000d0: 5c89 81be beda 01bf 1cef c73e 6359 c03e
000000e0: 0ce0 3d3f cdd7 ddbf 78a4 163d 6fdf 5fbe
000000f0: 9337 a2bf 442f c1be 468a 4fbf f508 babc
00000100: 3a40 f0be 44ac d1be d7d7 92bf 7343 5bbe
00000110: a602 d9be 64d8 873e 3842 4e3f af8a d93b
00000120: 6883 b9bf 65be 31be e579 92bf b3f9 29be
00000130: 6c3e bcbe 7fc0 49bf 2ad2 c93d 7419 30bc
00000140: d2ab b4bf 6f0b 50bf 8826 bfbc b8ea e63e
00000150: a60e adbe 243e 84be f38a 5f3d 9629 813e
00000160: bcb2 673e 0425 90bf 634c 77bf 2727 e6be
00000170: 0256 b5bf a18b 963d 2ddc e83e 3f63 25bf
00000180: eeba 723f 35a6 b6bf fbe6 38bd ff2c 8abf
00000190: bb71 95bf e96c 0bbd e30f 9b3e 7f0f 9dbd
000001a0: 6b24 34bf 4667 eabd 9063 8dbc b07b 0c3e
000001b0: 8cd7 21c0 d17f 013f 88c2 91be 59b5 66bf
000001c0: ef4d 23be 07a7 0fbf d6c8 ae3e 8b83 1f3f
000001d0: 9aab cbbe 6b68 78bf 8563 cabe 7fdb 28bf
000001e0: 5f37 73be 8038 643e 77b1 8fbe 0b26 9c3d
000001f0: 1759 4bbf e01a 873e edae 27bf 6256 4abb
00000200: 712c e13e 397b 3bbe c001 08bf 9cfd 7f3e
00000210: 26bc 1bbe 4ad0 1bbe 9743 3cbe 15bf 6fbe
00000220: 46af bf3d 18a6 93bd 2d30 153c c3be f5bd
00000230: 0135 38be 58bf 0abe 7e31 48be b9ed e4bd
00000240: d651 45be 4e62 81bc d483 e03c 2d4e fa3d
00000250: d681 5ebe 8c8d 05be 9894 823d 2da7 e9bd
00000260: e107 76bd 323a 58be 77fc 65bc aa23 81bd
00000270: 1ce1 acbd b2d1 77bd 1968 eabd ee52 053d
00000280: 2375 883d baaf fa3c b121 18bd e074 85bd
00000290: 63a0 2bbe ef13 1cbe 7931 103d deb8 29be
000002a0: 51db 203d e9f7 133e 3430 0fbd 6d9d 11be
000002b0: 0975 debd 4a40 bfbd 78aa 97bd 84c9 90bd
000002c0: 6985 bdbb c165 1bbe a1b3 893d 571b c93d
000002d0: deca 0bbe d5c8 92bd 15ff ffbd 0e0d 18bc
000002e0: a3ba 0dbd 51b5 dfbc 40c6 5dbe 5caa 033e
000002f0: e027 b83d 4cec 22be d045 1abe 8318 2e3d
00000300: f828 2bbe 09ab 4abe 1365 cebd 8df0 14be
00000310: f698 26bc f7df b6bd 4498 c1bc 5d02 3bbd
00000320: 4de1 063d cc1a 40be 53fd 143d 85f9 0fbe
00000330: f507 a1bd 6b04 0fbe 9298 ba3b 873d 80bd
00000340: ec6f 1dbd a2ff e13b 2c56 a7bd 4187 6abe
00000350: c25a 0dbe 8bf4 87bc ba31 5e3d 2cf1 80be
00000360: 65e4 4dbe d885 f0bb 135e 4d3d fd75 d0bd
00000370: e2ae 7abd 3ea5 50bc d2a9 b9bd 18a1 62bd
00000380: cc5f 23be 891d 44bd 9de2 6dbb 5325 40bd
00000390: 01c6 57bd 0d55 06be e209 ccbd 6c76 153d
000003a0: f80f 9d3c 06c1 203d 0c51 1dbe 29be 08be
000003b0: af2e 15bd 7107 cbbd 3665 a0bb caa8 31bd
000003c0: e435 16bd 8d4f 22be a8e5 783d d0f7 44bd
000003d0: b440 04be e89e 18be 5305 b6bc e4ef 0bbd
000003e0: 48ce c3bb 2aab cfbd 9bee 71bd f8b9 f1bc
000003f0: 5417 30be 0256 6dbb a68a f0bd 1957 113d
0.46391064 -0.8730701 0.05640743 -0.8543123 -1.3783493 0.37897965 -0.20332818 -0.62689906
-0.75528985 -0.36194754 0.539037 -0.35897624 -0.32577273 -0.035402685 -1.1244427 -0.022668252
-0.089931265 -0.6023469 -0.044743057 -0.97151846 -0.028712157 -0.09065869 -0.6695952 -0.36715162
-1.0716928 -0.054351196 -0.15500152 -1.2679824 -0.40129402 -1.2242609 -1.0703524 -1.5953033
-0.086492695 -0.14265521 -0.74971807 -0.5013283 -0.14896742 0.5657323 -0.76064664 0.0787252
-0.5598646 -0.26433182 -0.14754078 -0.0149059845 0.3907299 -0.7594309 -0.3290632 -0.3078901
-0.18645659 -0.40174225 -0.27023658 -0.6687234 -0.2530011 -0.507244 0.39049613 0.37568197
0.74169993 -1.7331482 0.036777943 -0.21862577 -1.267321 -0.37731373 -0.81070364 -0.02270935
-0.46924 -0.4095174 -1.1472119 -0.21412449 -0.42384833 0.2653228 0.8056979 0.006638847
-1.4493227 -0.17357786 -1.1443449 -0.16599159 -0.36766374 -0.7880935 0.09854539 -0.010748256
-1.4114935 -0.81267446 -0.023333803 0.4510095 -0.33800238 -0.2582866 0.05457587 0.2522704
0.22626776 -1.1261296 -0.9660093 -0.44951746 -1.4166873 0.07350851 0.4548048 -0.6460456
0.9481648 -1.4269472 -0.045142155 -1.0794982 -1.1675333 -0.03403941 0.30285558 -0.07668971
-0.7036807 -0.11445479 -0.01725939 0.13719058 -2.528781 0.5058566 -0.28468728 -0.90120465
-0.15947698 -0.5611424 0.341376 0.62310094 -0.3977936 -0.9703433 -0.39529052 -0.65959924
-0.23751591 0.22287178 -0.28065082 0.076244436 -0.79432815 0.26387691 -0.6550129 -0.0030874242
0.4397922 -0.18308724 -0.5312767 0.24999088 -0.15208492 -0.15216175 -0.18385158 -0.23412736
0.09359603 -0.07209414 0.009105724 -0.119992755 -0.1798897 -0.13549554 -0.1955013 -0.111781545
-0.19269499 -0.015793946 0.02740661 0.12221942 -0.21729216 -0.13042277 0.06375998 -0.114088394
-0.060066108 -0.2111595 -0.014037243 -0.063056305 -0.08441374 -0.060502715 -0.11445636 0.03254979
0.06662967 0.030601371 -0.037141506 -0.06516433 -0.16760401 -0.15241979 0.03520343 -0.16574427
0.039271656 0.14450039 -0.03495808 -0.1422021 -0.108621664 -0.09338434 -0.07405561 -0.07069686
-0.005783726 -0.15175535 0.067237146 0.09819668 -0.13651606 -0.07167212 -0.12499825 -0.009280456
-0.03460182 -0.027308138 -0.21657658 0.12857956 0.089919806 -0.15910453 -0.15065694 0.042503845
-0.16714847 -0.19791807 -0.10077872 -0.14544888 -0.010168305 -0.08929437 -0.023632176 -0.04565655
0.032929707 -0.18760222 0.0363744 -0.14060028 -0.07862846 -0.13966529 0.0056944573 -0.062617354
-0.038436815 0.006896929 -0.08170733 -0.22903158 -0.13804153 -0.0165961 0.05424664 -0.25184
-0.20106657 -0.007340174 0.050138544 -0.101787545 -0.061201937 -0.012734709 -0.09065594 -0.055329412
-0.15954512 -0.04787973 -0.0036298402 -0.046910595 -0.052679066 -0.13118382 -0.099628225 0.03648989
0.019172654 0.03924658 -0.15362948 -0.1335379 -0.036421474 -0.09913529 -0.004894878 -0.04337386
-0.036672488 -0.15850659 0.060765892 -0.048087895 -0.12915307 -0.14904368 -0.022219336 -0.034164324
-0.0059755184 -0.10140069 -0.059065443 -0.029507622 -0.17196399 -0.0036214595 -0.11745195 0.035483453

fc2.bias f4 [128]
00000000: a714 1dbf 5c8c 3abe 68cd b2bd b49d bdbd
00000010: fc1d a8bd b904 a8be a0f8 21be 9573 a63f
00000020: cac5 e8be f12a 02bf 6b75 46be ea17 41be
00000030: b90e 5abe d3e0 3fbe 2437 3dbe 8856 dabd
00000040: 6361 5dbe c398 e0bd 5e0c 44be 1b5e 233f
00000050: 9b64 2abe 6d86 dcbd e99d d9be 7621 b23e
00000060: 2fca 93be 6620 39bf 6c40 63bf bb5e 6e3f
00000070: ccda 873e a9ae 52be 289d e7be c0e0 7c3f
00000080: 62cf 01be a354 d7be 0bd1 31bf 8894 29bf
00000090: 7940 5fbf 5d4d 23bf f7b8 f1bd c2fa dcbe
000000a0: 31e0 8ebf f403 703f 589d 00be aadf 4fbe
000000b0: 69d9 5a3f 80df 10bf f085 a53f ef7e 28bf
000000c0: 8699 9ebe 6e54 88be ed20 9d3e 5c94 20bf
000000d0: a731 30be e137 37be 7b79 26bd a5ab 8ebe
000000e0: 3db5 df3d 8249 3fbf ea92 5cbe a1b0 b7bf
000000f0: e9f5 31bf 7ca7 cabe 32d2 2ebf 2b75 14be
00000100: a49b 67bf e931 adbe c424 f4bd c131 cdbe
00000110: 1742 81be 142b 17bf 58f3 94bf 1239 18bf
00000120: c0a5 a63d 23fc ffbe 1ec3 6a3f efb6 51be
00000130: edaf 68be c9b1 0fbe 952d 2cbe 9014 003f
00000140: 8f4e 27be 4c8d 44bf 7228 9ebe cd90 9abf
00000150: 5090 16be d092 9c3d 13c7 cebd aa1d a4be
00000160: cd92 70bf 091c 2cbf 8c94 d7be 44ac 85be
00000170: b2e0 88be ac83 953f 690e cf3e 789f 8cbe
00000180: 4778 e3be 18a5 ccbe de5a b6bc 0eb3 3cbe
00000190: 9f13 cabe e143 acbe f2da 663f 0952 42be
000001a0: f47c 0dbf 7ccf febe ec98 10be 0c5f 9ebe
000001b0: 2f22 a5bd 5d54 eabe a57e 12be dd5f 13bf
000001c0: 350e d4be 115b 2e3f db18 c3be dd1b 45bf
000001d0: cc4d 23bf 91fe 17bf 94c9 b9be 794c 9a3d
000001e0: 61fe e9be d0ff b6bd 3261 1dbf b5ad 1abf
000001f0: 17b2 4fbe e6c7 0ebd 01a7 acbe a72d 58bf
-0.6135964 -0.18217605 -0.087305844 -0.09258595 -0.08208844 -0.32816103 -0.15817499 1.3004023
-0.454634 -0.50846773 -0.19380729 -0.18856779 -0.21294679 -0.18738107 -0.18478066 -0.10661036
-0.21619181 -0.10966637 -0.19145343 0.6381547 -0.1663994 -0.10767827 -0.42503288 0.34791154
-0.2886519 -0.7231506 -0.88770175 0.931133 0.26534116 -0.2057444 -0.45237088 0.9878044
-0.12676767 -0.4205676 -0.694596 -0.66242266 -0.8720775 -0.6378992 -0.11802857 -0.43160063
-1.1162168 0.9375603 -0.12560022 -0.20300165 0.8548799 -0.56591034 1.29315 -0.65818685
-0.30976504 -0.26626915 0.30689183 -0.6272638 -0.17206441 -0.1789241 -0.040643197 -0.2786533
0.1092324 -0.7472154 -0.21540418 -1.4350778 -0.69515854 -0.39580905 -0.6828948 -0.14497821
-0.90471864 -0.3382714 -0.11921075 -0.40077022 -0.25245735 -0.59050107 -1.1636763 -0.5946208
0.08137083 -0.49997053 0.91703975 -0.2047994 -0.2272336 -0.14032663 -0.16814263 0.50031376
-0.16338561 -0.767781 -0.30890232 -1.207544 -0.14703488 0.0764519 -0.10096564 -0.32053882
-0.93974 -0.6723028 -0.4210552 -0.2610799 -0.2673393 1.1680808 0.40440682 -0.27465415
-0.44427702 -0.39969707 -0.022260126 -0.18427679 -0.39468095 -0.33645537 0.90177834 -0.18976606
-0.5526879 -0.49767673 -0.14120835 -0.3093189 -0.08063161 -0.4576749 -0.14306124 -0.5756815
-0.4141709 0.68107706 -0.381049 -0.7699564 -0.63790584 -0.5937281 -0.36286604 0.07534117
-0.45701888 -0.08935511 -0.61476433 -0.60421306 -0.2028278 -0.034858607 -0.33721164 -0.8444466

fc3.weight f4 [1, 128]
00000000: 0041 bebd 6a34 7f3c d8f4 2ebb 7b73 ac3b
00000010: bbc9 773d a1ab e7bc 2486 173c 20f7 a73d
00000020: 96f5 3b3e cff9 613d 0aab 4abd f0c7 803c
00000030: eaa5 e63c 0a49 99bc 70ec cfbd d751 743c
00000040: ff1a 4abd c429 cbbd 872b b3bc f285 6fbd
00000050: 5772 413c 9090 49bc a5d6 d63c 83b2 4e3d
00000060: db24 79bb 1b74 5fbd b2b7 9a3d 6782 fc3c
00000070: 9262 a63d 3f04 ce3c 78b7 0dbe f02f 7e3d
00000080: 675a fa3c f8c5 f9bb 1846 2f3d f1b8 31bd
00000090: 9e5f 873d 7a69 56bd 4804 543d c786 2f3e
000000a0: e60f 0bbd 894d bb3c 9aac bb3d 4cbb 9ebc
000000b0: bc33 153d 879a ac3d 1e4d 823d 3080 4dbd
000000c0: ac30 493d 324b d83c 1c23 1abd 5bf8 3a3d
000000d0: 7c37 95ba bb3b 66bc 4cc1 793c a83a 253d
000000e0: 87a7 173d 5988 003d 8e66 ca3d 5eb8 28bd
000000f0: d541 63bd 65a3 f73d 2aa0 cb3c 5f5d acbd
00000100: b61c 06bd fc9c 173d 2ace 2d3d 69e2 6dbd
00000110: 6e16 8d3d d699 953d 1924 90bd c04a 833d
00000120: e27b 563d bb8b 5f3c 5af5 ebbd 9665 debc
00000130: 9481 15bc 4f7c d73c 8314 d0bb 29ae 54bd
00000140: 3935 03ba 9a3b fabb a959 f03d 69cf a7bd
00000150: 3664 bebc 622b 043d 325a debc 9dcf 363d
00000160: f576 84bc e5e5 6fbd cbfb 8fbd 09c4 79bc
00000170: d19f e33d 4e13 5b3d 428b 1cbd 5b1d 593b
00000180: 40fd 19be 798d 62bd b8f8 f13c 82ab 5dbc
00000190: eeef a0bd 5627 d3bd 49c7 8f3d c0c4 1e3d
000001a0: e5f9 91bd 8f99 623d f282 d6ba 7988 943d
000001b0: 8e5c febc 7490 13bd 93c5 0d3c 18e2 17bd
000001c0: 630e 6dbe 8c12 533d e28b dd3c f1d0 47bd
000001d0: b8db 7b3d f705 e53d 77ad 31bb 6f4e 0f3d
000001e0: 5be8 7ebd bff2 f83c a232 0ebe 8c99 6abd
000001f0: 56d1 453d c1ae 533d 55ce 7d3d c1fa 563d
-0.092897415 0.015576461 -0.0026696231 0.00526279 0.06049512 -0.028280081 0.00924829 0.08201432
0.18355402 0.055169877 -0.04947952 0.015720338 0.028155286 -0.018711586 -0.10152519 0.01491209
-0.04934215 -0.099200755 -0.021871341 -0.05847735 0.011807046 -0.012302533 0.026225397 0.05046321
-0.0038016352 -0.054554086 0.07554568 0.0308239 0.081242695 0.02514851 -0.13839519 0.062057436
0.030560685 -0.0076224767 0.042791456 -0.043389264 0.066100344 -0.052346684 0.051761895 0.17141257
-0.03395071 0.02286412 0.091637805 -0.01937642 0.03642629 0.08427911 0.06362365 -0.050171077
0.049118683 0.026403043 -0.03763114 0.045647006 -0.0011384333 -0.014052327 0.0152438395 0.040339142
0.037025 0.03138003 0.09882842 -0.04119145 -0.055482704 0.12091712 0.024856646 -0.084162466
-0.032742225 0.037014946 0.04243294 -0.05807725 0.06889044 0.073047325 -0.07038135 0.06410742
0.052364238 0.013644154 -0.115214065 -0.02714805 -0.009125132 0.026304392 -0.0063501014 -0.051923905
-0.0005005184 -0.0076364996 0.11735851 -0.08193857 -0.023241144 0.032267936 -0.027142618 0.04463159
-0.016170004 -0.058568854 -0.070304476 -0.015244492 0.11114467 0.053485207 -0.038218744 0.003312907
-0.15038013 -0.0553107 0.029537544 -0.01352966 -0.07858263 -0.10310237 0.070204325 0.038761854
-0.07127742 0.055322226 -0.0016365929 0.072525926 -0.031049993 -0.036026433 0.008653062 -0.037080854
-0.2315002 0.05153136 0.02704424 -0.048783246 0.061488837 0.11182778 -0.002711145 0.03498691
-0.06223331 0.030389188 -0.13886502 -0.05727534 0.04829534 0.05168033 0.06196435 0.05248523
