project3-collaboration/results/session_submission/maddpg_actor_reacher_1.pth (torch_old, 167781 bytes, 18 tensors)

bn0.weight f4 [24]
000000 aa 01 76 3d 11 71 6b 3e 6f 09 05 bd 08 90 44 bc
       0.06006018 0.2299235 -0.0324797 -0.01199723
000010 ea c1 aa 3f 7f 06 b6 3f f6 27 9f 3c da 34 6b 3e
       1.3340428 1.4220732 0.019428235 0.2296938
000020 be 61 ba 3d ff 16 1c 3e 71 ea 08 3d 42 03 81 bd
       0.09100674 0.15243147 0.033426706 -0.062994495
000030 17 27 70 3c a5 8b 46 3d ac b3 a0 3d a6 5b 86 3e
       0.014657757 0.04847302 0.0784677 0.26241797
000040 e9 a0 94 3f 05 35 74 3f c5 cd e4 bc b8 5b 15 3c
       1.1611606 0.953934 -0.02793015 0.009116106
000050 e5 53 f8 3f 83 48 eb 3f c9 a0 63 3e d0 de 59 3f
       1.9400603 1.8381504 0.22229303 0.8510561

bn0.bias f4 [24]
000000 53 e9 1d bb f2 fd 96 ba b8 fc d5 ba ca 9f 40 3b
       -0.002409537 -0.0011519773 -0.0016325926 0.0029392117
000010 67 e4 b1 3c e7 f2 8b 3a 9d c4 ba 38 51 a2 14 bb
       0.021715356 0.0010677249 8.905793e-05 -0.0022679756
000020 5d 40 20 bb c1 d9 bf bb e8 9b c0 3b bd 1d e8 ba
       -0.0024452426 -0.0058548157 0.0058779605 -0.0017709058
000030 81 4e 9c 3b f3 6e 08 3b d7 4a a8 3b 63 10 d3 ba
       0.0047701006 0.0020818084 0.0051358747 -0.0016102906
000040 b0 81 82 bc 72 5c 0e 3c 78 ed 03 3a bb 3f 62 3b
       -0.01593098 0.008689033 0.0005032639 0.003452285
000050 5c f4 01 3c 58 48 f4 3b be d6 e6 b7 62 55 82 3a
       0.007931795 0.007454913 -2.7518134e-05 0.0009943659

bn0.running_mean f4 [24]
000000 af e7 a6 c0 55 88 20 bf 41 5c 2e 41 98 82 92 bd
       -5.2157817 -0.62708026 10.897523 -0.07153815
000010 9d 33 d9 3d 08 d7 7e 40 41 5c 2e 41 98 82 92 bd
       0.106055476 3.9818745 10.897523 -0.07153815
000020 35 93 a8 c0 aa 44 23 bf f8 3d 2f 41 fe 73 f1 bd
       -5.2679696 -0.6377665 10.952629 -0.11789702
000030 a9 8a 14 3e ae cd 80 40 f8 3d 2f 41 fe 73 f1 bd
       0.1450602 4.0251074 10.952629 -0.11789702
000040 ba c9 a7 c0 8e fa 25 bf a1 51 32 41 7f 50 66 be
       -5.243375 -0.6483544 11.144929 -0.22491644
000050 90 4c 29 3e 0b 11 81 40 a1 51 32 41 7f 50 66 be
       0.16533113 4.0333304 11.144929 -0.22491644

bn0.running_var f4 [24]
000000 ae a4 a0 41 27 d5 8f 3f b7 0d eb 43 a5 27 6a 41
       20.08041 1.1236924 470.10715 14.634679
000010 2e 2c da 41 3b d9 0c 40 b7 0d eb 43 a5 27 6a 41
       27.271572 2.2007587 470.10715 14.634679
000020 04 03 9d 41 0e e2 8f 3f 7e cb ef 43 3f 7a 6a 41
       19.626472 1.1240861 479.58978 14.654845
000030 aa 22 dd 41 dd fb 09 40 7e cb ef 43 3f 7a 6a 41
       27.641926 2.1559975 479.58978 14.654845
000040 51 3a 9b 41 78 22 90 3f e7 9d f1 43 a1 4a 6e 41
       19.403475 1.1260519 483.2336 14.89322
000050 1a ca dc 41 ba c9 0b 40 e7 9d f1 43 a1 4a 6e 41
       27.598682 2.1841874 483.2336 14.89322

fc1.weight f4 [256, 24]
000000 b9 37 d0 be 0e 87 cc 3d 87 26 8c 3e 33 15 51 bd
       -0.40667513 0.09986697 0.27373144 -0.051045608
000010 43 36 c2 be d1 1a 98 bf 7c 86 c7 be a7 81 8e 3d
       -0.37932023 -1.1883184 -0.3896979 0.06958323
000020 97 a3 02 bf 8e 47 0b 3d a0 f2 fc 3e 28 39 5e bd
       -0.5103087 0.034003787 0.49403858 -0.054253727
000030 8d 0b 94 be 5e c3 72 bf 20 fd 57 be 44 0c 50 bc
       -0.28915063 -0.94829357 -0.21092653 -0.012698237
000040 a7 15 c4 3d ec d9 c6 3d 36 cd ab 38 aa 9c 85 bd
       0.09574442 0.09709534 8.192139e-05 -0.06524022
000050 b6 31 56 bf 39 98 97 3c 27 28 34 bc 6f e6 e3 be
       -0.836696 0.018505203 -0.010995901 -0.44511744
000060 2e 0d 10 3f 08 9b 02 3f ad 2d 31 bf 1f 38 ff be
       0.5627011 0.5101781 -0.6921032 -0.49847504
000070 b0 f4 bf 3e 5e e2 86 be 38 bb 81 3d 78 45 60 bf
       0.3749137 -0.2634458 0.06334537 -0.87606
000080 5b 25 de bd 0f c7 17 3f 0e 99 6e be 38 37 e8 3e
       -0.10846969 0.59288114 -0.23300573 0.4535463
000090 f8 51 04 bc 58 bb 87 be 69 df 47 3e 87 f4 70 be
       -0.0080761835 -0.2651012 0.19518818 -0.2353078
0000a0 e4 93 e8 3e e7 b4 cf 3e d8 b7 b0 3e 43 19 12 3f
       0.45425332 0.40567705 0.34515262 0.57069796
0000b0 a9 f6 cd bf 1a 0a d6 3e 16 16 9d be 88 82 08 be
       -1.60909 0.41804582 -0.30680913 -0.13331044
0000c0 5b db 79 bd 72 7b 35 bf 63 c0 c5 3e 39 65 07 3f
       -0.06100021 -0.7089149 0.38623342 0.5288883
0000d0 31 e3 00 bd 72 ea c3 3c b6 72 8b bf 55 85 b8 3c
       -0.031466667 0.023915503 -1.0894382 0.022524515
0000e0 b0 30 2c bf a3 b3 30 bf ae 01 16 3e 1f 06 2b bf
       -0.6726179 -0.69024104 0.14649078 -0.66806215
0000f0 83 42 c6 3e 92 aa 45 be 42 99 d6 3e 39 c1 3f 3e
       0.3872262 -0.19303349 0.419138 0.18726052
000100 3d 3d 6f be 6a 64 bd bf 64 8a 9f 3f f1 ad 26 3d
       -0.23363204 -1.4796269 1.2464108 0.040693227
000110 b6 07 89 bf 90 40 b2 be 89 40 bb bf d3 e1 a3 be
       -1.0705478 -0.34814882 -1.462907 -0.32008228
000120 65 11 3b 3e 30 14 c7 3f a9 04 dd 3d 4c 11 ad be
       0.18268354 1.5553036 0.107919045 -0.3380226
000130 92 01 93 3e db 12 99 3f a7 f8 80 3d cc ee 48 bf
       0.28712136 1.1958879 0.06297427 -0.78489375
000140 1a e2 2e 3f 79 b8 69 3f 64 73 fe 3d cc 35 56 bf
       0.68313754 0.9129711 0.12424353 -0.8367584
000150 dd 41 8d 3d 77 fb 09 3f d6 7b 3a 3e 5b ed 9f bf
       0.06897328 0.5389933 0.18211302 -1.249431
000160 81 29 c7 3e 57 0a bd 3e be 1f b2 bd da 0e ea be
       0.38898852 0.3692195 -0.086974606 -0.45714456
000170 58 59 c4 be 21 36 c2 3e 03 74 5f 3e 94 f1 0b bf
       -0.38349414 0.37931922 0.21821599 -0.54665494
000180 c6 4c 97 be e5 b5 e2 bd 0c d8 20 bf c2 6b 88 bf
       -0.2955076 -0.1106985 -0.6282966 -1.0657885
000190 68 51 1f bf eb d1 70 bf 69 65 39 bf 75 84 1c bf
       -0.6223359 -0.9407031 -0.72420365 -0.61139613
0001a0 2a 61 a2 bd ff eb 69 3e 10 ad 49 bf 49 09 55 bd
       -0.07928689 0.22843932 -0.787797 -0.05201081
0001b0 76 e0 d4 be b3 f9 87 be a3 86 9d be 46 36 3e 3e
       -0.415775 -0.26557693 -0.30766782 0.18575391
0001c0 7f 16 09 3f c8 a6 9c 3e 84 ec 76 bd 31 95 15 3f
       0.5354995 0.30595994 -0.060284153 0.58430773
0001d0 c0 92 e3 bf 74 26 f9 3e c7 24 64 be 95 57 9e be
       -1.777916 0.4866215 -0.22279654 -0.30926195
0001e0 01 8c e1 bf 69 de 8a be d1 f2 2c 3f d6 f1 97 bf
       -1.7620851 -0.2712281 0.6755801 -1.1870677
0001f0 d1 ac 03 bf c6 46 64 bf 09 34 d7 bf 57 a7 f1 3e
       -0.5143557 -0.8917049 -1.6812755 0.47197983
000200 a0 d2 9d be 36 f7 03 be 5f 48 2f bf a7 b2 0e 3f
       -0.30824757 -0.12887272 -0.68469805 0.5574135
000210 db 1a 1b 3f 47 a1 47 bf 56 3b 6e 3f e5 b1 71 bf
       0.60587853 -0.77980465 0.9305929 -0.9441207
000220 39 87 21 bf 79 ac 15 bf 9b 67 96 3f e6 b3 c9 bf
       -0.6309696 -0.584663 1.1750368 -1.5758026
000230 9d d9 8d bd 3e 20 86 bd e4 84 90 bf fc 75 d3 bf
       -0.06926272 -0.065491185 -1.1290555 -1.6520381
000240 33 78 ef 3e ac c6 84 3f 3c 40 43 bf 38 d7 60 3e
       0.46771392 1.037313 -0.7626989 0.219571
000250 73 78 aa be c0 2a 9b 3d df da d7 3d c5 8f 88 3e
       -0.3329502 0.07576513 0.10539793 0.26672187
000260 43 f0 3a bc e3 ec a9 3f 1f 8e 33 be e0 fe 18 3d
       -0.011409822 1.3275417 -0.17534684 0.037352443
000270 3d 46 03 3f 7e 59 ae 3e 28 95 2b 3e c8 56 bc 3e
       0.5127905 0.34052652 0.16756117 0.3678496
000280 b0 04 88 bf 24 87 f5 3f dd ea c9 be 4d 84 74 3e
       -1.062643 1.9181867 -0.39437 0.23878594
000290 2e 9a a0 3e 83 6a 86 bf df 90 3d 3f 4b a9 0a 3f
       0.3136763 -1.0501255 0.7404918 0.5416457
0002a0 03 81 f6 bd bb e3 9c 3f 7a 67 0f bf de 57 31 be
       -0.12036326 1.2256998 -0.5601727 -0.17318675
0002b0 f9 9e a7 3e 11 e9 a3 bf 31 14 4a be f0 9e 55 3f
       0.32738474 -1.2805501 -0.19734265 0.83445644
0002c0 d9 3a 44 bd d7 e6 97 3f ed fe bb bd 74 58 9e 3e
       -0.047907684 1.1867322 -0.091794826 0.3092686
0002d0 a7 f6 33 3e a8 1d 31 bf f5 fd da 3e 99 5a 2c 3f
       0.17574559 -0.69185877 0.4277188 0.6732574
0002e0 22 90 9d bf e5 0e bf 3f 59 46 3b be de e9 a9 be
       -1.2309611 1.492642 -0.18288554 -0.3318624
0002f0 75 d0 aa 3e e1 94 65 bf 67 1c db 3e 57 af 8a be
       0.33362165 -0.89680296 0.42795107 -0.270869
000300 62 42 da 3e 0d 13 b8 3e 7a 6f 96 3e 71 49 92 3e
       0.4262877 0.35952035 0.29381925 0.28571656
000310 e7 81 d3 bf 24 b3 31 3e 59 1a fd be 4d d3 a5 bf
       -1.6524018 0.17353493 -0.49434164 -1.2955109
000320 f0 2c 11 3d b1 b5 90 3e e9 35 57 be f0 90 0b 3e
       0.035443246 0.2826362 -0.21016659 0.13629508
000330 61 c1 bc be b7 dc 1c 3e e4 27 b2 be 9d c3 e7 3d
       -0.36866286 0.15318571 -0.3479606 0.11316607
000340 0d 07 06 3f c6 f0 7d 3f 92 5a 17 3f fd 96 ea be
       0.5235451 0.99195516 0.59122574 -0.4581832
000350 cc dc 0e 3f 97 22 04 bf 77 55 c6 be b1 2d 77 3f
       0.5580566 -0.5161528 -0.3873708 0.96554095
000360 97 b3 fd bc 5b 62 a6 bf 4d d4 12 3f 5b 9f f7 be
       -0.030969424 -1.2998766 0.57355195 -0.48363766
000370 b1 a7 e9 bf fe 08 9b bc 6b 56 90 bf cb bd 94 3f
       -1.82543 -0.018925186 -1.1276373 1.162042
000380 97 e3 bd 3e 02 58 69 bf bf 96 9a 3e ad c8 90 bd
       0.370877 -0.91149914 0.30193135 -0.07069526
000390 9d 00 2d 3d b5 cd af 3b 93 bd ba bf 7e a4 53 3e
       0.042236913 0.0053650984 -1.4589103 0.20668218
0003a0 d1 48 b9 be af 81 83 bf 15 ba 9d be 1f c5 65 be
       -0.36188367 -1.0273951 -0.30806032 -0.22438477
0003b0 c4 36 96 3a ec 3a 94 bd 38 28 09 bf 97 87 6e 3e
       0.0011460413 -0.07237801 -0.53576994 0.23293911
0003c0 1e 43 8d bf 02 b4 5d bf 4b 34 d2 be 55 a3 ff bd
       -1.1036108 -0.86602795 -0.4105552 -0.12482325
0003d0 12 c7 7e be 2d f4 1e 3d d9 2f a2 bf 87 39 1a 3e
       -0.24880627 0.038807083 -1.2670852 0.15061007
0003e0 4c 65 a1 bf b8 31 96 bf b3 50 34 bf c4 f5 06 3f
       -1.2609038 -1.1733923 -0.7043564 0.5271876
0003f0 f5 cc 50 be 82 50 3f bf 04 ba 0a c0 d5 60 81 be
       -0.20390685 -0.7473222 -2.1676035 -0.2526919

fc1.bias f4 [256]
000000 16 3d 6d 3c bb 9e 4c be a7 5f 8a 3d 86 5b 29 b9
       0.014479896 -0.19982426 0.067565255 -0.00016151191
000010 c4 da 09 be c2 29 9b bd 9a 5f a5 bd bb 56 bb bd
       -0.13462359 -0.07576324 -0.08074875 -0.09147402
000020 0d 52 51 bd 67 3b 1b 3d 1a 28 f1 bd f1 31 52 3d
       -0.05110364 0.037898447 -0.11775227 0.05131716
000030 08 57 2c be 90 cf 44 3e 96 3e fa bd 72 9e b2 3d
       -0.16830075 0.19219804 -0.122189686 0.08721627
000040 34 13 0f be ee b5 0e be 39 1c fa bc f9 5f ed bd
       -0.13972169 -0.13936588 -0.030531036 -0.11590571
000050 e4 c6 69 bd c8 90 b5 bd 7a de 69 bd 39 37 21 be
       -0.057074443 -0.088655055 -0.057096936 -0.15743722
000060 ce d4 4b 3e d1 e8 e9 3d 37 d1 95 bd a8 c7 17 3e
       0.19905397 0.11421359 -0.07315295 0.14822257
000070 b1 59 ba bd 87 c8 2a be 4f 7f 84 3d a7 9d 8f bd
       -0.090991385 -0.16678058 0.06469595 -0.07012492
000080 92 1d 1d 3e 66 2c 5f bd 9b 61 2a be 15 12 30 3e
       0.15343311 -0.0544857 -0.16638796 0.17194398
000090 d6 58 39 3d d1 71 7b 3d 3c 18 a6 bc f2 1f 26 be
       0.045250736 0.06138784 -0.020275228 -0.16223124
0000a0 6e 69 88 3d 8b 5f c4 39 42 64 0a be 94 6d ee 3d
       0.06660734 0.00037455218 -0.13514808 0.11641994
0000b0 bf bc 43 be aa 4f 01 be 39 7e 41 bd aa 49 44 be
       -0.1911497 -0.12628046 -0.047239516 -0.19168726
0000c0 4e 0b 3c be 82 3c 7b bd 59 9f 1c bd 49 55 19 3e
       -0.18363687 -0.061337 -0.038237903 0.1497394
0000d0 b8 a0 c2 3d 04 df 42 3e 06 d5 82 3d 0f 99 df 3c
       0.09503311 0.19030386 0.06388287 0.027294664
0000e0 f5 19 21 bd cf 3d b0 bd 5a 39 3b be d3 26 3f be
       -0.039331395 -0.08605539 -0.18283597 -0.18667154
0000f0 4b 8f b1 3d 9c 12 04 be f7 d6 ab bd c7 fb c3 3d
       0.08669909 -0.12897724 -0.08390611 0.09569507
000100 56 08 01 be 8f 79 9a 3d 29 6c 38 bc 4b 54 2c 3d
       -0.12600836 0.07542717 -0.011256256 0.042072576
000110 dc 10 bf bd 2f 20 18 3e 56 fb 2a be f3 47 43 be
       -0.093293875 0.14856027 -0.1669744 -0.19070415
000120 82 c4 22 3e 82 35 0d be fb 9d 48 3e 1e a1 b9 3d
       0.15895274 -0.13789943 0.19591515 0.09063934
000130 ef 48 a1 3d c0 15 cc bc 44 ae 1f 3d ac 50 56 3d
       0.07875239 -0.024912715 0.038984552 0.05232303
000140 ff 45 c9 bd af b7 19 3e a3 53 00 3e 22 10 2d 3c
       -0.09827804 0.15011476 0.12531905 0.010562928
000150 7d c4 6f 3d 56 e5 c8 bc 65 03 97 bd 95 32 21 be
       0.058536995 -0.024523418 -0.07373694 -0.15741952
000160 98 98 a0 bd d2 f8 47 be 98 95 83 bd 16 26 da 3d
       -0.07841605 -0.19528511 -0.06425017 0.106517956
000170 33 5f 4a 3e b6 4d 3f be 35 c1 2d be 46 85 2c 3e
       0.19762878 -0.18681988 -0.16968234 0.16847715
000180 fa 55 94 bd 4d 75 90 36 ee 25 03 3e f1 24 39 3e
       -0.07242961 4.30519e-06 0.12807438 0.18080498
000190 49 9c 9e 3d da 9e 4c 3d 31 4c 6a bb b7 a9 9e 3b
       0.07744653 0.04995618 -0.003575098 0.004842009
0001a0 c5 2c a9 3d 68 7f 44 be 01 f6 4a be e3 1d 0d 3e
       0.08260492 -0.19189227 -0.19820406 0.13780932
0001b0 cd 65 4c be c8 af db 3d 46 57 17 3e da 72 0a 3e
       -0.19960709 0.10726887 0.14779386 0.13520375
0001c0 aa 28 7f 3d 82 05 bb 3c 6d a9 c0 3d be ad f9 3d
       0.06229464 0.022829775 0.094073154 0.12191342
0001d0 60 81 d4 3b c0 6f 16 be 16 c2 01 3e 56 e9 b7 3c
       0.0064851493 -0.14691067 0.12671694 0.02245013
0001e0 c2 bc fb 3d 86 fc 0b be 16 d2 50 bd fb a3 06 be
       0.12291862 -0.13670549 -0.050981604 -0.13148491
0001f0 17 88 3b 3c 76 ff 32 3e 90 f3 1d 3d 6f a6 31 3e
       0.011446021 0.17480263 0.038562357 0.17348646
000200 23 9c 19 3e ba e5 0f be 17 e2 48 3e ed 22 3f 3c
       0.15000968 -0.14052477 0.19617496 0.011666042
000210 df 02 2f 3e c7 e2 21 3d 94 9d 0f bd fe 71 31 3e
       0.17090939 0.039522912 -0.035062388 0.17328641
000220 0a b5 1a be ed 98 8c 3b 17 26 f2 bc 3e b2 06 3c
       -0.15108123 0.004290691 -0.029559178 0.008221207
000230 9a e1 6f bd 3c f0 25 3e 3d e8 2c bc 42 6b ad 3d
       -0.05856476 0.16204923 -0.010553417 0.084677234
000240 a9 0c b4 3d bd 31 3e 3e c3 11 97 3d b6 29 50 be
       0.08791477 0.18573661 0.07376435 -0.20328411
000250 73 37 2d be 21 83 45 be f6 b2 4c be b2 e8 2d be
       -0.16915683 -0.19288303 -0.19990143 -0.16983297
000260 a9 4e 3a bb 68 d4 45 3e ec 47 07 be 47 c5 af 3d
       -0.0028428233 0.19319308 -0.1321103 0.085825495
000270 e1 0f bf bd 0f ef 21 3e f3 ee 07 3e c0 3d c2 3d
       -0.093292005 0.1581385 0.13274746 0.09484434
000280 8b 24 38 3e 8a b5 1d be 1f 61 31 be 8f 17 d6 bd
       0.1798269 -0.15401283 -0.17322205 -0.10453712
000290 40 42 2b 3d cd ed 38 3e 28 0c 0a 3e 48 48 83 3d
       0.041811228 0.18059464 0.134812 0.06410271
0002a0 6e d6 0a bd 4c 77 ec bd c8 76 50 3e 07 c1 36 be
       -0.033895902 -0.115461916 0.20357811 -0.17847072
0002b0 2d 57 10 be c7 0f f6 3d 12 b2 22 3e f7 be 5b 3d
       -0.14095755 0.12014728 0.15888241 0.053648915
0002c0 cd a9 23 bb 24 1d c7 bc 6f 39 d8 3c e1 2e d3 bd
       -0.0024973035 -0.024305888 0.026394574 -0.10311676
0002d0 6d 64 4e 3e f6 29 51 3e e4 61 a1 bd e4 2c 11 3e
       0.20155497 0.20426163 -0.07879999 0.1417728
0002e0 83 07 47 bd 05 8c 17 be 92 d8 0e 3d be c2 1f bd
       -0.048591148 -0.14799507 0.034874506 -0.03900408
0002f0 4f ab 2d 3e 48 45 62 3c 18 25 38 bd c9 1f 26 be
       0.1695988 0.013810463 -0.04495725 -0.16223063
000300 ea be 08 3e 92 8c 0b 3e fc 50 eb 3c c4 7e 92 bc
       0.13354078 0.13627842 0.02872514 -0.017882712
000310 23 82 8f bd 85 ca 41 3d fa 96 48 3e 9e f3 08 bd
       -0.070072435 0.04731228 0.19588843 -0.033435456
000320 70 26 97 3c 01 19 47 be d7 68 55 3d 86 4e b3 bd
       0.018450946 -0.19443132 0.052101936 -0.087552115
000330 4d 0b 46 bd 69 ac dd bd 39 9b 41 3e ad 1e 0e 3e
       -0.04835062 -0.108239 0.18906869 0.1387889
000340 b5 48 b3 bd 1d 30 4f bd d2 00 7e 3d 56 0b 9c 3d
       -0.08754102 -0.050582994 0.0620125 0.0761935
000350 21 17 c4 bd fb 79 a8 3d 88 ab 07 3d 7a 6f f0 3d
       -0.09574724 0.08226391 0.03312257 0.117400125
000360 37 7a e1 bd 77 35 07 be f0 25 c2 3d 4c 69 08 bc
       -0.11009639 -0.13203989 0.09479892 -0.008325886
000370 73 32 b6 bd 51 e6 23 3e ac a0 b5 bc b2 4e 0b be
       -0.08896341 0.16005827 -0.02217134 -0.13604239
000380 d3 d6 ea bc ee 29 c2 bd 55 bd 8f bd fa 58 2c be
       -0.02866689 -0.09480654 -0.07018534 -0.16830817
000390 fe d9 26 3e 0a 03 38 3e 61 64 30 be 75 de 02 3e
       0.16294095 0.1796991 -0.17225792 0.12780173
0003a0 b7 21 75 3d a2 b7 a9 bd 0d 48 77 bd e6 27 10 3d
       0.059846606 -0.08286978 -0.060371447 0.0351943
0003b0 34 da 30 3d 3a 68 31 3e 34 0e 48 3e 77 3a 40 3c
       0.043176845 0.17324916 0.19536668 0.011732689
0003c0 34 9d 44 3e d5 5b fb bd 60 f2 d5 3a 59 c4 2c be
       0.19200593 -0.12273375 0.0016322844 -0.16871776
0003d0 40 42 c8 3d 79 e9 27 3d 96 f8 fc bd f2 73 1f be
       0.09778261 0.04099414 -0.123521015 -0.15571573
0003e0 00 04 26 bd 0a 3e 9e bd 0f 5f aa bd 78 ac 34 be
       -0.04053116 -0.07726677 -0.08318912 -0.17643917
0003f0 d1 d7 05 be df 64 2d 3e c3 97 cd bd e6 78 a9 3d
       -0.13070609 0.1693301 -0.10038712 0.08275013

bn1.weight f4 [256]
000000 a9 e4 36 3e 38 ac be 3e 99 09 81 3f f8 b9 62 3f
       0.17860664 0.37240767 1.0081054 0.88565016
000010 8c b3 40 3f 1c 0b 08 3f f0 a6 66 3f e1 79 70 3f
       0.75273967 0.5314195 0.90098476 0.9393597
000020 a4 d1 1d 3f 18 00 61 3f a9 cd 0f 3f 97 16 9e 3f
       0.6164801 0.8789077 0.5617319 1.2350644
000030 f6 82 08 3f 25 cc fa 3e c6 98 53 3e 3b e2 2e 3f
       0.5332483 0.48983875 0.20663747 0.6831395
000040 71 d3 8f 3c 90 2c 15 3e ba 8e 71 3f f1 74 8c 3f
       0.017556878 0.1456778 0.9435841 1.0973188
000050 f7 c4 5f 3f 2f 73 94 3f f1 be 09 3f 46 f5 40 3f
       0.8740992 1.1597651 0.5380698 0.7537426
000060 21 a9 89 3c a0 dc 9a 3f dd 18 94 3c a8 d4 1a 3d
       0.01680428 1.209858 0.018078262 0.03780046
000070 38 cf 7b 3f aa 70 64 3f ec fc 52 3f 3f dd 47 3e
       0.98363066 0.8923441 0.8241718 0.19517992
000080 ff 58 01 bd b3 60 47 3f 24 e5 25 3f 31 f7 68 3e
       -0.031579014 0.77881926 0.64802766 0.22750546
000090 c5 85 97 3f 57 7d b4 3f f6 8b b4 3f fb 9f af 3e
       1.1837698 1.4100751 1.4105213 0.34301743
0000a0 42 2c 28 3f f8 25 a6 3e 49 09 bd 3c db 6a 1f 3e
       0.6569253 0.32450843 0.023075717 0.15568106
0000b0 84 3e 03 3d a1 93 55 3f e4 9d a0 3e b9 90 da 3e
       0.03204204 0.8342839 0.3137046 0.4268854
0000c0 34 29 49 3f 10 51 ce 3d a5 4a e5 3f 4f 33 4b 3f
       0.78578496 0.10074055 1.7913405 0.79375166
0000d0 a0 9b 80 3e 0e f7 4c 3f e8 38 7d 3f 2a a5 1b 3d
       0.25118732 0.80064476 0.9891496 0.03799931
0000e0 32 14 9f 3c c3 bf 0c 3f 0c d2 ae 3c d7 00 97 3e
       0.01941881 0.54980105 0.021340393 0.29492828
0000f0 04 08 c1 3d 22 78 c7 3e aa ec 03 3f 04 56 fd 3e
       0.09425357 0.38958842 0.51532996 0.49479687
000100 0e 55 1b 3e 74 c1 b2 3e e3 f3 73 3c 45 84 88 3f
       0.15169165 0.34913218 0.01488969 1.0665365
000110 e9 9e 9c bf 4c c7 ab 3f a0 f1 a3 3f 6f 1e 33 3e
       -1.2235996 1.3420196 1.2808113 0.17492078
000120 26 5e 81 3f 3a 44 e2 3d 17 4f 9b 3e 0b 7d 88 3d
       1.0106857 0.110481694 0.30333778 0.06664475
000130 a6 d0 03 3e 6c fa 15 3f b9 30 48 3f a9 97 09 3e
       0.12872562 0.5858524 0.78199345 0.1343676
000140 0f df d1 3f 72 b7 e3 3f 08 07 4b 3f 30 2a 41 3f
       1.6396197 1.7790358 0.79307604 0.75455
000150 79 e5 af bb 98 32 94 3f 6c 76 1e 3d a1 4b 04 be
       -0.0053679314 1.157794 0.038687155 -0.12919475
000160 b5 e6 aa 3b c0 f7 53 3f 7b 11 66 3e 75 7e a3 3f
       0.0052154907 0.8279991 0.22467606 1.2772967
000170 9e 90 5c 3f 0e a9 4f 3f 6d cd 4b 3d 4c 72 fc 3b
       0.8615817 0.8111733 0.049756456 0.007704055
000180 73 d6 75 3f 75 9d 2e 3f e1 fa a6 3d 02 b8 6c 3e
       0.9603035 0.6820901 0.0815332 0.23117068
000190 34 d7 e4 3e 13 5c 38 3f 76 63 3d 3f ec 9c ac 3f
       0.44695437 0.72015494 0.7397989 1.3485389
0001a0 91 11 0c 3f bf 19 93 3e 69 53 d4 3e 10 e3 b3 3e
       0.54714304 0.2873058 0.41469887 0.35134172
0001b0 61 ac 0c 3f e9 21 e0 3b c4 30 f3 3b ab 71 4c 3f
       0.5495053 0.00683998 0.007421585 0.79860944
0001c0 05 96 91 3e 73 77 42 3f 9a b8 50 3f e2 2e 63 3f
       0.28434768 0.75963515 0.8153168 0.8874341
0001d0 27 6e bd 3e 03 61 6d bb b6 82 1c 3f f7 a9 94 3f
       0.36998102 -0.0036221154 0.6113695 1.1614369
0001e0 35 7b 04 3e 93 ff 2c bc 06 05 62 3e a0 4b 8b 3e
       0.12937625 -0.0105589805 0.22072229 0.27206135
0001f0 cb 80 56 3f bc 50 db 3f d9 4e ea 3d 86 1c 51 3f
       0.8379027 1.7134013 0.1144082 0.8168415
000200 4c 72 49 3e 03 a0 1e 3f 37 07 69 3f c2 4d 84 3e
       0.19672507 0.6196291 0.91026634 0.25840575
000210 03 0c 67 3c 6a 3d 6f 3e fd d0 8a 3c a8 1c fc 3b
       0.014101985 0.23363271 0.016945357 0.007693846
000220 56 d6 55 3e 03 6d 7c 3f 02 08 31 3f 3d 08 45 3f
       0.20882544 0.9860384 0.69152844 0.76965696
000230 a2 a0 86 3d 22 8f 0b 3c 27 af 24 3f 22 a2 5c 3f
       0.06573607 0.008518012 0.6432976 0.86184895
000240 33 80 6a 3d a6 c5 91 3f 3e 95 b0 3e 14 d1 3d 3f
       0.057251167 1.1388443 0.34488863 0.7414715
000250 12 16 45 3e 38 dc 3e 3e a7 61 0d 40 3c 51 70 3c
       0.192467 0.18638694 2.2090852 0.014667805
000260 09 73 b6 3c 5b 38 1e bc c4 6e 73 3c a7 4f 37 3f
       0.02227165 -0.009656991 0.014857952 0.71605915
000270 3b f7 35 3f 8b e7 8a 3e 41 24 83 3e d2 35 3c bb
       0.7108037 0.27129778 0.25613597 -0.0028718603
000280 51 0a a0 3c d4 5b fe 3d 89 ca ce 3d 07 43 e6 3e
       0.01953617 0.124198586 0.10097224 0.44973013
000290 06 05 89 3f f5 76 0e 3f 4c 36 3b 3f 75 78 99 3e
       1.0704658 0.55650264 0.73129725 0.29974714
0002a0 12 fc a3 3f 08 d6 4d 3f fd 11 9a 3e f5 24 95 3e
       1.2811301 0.8040471 0.3009185 0.29129758
0002b0 2c a6 9b 3f ee 72 98 3d 6a cd db 3f de 8f 71 3c
       1.2160087 0.07443796 1.7172062 0.014743773
0002c0 5e cf 9e 3f ae d1 13 3f 5d 1d 47 3e d8 9b 3c 3f
       1.2407033 0.5774182 0.19444795 0.736753
0002d0 d4 04 7c 3e 33 cb 19 3f 5b 0f 17 3f 04 1f 23 3f
       0.24611217 0.6007568 0.59007806 0.637192
0002e0 66 a6 ff 3e ac c0 3c 3f a7 65 06 3f 4f fb 0c 3f
       0.4993164 0.73731494 0.5249886 0.55070966
0002f0 43 4a 46 3e c9 bd 32 3f 48 ed 08 3d 55 56 19 3f
       0.19364266 0.6982084 0.033429414 0.5989736
000300 0a de f1 3e ad 73 7a 3e 3e 4b b4 3d d2 fa 79 3c
       0.47239715 0.2445819 0.08803414 0.015257554
000310 01 02 8f 3f ba 2b ba 3d e8 89 93 3b f5 14 45 3f
       1.1172487 0.090903714 0.0045025237 0.769851
000320 6e d3 d8 3f 19 eb d6 3e 6c a3 39 3e b0 a0 63 3e
       1.6939523 0.4197624 0.18128747 0.22229266
000330 a0 a2 52 3f 9b 13 4c 3d 33 e1 85 3d cd 42 c8 3f
       0.82279396 0.049823385 0.06537094 1.5645386
000340 61 4d 50 3f 65 7c 8c 3f 9e 9d 4e 3f 75 94 74 3f
       0.8136807 1.0975462 0.80709255 0.9553903
000350 67 25 bf 3f c4 ef d4 3e 5d b4 a0 3f 84 58 60 3f
       1.4933289 0.41589177 1.2555043 0.87635064
000360 5f bf 26 3f 94 77 80 3c 56 ec 3b 3f c7 a6 0e 3f
       0.6513576 0.01568202 0.73407495 0.5572323
000370 ea 77 8e 3e e0 5a 66 3f 71 c6 42 3f c3 4a bc 3f
       0.27825862 0.89982414 0.7608405 1.4710315
000380 7b e5 72 40 26 0c 66 3e 9d d0 12 3f ae e8 58 3f
       3.7952564 0.22465572 0.5734957 0.8473004
000390 2d b2 1a 3d a2 92 87 3f d5 86 cd 3e 86 de 38 3f
       0.037767578 1.0591624 0.4014193 0.72214544
0003a0 db 88 06 40 5e 2b 8c 3f 58 84 6a 3f e6 be 6b 3f
       2.102103 1.0950735 0.9160819 0.9208816
0003b0 d6 1f 84 3e d4 ba 6d 3f 69 94 95 3f 32 51 83 3e
       0.2580554 0.928632 1.1685916 0.25647885
0003c0 e1 b7 b8 3b 19 65 af 3f db a5 24 3f 41 83 5f 3f
       0.0056371544 1.3702728 0.64315575 0.8730965
0003d0 92 46 e2 3b 70 82 86 3f 5b c4 14 3f cf f4 51 3e
       0.0069053853 1.0508556 0.58112115 0.20503543
0003e0 4d b5 16 bc 2b cc 2a 3f 85 c3 0a 3f 90 b1 20 3f
       -0.009198499 0.66717786 0.5420459 0.6277094
0003f0 83 3b 21 3f 93 a6 71 3f df a6 b7 bc 2f 73 ae 3f
       0.6298143 0.943948 -0.022418438 1.3628901

bn1.bias f4 [256]
000000 5e 3e 5a bf 10 2c 8e bf 16 af 71 bf 67 0f 44 bf
       -0.85251415 -1.1107197 -0.94407785 -0.76586
000010 72 f1 7b bf 12 cd 56 bf 68 1f a7 bf ac 9e 95 bf
       -0.9841529 -0.8390666 -1.305646 -1.1689048
000020 16 79 0e bf ff 7d 6a bf 7d cf 09 bf 8a 14 0f bf
       -0.5565351 -0.91598505 -0.53832227 -0.55890715
000030 da 40 0d bf fc 3f d9 be 57 a8 1c bf 15 3a 38 3f
       -0.5517708 -0.4243163 -0.61194366 0.71963626
000040 72 1f e1 bd 9a 84 fe be 72 b5 d5 be f5 cf 55 bf
       -0.10992326 -0.49710542 -0.41739994 -0.8352044
000050 85 b1 85 bf d6 02 db be 18 b9 43 bf 33 d1 bf be
       -1.04448 -0.427756 -0.76454306 -0.37464294
000060 04 70 8b bd 09 d7 9d be 6f 7e a5 bd b0 15 f7 bd
       -0.06808475 -0.3082812 -0.08080756 -0.120646834
000070 ff ed 8b bd a4 14 84 bf d5 cd 98 bf b3 93 f6 be
       -0.068325035 -1.0318799 -1.1937815 -0.4815956
000080 cd 40 09 be c1 5b 8a bf 28 6c 81 bf 42 e5 39 bf
       -0.13403626 -1.0809251 -1.0111132 -0.72615445
000090 6e c2 a7 be c7 a0 2f bf d8 4d a3 bf 3d a7 71 bf
       -0.32765526 -0.686047 -1.2758131 -0.9439581
0000a0 8f 5d 2e bf 08 54 97 bf c5 c2 18 be d6 f2 fc be
       -0.6811151 -1.1822519 -0.14918049 -0.4940402
0000b0 97 1a 77 be 74 28 26 bf b5 09 68 bf 9d 82 87 bf
       -0.24131237 -0.64905477 -0.9063981 -1.0586735
0000c0 24 c3 21 bf 67 eb c4 be a5 8c 14 bf b7 8a 1e bf
       -0.63188386 -0.38460848 -0.58027107 -0.6193041
0000d0 14 22 19 bf af 22 f9 be 0e 47 99 bf 69 31 eb bd
       -0.59817624 -0.48659274 -1.1974809 -0.114840336
0000e0 b4 b5 bd bd 7d 26 88 bf d9 88 98 bd 1b e2 57 bf
       -0.09263173 -1.0636746 -0.074479766 -0.84329385
0000f0 36 03 21 bf ee 10 ab bf 10 15 08 bf 28 d4 59 bf
       -0.62895525 -1.3364542 -0.5315714 -0.8508935
000100 58 9f 1d bf 03 fd 34 bf 4f f5 6b bd 08 eb 6e bf
       -0.61571264 -0.70698565 -0.05760699 -0.9332738
000110 c1 36 22 bd 70 ed 54 bd ca 10 4f 3e 84 e5 00 bf
       -0.039603 -0.05198425 0.20221248 -0.50350213
000120 bf d7 39 3d fa 07 d0 be 25 6b a2 bf 89 a2 38 3f
       0.045371767 -0.40631086 -1.2688948 0.7212301
000130 5c 28 f2 be 82 11 91 bf 2b 97 4f bf 23 85 07 bf
       -0.47296417 -1.1333468 -0.8109004 -0.52937526
000140 ef 7c 8f be 50 31 4d bf 59 5e 06 bf dc ee a9 bf
       -0.28025004 -0.8015337 -0.52487713 -1.3276019
000150 69 04 c3 bd 10 2c 16 bf f1 3e 4e be cf 08 fd 3e
       -0.095223255 -0.58660984 -0.20141198 0.49420783
000160 fd af 4f bd 15 0a a7 bf 39 93 98 bf 2d 29 bf be
       -0.050704945 -1.3049952 -1.1919929 -0.37336102
000170 fb 99 03 bf 52 0a 2e bf c7 9c 07 be 12 20 03 bd
       -0.5140683 -0.679845 -0.132434 -0.032013007
000180 e5 77 28 bf ee 95 3f bf 14 3b 9d be 09 e3 17 bf
       -0.65807945 -0.7483815 -0.30709136 -0.59330803
000190 cb a5 35 bf f3 d9 a6 bf d5 9a 92 bf bc c1 1b bf
       -0.70956105 -1.3035263 -1.1453501 -0.6084249
0001a0 1d 10 19 3d 29 ae 3b bf 79 c3 95 bf a7 21 6c bf
       0.037368882 -0.7331262 -1.1700279 -0.9223885
0001b0 1d 4a 20 bf 58 9c b8 bc d5 3e 1f bd 1c 55 89 bf
       -0.6261309 -0.022535488 -0.03887828 -1.0729098
0001c0 6a fa 34 bf de 50 98 bf e7 49 b1 be cd 03 9e bf
       -0.706946 -1.1899679 -0.34626696 -1.234491
0001d0 c9 2b 79 bf c7 c6 11 be ed a9 0a bf 53 11 86 bf
       -0.97332436 -0.14235984 -0.54165536 -1.0474037
0001e0 38 f6 49 bf c0 55 a9 bd ae 1f 3d bf b0 0a 73 bf
       -0.78891325 -0.08268309 -0.73876464 -0.9493818
0001f0 93 dc be be 6b d5 89 bf 6f ac 09 bf c2 5f 27 bf
       -0.3727766 -1.0768255 -0.5377874 -0.6538049
000200 ef b3 26 bf 7f d1 03 bf 44 7b 53 bf 6d 8a 40 bf
       -0.65118307 -0.5149154 -0.82609963 -0.7521122
000210 e5 94 66 bd d9 18 e5 3e be 45 68 be 65 5f 17 bd
       -0.05629434 0.4474552 -0.22682855 -0.03695621
000220 02 e7 69 bf 70 0f 4c bf eb 7a 9a bf 8f da 37 bf
       -0.91368115 -0.79711056 -1.2068762 -0.7181787
000230 8c f8 6d be 28 52 2f bd 2e e5 00 bf 7c ba 48 bf
       -0.23239344 -0.04280296 -0.503497 -0.7840955
000240 1d d5 8c be 86 1b bb be f8 a6 8a bf 51 10 2e bf
       -0.27506343 -0.36544436 -1.0832205 -0.67993647
000250 f8 95 26 bf 03 76 6f bf 8e e9 e1 3e b1 1b 5b bd
       -0.65072584 -0.93539447 0.441235 -0.053493205
000260 16 a4 ce bd ba 2d 9d bd b7 d0 19 be 42 27 af bf
       -0.10089891 -0.07674737 -0.15021025 -1.3683856
000270 4a de 1a bf e3 56 3c bf 51 a6 5f bf db c2 9e bc
       -0.60495436 -0.7357008 -0.87363154 -0.019380024
000280 02 0d 91 bd 5d 18 2c bf ba ce 9b be 85 59 43 be
       -0.07082559 -0.67224675 -0.30431157 -0.19077118
000290 96 19 80 bf f3 45 a4 bf 6a 8a 23 bf 58 d3 44 bf
       -1.0007808 -1.2833847 -0.6388308 -0.76884985
0002a0 98 3b 64 bd 96 53 9a bf 57 4c 85 bf 1e 37 3e bf
       -0.055720896 -1.2056758 -1.0413922 -0.7430285
0002b0 45 42 53 bf 09 c6 6c be 51 52 65 bf 75 c6 b8 bd
       -0.82522994 -0.2312242 -0.8957873 -0.09022228
0002c0 b0 d8 df be 2c 9e 75 bf fc 96 6a bf 47 fb 03 bf
       -0.43720007 -0.95944476 -0.91636634 -0.51555294
0002d0 e9 21 a6 bf 07 86 2e bf c9 02 21 bf b8 5d 98 bf
       -1.2979099 -0.6817326 -0.62894875 -1.1903601
0002e0 3e be 89 bf 8e 5c b4 bf 82 16 c7 be c6 4d 7a bf
       -1.0761182 -1.4090745 -0.3888436 -0.9777492
0002f0 94 cb 93 bf 4f 04 4d bf e3 ba 0d be 59 41 1c bf
       -1.1546502 -0.800847 -0.13840823 -0.6103721
000300 59 5c 97 be fd 5a 23 bf ae e2 9e be db 1b 4b bd
       -0.29562643 -0.6381071 -0.31032318 -0.049587112
000310 82 63 4b bf 84 1d b0 be b3 77 0a bd cb c7 8d bf
       -0.7944871 -0.3439752 -0.03380556 -1.1076597
000320 8b 6e 36 bf c6 68 87 bf 5a 70 1d bf 8b e3 26 bf
       -0.71262425 -1.0578849 -0.6149956 -0.65190953
000330 d4 2c 5e bf ba 54 2f be 67 75 70 be f6 78 9f bf
       -0.8678715 -0.17122164 -0.23482285 -1.2458789
000340 d2 07 b3 bf b7 ea 4f be a1 cd 0c bf 10 0d 85 bf
       -1.3986762 -0.2030438 -0.55001265 -1.0394611
000350 5f cc 40 be 6f 93 08 3d b7 6f 9b be 0c 21 64 bf
       -0.18827961 0.03334373 -0.3035867 -0.89112926
000360 0c 9b 3a 3f de 76 af 3e e5 1c 78 bf 1d 0c bb be
       0.7289283 0.34270376 -0.9691909 -0.3653268
000370 0a 81 48 bf 6e 17 b4 be 3a ae 8f bf a7 4c a9 be
       -0.783219 -0.35174125 -1.1225045 -0.33066294
000380 76 c6 95 3f 4f 80 5b bf dd dc be bf 05 8b 5a bf
       1.170119 -0.8574266 -1.4911152 -0.85368377
000390 37 d6 25 be 87 f6 f7 be 80 5e 47 bf 41 1f 1a bf
       -0.16194998 -0.48430273 -0.7787857 -0.6020394
0003a0 11 6d 91 3e a2 a0 83 bf 7e fc 12 bf 3b 09 0c bf
       0.28403524 -1.0283396 -0.5741652 -0.54701585
0003b0 ad 63 31 bf b6 de 0b bf 1e 2a 46 bf c0 d4 67 bf
       -0.6929272 -0.54636705 -0.77408016 -0.90559006
0003c0 cc 0b 6b bd 35 0f 23 3f 87 62 49 bf 7d f4 a8 be
       -0.057384297 0.6369508 -0.78665966 -0.3299903
0003d0 9f c5 0f bd 9b 68 18 bf 23 ed a5 bf 6c a0 0f bf
       -0.035100576 -0.59534615 -1.2962993 -0.5610416
0003e0 68 01 32 bd 74 b2 0c bf 74 cf 86 be 89 61 8c bf
       -0.043458372 -0.549598 -0.2633015 -1.0967265
0003f0 27 94 80 bf f2 4e 39 bf d9 ad c0 bd b7 ec 6f 3d
       -1.0045213 -0.72386086 -0.09408159 0.05857536

bn1.running_mean f4 [256]
000000 87 96 4f bb eb 2e 55 be 56 1f 76 3d d8 05 8e 35
       -0.0031675415 -0.20818679 0.060088478 1.0581525e-06
000010 19 fe 31 be 7b d4 b3 bd 64 f3 84 bd 4d b3 8c bd
       -0.17382087 -0.08780762 -0.064917356 -0.068701364
000020 56 50 ba bd 64 84 31 bc de 58 0f be e7 f4 87 3d
       -0.09097354 -0.010834787 -0.13998744 0.06638508
000030 ff 62 21 be 50 e4 45 3e d7 85 0b be 7f 70 b4 3d
       -0.1576042 0.19325376 -0.13625275 0.088105194
000040 bf 9c 0c be 9e c7 0d be a7 d9 19 bc 4f 76 b4 bd
       -0.13731669 -0.13845679 -0.009390271 -0.08811628
000050 e8 97 71 bd 8b ef c7 bd e1 d5 d0 bc 8c 74 19 be
       -0.05898276 -0.09762486 -0.02549261 -0.14985865
000060 97 b7 3f 3e c6 ea 9f 3d cb d7 ca bd 31 e7 02 3e
       0.18722378 0.07808451 -0.099044405 0.12783505
000070 2c 44 80 bd e8 ce 30 be af 4d ca 3d c3 55 62 bd
       -0.06263003 -0.17266428 0.09878098 -0.05525757
000080 92 ed 15 3e c7 e7 c9 bc 11 08 33 be ce fc 2e 3e
       0.14641407 -0.024646653 -0.17483546 0.17088625
000090 20 dd 5a 3c ed 45 2b 3d 53 06 0e bd 93 02 1d be
       0.013358384 0.041814733 -0.034674 -0.15333013
0000a0 ba 1a 1b 3d df 5e c5 bc fb b4 06 be ad 41 d5 3d
       0.037867285 -0.02409309 -0.13154976 0.10412917
0000b0 a9 d7 40 be 67 60 d1 bd 48 c0 c6 bc b8 28 34 be
       -0.18832268 -0.102234654 -0.024261609 -0.17593658
0000c0 04 d1 34 be 47 e3 94 bd bc 1f 28 bd a7 fa 24 3e
       -0.17657858 -0.07269912 -0.04104589 0.16111241
0000d0 e9 6e 85 3d 43 ae 3a 3e 5a 83 ae 3d db e9 8f 3c
       0.06515295 0.18230538 0.08521147 0.017567566
0000e0 bb 33 1b bd d8 a7 b1 bd ad 32 50 be 2c de 50 be
       -0.03789113 -0.08674592 -0.20331831 -0.20397252
0000f0 d6 16 a7 3d 19 f3 1a be 29 48 9a bd b5 4a c4 3d
       0.081586525 -0.15131797 -0.07533295 0.09584562
000100 08 64 ee bd ed 05 a0 3d 7c 24 aa bc fc 7c bf 3c
       -0.11640173 0.0781363 -0.02076935 0.023375027
000110 b5 0d d5 bd a3 90 28 3e 48 84 23 be 7b 35 39 be
       -0.10403005 0.16461425 -0.1596843 -0.18086807
000120 ab e2 46 3e ef 1f 12 be 21 d3 4a 3e 73 56 b6 3d
       0.19422404 -0.14269994 0.19807102 0.08903208
000130 65 53 8d 3d a4 00 d9 bc 06 ab db 3b 3c d4 32 3d
       0.06900672 -0.026489563 0.006703737 0.043659434
000140 dc d2 f5 bd 76 43 11 3e 07 d4 fb 3d 2a 1e cf 3c
       -0.12003109 0.1418589 0.122963004 0.025282938
000150 d8 3a 1b 3d fb bb ec bb ae 71 84 bd 66 81 0e be
       0.037897915 -0.0072245575 -0.06466995 -0.13916549
000160 6c cb a6 bd 33 3e 37 be 52 f2 b2 bd ea d1 15 3e
       -0.081442684 -0.17894821 -0.08737625 0.14630857
000170 87 66 2c 3e db eb 38 be 60 f0 25 be c4 f1 2c 3e
       0.16835986 -0.18058722 -0.16204977 0.16889101
000180 b6 f6 8e bd 02 85 1d bc 3a 19 0a 3e 0d 76 44 3e
       -0.0698065 -0.009614231 0.13486186 0.19185658
000190 e0 97 a5 3d 07 24 84 3d 6d d6 cd bc b2 63 23 3d
       0.080856085 0.06452184 -0.02512666 0.03989
0001a0 5d 4b bd 3d 24 78 47 be 2b 93 4f be 7c ad 1e 3e
       0.0924289 -0.19479424 -0.20270984 0.15495867
0001b0 a9 61 3f be 38 6f db 3d 03 d4 13 3e 28 6c 1d 3e
       -0.18689598 0.10714573 0.14436345 0.1537329
0001c0 cb 2d 72 3d cb 08 17 3d ad c1 b5 3d 5c d6 f6 3d
       0.059125703 0.03687362 0.08874831 0.120526046
0001d0 1f 05 03 3d 9c 57 f0 bd c5 05 10 3e d6 87 64 3d
       0.031987306 -0.1173546 0.14064701 0.055793606
0001e0 64 e6 e0 3d 51 24 1a be 16 3d 50 bd e5 12 03 be
       0.109814435 -0.15052916 -0.050839506 -0.12800176
0001f0 36 6d ab bc 96 ce 4d 3e b4 b4 d7 3c 49 65 0d 3e
       -0.0209261 0.20098338 0.026331283 0.13808168
000200 9e fc 24 3e 73 e2 18 be e7 bf 56 3e 25 cc 9c bc
       0.16111991 -0.14930134 0.20971642 -0.019140312
000210 a1 75 1e 3e 3c 1d 2a 3c 9f 5d ff bc 0b 51 32 3e
       0.1547456 0.010382947 -0.031172572 0.17413728
000220 4f 9e 04 be 7e bb 01 bd 17 75 80 bc 4a 2f 86 bc
       -0.12951015 -0.031672947 -0.015680833 -0.016379971
000230 3d dd 95 bd b5 e3 16 3e b9 ef 96 bc 4f d8 22 3d
       -0.073175885 0.14735301 -0.018424856 0.03975707
000240 25 dd c9 3d f9 ab 3e 3e b1 e6 6b 3d ec be 2c be
       0.09856633 0.1862029 0.05759305 -0.16869706
000250 ef 6b 23 be 9c c7 57 be e0 d9 48 be 95 4d 2a be
       -0.15959142 -0.21072239 -0.19614363 -0.16631158
000260 7e f3 17 bd a0 1d 48 3e 91 0f 08 be ff 6f a9 3d
       -0.037097447 0.19542551 -0.13287188 0.08273315
000270 43 f7 90 bd be 46 3c 3e 66 65 07 3e 33 ae c4 3d
       -0.070784114 0.18386361 0.13222274 0.09603538
000280 07 51 36 3e e6 0d 25 be b1 64 38 be ea 1c fd bd
       0.17804347 -0.16118583 -0.1800716 -0.123590305
000290 b7 41 95 3d 9e 90 0b 3e 72 d6 e2 3d ae 73 8d 3d
       0.07287925 0.13629386 0.110760584 0.0690683
0002a0 fe 70 ed bc 59 ab f4 bd 5e 04 4d 3e bc 87 46 be
       -0.028984543 -0.119467445 0.20021197 -0.19387716
0002b0 ff 75 15 be c5 14 07 3e 4e 0f 2c 3e 18 55 70 3d
       -0.14595793 0.13191517 0.16802713 0.0586749
0002c0 8b f9 05 3d 8d b4 df bc 06 7f 49 3d 4e 4e cf bd
       0.032708686 -0.027307773 0.049193405 -0.10122357
0002d0 d4 ce 51 3e b7 f2 5f 3e 5f e6 7c bd 7b ec 00 3e
       0.20489055 0.21869932 -0.061743136 0.1259021
0002e0 99 84 a5 bd 86 f5 1c be 0e be 94 3d cb c8 03 bd
       -0.080819316 -0.15328035 0.072628126 -0.032173913
0002f0 2e f8 1a 3e 27 3c 1e 3d fe 21 8a bd 7e bc fd bd
       0.15133736 0.038631584 -0.06744765 -0.12389468
000300 c0 84 0e 3e 2c 6b 12 3e ad ac 0b 3c d0 e7 d3 bc
       0.13917828 0.14298695 0.008525056 -0.025867373
000310 e3 6f b1 bd 7e 3a 55 3d 66 7f 47 3e 1e c6 1b bd
       -0.08663919 0.052057736 0.19482192 -0.038030736
000320 ea 57 25 3a 51 f3 55 be c4 28 82 3d 46 22 cd bd
       0.00063073507 -0.20893599 0.06355432 -0.10016303
000330 89 22 a8 bd e2 cf dc bd 12 1c 49 3e 6e 10 28 3e
       -0.08209712 -0.10781838 0.19639614 0.16412517
000340 10 5d a1 bd 06 12 51 bc 7c d6 2f 3d 6e d6 b7 3d
       -0.078790784 -0.012760645 0.042929158 0.08976446
000350 a4 50 78 bd b0 e7 c4 3d 0c e3 3e 3d 35 f2 fa 3d
       -0.06062378 0.096145034 0.046603248 0.122532286
000360 7e 66 de bd 53 9a f6 bd 31 7b 02 3e d0 19 db bc
       -0.108593926 -0.12041154 0.12742306 -0.026745707
000370 85 a6 b3 bd 7f ae 10 3e be e8 ee bc 7f cf 0b be
       -0.087719955 0.14129065 -0.029163714 -0.13653372
000380 e0 db 0b bc 6f b8 dc bd 8a 74 93 bd ec 0e 1a be
       -0.008536309 -0.107773654 -0.071999624 -0.15044755
000390 6b 26 24 3e e9 7d 3e 3e 4d 51 39 be 2e 61 07 3e
       0.1603028 0.18602718 -0.1809742 0.13220665
0003a0 a3 af a5 3d 6a c3 1d bd 4b 5d 93 bd da ee 3a 3c
       0.08090141 -0.03851644 -0.071955286 0.011409486
0003b0 1e 54 ac 3c d4 0b 27 3e 85 54 6d 3e 2e e5 61 3c
       0.021036204 0.16313106 0.23176773 0.013787551
0003c0 c1 38 45 3e 45 76 b0 bd c7 7e 2e 3b 2f 4b 43 be
       0.19259931 -0.08616308 0.0026625858 -0.19071649
0003d0 c9 dd c7 3d ed 95 e5 3c 17 4d e5 bd 81 20 0d be
       0.09759099 0.028025592 -0.11196344 -0.1378193
0003e0 06 b0 1b bd 56 aa b6 bd 87 ab cb bd 8d 7c 2d be
       -0.038009666 -0.08919208 -0.099448256 -0.16942044
0003f0 cc e5 16 be 2e 50 5d 3e 46 6c b0 bd 09 ca 08 3e
       -0.14736098 0.21612617 -0.086144015 0.1335832

bn1.running_var f4 [256]
000000 ed 44 fe 40 69 bb dc 40 4a 54 dc 40 84 cd b4 40
       7.945914 6.897877 6.885289 5.6500874
000010 3e ef 8f 41 cb f5 f8 40 68 5a 27 41 c1 a1 5c 41
       17.991817 7.780004 10.459572 13.789491
000020 14 a1 86 40 18 ae db 40 f0 ef 70 40 02 0d 97 40
       4.207163 6.8650017 3.7646446 4.720338
000030 0b 7e 02 41 b1 9d cf 40 05 9b e0 3f f3 55 d8 40
       8.155772 6.4879994 1.7547308 6.760492
000040 15 80 77 3d 47 4c 3e 40 63 87 81 40 be 9c 4a 41
       0.060424883 2.9734056 4.0477767 12.663267
000050 e8 6f 9a 3f 4b c7 3e 41 85 0f 1c 40 d4 16 3f 40
       1.2065401 11.9236555 2.4384472 2.9857683
000060 83 a2 ab 3f ee a4 9f 40 a5 71 92 40 3f 20 26 40
       1.340897 4.988883 4.5763726 2.5957181
000070 5d ea 0b 41 13 e6 12 40 3d 53 37 40 05 69 e0 40
       8.744718 2.2952926 2.8644555 7.01282
000080 f7 9a a2 3f 08 11 aa 40 31 f6 a5 40 36 3b 2d 40
       1.2703542 5.314579 5.1863027 2.706739
000090 76 9e f6 40 6b 1a 1f 40 2d ff 59 40 4f 87 54 40
       7.7068434 2.4859874 3.4061997 3.3207586
0000a0 9e 71 8d 40 27 1c 17 40 f8 67 18 3e 39 ce 23 3f
       4.4201193 2.3610933 0.14883411 0.63986546
0000b0 4a 9e 4c 3f c0 0a 81 40 2e 20 c6 40 fb ab 2d 41
       0.7992903 4.0325623 6.191428 10.854487
0000c0 a5 b4 0a 40 51 45 09 3f 57 13 ca 40 85 2e dd 40
       2.1672757 0.53621393 6.314861 6.9119287
0000d0 03 bd 56 40 19 01 12 40 09 78 73 40 cc 26 20 40
       3.3552864 2.281317 3.8042014 2.502368
0000e0 e9 92 e5 3f 02 e0 89 40 c6 b3 ed 3f bd 16 96 40
       1.7935458 4.3085947 1.8570487 4.6902757
0000f0 06 48 8b 40 7c db 95 40 34 fb db 40 09 3b 4a 40
       4.352542 4.6830425 6.8744144 3.1598532
000100 18 6d be 3f 20 4e 8e 41 5e f0 1b 41 45 c5 2e 40
       1.4877043 17.788147 9.746183 2.7307904
000110 7f a6 68 41 a0 86 fe 41 9f 67 4f 41 60 18 26 40
       14.540648 31.815735 12.962798 2.5952377
000120 13 e2 9a 40 14 f2 ce 3f cc 94 c0 40 e9 a5 9d 40
       4.840097 1.6167626 6.0181637 4.9265027
000130 44 c2 1a 40 08 ee d8 40 09 3f 76 40 d3 16 9e 3f
       2.418107 6.7790565 3.8475974 1.2350715
000140 5e 36 40 3f 87 2e 74 40 8c 1e 18 41 07 da 44 41
       0.7508296 3.8153398 9.507458 12.303229
000150 f6 b1 14 3f cf 3c 99 40 d1 3b a8 3f c1 09 21 41
       0.58084047 4.788673 1.3143255 10.064881
000160 9d 3f 3d 3d 95 a7 4e 41 36 2b a3 40 4b b8 f0 40
       0.046203244 12.915914 5.099025 7.5224967
000170 4e 6f b5 40 b9 fe 73 41 71 07 f1 3f 29 93 4e 3d
       5.669837 15.249688 1.8830396 0.05043331
000180 f1 d9 70 40 68 de f3 40 82 0e b4 3f c5 3d 65 40
       3.763302 7.620899 1.4066927 3.581895
000190 ba e8 80 40 7a fa 27 40 c6 30 5f 40 31 6c f2 40
       4.028409 2.6246629 3.487352 7.575707
0001a0 73 80 4b 41 cb 96 ae 3f e1 e0 10 40 bb 66 69 40
       12.71886 1.3639768 2.2637255 3.6468952
0001b0 ce 07 db 40 1a 60 18 3d d8 fd bc 3f f8 32 89 41
       6.8447027 0.037201025 1.4764967 17.149887
0001c0 95 30 90 40 8f b4 56 41 db f5 95 40 b5 2f 43 40
       4.5059304 13.419082 4.6862617 3.0497868
0001d0 f1 d1 10 41 9e 86 95 40 94 c3 40 40 0d 3e 09 40
       9.051255 4.672683 3.0119371 2.1444123
0001e0 d3 c2 22 40 07 9c d1 3f 42 54 56 40 52 94 0f 40
       2.5431411 1.6375741 3.3488927 2.2434278
0001f0 14 53 2d 40 d8 e1 88 40 19 25 7e 3f b8 86 c7 40
       2.7081957 4.277569 0.99275357 6.235195
000200 2a 86 be 3f 71 98 7a 40 2f 64 6b 40 37 47 3d 40
       1.4884694 3.9155543 3.6779897 2.9574716
000210 d7 a1 b6 3f bf 01 b9 40 95 3f 0d 40 80 be ae 3c
       1.426814 5.781463 2.2070057 0.021331072
000220 be ec db 3f 17 e0 a7 41 83 f1 95 41 bc 21 87 40
       1.7181623 20.984419 18.742926 4.222868
000230 32 8b 00 3f c2 1d db 3f 8f 9d 44 40 de 38 ad 41
       0.50212395 1.7118456 3.0721166 21.652767
000240 b3 80 1e 3f 38 0a a5 40 de 78 96 40 34 91 a5 40
       0.6191513 5.1574974 4.7022543 5.173975
000250 96 96 3f 40 46 d6 8e 3f 50 da 2f 41 a3 6e 88 3d
       2.993566 1.1159141 10.990799 0.06661727
000260 60 d7 be 40 85 ee 09 3d 4e 7a fc 3d 1b f0 19 41
       5.963791 0.033674736 0.12328015 9.6211195
000270 c1 6f d1 40 d3 1a 9d 40 d2 d1 74 40 4e 81 36 3d
       6.544892 4.9095244 3.8253064 0.04455691
000280 3a 29 cc 3d e8 ff 32 40 d6 53 35 40 ac a8 18 41
       0.09968801 2.7968693 2.833242 9.54118
000290 45 c7 d3 3f 86 ea dd 41 9a f6 03 40 dc 9a 79 40
       1.6545187 27.739513 2.0619264 3.9000769
0002a0 a7 34 2e 40 39 65 c5 40 23 ad 89 40 72 a5 c5 3f
       2.7219636 6.1686063 4.302385 1.5441115
0002b0 ba 67 33 40 37 a6 3f 40 b9 4e e3 40 a7 c0 c2 3d
       2.803206 2.99452 7.1033597 0.09509402
0002c0 79 d7 0d 41 6e a8 5e 41 a0 2e 1d 40 23 9d 95 40
       8.865106 13.916121 2.4559708 4.6754317
0002d0 7b e8 42 40 dc 13 06 40 a5 be 8c 40 a3 ae 86 41
       3.0454395 2.0949621 4.398272 16.835272
0002e0 13 90 a7 40 51 8c 72 41 96 6c a0 40 0e f2 80 41
       5.236337 15.159257 5.013255 16.11819
0002f0 ff 9d 2d 40 c2 e1 1b 41 a4 90 f1 40 47 af f0 40
       2.7127683 9.742617 7.5489063 7.521396
000300 c7 bc e8 40 16 61 22 40 b7 7c 0c 40 61 15 20 3e
       7.273044 2.5371757 2.195112 0.15633155
000310 32 f9 83 40 dd 18 fa 3f 7f c8 96 3d 14 9c 7e 41
       4.1241693 1.9538838 0.0736246 15.913105
000320 6f db 35 41 1e 7f 4d 40 b8 4d 29 40 0c 13 16 40
       11.366073 3.2108836 2.6453686 2.3449125
000330 21 86 0a 41 38 91 14 3f f3 6b 82 40 37 3a 2a 41
       8.657746 0.58034086 4.0756774 10.639213
000340 9e 34 57 41 98 37 fe 3f 0f 99 b7 40 08 8c fa 40
       13.450346 1.9860716 5.737434 7.8295937
000350 ee 46 dc 40 c0 cc ab 40 9f e9 19 41 d4 3a 55 40
       6.8836584 5.368744 9.619536 3.3317156
000360 0f bc 87 40 28 dd c9 40 6c 4f a7 41 9a 69 f4 40
       4.2417064 6.3082466 20.91378 7.637891
000370 a0 b5 52 40 49 7b bb 40 90 ce 0d 40 72 d7 37 40
       3.2923355 5.8587995 2.2157326 2.8725247
000380 e7 0a 2a 41 f7 5d 34 40 e3 8f 99 40 a2 54 36 41
       10.627662 2.8182352 4.7988143 11.395662
000390 68 65 d2 3d 62 d2 e3 41 46 38 c7 40 54 ae df 40
       0.10273248 28.477726 6.2256193 6.9900303
0003a0 7d 30 37 40 62 92 bd 41 19 c4 cb 40 e8 c5 c9 40
       2.8623345 23.696476 6.3676877 6.3054085
0003b0 ba a3 55 40 0b d5 8e 40 2d 62 8e 40 55 35 4c 40
       3.338118 4.463506 4.4494843 3.1907551
0003c0 d8 57 73 3d be f3 61 3f bc 0a 4f 41 bf 8b ac 41
       0.059409946 0.88262546 12.940121 21.568235
0003d0 3f 9c 1b 3d b8 8b 61 41 36 9c 95 40 5b a3 0a 41
       0.037990805 14.096611 4.6753187 8.664882
0003e0 91 4b f0 3c 14 ac 2f 40 89 c9 8f 40 cf 8d 61 40
       0.029332908 2.7448778 4.4933515 3.5242803
0003f0 12 0c 98 40 7e d0 8c 40 e0 ed 57 40 31 1e 51 42
       4.7514734 4.4004507 3.3738937 52.279484
