project3-collaboration/results/session_submission/maddpg_actor_reacher_0.pth (torch_old, 167781 bytes, 18 tensors)

bn0.weight f4 [24]
000000 44 c5 67 3d d5 8f 3d 3e 98 72 f8 bd 8d e1 dd bd
       0.05658461 0.18511899 -0.12131232 -0.10834036
000010 1a ac df 3f fd 23 ad 3f c2 49 ed bc 9c 08 c6 bc
       1.7474396 1.3526608 -0.028965835 -0.024174027
000020 56 76 49 3a 2a 13 08 bc 26 e8 22 3e 84 c0 78 bd
       0.0007685175 -0.00830535 0.1590887 -0.060730472
000030 af eb 4b bb 53 42 a9 3e ca 68 5f 3d f8 91 d5 3e
       -0.003111582 0.33058414 0.054543294 0.41712928
000040 c6 a7 80 3f 28 7e 6d 3f 14 de 51 ba c4 eb df bc
       1.00512 0.92770624 -0.00080058095 -0.027334101
000050 a7 61 e5 3f 80 12 eb 3f 2f 0c 8e 3e e5 04 45 3f
       1.7920426 1.8365021 0.2774367 0.76960593

bn0.bias f4 [24]
000000 11 ed 1a 3b c4 77 13 3b 93 2c 81 ba 77 b8 23 3a
       0.0023639838 0.0022501806 -0.0009855203 0.0006245444
000010 66 29 68 3a ea ed 06 3c c7 b0 fb 39 72 3b 19 3b
       0.00088562665 0.008235434 0.0004800616 0.002338138
000020 1c 2d f8 ba 5f f0 99 bb 75 42 32 b8 f9 7c b1 3b
       -0.0018934342 -0.004697844 -4.25004e-05 0.005416509
000030 01 ee e5 39 53 4e 89 3c c6 8c 51 3b e1 2e a4 3a
       0.0004385561 0.01676098 0.0031974777 0.0012526178
000040 62 81 47 3b d5 5a 67 3b 97 aa ad 3b d2 c1 ec 38
       0.0030442108 0.0035301943 0.005299877 0.00011289459
000050 34 49 5a 3b 86 f7 3e 3b 18 33 96 3b 20 41 e8 3b
       0.0033307793 0.0029139235 0.0045837276 0.0070878416

bn0.running_mean f4 [24]
000000 92 9a 65 c0 73 39 92 be ad 67 7e 41 dc a1 86 bd
       -3.5875592 -0.28559455 15.900311 -0.06573841
000010 9d 33 d9 bd 08 d7 7e 40 ad 67 7e 41 dc a1 86 bd
       -0.106055476 3.9818745 15.900311 -0.06573841
000020 81 7f 68 c0 f9 39 97 be b9 20 7b 41 6e e2 1f bd
       -3.6327822 -0.29536417 15.695489 -0.0390343
000030 a9 8a 14 be ae cd 80 40 b9 20 7b 41 6e e2 1f bd
       -0.1450602 4.0251074 15.695489 -0.0390343
000040 87 3d 6c c0 7b 4b 97 be 4b 68 71 41 3e 6b 50 bd
       -3.6912553 -0.29549775 15.087962 -0.050883524
000050 90 4c 29 be 0b 11 81 40 4b 68 71 41 3e 6b 50 bd
       -0.16533113 4.0333304 15.087962 -0.050883524

bn0.running_var f4 [24]
000000 84 66 84 41 6c 7a 5b 3f 66 fd ea 43 c7 2f 90 41
       16.550056 0.85733676 469.97968 18.023329
000010 2e 2c da 41 3b d9 0c 40 66 fd ea 43 c7 2f 90 41
       27.271572 2.2007587 469.97968 18.023329
000020 a2 85 85 41 99 47 5b 3f f3 ab f0 43 b2 db 90 41
       16.69025 0.85656124 481.34335 18.107273
000030 aa 22 dd 41 dd fb 09 40 f3 ab f0 43 b2 db 90 41
       27.641926 2.1559975 481.34335 18.107273
000040 a2 bd 86 41 08 e6 5b 3f 9c d1 fa 43 49 84 8e 41
       16.842594 0.85897875 501.63757 17.814592
000050 1a ca dc 41 ba c9 0b 40 9c d1 fa 43 49 84 8e 41
       27.598682 2.1841874 501.63757 17.814592

fc1.weight f4 [256, 24]
000000 71 4e 2a be 95 c5 04 be ae aa fd 3e f3 4d 05 bf
       -0.16631486 -0.12965997 0.4954428 -0.52072066
000010 b5 87 09 3f 88 d0 1b 3f 83 fb 3c be 9c ca 9b 3e
       0.537227 0.6086507 -0.18455319 0.30428016
000020 89 93 1b be 52 ee a3 bc 44 46 f9 be 06 cf 25 be
       -0.15192999 -0.0200111 -0.4868642 -0.16192254
000030 9b 69 f6 3d 3a 4d 93 3f 16 8b 98 be 84 ac 8c 3c
       0.120318614 1.1507943 -0.29793614 0.017172106
000040 7b c7 72 bd 4e 33 08 be f5 2c 1c 3f 16 4d 0b bf
       -0.05927227 -0.13300821 0.610061 -0.544145
000050 e5 35 21 bf 94 1d e6 3f 55 e5 d9 be b2 cd a8 be
       -0.6297286 1.7977777 -0.4255778 -0.32969433
000060 fb 6b 0c 3d d1 5a 67 bd 19 ee bc bc ae 68 75 3d
       0.034282666 -0.056483094 -0.023062753 0.059914283
000070 4b 93 c7 3e 0f bc 75 3b 13 5a b9 bd c8 26 8a 3c
       0.38979563 0.0037496125 -0.090503834 0.016864195
000080 59 6f 2c 3e 63 c4 ed 3c ba f9 ed 3d 3c 80 c6 be
       0.16839351 0.029024309 0.11619897 -0.3876971
000090 19 62 65 3e cd 29 d1 3d 88 0c 46 3e f1 53 22 be
       0.22400703 0.10213051 0.19340718 -0.15852334
0000a0 75 5a e0 3e e7 cf 8a bc 76 a0 6e be f7 f9 1b be
       0.43819013 -0.016944839 -0.23303398 -0.15232073
0000b0 dd 63 c2 3e d9 88 50 3e f4 35 ea 3d 9a e4 57 be
       0.37966815 0.20364703 0.11436072 -0.21083298
0000c0 80 23 32 be bc 2f 9d bf 3c 88 08 3e 8e 6f cf be
       -0.17396355 -1.2280192 0.1333322 -0.40514797
0000d0 3b a7 f2 be f5 7e bc 3f c6 27 d8 be ae 2c 73 be
       -0.47393212 1.4726244 -0.42217845 -0.23747513
0000e0 10 ad 07 3f 3a 85 d3 3e d0 df 7a 3e a2 11 48 3f
       0.5299845 0.4131258 0.2449944 0.78151906
0000f0 ef b1 8e be 4c 63 48 3e 43 78 f6 3e 22 bf 8b 3e
       -0.27870128 0.19569129 0.48138627 0.2729426
000100 a7 b0 54 3e 49 59 29 bf 80 70 9b 3e 13 42 87 3e
       0.20770513 -0.66151863 0.30359268 0.26417598
000110 45 7a 41 bf 66 04 ec be a5 0c ec 3d 06 a7 1b 3e
       -0.75577193 -0.46097106 0.11525849 0.15200433
000120 3d 55 21 3e 57 f7 f6 39 5a 7c a5 3e 09 84 ff bd
       0.15755172 0.0004710506 0.32321435 -0.124763556
000130 51 b9 92 be ff 90 d0 3f 78 91 cd 3e 6f 9f 22 be
       -0.2865701 1.6294249 0.40150046 -0.15881132
000140 19 bb 39 3d b1 f2 83 3e ac 39 65 3b 46 50 8f 3c
       0.045344446 0.25771096 0.0034977002 0.017494332
000150 19 6a f0 3d cf cb 1b 3f 18 86 ef 3e 70 84 79 3e
       0.117389865 0.6085786 0.46781993 0.24366927
000160 4d b6 06 3f b5 53 b5 bc fa ed f2 be 7a 44 3f 3f
       0.5262192 -0.022134641 -0.47447187 0.7471386
000170 a9 79 72 bf b8 a3 30 3e 7d 3b a8 be fd f2 93 3f
       -0.9471689 0.17249954 -0.32857886 1.1558529
000180 af 27 8e 3f a4 f6 b3 3d c5 d9 48 bf d3 ab a0 be
       1.110586 0.08787277 -0.7845729 -0.3138109
000190 8f 24 92 bf c0 6f 23 bf 6d b3 b6 3e 78 ca 20 3f
       -1.1417407 -0.6384239 0.35683766 0.6280894
0001a0 dc d2 26 bf b5 b4 0c 3f 8b b1 0c 3e b8 b3 9a 3e
       -0.65165496 0.5496324 0.13739602 0.3021524
0001b0 ed 62 fd bd 1e f6 92 3e de 7d f8 3e ee 37 b7 3e
       -0.12372384 0.28703398 0.4853353 0.35784858
0001c0 1b b0 09 3f 6b 94 9e 3e 63 0e 6e be ff 05 18 3f
       0.5378434 0.3097261 -0.23247676 0.5938415
0001d0 0f df c0 3e 66 dd 45 3f 84 e3 fe 3f 1e 5d 5b 3f
       0.3767018 0.7729095 1.9913182 0.8568896
0001e0 c4 0b a4 be 69 38 9e 3f b6 90 17 bf 84 8f 2c 3f
       -0.32040226 1.2360965 -0.59205186 0.6740649
0001f0 ca dc 6d be ba de 29 bf 38 86 e5 3e fd b6 59 3e
       -0.23228756 -0.6635548 0.44828963 0.2126121
000200 42 a2 99 be 42 b7 28 3f 1e a9 f6 3e a1 dc d6 3e
       -0.30006605 0.6590463 0.481759 0.41965201
000210 5f 1d 50 3f b2 4b c4 be 9c 9f 39 3f 3b 67 73 3e
       0.81294817 -0.38339 0.7250917 0.23769848
000220 44 37 8f 3f bd 68 22 3f 18 8c 33 3e 21 7d d6 be
       1.1188741 0.6344107 0.1753391 -0.4189234
000230 88 8d 73 3d d4 b1 d8 bd 9a 42 44 be f6 a9 81 bf
       0.059461147 -0.10580793 -0.19166031 -1.0129993
000240 d7 46 5f bf 34 9a bc 3d 75 21 ef 3e 63 7f 31 bf
       -0.8721747 0.092090994 0.46705213 -0.69335
000250 53 6c 70 be b2 cb 4b 3f 1b d7 87 bf 57 75 94 3f
       -0.23478822 0.7960769 -1.061252 1.1598309
000260 8b 9a 9b 3b 25 46 44 3d c3 9f 65 be f2 78 18 3f
       0.0047486476 0.047918458 -0.22424226 0.5955955
000270 d0 bb 09 3f 31 f9 d2 3e 14 49 49 bf 53 ae 67 3f
       0.53802204 0.41205743 -0.78627133 0.9050037
000280 66 39 9c bc 58 96 40 3f ae 54 5c 3f d7 fd ac be
       -0.019070338 0.75229406 0.8606671 -0.33787414
000290 3a a0 68 bf 64 a1 ba 3e 28 f8 0c 3f ed 91 95 be
       -0.90869486 0.36451256 0.55066156 -0.29212895
0002a0 bb e5 a8 bf e9 0c 3b 3f da 78 e8 3e ca ad 10 3f
       -1.3195108 0.73066574 0.45404702 0.5651518
0002b0 f1 aa 02 bf b7 89 64 3f 6e a5 d9 3e 7f 98 26 bf
       -0.51042086 0.89272636 0.42509025 -0.6507644
0002c0 30 3d 0a bf 91 52 6b 3f 07 93 df 3e bf 32 a4 be
       -0.53999615 0.9192286 0.4366686 -0.32069966
0002d0 1c 7b 12 3f b0 c5 87 bb 80 56 f5 be 7a 62 de bf
       0.572191 -0.0041434392 -0.47917557 -1.7373803
0002e0 88 13 9b be 88 95 58 bf 95 ef d8 be e5 99 7c bf
       -0.3028834 -0.84603167 -0.42370287 -0.98672324
0002f0 08 ea 0c bf 79 9f 22 bf ad 11 67 3f d0 3b 9c bf
       -0.55044603 -0.63524586 0.90261346 -1.2205753
000300 66 8c 9b bf 60 22 49 be 9b 4f d4 3e 2f 66 df 3e
       -1.2152221 -0.1964202 0.41466984 0.43632647
000310 21 38 fc be de 9c 95 3f 9e eb 07 3f e6 c5 92 be
       -0.49261573 1.1688497 0.530939 -0.2866661
000320 99 04 ba be df 9f 5c bf 4b 3c a7 bf 6f 95 ce 3e
       -0.36331633 -0.86181444 -1.3065275 0.40348384
000330 c8 bc ea be a0 d2 d6 3d ee 89 8e 3e 42 9e d7 be
       -0.45847154 0.10489392 0.27839607 -0.4211293
000340 0a db 83 be 28 76 63 3d ff de d0 3e 3f 64 00 bf
       -0.2575305 0.055532604 0.40795133 -0.50152963
000350 7f e5 ba 3f 7f ec 51 be eb 52 d8 3e 01 da 20 be
       1.4601287 -0.20500372 0.4225076 -0.15708162
000360 60 b6 19 3f 49 cc ff be a8 3e 1e 3f f2 d6 2f 3e
       0.6004391 -0.49960545 0.61814356 0.17171839
000370 3f 4b 0d bf 73 31 27 bf ad 01 21 3e fc fd 17 3f
       -0.5519294 -0.6530983 0.15723296 0.59371924
000380 a4 dc 2b 3f ba d5 c3 3e 43 f1 76 3f e6 c3 ca bd
       0.67133546 0.38248998 0.96461886 -0.09900646
000390 21 af 8f be 9b fd bb be e5 d4 53 be 3b 15 72 3f
       -0.280633 -0.36716923 -0.20686682 0.94563645
0003a0 5e 07 5d 3f c8 e1 fe 3e 9c ca 2e be f2 c1 61 3f
       0.86339366 0.49781632 -0.17069477 0.8818656
0003b0 bb 99 06 be d8 25 83 3f 77 fe c4 3e 15 ef e0 3f
       -0.13144581 1.0245924 0.3847539 1.7572962
0003c0 00 ce b9 be 34 1c 90 bf 45 a6 a1 3e 60 d8 18 3e
       -0.36289978 -1.1258607 0.31572166 0.1492629
0003d0 07 6f 14 3e 49 77 27 bf 71 a0 de be b7 1d 74 3f
       0.14495479 -0.6541639 -0.43481782 0.9535784
0003e0 aa b1 b6 be c2 b6 17 bf 2b 0d 0e bf 6b 58 aa bf
       -0.35682422 -0.5926324 -0.5548884 -1.3308233
0003f0 01 4a 18 3e 21 9e 83 bf 14 20 2b bf 20 a8 31 40
       0.1487198 -1.0282632 -0.6684582 2.7758865

fc1.bias f4 [256]
000000 40 a8 69 3c 64 d7 4c be 64 e5 89 3d 0a 73 0e 3a
       0.014261305 -0.2000404 0.06733206 0.0005434012
000010 d2 45 0a be c7 b7 9b bd 7b 11 a7 bd 1a dd bc bd
       -0.13503197 -0.07603412 -0.08157631 -0.09221859
000020 10 8f 4f bd df 3a 1a 3d f4 d6 f1 bd 86 a0 54 3d
       -0.050673544 0.0376538 -0.11808577 0.0519109
000030 8c 68 2b be d9 da 43 3e 6d 6a fa bd 0b b9 b1 3d
       -0.167391 0.19126453 -0.1222733 0.08677872
000040 ad 1a 0f be e6 41 0f be 9d 15 f5 bc b7 bf ee bd
       -0.1397502 -0.13989982 -0.029917533 -0.116576605
000050 14 52 6a bd 2e c0 b6 bd 1e da 69 bd 8a 88 21 be
       -0.057207182 -0.08923374 -0.05709278 -0.15774742
000060 1b d8 4b 3e 2e eb e9 3d f2 ff 95 bd 83 c9 17 3e
       0.19906656 0.1142181 -0.07324208 0.14822964
000070 cc 3b ba bd 3d d5 2a be 56 c5 84 3d 1c df 8f bd
       -0.090934366 -0.16682906 0.06482951 -0.070249766
000080 a2 05 1d 3e a8 2b 61 bd e6 33 2a be 01 40 30 3e
       0.1533418 -0.054973274 -0.1662136 0.17211916
000090 57 bb 3f 3d 10 4f 7d 3d 8c 15 9e bc dc 5e 26 be
       0.04680952 0.061842978 -0.019297384 -0.16247123
0000a0 26 c6 85 3d 12 5b 63 3a d0 3c 0a be 0c 1a ee 3d
       0.065319344 0.00086729333 -0.1349976 0.11626062
0000b0 86 bb 43 be 42 b9 01 be bb 63 41 bd b8 d5 42 be
       -0.19114503 -0.12668326 -0.04721425 -0.1902684
0000c0 c5 4c 3c be 48 7f 7a bd bd d5 1c bd cb 5f 19 3e
       -0.1838866 -0.06115654 -0.038289774 0.14977948
0000d0 10 57 c3 3d 58 51 42 3e fa d9 81 3d 3f a4 df 3c
       0.0953809 0.18976343 0.06340404 0.027299998
0000e0 7f d9 1d bd a4 25 b1 bd a9 cf 3c be bc e7 3e be
       -0.0385375 -0.086497575 -0.18438591 -0.18643087
0000f0 df 4b b2 3d 9f c1 04 be a2 7e ab bd ad 89 c2 3d
       0.087058775 -0.12964486 -0.08373763 0.09498916
000100 b9 b2 00 be 06 19 9a 3d ae 34 31 bc 08 09 2b 3d
       -0.12568177 0.07524304 -0.0108157825 0.04175666
000110 bf 6d be bd 93 77 18 3e a8 be 2b be 84 24 43 be
       -0.09298276 0.14889364 -0.16771948 -0.19056898
000120 64 15 23 3e 6e 2f 0d be e0 d9 48 3e cb 34 ba 3d
       0.15926129 -0.13787624 0.19614363 0.09092101
000130 c7 09 a1 3d 28 dd cf bc d1 87 1d 3d 74 39 56 3d
       0.07863193 -0.02537401 0.038459603 0.052300885
000140 51 42 c4 bd 37 08 1a 3e ac 4c 00 3e 6f 0b 46 3c
       -0.09582961 0.15042196 0.12529248 0.012087687
000150 33 da 6e 3d 84 12 ca bc 3f c5 96 bd 62 d8 20 be
       0.05831356 -0.024667032 -0.073618405 -0.15707543
000160 bc 55 a0 bd e1 45 48 be 66 d3 82 bd 7f bd da 3d
       -0.078288525 -0.19557907 -0.06387977 0.10680675
000170 ce cd 4a 3e c1 5f 3f be 5a 80 2e be 10 88 2c 3e
       0.19805071 -0.18688871 -0.1704115 0.16848779
000180 cf c3 92 bd 3c ff 5f 38 bb 95 02 3e 4b 30 39 3e
       -0.07166254 5.340505e-05 0.1275243 0.18084829
000190 69 c5 9e 3d 6d 32 4d 3d 52 db 73 bb 2b 89 a3 3b
       0.07752497 0.050096918 -0.0037209583 0.004990717
0001a0 e7 34 a8 3d b9 9e 44 be 14 9a 49 be d4 18 0d 3e
       0.08213215 -0.19201173 -0.19687682 0.13779002
0001b0 f3 7b 4c be c8 af db 3d 48 4c 17 3e 16 8f 0a 3e
       -0.19969158 0.10726887 0.14775193 0.13531145
0001c0 28 67 7f 3d 2c de b8 3c 21 f5 c1 3d 1d 97 f8 3d
       0.062354237 0.022566877 0.09470583 0.121381976
0001d0 b2 78 d3 3b 34 b2 16 be 74 8f 01 3e 38 f5 b8 3c
       0.006453597 -0.14716417 0.1265238 0.022577867
0001e0 02 4e fc 3d 05 06 0c be 43 ac 51 bd 98 53 05 be
       0.12319566 -0.13674171 -0.051189672 -0.1302017
0001f0 54 ea 34 3c 5a f8 31 3e 2e d3 20 3d 7a e0 31 3e
       0.011042196 0.17379895 0.039263897 0.17370787
000200 37 6f 19 3e 74 9f 0f be c2 6b 48 3e 12 ac 38 3c
       0.14983831 -0.1402567 0.19572356 0.0112714935
000210 b1 95 2e 3e 71 5e 20 3d d4 9d 0f bd 4c 5a 31 3e
       0.1704929 0.039152566 -0.035062626 0.17319602
000220 dd 53 1a be 53 40 a0 3b f3 26 f1 bc a2 b2 19 3c
       -0.15071054 0.0048904805 -0.029437518 0.009380968
000230 90 c5 6e bd f9 a5 25 3e 97 85 2e bc cb 59 ac 3d
       -0.05829388 0.16176595 -0.0106519675 0.08415564
000240 e8 dc b4 3d 8f bf 3e 3e a4 17 97 3d 38 10 50 be
       0.08831197 0.18627761 0.07377556 -0.20318687
000250 37 9d 2d be 22 8d 45 be 52 ea 4c be 62 0a 2e be
       -0.16954504 -0.19292119 -0.20011261 -0.16996148
000260 33 a1 40 bb f9 e0 45 3e 9a 34 07 be 6e 66 af 3d
       -0.0029392957 0.19324102 -0.1320366 0.08564459
000270 f1 a4 be bd df e1 21 3e 6a ca 07 3e c0 3d c2 3d
       -0.09308804 0.15808819 0.13260809 0.09484434
000280 de 22 38 3e fd a6 1d be fb 8d 31 be f7 24 d5 bd
       0.17982051 -0.15395732 -0.17339318 -0.10407441
000290 03 76 2a 3d f1 b8 38 3e de 48 0a 3e e9 65 83 3d
       0.04161645 0.180393 0.13504359 0.06415922
0002a0 94 c7 12 bd 92 4e ef bd fe 67 50 3e 84 f4 36 be
       -0.035834864 -0.11684908 0.2035217 -0.17866713
0002b0 1a 28 10 be 8b b1 f5 3d 77 07 23 3e e0 be 5b 3d
       -0.14077798 0.11996754 0.15920816 0.05364883
0002c0 17 4a 59 bb 56 a6 ca bc e8 cb d9 3c 81 8f d5 bd
       -0.0033155733 -0.024737518 0.026586488 -0.10427762
0002d0 97 d2 4e 3e 6c 18 50 3e fa e3 a1 bd 03 a6 11 3e
       0.20197521 0.20321816 -0.07904811 0.14223485
0002e0 0b 74 48 bd 4a b0 16 be 16 6b 10 3d 34 6b 21 bd
       -0.048938792 -0.14715686 0.035258375 -0.039408877
0002f0 75 a4 2d 3e aa ef 67 3c f1 a0 3b bd 6b dd 25 be
       0.16957267 0.014156261 -0.045807783 -0.16197746
000300 2f aa 08 3e 0f 7d 0b 3e 56 25 eb 3c 98 7e 92 bc
       0.1334617 0.13621925 0.028704327 -0.01788263
000310 fa 5e 8c bd e6 ed 41 3d 7c 97 48 3e 85 b7 09 bd
       -0.06854053 0.04734602 0.19589037 -0.033622283
000320 94 13 9a 3c 65 d5 47 be eb 0d 54 3d 8c 42 b0 bd
       0.018808164 -0.19514997 0.051771086 -0.08606443
000330 48 9d 46 bd c3 b9 dd bd 2f 47 40 3e 5e a0 0e 3e
       -0.04848984 -0.10826447 0.18777154 0.13928363
000340 f2 e8 b5 bd 25 29 4c bd 7e 34 7b 3d 4f 54 9d 3d
       -0.088823214 -0.049843926 0.061329357 0.07682096
000350 81 1c c6 bd 4a 73 a9 3d 40 27 06 3d fe 9e ef 3d
       -0.096734054 0.08273943 0.032752275 0.11700247
000360 0d 6b e1 bd f1 eb 06 be 0f 2f c3 3d 6e 35 05 bc
       -0.110067464 -0.13175942 0.0953046 -0.008130414
000370 1c f6 b4 bd 44 23 24 3e 02 75 b9 bc fb 81 0b be
       -0.08836004 0.16029078 -0.022638801 -0.13623802
000380 5c ab ee bc ea c8 c1 bd 97 61 8f bd e7 fd 2b be
       -0.029134445 -0.094621494 -0.07001036 -0.16796075
000390 8f da 26 3e 44 90 37 3e 8b 44 2f be 38 b1 02 3e
       0.16294311 0.17926127 -0.17115991 0.12762916
0003a0 df ca 75 3d 35 6d a9 bd 4a 4b 76 bd aa b2 0e 3d
       0.060007926 -0.08272783 -0.060130395 0.034838356
0003b0 21 77 31 3d 5e 74 31 3e 19 aa 47 3e 5f c5 3f 3c
       0.0433265 0.17329547 0.19498481 0.011704772
0003c0 54 3a 44 3e 8c 79 f7 bd 6a f3 bc 3a bb f8 2b be
       0.19162875 -0.1208373 0.0014415805 -0.16794102
0003d0 c9 52 c8 3d 2c 7e 24 3d ed de fd bd 7e 3e 1f be
       0.09781415 0.04015939 -0.12396035 -0.15551183
0003e0 00 04 26 bd ee d5 9d bd f4 5b aa bd eb 35 36 be
       -0.04053116 -0.077068195 -0.0831832 -0.17794006
0003f0 7f 58 05 be 1b 6c 2d 3e e9 bb cd bd be 66 aa 3d
       -0.1302204 0.1693577 -0.10045607 0.08320378

bn1.weight f4 [256]
000000 05 82 08 3f 3a 51 59 3c ae ce 46 3f 55 0e d6 3f
       0.53323394 0.013263995 0.7765912 1.6723124
000010 f5 d8 5a 3f fe 3e 14 3f 18 a6 52 3f 93 46 d0 3e
       0.854873 0.5790862 0.8228469 0.40678844
000020 05 03 87 3f 66 d8 79 3f 25 d0 99 3f a7 ca 59 3f
       1.0547796 0.9759582 1.2016646 0.8507485
000030 1e b7 ca 3e 14 48 73 3f db 7e 31 3f f4 01 93 3f
       0.39592832 0.9503186 0.6933419 1.1484971
000040 23 08 1d 3f 7c dd 50 3f 26 82 69 3c ee 25 02 3f
       0.6134054 0.8158796 0.014252221 0.50839126
000050 a5 85 09 3f a4 36 b5 3f e1 fd f5 3b 39 3b 52 3e
       0.5371955 1.41573 0.0075070714 0.20530404
000060 b3 58 97 3d 52 96 cd 3f d8 12 2d 3f b6 9d 38 3a
       0.07389965 1.6061499 0.6760688 0.0007042544
000070 e7 10 ad bd 2e d8 81 3e 24 ee b9 3f 6f 8f be ba
       -0.084504895 0.25360245 1.45258 -0.0014538596
000080 95 aa 97 3e da 7d 71 3f f0 d5 53 3e ea f0 3d 3e
       0.2962233 0.9433266 0.2068708 0.18548933
000090 96 70 33 3f 13 f8 3f 3f 94 61 b1 3f 32 67 6b 3f
       0.7009367 0.74987906 1.3857903 0.9195434
0000a0 2d f8 99 3f 35 42 76 3f e0 7b 3f 3f 52 a1 0a 3e
       1.2028862 0.96194774 0.74798393 0.13538101
0000b0 67 13 3f bb 07 2a 65 3e f2 14 36 3f 5c c1 2d 40
       -0.0029155852 0.22379313 0.7112571 2.7149267
0000c0 5c f2 92 3e 75 8b 79 3f 28 6d 8f 3f fd 65 30 3f
       0.2870053 0.9747842 1.1205187 0.6890562
0000d0 d2 5a e4 3d 09 ea 90 3f 03 f5 e7 3c e6 a9 35 3d
       0.11150135 1.1321422 0.028315073 0.04435148
0000e0 ed ce 44 3f 29 4f 5f 3f 8d 44 ca 3f 2a dc 4c 3e
       0.76878244 0.87230164 1.580217 0.20005861
0000f0 5b 81 15 3f b4 67 97 3f 20 f9 28 3d 4b 72 3b 3f
       0.58400506 1.1828523 0.04125321 0.7322127
000100 5f 82 89 3f 3c 65 54 3f 83 a3 92 3f eb 1b 49 3f
       1.0742911 0.8296697 1.145615 0.78558224
000110 51 f8 ec bc 5f a2 33 3f 0c 2c 12 3f 04 f9 f3 3d
       -0.028927 0.70169634 0.5709846 0.1191273
000120 a5 9f bc 3a c3 44 81 3d c4 1f 91 3f e4 aa 4a 3e
       0.001439084 0.063119434 1.1337819 0.19791752
000130 75 d7 e0 3e 7a 98 f9 3e 1b ad 8e 3e 83 96 a4 3f
       0.4391438 0.48749143 0.27866444 1.2858433
000140 28 44 50 3f 95 16 a8 3e c8 89 a5 3f e2 21 88 3f
       0.81354 0.3282973 1.2932673 1.063534
000150 7c 68 58 3f c4 95 47 3f 2a a3 5b bc 7b 38 87 3f
       0.8453443 0.779629 -0.013405601 1.0564111
000160 a5 8f 64 bd 81 2e a8 3e c8 4e 74 3f 8f a1 7d 3e
       -0.055801053 0.3284798 0.9543271 0.24768661
000170 22 10 dc 3c fc 9c 4a 3f 9c c2 0c 3f 4f 50 65 3e
       0.026863161 0.7914579 0.5498445 0.22393917
000180 31 2d 29 3f e4 35 1d 3f e0 a9 44 3f 02 e4 60 3f
       0.6608458 0.61410356 0.7682171 0.8784791
000190 3d 16 54 3f f1 68 10 3f a3 08 bb 3f 20 53 25 3f
       0.8284643 0.5641013 1.4612011 0.64579964
0001a0 b2 93 35 3e 93 a7 61 bc 8d b0 6e 3f 57 2b 6a 3f
       0.17732123 -0.013772863 0.93238145 0.9147238
0001b0 76 25 a9 3f 90 ad 95 3b 90 e4 aa 3c b1 ea d6 3e
       1.3214557 0.0045678094 0.02086094 0.4197593
0001c0 be 51 d1 3f 74 d3 6b 3e b8 24 69 3f 7c d9 9b 3f
       1.6353071 0.23029882 0.91071653 1.2175746
0001d0 65 8a 88 3f 11 4b 43 3f e4 a2 2c 3f 00 83 ec 38
       1.0667235 0.7628642 0.6743605 0.000112777576
0001e0 4f d1 1b 3f 4a 43 91 3d 6b cb 5d 3f 58 a4 87 3f
       0.60866255 0.070929125 0.86638516 1.0597029
0001f0 7c 57 9e 3f f5 4d 8d 3f fc 63 17 3f 8b e6 52 3f
       1.2370448 1.1039416 0.5913694 0.8238303
000200 b8 79 03 3e 6e 93 06 3f a0 1e 76 3f 66 f7 c0 3d
       0.12839401 0.5256871 0.9614048 0.094221875
000210 c0 8f bc 3f 73 c4 21 3f 7e 3a ef 3f 85 c0 28 bc
       1.4731369 0.6319038 1.8689725 -0.0102998065
000220 97 8f 7a 3f bc c7 9e 3f e5 88 e3 3f a3 38 b2 3e
       0.9787535 1.2404704 1.7776152 0.34808835
000230 09 4b 1a 3f f4 8b 57 3f 1e e3 6f 3f bc cc fe 3e
       0.60270745 0.84197927 0.9370593 0.49765575
000240 ce f7 91 be c2 14 96 3e 8e a1 cf 3d 60 ca 77 3e
       -0.28509372 0.29312712 0.10138236 0.24198294
000250 bb 76 62 3f 64 b9 e6 3d b4 8d 5e bd 9f 1c 75 bb
       0.8846242 0.11265829 -0.054334357 -0.0037401093
000260 cb fe 86 3f f5 75 0e 3f d0 0a 0f 3f be 1d 94 3f
       1.0546507 0.5564874 0.55875874 1.1571577
000270 dd 95 83 3e eb 8f 45 3f 1e 31 1c 3f 66 ec 25 bb
       0.25700274 0.77172726 0.61012447 -0.0025317906
000280 17 8b 90 3d 7b 0b fc 3c 89 05 46 3f a2 56 0e 3f
       0.07057779 0.030767193 0.77352196 0.5560094
000290 a4 b9 1c 3f 1a 72 04 40 c1 56 b0 3f 8d 3f 6d 3e
       0.61220765 2.0694642 1.3776475 0.23168774
0002a0 28 ab 68 3f 48 7b df 3f 4c 9d b7 3f d8 15 91 3d
       0.90886164 1.7459497 1.4344878 0.070842445
0002b0 b2 b4 9d 3c de c3 20 3f 86 34 cb 3f 49 b0 1f 3c
       0.019251201 0.6279887 1.5875404 0.0097466195
0002c0 bc 19 24 3f 47 df 89 3f 27 a4 97 3b 0a a5 ae 3f
       0.6410177 1.0771264 0.004627723 1.3644116
0002d0 a8 e9 41 3c dc 2b b9 3f 76 3f ca 3f 99 83 a4 3f
       0.011835493 1.446651 1.5800617 1.285266
0002e0 2a 53 ad 3f 72 92 ef 3f 32 69 58 3f af 4f b4 3f
       1.3541005 1.8716567 0.84535515 1.4086818
0002f0 11 71 1b 3f 1e a7 0b 3f 15 51 be 3f d9 41 81 3f
       0.607194 0.54551876 1.4868494 1.009822
000300 cb ed 43 3e 0e d0 42 3e 36 33 31 3f 08 8b 86 3c
       0.1913368 0.19024679 0.69218767 0.016423717
000310 92 7d 44 3f 8d 9e 51 3f 8c 23 d9 3d ed 23 fd 3d
       0.76754105 0.81882554 0.10602483 0.12360368
000320 84 90 27 3f 6a e3 87 3f 83 d5 77 3f 78 bd aa 3f
       0.6545489 1.0616276 0.9681017 1.3339071
000330 a0 cc 14 3f 4e 33 9d bd ef d3 40 3f c6 ec 4b 3f
       0.5812473 -0.07675801 0.75323385 0.7965816
000340 5c 55 86 3f c8 54 3d 3f f5 f6 f1 3e 89 30 8a 3d
       1.04948 0.7395749 0.47258726 0.067475386
000350 77 c6 42 3f 26 b3 5f 3f 89 40 49 3f 76 ed 30 3f
       0.76084083 0.87382734 0.786141 0.69112337
000360 17 00 8c 3f 53 72 35 3f fc 14 b0 3f 09 6b 34 3f
       1.0937527 0.7087757 1.3756404 0.7047582
000370 47 aa 4b 3f 65 57 73 3e 92 93 74 3e d3 c0 03 3e
       0.795567 0.23763807 0.23884419 0.12866525
000380 d4 9b 99 3b 29 90 b6 3e 1c ae ba 3f 4e 49 b7 3e
       0.0046877656 0.3565686 1.4584384 0.35798115
000390 a7 33 a3 3d 7a 96 82 3f 7d ff a8 3f b6 07 a8 3f
       0.07968836 1.0202172 1.3202969 1.3127353
0003a0 08 e5 4c 3f f6 57 89 3d 1e 14 66 3f 18 a1 d2 3e
       0.80036974 0.0670623 0.89874446 0.4113853
0003b0 cb 72 14 3e 48 8a 73 3f 3b 7d b5 3f 06 6d 1a 3e
       0.14496915 0.95132875 1.4178842 0.15080652
0003c0 36 61 1e 3f 6b 67 92 3f 85 b6 96 3f 19 7d 3b 3f
       0.6186708 1.1437811 1.177445 0.7323776
0003d0 cf 40 92 3f 61 d8 8b 3f 27 7b d8 3e 6d 92 17 3f
       1.1426028 1.0925409 0.42281458 0.59207803
0003e0 30 11 c8 3b 96 68 40 3e 13 d1 c7 3c 96 50 70 3f
       0.0061055645 0.18789896 0.024391687 0.93872964
0003f0 72 0c 40 3f 85 ae 7b 3e 2e cc 82 3f 17 16 de 3f
       0.7501899 0.24578293 1.0218561 1.7350491

bn1.bias f4 [256]
000000 c8 58 6e be 46 18 1f bd 54 d5 9c bf 6f f2 10 bf
       -0.23276055 -0.03884151 -1.2252603 -0.56619924
000010 a1 36 61 bf e7 32 5c bf e2 d4 51 bf 1e 4c 91 be
       -0.8797398 -0.8601517 -0.8196546 -0.28378385
000020 19 15 b5 be 61 58 4a bf 39 15 9b bf 78 21 4a bf
       -0.3536766 -0.79041106 -1.2115852 -0.7895732
000030 ea 24 5a bf f7 a1 38 bf 31 4c b1 be 48 e1 8e bf
       -0.85212576 -0.7212214 -0.34628442 -1.11625
000040 7e 5a 60 bf 4b 2a fc be 3c 9f 31 bd d3 d1 26 bf
       -0.8763808 -0.49251017 -0.04336475 -0.65163916
000050 23 8e 40 bf 51 e0 ae be a0 69 14 bd 1f 61 18 bf
       -0.75216883 -0.34155515 -0.036233544 -0.59523195
000060 27 f2 26 be 5f 02 43 bf 41 0e 93 bf b9 43 95 bd
       -0.16303311 -0.76175493 -1.1488725 -0.07288308
000070 62 d3 a4 be 63 29 9f bf 59 68 0e bf 99 6f b8 bd
       -0.32192522 -1.2434505 -0.5562797 -0.090056606
000080 3e 92 6a bf 34 a3 12 bf 70 11 74 bf ae 9f 1a bf
       -0.916294 -0.5728028 -0.9533911 -0.603999
000090 52 9e b5 bf d6 a3 99 bf 45 c7 be 3c c9 e9 04 bf
       -1.418894 -1.2003124 0.023288378 -0.5191923
0000a0 9e a0 8b bf a6 2b d7 bc cf 21 3e bf 12 46 80 bf
       -1.0908391 -0.02626593 -0.7427034 -1.0021384
0000b0 17 c7 52 bc e6 45 21 bf 00 f3 31 bf e9 cd 2b 3f
       -0.0128648495 -0.6299728 -0.69511414 0.6711107
0000c0 8d 50 66 bf 39 b2 10 bf 11 84 a6 bf 3d 6c 99 bf
       -0.8996666 -0.56521946 -1.3009053 -1.1986157
0000d0 14 40 c6 be 09 51 67 3e b7 37 58 be 42 3d 16 be
       -0.38720763 0.22589506 -0.21115004 -0.14671806
0000e0 1b 6b 25 bf 94 65 75 3b 87 3a dd 3d a4 c0 12 bf
       -0.64616555 0.0037444578 0.10802179 -0.57325196
0000f0 09 eb 5f bf 7c ee 8b be 7a 70 84 be 82 6e ad 3d
       -0.8746801 -0.27330387 -0.25867063 0.08468343
000100 f4 1f 24 bf e2 46 07 bf d1 d2 53 bf ba 3d 7b bf
       -0.64111257 -0.52842534 -0.82743555 -0.9814106
000110 9d b9 c2 bd 5e e6 85 bf 80 f1 84 bf 75 48 22 bf
       -0.09508059 -1.0460927 -1.03862 -0.6339181
000120 0f 03 ae bd 26 e8 67 be 1e d6 10 bf b6 fb a0 bf
       -0.08496677 -0.22647151 -0.56576717 -1.2576816
000130 f1 f9 a5 bf e0 8d b1 bf 5f 06 70 bf d7 53 8a 3e
       -1.2966901 -1.3871422 -0.9375972 0.2701709
000140 a2 2e 62 bf 94 00 6e bf 5d 57 f5 be ee bd be be
       -0.88352406 -0.9296963 -0.47918215 -0.3725428
000150 78 ea 3a be 64 f6 93 be 16 75 c3 bd 9e 1d a8 bf
       -0.18253505 -0.2889892 -0.09543817 -1.3134038
000160 07 d1 93 be bf 5f 82 bf 95 2c 97 3e 47 8a 32 bf
       -0.28870413 -1.0185469 0.295262 -0.69742244
000170 d9 a8 b3 bd 7a fd d5 be b5 5b 68 bf 71 2f 97 bf
       -0.087724395 -0.4179495 -0.90764934 -1.1811353
000180 ea 1b ff be 1c 5e ab bf c2 64 71 bf 40 11 dc be
       -0.49825984 -1.3388095 -0.9429437 -0.4298191
000190 73 ee e7 be 71 cb 80 bf 41 d9 2f bf e4 9a 25 bf
       -0.4529911 -1.0062085 -0.6869088 -0.6468947
0001a0 e8 8c 2d bf 82 41 82 bd 33 93 01 bd 5a 63 da be
       -0.6779313 -0.06360151 -0.03163452 -0.42653924
0001b0 1d 66 91 bf 90 3d ab bc 41 96 e8 bd 3d 03 38 bf
       -1.1359288 -0.020903379 -0.11356784 -0.7187994
0001c0 f8 22 f2 bd f1 6d 6f bf 65 cc 86 be 40 37 7f bf
       -0.11823076 -0.9352713 -0.26327816 -0.9969368
0001d0 87 e2 f1 3e b4 1b 83 bf 15 a6 11 be 30 fd 93 bd
       0.4724314 -1.0242829 -0.14223512 -0.07226026
0001e0 ae 02 08 bf 1c d2 02 bf 13 e0 44 bf 3c d6 9e bf
       -0.5312909 -0.5110185 -0.7690441 -1.2409129
0001f0 91 77 bd be 8b 8c e3 be 32 1e 3c bf c5 88 fc be
       -0.37005284 -0.44443163 -0.73483574 -0.49323097
000200 57 df 9e be 7c 46 2a bf 8a 9e e3 be 13 f9 16 bf
       -0.3102977 -0.665138 -0.44456893 -0.5897381
000210 df 33 0f bf 08 12 9a bf 43 38 a3 3e 6b 8f b3 bd
       -0.55938524 -1.2036753 0.31878862 -0.08767589
000220 d7 22 3c bf b8 36 fc be 8b 4b b2 be 70 80 9c be
       -0.7349066 -0.49260497 -0.3482326 -0.3056674
000230 13 48 2d bf 38 68 8f be 44 5f 0a bf c3 54 5e bf
       -0.676881 -0.280092 -0.54051614 -0.86848086
000240 50 34 80 bf c1 47 b5 bf 04 b1 e7 3e ef c9 4e bf
       -1.0015965 -1.4162523 0.4525224 -0.80776876
000250 57 18 54 bf a3 4f bf be 25 3e ac be 4e ae 42 be
       -0.8284964 -0.37365445 -0.33641163 -0.19011804
000260 05 e6 b4 bf 51 7b b6 bd c5 10 05 bf 34 fa d0 bd
       -1.4132696 -0.089102395 -0.51978713 -0.102039725
000270 32 c4 76 bf 8f 77 4e be 5c 34 ee be f1 a1 5f bc
       -0.9639312 -0.20162795 -0.46524322 -0.01364945
000280 8e f6 56 be b1 4e 1f be 3d 76 3c bf 46 9d 41 bf
       -0.2099249 -0.15557362 -0.7361792 -0.75630605
000290 2f e0 53 bf be 60 0b 3f 57 65 59 bf 61 c9 2d bf
       -0.8276395 0.5444449 -0.8492026 -0.67885405
0002a0 0d e6 41 bf b1 87 71 bf 84 03 f0 3e 8e 83 a2 be
       -0.75741655 -0.94347674 0.46877682 -0.31740993
0002b0 e7 83 58 be 47 b8 6a bf 50 39 04 be 48 d4 9b bd
       -0.21144067 -0.91687435 -0.12912488 -0.07608849
0002c0 4e c4 2c bf 3f 83 33 bf 56 2e af bd 2e ea 34 be
       -0.6748704 -0.7012214 -0.0855376 -0.17667457
0002d0 fa 85 16 bd 67 cb fa bd f5 4f 0b be 9d f7 19 3e
       -0.036748864 -0.12245827 -0.1360472 0.15035863
0002e0 3f 68 f9 be 3f e0 47 be bd 4e 97 bf c1 d1 a7 3e
       -0.48712346 -0.19519137 -1.1820904 0.32777217
0002f0 1c d6 1f bf 1c 41 8a be 9d 4f 5c bf f4 76 f4 be
       -0.6243608 -0.270028 -0.8605898 -0.47747004
000300 fd e1 29 bf fe 53 36 bf 8e 5c f9 be a7 9d 7c bd
       -0.66360456 -0.7122191 -0.48703426 -0.061673786
000310 30 07 ee be 30 56 5f bf af f5 9f be 49 68 17 bf
       -0.4648986 -0.87240887 -0.3124213 -0.591435
000320 77 78 54 bf 6f 02 dc be 63 64 3c bf d0 05 49 bf
       -0.82996315 -0.42970607 -0.7359068 -0.78524494
000330 2f 24 1b bf 5f 02 a0 be 5b 95 21 bf 2d d8 29 bf
       -0.60602087 -0.3125181 -0.63118523 -0.66345483
000340 70 24 7b bf de f0 ba be cd 68 80 bf 1b 8d 8c be
       -0.98102474 -0.36511892 -1.0031983 -0.27451405
000350 8a 1f 87 bf 69 90 76 bf 40 af 83 bf 8d 7f 74 bf
       -1.05565 -0.963141 -1.0287857 -0.9550713
000360 f9 83 85 be 39 fa 41 bf c9 31 ba be f8 de 0d bf
       -0.2607725 -0.75772434 -0.36366108 -0.5541835
000370 e8 dd 08 bf 3e 46 65 bf a2 2e 37 bf 4e 22 e8 be
       -0.534636 -0.89560306 -0.7155553 -0.45338672
000380 02 e3 ee bd 09 fe 33 bf 38 5b 91 be 40 00 3d bf
       -0.11664392 -0.703095 -0.28389907 -0.73828506
000390 ea 59 d0 be 90 65 3c bf a0 f2 1c bf cc 40 81 bf
       -0.406936 -0.7359247 -0.61307716 -1.00979
0003a0 bf 94 1d 3e c6 da 6e be c1 c6 4e bf 21 9e 21 bf
       0.15388773 -0.23325643 -0.80772024 -0.6313191
0003b0 30 c6 3a bf 40 75 68 bf b8 ff 27 bd c5 a4 7d bf
       -0.7295866 -0.9080391 -0.041015357 -0.99079543
0003c0 1a b8 3f bf 30 4c 3c be 46 33 3d bf 68 c9 80 bf
       -0.7489029 -0.18388438 -0.7390636 -1.0061464
0003d0 9e 8f 2a bf 0c a8 75 bf e2 11 96 be 84 91 9e bf
       -0.6662539 -0.95959544 -0.29310519 -1.2388158
0003e0 e5 79 c7 bc fd 16 a2 bf 8c 32 b3 bd b0 da 59 bf
       -0.024350116 -1.2663265 -0.087498754 -0.85099316
0003f0 61 fe 88 bf 95 b2 5c bf 82 50 39 bf eb 85 bf be
       -1.070263 -0.86209995 -0.7238847 -0.3740686

bn1.running_mean f4 [256]
000000 c5 43 1c 3d 92 d9 4b be f1 2c a1 3d ad 26 e1 3c
       0.038150568 -0.19907215 0.078699 0.027484262
000010 b1 21 df bd a5 af aa bd da 9c 7b bd a7 da e3 bd
       -0.10895098 -0.08334283 -0.061428882 -0.11125689
000020 2d 40 f4 bc 54 23 34 3d cb 09 1c be 61 bf 7c 3d
       -0.029815758 0.043979004 -0.1523811 0.06170595
000030 7c d7 05 be 28 bf 3e 3e 65 0b 06 be 2f 02 f2 3d
       -0.13070482 0.18627608 -0.13090284 0.11816823
000040 ef 38 12 be e4 ff 17 be b8 72 be bc 35 49 e9 bd
       -0.14279531 -0.14843708 -0.023248062 -0.11390916
000050 e4 97 83 bd fa be bd bd ea 02 55 bd fc 58 07 be
       -0.06425455 -0.092649415 -0.052004732 -0.13217539
000060 d0 5f 65 3e 5d 2a 01 3e b6 2f a9 bd f7 ef 14 3e
       0.22399831 0.12613817 -0.08261053 0.14544664
000070 8c 2a ca bd 79 52 33 be f3 56 32 3d 46 fc 91 bd
       -0.098713964 -0.1751193 0.043539952 -0.071281955
000080 6a 97 25 3e d5 11 43 bd ad e2 3f be 92 46 2f 3e
       0.16171041 -0.047624428 -0.18738814 0.17116764
000090 fb bd 39 3d a7 08 97 3d 36 bf 10 bd ce e1 21 be
       0.045347195 0.07374697 -0.035338603 -0.15808794
0000a0 4b d8 3b 3d 2a 3a 30 3c 08 51 23 be be 7f 07 3e
       0.04586057 0.010756055 -0.1594888 0.13232324
0000b0 88 b9 44 be 71 05 fa bd 89 ce 3f bd 95 d4 3c be
       -0.192114 -0.12208069 -0.046827827 -0.18440469
0000c0 76 ba 40 be 85 24 97 bc fd c2 4a bd 32 14 1e 3e
       -0.18821129 -0.018450031 -0.04950236 0.15437391
0000d0 8a 70 ca 3d b3 77 4d 3e 54 6d 71 3d f0 5c e9 3c
       0.098847464 0.20065193 0.058942154 0.028486699
0000e0 6c 8a 71 bd d8 6c e6 bd 24 a2 57 be 19 69 30 be
       -0.0589699 -0.11251229 -0.21057945 -0.17227592
0000f0 cc ec 9b 3d 34 96 d5 bd 53 30 af bd a8 1a aa 3d
       0.07613525 -0.104290396 -0.08554139 0.083058655
000100 bd 55 1b be 96 f9 59 3d 76 96 7e bc 36 f3 cf 3c
       -0.15169425 0.05321654 -0.015538802 0.025384527
000110 0b 72 c1 bd 18 f6 02 3e 84 51 47 be f5 11 3b be
       -0.0944558 0.1278919 -0.1946469 -0.18268569
000120 d2 16 23 3e 99 8b 13 be 0e 43 67 3e d9 d2 88 3d
       0.15926674 -0.14408721 0.22584173 0.06680841
000130 53 a8 90 3d ac c6 93 bd da a9 21 3d ed 26 5a 3d
       0.07063355 -0.07215628 0.039468624 0.05325978
000140 86 ac b4 bd c4 63 19 3e 8f c4 06 3e aa 54 91 3d
       -0.08821969 0.14979464 0.13160919 0.070962265
000150 3c 68 66 3d 87 58 87 bc 48 d3 8a bd 6c 2a 4e be
       0.05625175 -0.016521705 -0.0677858 -0.2013337
000160 5e 2b af bd 32 de 4a be 94 90 84 bd 97 a3 03 3e
       -0.085531935 -0.19811323 -0.064728886 0.12855373
000170 f7 aa 4c 3e bc af 3a be 2d 99 25 be 87 77 37 3e
       0.19987093 -0.182311 -0.16171713 0.1791669
000180 aa 67 a4 bd bb 1c 05 3c cb 10 eb 3d 39 4e 60 3e
       -0.08027585 0.008124526 0.114778124 0.2190484
000190 a7 fd d8 3d c0 88 53 3d ab 07 b3 bc a1 18 c7 3b
       0.10595255 0.051644087 -0.021854242 0.006075934
0001a0 58 8b da 3d ea 37 42 be 4b d3 4e be 6d 74 2e 3e
       0.10671109 -0.18966642 -0.2019779 0.170366
0001b0 31 12 4b be c8 33 dc 3d d5 47 1c 3e 76 33 e1 3d
       -0.19831158 0.10752064 0.15261777 0.109961435
0001c0 b9 45 be 3d 48 cb 50 3c 50 60 c1 3d b1 c4 f4 3d
       0.09290642 0.0127437785 0.09442198 0.119515784
0001d0 a0 fc a6 3c cb 2f 48 be 08 23 ed 3d d8 ec 0b 3c
       0.020384133 -0.19549482 0.11578947 0.008540355
0001e0 8a 5b e1 3d 2b 28 10 be 4c e4 18 bc 48 11 28 be
       0.11003788 -0.14077823 -0.009331774 -0.16412842
0001f0 ac 6e d5 3c 86 20 38 3e 07 d2 10 3d c0 04 39 3e
       0.026053749 0.17981157 0.035356548 0.18068218
000200 f4 00 28 3e 38 22 0b be c8 1f 4c 3e 28 be 83 3b
       0.16406614 -0.13587272 0.19933999 0.004020471
000210 f5 4b 1a 3e 57 29 45 3d 22 8c 0d bd 17 1b 3e 3e
       0.15068038 0.048135128 -0.03455747 0.18565021
000220 67 12 e5 bd 5e 82 a6 bb 60 49 f7 bc 91 b6 26 3c
       -0.111851506 -0.005081459 -0.030186355 0.010175363
000230 25 f6 24 bd f7 0f 1a 3e 9b 77 a5 bc b2 b1 c5 3d
       -0.040273804 0.15045153 -0.020198634 0.09653033
000240 88 ff c3 3d 62 83 39 3e a4 ec 88 3d 4e 86 48 be
       0.09570223 0.18116525 0.066857606 -0.19582483
000250 55 0d 54 be 87 79 41 be 66 54 45 be 33 c2 36 be
       -0.20708211 -0.18894015 -0.19270477 -0.17847519
000260 d0 1c 00 3c 41 8d 55 3e aa 15 e8 bd fc 49 92 3d
       0.007819369 0.20854665 -0.11332257 0.07143018
000270 08 57 e3 bd 8d 2b 2d 3e e3 3b 06 3e ae da c1 3d
       -0.11100584 0.16911145 0.13108782 0.09465538
000280 63 dd 43 3e 8e c6 1d be 35 50 48 be 2b f8 cc bd
       0.19127421 -0.15407774 -0.19561847 -0.10008272
000290 8c 61 5d 3d 77 84 3b 3e 8a 18 fd 3d 81 c7 8a 3d
       0.054048106 0.1831225 0.12358196 0.067763336
0002a0 27 26 28 bd 2e 72 ef bd ae bd 3b 3e 59 f9 36 be
       -0.04105201 -0.116917 0.18334076 -0.17868556
0002b0 00 93 1f be c4 2d 16 3e 51 44 16 3e bb ae 65 3d
       -0.1558342 0.14665896 0.14674498 0.05607484
0002c0 68 94 e6 bb 31 4d 50 bd 36 4f e2 3c 1b 5e c6 bd
       -0.0070367344 -0.050854865 0.027625661 -0.09685918
0002d0 02 83 59 3e 0b 28 55 3e 8b 7f a3 bd 31 44 23 3e
       0.21241382 0.20816056 -0.07983311 0.15943982
0002e0 1a 73 80 bd 66 e0 17 be 77 70 0b 3d 17 ba 3e bd
       -0.06271954 -0.14831695 0.0340428 -0.046564188
0002f0 b6 7c 07 3e c6 5d c0 3c 53 e6 70 bd a3 30 3d be
       0.13231167 0.023482215 -0.058813404 -0.18475585
000300 3d f3 05 3e 23 20 21 3e b1 2d 24 3c 25 fd 94 bc
       0.1308107 0.15734915 0.010020659 -0.018187115
000310 3c 32 5b bd ad 7e ec 3c 6f 42 48 3e a9 4a 0f bd
       -0.053514704 0.028868997 0.19556592 -0.03498331
000320 5b 5d a0 3c e5 66 3c be ee 1c 30 3d 24 c1 da bd
       0.019575765 -0.18398626 0.04299634 -0.1068137
000330 b4 d9 a6 bd f2 3a e7 bd 73 ab 3d 3e 45 c8 ac 3d
       -0.08146992 -0.1129054 0.18522434 0.08436636
000340 1c 6a a8 bd 7b 97 63 bd bd ed 6d 3d c7 a7 ab 3d
       -0.08223364 -0.055564385 0.058088053 0.0838161
000350 7f 02 dd bd be f7 a1 3d 75 ba 27 3d 58 ca cf 3d
       -0.10791492 0.07908581 0.040949304 0.10146016
000360 05 f3 bc bd d5 2c 13 be b4 53 99 3d 05 c6 c8 bc
       -0.0922604 -0.14372571 0.07486668 -0.024508486
000370 c5 77 bd bd 57 96 30 3e d6 e6 c3 bc f3 f8 09 be
       -0.0925136 0.1724485 -0.023913782 -0.13473873
000380 cb 22 e3 bc d4 77 ce bd 67 a4 a1 bd e2 fc 18 be
       -0.027726552 -0.10081449 -0.078926854 -0.14940217
000390 16 9e 2c 3e f6 b8 45 3e be 98 be bd b9 fe d8 3d
       0.1685718 0.19308838 -0.09306477 0.105954595
0003a0 b3 55 8c 3d 15 4a 8d bd de 8e 55 bd 23 2d 0d 3d
       0.06852283 -0.06898896 -0.052138202 0.034466874
0003b0 3b 14 db 3c ef c5 0a 3e 85 34 3b 3e 43 77 d2 ba
       0.026743045 0.13552068 0.18281753 -0.0016057271
0003c0 2a e6 20 3e c2 e3 db bd 31 4c 9b 3a a1 7f 2e be
       0.157128 -0.10736801 0.0011848268 -0.17040874
0003d0 54 13 7f 3d ef f7 24 3d fa 6e ec bd 77 c0 28 be
       0.062274292 0.04027551 -0.115446046 -0.1647967
0003e0 a4 4d 24 bd 71 53 93 bd 94 64 ab bd cd d2 65 be
       -0.040113106 -0.071936496 -0.08368793 -0.22443695
0003f0 76 1c 12 be e8 30 25 3e a7 46 02 be a6 41 ab 3d
       -0.1426867 0.16131938 -0.12722264 0.08362131

bn1.running_var f4 [256]
000000 91 79 94 41 d2 4e 3f 40 56 66 dc 40 8c c9 40 41
       18.559359 2.9891858 6.887492 12.049206
000010 ab 43 76 40 9a a5 3d 40 15 a9 0e 41 b3 45 07 41
       3.8478801 2.9632325 8.91628 8.454516
000020 48 64 8f 40 40 00 cb 40 08 4f 26 40 25 d8 06 41
       4.4809914 6.3437805 2.5985737 8.42777
000030 21 98 93 3f e5 2f cf 40 f0 69 9e 40 e3 af 8a 41
       1.1530801 6.4745965 4.950432 17.335882
000040 12 f7 4d 40 a1 be f1 40 e3 d6 81 40 6f 74 b5 40
       3.218205 7.55452 4.0574813 5.670463
000050 d3 a0 b4 40 d7 be fa 40 a6 74 bf 3f de 2e 25 41
       5.644632 7.835796 1.4957473 10.323942
000060 43 a2 76 40 00 dd 88 40 aa 27 0b 40 b1 2c 82 3e
       3.8536537 4.2769775 2.174296 0.25424722
000070 39 6a 50 3f 47 14 97 40 d6 7f 87 40 6f 86 ab 3e
       0.8141208 4.7212253 4.234355 0.33501002
000080 0e 18 51 40 00 bb 58 41 54 90 9d 40 2a 34 84 40
       3.2670932 13.545654 4.923868 4.1313677
000090 64 6f 05 40 21 74 80 41 eb 66 8e 3f ed b7 99 40
       2.0849237 16.056704 1.1125158 4.803702
0000a0 66 4e db 40 c4 88 2e 42 ed 0f 9c 40 aa 74 44 40
       6.85332 43.63356 4.876944 3.0696206
0000b0 14 23 ad 3d 0e e5 81 3f 9d e8 ad 41 2a c0 1a 41
       0.08453956 1.0148027 21.73858 9.671915
0000c0 0b b6 ab 40 0e 6f 3a 41 17 6b d5 40 d2 d1 ff 3f
       5.365972 11.652113 6.6693225 1.9985907
0000d0 92 92 61 40 74 e6 00 41 02 85 a8 3e ca 0a 05 3e
       3.524571 8.056263 0.32913977 0.12992397
0000e0 04 23 3d 41 92 93 61 41 2e 24 93 40 6e 21 ee 3f
       11.821049 14.098528 4.5981665 1.8603952
0000f0 93 dc 28 40 d1 7c ea 40 82 71 17 3f fd 77 b5 40
       2.6384628 7.3277364 0.59157574 5.670897
000100 60 96 81 41 3a 5e d4 3f 3f 19 39 40 a6 ab 85 40
       16.198425 1.6591256 2.892166 4.177203
000110 33 03 d1 3d 41 17 07 40 c0 be b5 40 fc f6 9e 40
       0.10205688 2.1107943 5.679535 4.9676495
000120 11 d6 0d 3e eb 9b 77 40 ce 66 02 41 3b ff e5 3f
       0.13851191 3.8688915 8.150099 1.7968515
000130 65 03 a7 40 d7 8e c8 3f 24 26 a3 40 f9 db 18 41
       5.2191644 1.5668591 5.098406 9.553704
000140 b3 86 9d 40 b7 06 d6 40 00 93 53 41 3a 98 14 42
       4.922693 6.6883197 13.223389 37.14866
000150 cf c5 28 41 75 2e 13 41 09 99 d0 3f 49 4a c1 40
       10.548293 9.198842 1.6296703 6.040318
000160 25 5b 78 3f 40 e6 cd 3f 4e e1 15 41 4e f9 09 41
       0.97014076 1.6085892 9.367506 8.623365
000170 04 49 36 3e 0e 17 9f 40 3e 5a ed 3f fa bc 68 3f
       0.17801291 4.9715643 1.8543165 0.90913355
000180 64 3a 24 40 c5 d5 4d 40 d4 13 3f 41 4f 0a 2a 41
       2.566064 3.2161725 11.942341 10.627517
000190 1b b6 93 40 0a 38 eb 40 6e bc ea 3f 70 87 58 41
       4.6159797 7.3505907 1.8338754 13.533066
0001a0 2b 4a 58 40 32 10 30 3e 04 88 15 41 da 89 37 41
       3.3795269 0.17193678 9.345707 11.471155
0001b0 7f ec 79 40 db c4 33 3d 9a 18 8f 3e 75 64 fe 40
       3.9050596 0.043888908 0.27948457 7.949763
0001c0 af ec 47 41 ca 3c ce 3f b9 26 8d 40 88 68 a3 41
       12.495284 1.6112301 4.410977 20.42604
0001d0 c7 27 17 41 e4 ee 26 41 44 c0 93 40 b0 14 bd 40
       9.447211 10.433323 4.61722 5.9087753
0001e0 73 28 be 41 68 f9 72 40 c0 04 b7 41 e7 cf d1 3f
       23.76975 3.7964725 22.87732 1.6391572
0001f0 8b ff ad 40 54 9b 2c 40 b1 41 4b 40 96 7d e1 40
       5.437444 2.6969805 3.1758845 7.0465803
000200 9e ed 7b 40 e7 81 d3 3f 3b e4 97 40 96 42 49 40
       3.936378 1.6524018 4.74661 3.144689
000210 91 fb 03 41 0f b5 21 40 f0 52 26 41 bc 6e 2c 40
       8.248918 2.526676 10.395248 2.6942587
000220 3f ba 75 41 0b 1e 64 40 40 3f 7f 40 58 61 9d 40
       15.35797 3.5643337 3.9882355 4.918133
000230 83 95 f3 40 76 32 2b 40 91 db f1 40 79 b9 c3 40
       7.612001 2.674955 7.5580525 6.1163907
000240 f6 4d 04 40 ea 7c 27 41 3b 83 d4 40 41 47 f5 3f
       2.0672584 10.467997 6.6410193 1.916237
000250 4b 6c 22 41 ee 48 cf 40 29 53 99 3e 34 40 c6 3f
       10.151439 6.4776525 0.2994626 1.5488343
000260 e9 7b 39 40 a2 62 97 40 34 cf 1f 41 98 3d 78 41
       2.8981879 4.73079 9.988087 15.515038
000270 ba 48 3f 41 35 b7 5a 40 d7 ef bc 3f fe 63 ec 3c
       11.9552555 3.417432 1.4760693 0.028856274
000280 22 5f 6e 40 47 9f d8 3e 31 85 12 40 60 9f 9a 40
       3.7245564 0.4230902 2.2893794 4.831955
000290 12 f9 7d 40 4c 53 1d 41 ba cf 8b 40 93 f1 ba 40
       3.968327 9.832836 4.3691072 5.841989
0002a0 3f 3c e2 40 7e 33 ec 3f 65 fb bf 41 7d 55 fd 3e
       7.0698543 1.8453214 23.997751 0.49479285
0002b0 a2 6c f3 3f e2 05 18 41 41 67 50 41 bb 46 39 3c
       1.9017527 9.501436 13.025208 0.011308367
0002c0 c9 7a 03 40 96 e4 32 41 a3 13 b6 3d 2e d2 08 40
       2.0543692 11.180807 0.08890464 2.1378284
0002d0 02 20 b9 40 b5 d7 1d 41 3a 8a 89 40 53 7f c6 41
       5.785157 9.865163 4.2981234 24.81217
0002e0 5c 74 c9 40 27 c9 1a 40 84 b8 bd 40 fa a9 45 42
       6.295454 2.4185274 5.928774 49.415993
0002f0 c4 12 9a 41 c6 e1 6b 40 9c 63 83 41 99 ea 33 40
       19.259163 3.685655 16.423637 2.8111937
000300 38 e2 20 3f 1e 50 95 40 24 1e a2 40 37 c7 0e 3d
       0.6284518 4.66603 5.0661793 0.034857955
000310 75 08 f1 3f 02 4b 07 41 5f 89 e4 3f db ad cf 3f
       1.8830706 8.455812 1.7854422 1.6224931
000320 d4 f4 62 41 ab 78 1c 41 9f 5e 36 41 8d dd 82 41
       14.1847725 9.77946 11.398101 16.35818
000330 81 a3 73 40 ea 4e 83 3e 3c b1 2f 40 4b 8b 80 41
       3.8068545 0.25646144 2.7451925 16.068014
000340 97 d5 ed 40 fb 1c 7d 40 bd ed a4 3f 8c 8e 10 40
       7.432323 3.9548938 1.2885052 2.2587004
000350 92 64 50 40 8a 43 ee 40 d5 3e df 40 8a 6a bc 40
       3.2561383 7.4457445 6.97642 5.8880053
000360 d1 7a 94 40 5e 03 8e 41 ae 89 43 41 ca 07 bf 40
       4.639992 17.751644 12.221113 5.969701
000370 8b 1a 60 40 be a8 6f 40 a2 dc 43 40 67 49 34 40
       3.50162 3.7446742 3.0603414 2.8169801
000380 1b ec 61 3d 97 fc 8c 40 26 2f b6 40 f3 be 97 40
       0.05515681 4.4058337 5.6932554 4.742059
000390 fd 8e 39 3e 88 e3 0b 41 ec 8f 05 42 1d 4b 7e 41
       0.18120952 8.74305 33.39055 15.893338
0003a0 fe c6 11 41 fe b6 d3 40 8d 1c a2 40 a0 ad 51 40
       9.111082 6.616088 5.065985 3.2762222
0003b0 a9 2d 8c 40 a5 7d dd 40 38 fa 00 41 3f 1c 2a 40
       4.3805737 6.9215875 8.061089 2.657974
0003c0 87 c9 c5 40 a2 69 0d 41 5a e8 2d 41 48 78 41 40
       6.1808505 8.838289 10.869226 3.0229664
0003d0 60 17 ff 41 36 69 0c 40 4f bb c3 40 85 32 94 3f
       31.886414 2.1939216 6.116615 1.1577917
0003e0 64 b2 84 3c fc b2 45 40 39 71 d3 3c bd ce c5 40
       0.016198345 3.0890493 0.025810825 6.1814866
0003f0 02 0c 36 40 7a ba a3 40 2f 4d 4a 41 ee 76 b2 40
       2.844483 5.1165133 12.643844 5.577018
