project1-navigation/results/gym_lunarlander/gym_lunarlander_model_pytorch.pth (torch_old, 43409 bytes, 8 tensors)

fc1.weight f4 [128, 8]
-0.41169992 -0.3846672 0.8134791 0.03838145 -0.3167536 -0.4773566 0.47183797 -0.3261519
-0.6166122 0.6380614 0.5049572 0.49741212 0.031215036 -0.14398177 0.25038466 -0.058953535
0.09519492 -0.16904895 -0.8575484 1.4835155 -0.23004825 -0.17948349 -0.10110611 -0.089271724
0.2678994 -0.3634057 0.028732032 -0.24985714 -0.75582886 -0.81991094 -0.545287 0.17580946
0.22373372 -0.26555452 0.20360665 -0.43614805 -1.5798026 -0.50949365 0.2805393 -0.09956593
-0.09374308 0.27718636 0.5774668 -0.6295547 0.36345655 0.029495876 -0.035506293 0.20369726
0.39837566 0.44587296 -0.000639102 0.54685986 0.8676586 0.18926255 -0.013624259 -0.67625666
-0.7259156 -0.06266109 0.3151548 -0.25956485 0.10271598 0.3185511 0.13676192 0.17100032
-0.6396638 0.7615923 0.7923724 0.2740947 -0.10021607 0.16136982 0.14505424 -0.015777152
-0.26290977 -1.9572783 -0.0818624 0.08377717 0.9265761 0.1085885 -0.69649196 0.2811875
0.2826019 -0.04349339 -0.014736909 0.45693436 -0.006767709 0.99238867 0.51999897 -0.084913805
0.38373733 -1.8873981 0.21572071 -0.3794178 0.44898692 -0.29623818 0.030771885 0.26601943
1.2729447 0.022291303 0.31455854 -0.4839999 -0.2643326 0.088227965 -0.074554555 -0.04007698
0.1922039 0.986936 -0.15245214 0.0644186 0.0009152522 1.0555214 -0.39308295 -0.3475499
0.7223025 0.30142504 -0.34330618 0.08780544 0.29357913 -0.088609785 0.18148609 0.0009857817
0.06492268 -0.29581016 0.33063772 -0.6712247 -0.079191945 -0.23694655 0.09920939 0.14436352
0.44367334 -0.32455975 0.33419585 0.92002314 -0.5716927 -0.16387822 0.18747522 0.2937594
0.4527858 -0.8405582 0.67534447 -0.35304448 -0.06311485 0.7339847 0.32481185 0.16272552
-0.4510118 -0.37083226 0.12588094 -0.26338136 -0.21632686 0.5558323 0.1408606 -0.17682551
0.27089036 0.7867243 -0.013587936 -0.72870857 0.5133139 -0.032468982 -0.20708846 0.29246888
1.1837628 -0.6372919 0.6045233 -0.06215745 -0.6940718 0.0051973336 0.004777096 0.17201698
-0.26670933 -0.3334287 -0.44337657 -0.73980963 -0.56585747 0.3286284 0.04957831 -0.19993824
0.503289 -0.33196506 0.018583754 -0.3388795 0.06013802 -0.20347345 0.15220147 -0.066705756
0.24733904 -0.49224296 0.50180274 -0.5499496 -0.4382956 -0.21050061 -1.0391423 -0.09989643
-0.26083565 -0.35961792 -0.47411832 -0.49545205 0.1095357 0.08913664 0.47887996 -0.65117085
-0.31629878 0.83618766 -0.11057912 0.40553138 0.15111971 -0.09545467 -0.40079743 -0.007162771
0.20671782 0.116572276 -0.025547272 -0.014028381 -0.26771644 -0.86269844 -0.64902973 0.5267031
-0.13234006 0.93409294 -0.086214975 -0.09034005 -0.4180659 -0.15409537 0.14176078 -0.1419486
-0.17405234 -0.26644433 -0.3420647 -0.5594893 0.4817003 0.48230553 0.038174532 0.357779
-0.32136294 0.4664217 0.88644516 0.34710345 0.20087425 0.20767698 0.0109902015 -0.8482767
0.1152965 0.09612116 0.26296276 -0.8269445 0.013643137 -0.3172849 0.45476648 -0.1076526
1.0030386 0.61613584 0.11850585 0.15564452 -0.30839685 -0.0004398146 0.28162166 -0.47583947
00000000: 55ca d2be 19f3 c4be 2b40 503f de35 1d3d
00000010: 872d a2be 1668 f4be bf94 f13e 62fd a6be
00000020: 4cda 1dbf fe57 233f e044 013f cdac fe3e
00000030: adb6 ff3c f56f 13be 6b32 803e 4379 71bd
00000040: 8ef5 c23d 2b1b 2dbe 4b88 5bbf d6e3 bd3f
00000050: c591 6bbe 85ca 37be b810 cfbd 18d4 b6bd
00000060: 1c2a 893e 5010 babe 705f eb3c 8dda 7fbe
00000070: 007e 41bf afe5 51bf ee97 0bbf 6507 343e
00000080: 741a 653e c3f6 87be 437e 503e cc4e dfbe
00000090: f936 cabf 2d6e 02bf d9a2 8f3e 39e9 cbbd
000000a0: 5ffc bfbd 5feb 8d3e ddd4 133f 7f2a 21bf
000000b0: fa16 ba3e 56a1 f13c 0c6f 11bd 0496 503e
000000c0: e5f7 cb3e 7649 e43e 6989 27ba 02ff 0b3f
000000d0: e01e 5e3f 0bce 413e 4938 5fbc 281f 2dbf
000000e0: 9bd5 39bf 7554 80bd f85b a13e afe5 84be
000000f0: c15c d23d 2119 a33e 510b 0c3e b51a 2f3e
00000100: 02c1 23bf b7f7 423f ebd8 4a3f 2456 8c3e
00000110: 153e cdbd 213e 253e 1989 143e 163f 81bc
00000120: 1c9c 86be 1888 fabf 79a7 a7bd 5d93 ab3d
00000130: 1734 6d3f a663 de3d 4c4d 32bf cff7 8f3e
00000140: 32b1 903e 2026 32bd 1473 71bc 4df3 e93e
00000150: a8c3 ddbb 2f0d 7e3f a71e 053f 4ae7 adbd
00000160: 3879 c43e 4396 f1bf e4e5 5c3e 0d43 c2be
00000170: 9de1 e53e 88ac 97be 5215 fc3c b333 883e
00000180: daef a23f 409c b63c d10d a13e d6ce f7be
00000190: 9a56 87be ddb0 b43d 0fb0 98bd c227 24bd
000001a0: 19d1 443e d6a7 7c3f 6a1c 1cbe e6ed 833d
000001b0: 89ed 6f3a 531b 873f 2b42 c9be 0ff2 b1be
000001c0: d1e8 383f 6254 9a3e d4c5 afbe 57d3 b33d
000001d0: 0150 963e 0c79 b5bd 7dd7 393e 5835 813a
000001e0: 2ff6 843d 6e74 97be 5949 a93e 62d5 2bbf
000001f0: 632f a2bd 1ea2 72be 4b2e cb3d 08d4 133e
00000200: 2729 e33e b22c a6be b81b ab3e a386 6b3f
00000210: 745a 12bf b1cf 27be 81f9 3f3e a267 963e
00000220: 8ad3 e73e d22e 57bf 60e3 2c3f 3fc2 b4be
00000230: 5c42 81bd 6ce6 3b3f bd4d a63e 85a1 263e
00000240: 05eb e6be badd bdbe efe6 003e ecd9 86be
00000250: ca84 5dbe 074b 0e3f c33d 103e bf11 35be
00000260: 24b2 8a3e c466 493f ef9f 5ebc a58c 3abf
00000270: 8a68 033f 32fe 04bd ff0e 54be 7bbe 953e
00000280: 8a85 973f 9025 23bf 0ac2 1a3f cf98 7ebd
00000290: b1ae 31bf 654e aa3b 3089 9c3b 3825 303e
000002a0: 208e 88be 2bb7 aabe 4102 e3be 2a64 3dbf
000002b0: 09dc 10bf fb41 a83e a012 4b3d 9cbc 4cbe
000002c0: 8cd7 003f 53f7 a9be f53c 983c 9d81 adbe
000002d0: 4953 763d 585b 50be b4da 1b3e 079d 88bd
000002e0: 7246 7d3e 4507 fcbe 2576 003f 7fc9 0cbf
000002f0: 4868 e0be 798d 57be 9d02 85bf 8096 ccbd
00000300: 408c 85be d71f b8be a3bf f2be e4ab fdbe
00000310: 4154 e03d 458d b63d c12f f53e 22b3 26bf
00000320: eaf1 a1be 6510 563f 4e77 e2bd cfa1 cf3e
00000330: 20bf 1a3e bd7d c3bd 5235 cdbe aeb5 eabb
00000340: d6ad 533e 72bd ee3d 8348 d1bc 4bd7 65bc
00000350: 2112 89be ced9 5cbf d026 26bf 04d6 063f
00000360: 2784 07be b720 6f3f 7a91 b0bd 3404 b9bd
00000370: bc0c d6be 2dcb 1dbe bd29 113e f95a 11be
00000380: c73a 32be 646b 88be 1b23 afbe b13a 0fbf
00000390: 6ca1 f63e c0f0 f63e e65c 1c3d cf2e b73e
000003a0: af89 a4be d3ce ee3e 12ee 623f 8bb7 b13e
000003b0: fbb1 4d3e 46a9 543e 3f10 343c a928 59bf
000003c0: 9220 ec3d 2cdb c43d 0ea3 863e a2b2 53bf
000003d0: 7787 5f3c 2b73 a2be 27d7 e83e f778 dcbd
000003e0: 9263 803f 14bb 1d3f 32b3 f23d 4761 1f3e
000003f0: 31e6 9dbe eb96 e6b9 b730 903e 3ba1 f3be

fc1.bias f4 [128]
-0.20142823 -0.5133342 0.07352254 -0.13365428 -0.05906359 0.19484967 -0.2449445 0.15392269
0.72653854 0.25817513 0.5842056 0.28638253 0.02988346 0.43299302 0.21879888 0.5034623
-0.38462555 -0.21297319 0.5491968 0.17271931 -0.1808039 0.41958565 0.59237605 0.5538835
0.5852512 0.62920064 -0.22378325 -0.42263857 -0.21855843 -0.15811545 -0.21965013 -0.51040566
-0.22988248 -0.25435227 0.58080584 0.15821691 -0.42144158 0.1621482 0.5388417 0.3762041
0.7622466 -0.26644984 0.115509994 -0.10146828 -0.095721744 0.6035299 0.1490279 -0.64625126
-0.12368312 0.39057896 0.034556963 -0.7440638 0.5365813 -0.38925788 0.036565427 0.7141869
-0.1485422 -0.33116004 0.005047997 -0.259631 -0.3203106 0.5911463 -0.14470321 0.66631925
0.25769606 0.06921304 -0.1759452 0.008692219 -0.0324773 -0.37204984 0.51843923 0.08621305
0.19609262 0.3274347 0.4966484 0.20367147 0.7346123 -0.33977732 0.3889325 0.02607893
-0.0047662323 0.03505553 0.5824914 -0.28946668 -0.3607833 0.2431026 0.22863463 0.11580389
0.080301076 -0.44097194 -0.0934682 0.07553392 0.00090434466 0.25102374 -0.01785677 0.11855303
0.44277126 0.3697963 -0.2935184 0.92565006 -0.09653783 0.020053973 0.18149267 -0.37587884
-0.49248624 0.14126556 0.06360576 -0.32782227 -0.19466367 -0.22899382 0.06766219 0.065710604
-0.14667301 0.47892466 -0.12420995 -0.33656898 0.062468685 -0.21560465 -0.0043682787 -0.0056856666
0.17369245 0.01638374 0.42331088 0.38238433 0.2284353 -0.3553177 -0.05590322 -0.03796271
00000000: 3443 4ebe df69 03bf fc92 963d abdc 08be
00000010: aaec 71bd ac86 473e bbd2 7abe e99d 1d3e
00000020: 6efe 393f 882f 843e 808e 153f bba0 923e
00000030: 28ce f43c 43b1 dd3e d00c 603e e8e2 003f
00000040: a4ed c4be a515 5abe 2998 0c3f 55dd 303e
00000050: a824 39be eed3 d63e f5a5 173f 4fcb 0d3f
00000060: 06d3 153f 4b13 213f 7027 65be 1564 d8be
00000070: c8cd 5fbe 04e9 21be f7eb 60be f2a9 02bf
00000080: 5066 6bbe 763a 82be b1af 143f 9d03 223e
00000090: 31c7 d7be 2e0a 263e 88f1 093f d39d c03e
000000a0: 9822 433f 1d6c 88be 8190 ec3d 9ace cfbd
000000b0: c309 c4bd ef80 1a3f c59a 183e b970 25bf
000000c0: 934d fdbd f7f9 c73e 9a8b 0d3d f77a 3ebf
000000d0: 645d 093f cf4c c7be a1c5 153d f4d4 363f
000000e0: 721b 18be cf8d a9be ab69 a53b 5bee 84be
000000f0: c0ff a3be 5d55 173f 142d 14be e693 2a3f
00000100: bdf0 833e 91bf 8d3d fa2a 34be cf69 0e3c
00000110: eb06 05bd 517d bebe 6fb8 043f 7890 b03d
00000120: 81cc 483e 85a5 a73e b348 fe3e 418f 503e
00000130: 8d0f 3c3f 4bf7 adbe 2922 c73e 7ba3 d53c
00000140: 0e2e 9cbb 6396 0f3d 281e 153f fa34 94be
00000150: 97b8 b8be e3ef 783e 321f 6a3e 972a ed3d
00000160: e474 a43d 13c7 e1be 416c bfbd 87b1 9a3d
00000170: 8b11 6d3a 2f86 803e 5c48 92bc eecb f23d
00000180: eab2 e23e f155 bd3e 0b48 96be 67f7 6c3f
00000190: a0b5 c5bd 3b48 a43c 37d9 393e 3173 c0be
000001a0: 2827 fcbe eba7 103e bd43 823d 52d8 a7be
000001b0: ea55 47be 5b7d 6abe 7992 8a3d 4893 863d
000001c0: 7331 16be 9d35 f53e c961 febd c552 acbe
000001d0: 2adf 7f3d 77c7 5cbe c723 8fbb d44e babb
000001e0: 6fdc 313e 3137 863c 34bc d83e e1c7 c33e
000001f0: f1ea 693e 34ec b5be c6fa 64bd c97e 1bbd

fc2.weight f4 [64, 128]
-0.37508774 -0.493249 -0.4436382 0.22396342 0.61247885 0.12657483 -0.44966832 -0.15559877
0.19788277 -0.7529828 -0.19981521 -0.26973855 0.5693587 -0.21476862 -0.2323368 0.09321768
0.07876869 -0.071301065 -0.0975667 0.03900538 0.74396265 0.13145144 0.10868661 -0.13741432
-0.12228915 -0.041832812 0.24409874 -0.605673 -0.1348292 -0.13874757 0.32517055 -1.6060252
-1.1822853 0.08676614 0.08602608 0.3525725 -0.24294823 0.12804434 -0.003986938 0.007316464
-0.039393183 -0.3045329 0.15564646 -0.33986056 0.67535585 -0.48518506 0.27693 0.63745093
0.59117466 -0.018905781 0.41761044 -0.27544516 0.1432596 -0.04691399 0.26300249 0.08316085
-0.21435761 0.1039515 0.2796073 0.19708045 0.64775354 0.30948183 0.10838007 -0.05271459
0.19589764 0.24041879 0.18881446 0.21392794 -0.6988545 -0.18787324 -0.29234764 0.31707785
0.010449632 0.050436236 -0.08084155 0.007153111 0.14361171 -1.8047106 0.06468675 -0.327084
-0.39109546 0.8675465 -0.22789125 0.13581842 -0.47998136 0.1075072 0.517964 0.030706642
0.73579943 0.24284811 -0.25368896 0.048587237 -0.20802079 0.319511 -0.5113387 -0.03535382
0.045331944 0.12989728 0.08338427 0.2120737 0.2994752 -0.7404915 0.19708702 0.24494134
-0.01264746 -0.27522826 0.007128105 0.15328263 0.22455783 0.45725074 0.3364714 0.6521966
0.10312725 -0.29263636 -0.44213244 0.40234447 -0.1954924 -1.2927771 0.19232877 -0.6387983
0.34628677 0.60514396 -0.23291893 -0.07117279 -0.0073480587 -0.038942207 -0.18995322 0.07167638
-0.28086185 -0.27412075 -1.333677 0.17189127 0.62641805 0.18282667 -0.18133354 -0.047727533
0.23943204 -0.71260226 -0.26654413 -0.330217 0.5448505 -0.26122814 -0.30078802 -0.03884591
0.21651366 -0.108123764 -0.05241812 0.09862725 0.8074074 0.17208582 0.0035413962 -0.13560794
-0.11717144 -0.19132127 0.36895823 -0.52464014 -0.098567046 0.049821075 0.32506484 -1.3035375
-1.111896 0.022288272 0.045234304 0.20509557 -0.25318572 0.057600208 0.033122063 -0.042999472
-0.07007384 -0.20620987 0.37523466 -0.35748172 0.7085998 -0.550203 0.23733617 0.5561446
0.81826967 -0.15775707 0.55822295 -0.64962715 0.22930962 -0.11483881 0.26964745 0.1033527
-0.22694744 0.0034384914 0.32252094 0.3759032 0.56141037 0.2703929 -0.023193693 0.029568313
0.112912335 0.2752256 0.15030244 0.23357517 -0.6858562 -0.36086836 -0.36096755 0.3594103
-0.10119672 0.022705182 0.024543198 -0.09314387 0.22479387 -1.952412 0.07175178 -0.35393685
-0.1831259 0.8072506 -0.24461187 0.31699777 -0.39328817 0.0414945 0.5464757 0.21532276
0.81546175 0.24922293 -0.10124123 0.1170247 -0.27292264 0.42863777 -0.52668744 -0.19159912
0.2003161 0.14729793 0.1978106 0.13087362 0.26330706 -0.9872033 0.3450154 0.43174887
-0.10463158 -0.33644146 -0.13619816 0.09784478 0.16071999 0.34051916 0.40827495 0.7174239
0.18056065 -0.29566348 -0.33735263 0.35319722 -0.06839206 -1.3211628 0.39657414 -0.5589261
0.22442833 0.8525242 -0.33698642 -0.13857238 -0.041736655 0.08859687 -0.2100748 0.09341289
00000000: 800b c0be 228b fcbe 8c24 e3be ab56 653e
00000010: 6acb 1c3f d59c 013e ed3a e6be 4955 1fbe
00000020: c8a1 4a3e 7bc3 40bf 5c9c 4cbe 2c1b 8abe
00000030: 7ec1 113f 4eec 5bbe b3e9 6dbe e9e8 be3d
00000040: 7b51 a13d 4b06 92bd 0dd1 c7bd 1bc4 1f3d
00000050: 5674 3e3f 359b 063e 1697 de3d 57b6 0cbe
00000060: bc72 fabd e258 2bbd 05f5 793e 630d 1bbf
00000070: aa10 0abe d813 0ebe c17c a63e 3c92 cdbf
00000080: 2055 97bf 72b2 b13d 712e b03d 6284 b43e
00000090: 6cc7 78be 0e1e 033e dca4 82bb f3be ef3b
000000a0: bf5a 21bd bceb 9bbe c961 1f3e 3402 aebe
000000b0: 1fe4 2c3f 2d6a f8be c5c9 8d3e fc2f 233f
000000c0: 3957 173f 4ce0 9abc 09d1 d53e 2607 8dbe
000000d0: a5b2 123e e228 40bd 43a8 863e 3c50 aa3d
000000e0: 9080 5bbe 86e4 d43d b028 8f3e 75cf 493e
000000f0: 2dd3 253f 6774 9e3e 5ff6 dd3d 41eb 57bd
00000100: 6499 483e 5830 763e 9458 413e ed0f 5b3e
00000110: 21e8 32bf d861 40be 97ae 95be 0758 a23e
00000120: ef34 2b3c 3a96 4e3d 4190 a5bd a564 ea3b
00000130: f30e 133e c200 e7bf 7d7a 843d 8e77 a7be
00000140: aa3d c8be 8717 5e3f 535c 69be fc13 0b3e
00000150: 1ec0 f5be bc2c dc3d 4a99 043f 7f8c fb3c
00000160: 5a5d 3c3f 2dad 783e 85e3 81be 6903 473d
00000170: 6703 55be f296 a33e 18e7 02bf 2bcf 10bd
00000180: fdad 393d cb03 053e 5fc5 aa3d d929 593e
00000190: d054 993e da90 3dbf 2ed1 493e e7d1 7a3e
000001a0: 4b37 4fbc b8ea 8cbe e192 e93b 1ff6 1c3e
000001b0: 7df2 653e c51c ea3e fb45 ac3e 5bf6 263f
000001c0: 6134 d33d 6fd4 95be 2f5f e2be 1800 ce3e
000001d0: 292f 48be b879 a5bf d5f1 443e 4988 23bf
000001e0: 804c b13e b7ea 1a3f 4d82 6ebe 0ac3 91bd
000001f0: fcc7 f0bb dd81 1fbd 1983 42be 11cb 923d
00000200: 20cd 8fbe 8e59 8cbe eeb5 aabf 4404 303e
00000210: ef5c 203f ea36 3b3e 80af 39be f27d 43bd
00000220: ac2d 753e 1a6d 36bf 7978 88be 3412 a9be
00000230: 537b 0b3f b2bf 85be e300 9abe e41c 1fbd
00000240: c2b5 5d3e fe6f ddbd 62b4 56bd 15fd c93d
00000250: 40b2 4e3f 4437 303e c516 683b cfdc 0abe
00000260: 94f7 efbd b9e9 43be 18e8 bc3e d14e 06bf
00000270: 85dd c9bd 2f11 4c3d e66e a63e 51da a6bf
00000280: 9c52 8ebf e595 b63c 9b47 393d 9304 523e
00000290: 8fa1 81be 32ee 6b3d 00ab 073d 3720 30bd
000002a0: e082 8fbd ae28 53be c21e c03e d807 b7be
000002b0: cc66 353f 1bda 0cbf 4108 733e 7e5f 0e3f
000002c0: 1f7a 513f 128b 21be b3e7 0e3f f74d 26bf
000002d0: 24d0 6a3e 9c30 ebbd 3b0f 8a3e 95aa d33d
000002e0: e964 68be 5058 613b 7721 a53e 6276 c03e
000002f0: 97b8 0f3f f070 8a3e b300 bebc 3f39 f23c
00000300: 953e e73d 5fea 8c3e e2e8 193e 542e 6f3e
00000310: 4694 2fbf bdc3 b8be bdd0 b8be a004 b83e
00000320: 3a40 cfbd 3800 ba3c d10e c93c 37c2 bebd
00000330: 5d30 663e a3e8 f9bf 99f2 923d 3637 b5be
00000340: 5b85 3bbe faa7 4e3f 897b 7abe 884d a23e
00000350: 115d c9be 23f6 293d d5e5 0b3f 927d 5c3e
00000360: 1ac2 503f 4c34 7f3e 9057 cfbd a5aa ef3d
00000370: 84bc 8bbe 6976 db3e fdd4 06bf 8f32 44be
00000380: aa1f 4d3e 45d5 163e dd8e 4a3e bc03 063e
00000390: 2fd0 863e 5bb9 7cbf dca5 b03e 300e dd3e
000003a0: 1549 d6bd 0e42 acbe 8877 0bbe d862 c83d
000003b0: c893 243e 8758 ae3e 6a09 d13e 18a9 373f
000003c0: e4e4 383e 3461 97be 7cb9 acbe 44d6 b43e
000003d0: 2311 8cbd dd1b a9bf c40b cb3e c815 0fbf
000003e0: 8ad0 653e 073f 5a3f 7c89 acbe ebe5 0dbe
000003f0: 0ef4 2abd 4772 b53d d91d 57be 424f bf3d

fc2.bias f4 [64]
0.0022311835 0.0026775694 -0.08093836 -0.071580514 -0.038046766 0.048515983 0.0081965 0.4382303
-0.11725837 0.051791213 0.47735015 -0.0041222284 -0.017861743 -0.2136532 0.3696119 -0.08349547
-0.14414126 -0.061954234 0.57843304 -0.043009784 0.1295045 0.039986767 0.3505771 0.18949331
0.56273896 0.29909658 0.05883984 -0.095166616 0.08904192 0.34496766 -0.10904766 -0.00024821356
-0.13489407 0.61153954 0.26448843 0.05574007 0.0420999 -0.07527382 0.05755737 0.0716029
0.06193336 -0.089180335 -0.07376563 0.074453086 0.64491093 -0.021900283 0.13501403 0.08535254
-0.082466535 0.14867802 0.4137172 0.08761598 -0.1058629 0.102065556 -0.013893202 -0.08408563
0.21913704 0.1467632 -0.056108434 -0.036835566 -0.04505893 0.15267213 -0.03333813 0.3762271
00000000: 0c39 123b 297a 2f3b 03c3 a5bd ce98 92bd
00000010: edd6 1bbd b2b8 463d 9d4a 063c b95f e03e
00000020: 2825 f0bd 0623 543d 3d67 f43e c213 87bb
00000030: ca52 92bc e8c7 5abe c53d bd3e acff aabd
00000040: c499 13be b9c3 7dbd 3014 143f 072b 30bd
00000050: d49c 043e 2ac9 233d d77e b33e 890a 423e
00000060: a90f 103f 3023 993e 0b02 713d b7e6 c2bd
00000070: 9c5b b63d 9a9f b03e 6154 dfbd a922 82b9
00000080: ac21 0abe db8d 1c3f 076b 873e b34f 643d
00000090: f270 2c3d 2929 9abd 47c1 6b3d 8ba4 923d
000000a0: d6ad 7d3d 2ea4 b6bd 6f12 97bd dc7a 983d
000000b0: e218 253f 3968 b3bc 1e41 0a3e 50cd ae3d
000000c0: 37e4 a8bd 0d3f 183e bed2 d33e 0270 b33d
000000d0: a6ce d8bd bf07 d13d 50a0 63bc 1635 acbd
000000e0: 7665 603e 1849 163e f5d1 65bd e4e0 16bd
000000f0: b68f 38bd 1556 1c3e 908d 08bd d7a0 c03e

fc3.weight f4 [16, 64]
0.1741755 0.16789778 0.12033381 -0.03052031 0.040110566 0.28083053 -0.064919114 0.20878397
0.027861781 -0.5001094 0.01862976 0.27443358 0.2747161 1.2763699 -0.815325 0.40771937
0.2709881 -0.037256837 -0.354609 0.06612435 0.35601106 -0.08622696 0.453672 0.08883023
0.23920324 -0.029778576 0.33295912 0.2868146 0.23767976 0.2398903 -0.33114126 0.0061757546
-0.6384296 0.36687928 -0.42546186 -0.18916078 -0.7445731 0.010784112 0.5746538 0.3552056
0.29948476 -0.103415966 -0.08247857 0.23089519 -0.8532933 0.06215123 0.13587105 0.37304285
0.067575686 -0.71081996 0.17585626 -0.90208966 0.11203623 0.30346185 0.041602727 0.013854575
0.73755074 0.021851225 -0.11198118 0.35895425 0.10614255 0.7159855 0.4279574 0.17604814
0.29266134 0.2725347 -0.0025960335 -0.041912872 -0.4000513 0.26993474 0.06960445 0.15817139
0.13015948 -0.85537773 0.23373368 0.21276405 0.16830504 1.4128377 -0.840358 0.12203876
0.43045813 0.0023234494 -0.16833055 -0.002904187 0.3144398 -0.034878697 0.12568179 -0.05444115
0.15411977 0.47064427 0.15079984 0.25926164 0.25404552 0.06676914 -0.20703398 0.030504774
-0.8114584 0.2741144 -0.8715307 -0.43296382 -0.44382638 0.14656802 0.21212111 0.41476458
-1.6565317 -0.06547471 -0.10329949 0.037694808 -0.2647593 0.1328384 0.37080926 0.13428414
0.009129354 -0.5900577 0.20237842 -0.49766794 -0.12482183 0.16541725 0.088370755 -0.52761304
0.89740837 -0.04215858 0.02106633 0.1704369 0.025643338 0.20211045 0.41833323 0.040675502
0.3830596 0.26210266 -0.1147244 -0.076115906 -0.047585506 0.12661399 0.015118383 -0.018791743
0.086076096 -0.9845338 0.18759677 0.06867488 -0.09306624 1.3950052 -0.6596614 -0.08006113
0.19644451 -0.028746983 -0.029038304 -0.028722048 0.08583479 0.090115465 0.016557548 -0.2486926
0.24855126 0.4708713 -0.0007431321 0.06803829 0.030624041 0.09652643 -0.33785963 -0.030785052
-0.80071104 0.12308955 -0.6095429 -0.8618474 -0.9715725 0.2041287 0.008133739 0.0066531757
-1.0582631 -0.08323662 0.01975745 0.27421123 -0.2233118 0.24085556 0.16685818 0.048897672
-0.08924254 -0.80714923 0.18257767 -0.7237957 0.07940737 0.12779209 0.069325365 -0.46149525
0.60106754 0.052189004 -0.12563579 0.1466006 0.5421106 0.10544779 0.35636228 0.10831883
0.6975748 0.756971 -0.08283187 0.12364577 0.19477315 0.27355108 -0.065599926 0.34338188
0.5005383 -0.47115934 0.5299342 0.39522004 0.25257903 1.4653369 -0.98859274 0.12656598
0.5803661 0.03623962 -0.5571436 -0.002839719 0.09022346 -0.039992407 0.04852659 -0.1339477
0.4035479 0.5289902 0.3526091 0.37485394 0.37021902 0.38040787 -0.6307587 -0.13566336
-0.8552187 0.23189801 -0.59690756 0.3994751 -0.7800971 0.50750506 0.11070853 0.1576273
-0.6342432 0.026968978 -0.03839154 0.4141746 -0.8334143 0.5031766 0.3331437 0.28244767
-0.09062309 -0.8112777 0.17608401 -0.75405014 0.032791913 0.36115858 -0.023114366 -0.8143771
0.59730357 0.19635764 -0.022647753 0.11577004 0.38035956 0.11607497 0.45847014 0.38084126
00000000: 105b 323e 65ed 2b3e 9371 f63d bb05 fabc
00000010: fa4a 243d 05c9 8f3e 50f4 84bd 77cb 553e
00000020: 643e e43c 2b07 00bf 709d 983c 8f82 8c3e
00000030: 97a7 8c3e 1760 a33f 24b9 50bf 98c0 d03e
00000040: f4be 8a3e a09a 18bd 508f b5be 346c 873d
00000050: 1547 b63e c397 b0bd b247 e83e a0ec b53d
00000060: b2f1 743e 33f2 f3bc 9e79 aa3e 5dd9 923e
00000070: 5362 733e cea5 753e 598b a9be fc5d ca3b
00000080: 1f70 23bf 9ad7 bb3e 23d6 d9be 5db3 41be
00000090: 589c 3ebf d8af 303c 831c 133f 82dd b53e
000000a0: 1156 993e c0cb d3bd 86ea a8bd ca6f 6c3e
000000b0: 6e71 5abf 4a92 7e3d c821 0b3e 79ff be3e
000000c0: 1f65 8a3d 4cf8 35bf aa13 343e 59ef 66bf
000000d0: 4073 e53d 5a5f 9b3e 9f67 2a3d 4dfe 623c
000000e0: 20d0 3c3f 5701 b33c 6456 e5bd dac8 b73e
000000f0: 4461 d93d d34a 373f 3b1d db3e f745 343e
00000100: b5d7 953e ab89 8b3e 3722 2abb d5ac 2bbd
00000110: 86d3 ccbe e334 8a3e c78c 8e3d aef7 213e
00000120: 8748 053e 09fa 5abf e257 6f3e d2de 593e
00000130: 2858 2c3e ded7 b43f b421 57bf 75ef f93d
00000140: 0265 dc3e 0345 183b d85e 2cbe 2c54 3ebb
00000150: 41fe a03e f7dc 0ebd bab2 003e affd 5ebd
00000160: 93d1 1d3e 49f8 f03e 466b 1a3e f1bd 843e
00000170: 4112 823e 42be 883d b700 54be 26e5 f93c
00000180: bdbb 4fbf b958 8c3e a31c 5fbf 6fad ddbe
00000190: 363d e3be ed15 163e 4736 593e 065c d43e
000001a0: 3b09 d4bf 9b17 86bd af8e d3bd df65 1a3d
000001b0: 888e 87be ca06 083e b6da bd3e c881 093e
000001c0: 4993 153c 050e 17bf 4a3c 4f3e 55ce febe
000001d0: 96a2 ffbd 2463 293e bafb b43d a611 07bf
000001e0: 8ebc 653f 7aae 2cbd 4c93 ac3c 0387 2e3e
000001f0: fa11 d23c 0bf6 4e3e c62f d63e 5b9b 263d
00000200: 6320 c43e 5232 863e a0f4 eabd a8e2 9bbd
00000210: 05e9 42bd 19a7 013e 18b3 773c 24f1 99bc
00000220: aa48 b03d 680a 7cbf 5e19 403e 6aa5 8c3d
00000230: 8399 bebd 888f b23f 92df 28bf 17f7 a3bd
00000240: c028 493e cb7e ebbc bde1 edbc 804a ebbc
00000250: 26ca af3d 758e b83d b2a3 873c 46a9 7ebe
00000260: 3984 7e3e 0b16 f13e c0ce 42ba a957 8b3d
00000270: 45df fa3c a6af c53d f0fb acbe ef30 fcbc
00000280: 66fb 4cbf 6016 fc3d 010b 1cbf 08a2 5cbf
00000290: fab8 78bf 1d07 513e 6043 053c e202 da3b
000002a0: 2a75 87bf f677 aabd 60da a13c 6a65 8c3e
000002b0: d9ab 64be d7a2 763e dfdc 2a3e ed48 483d
000002c0: cbc4 b6bd 55a1 4ebf a4f5 3a3e ad4a 39bf
000002d0: 55a0 a23d eedb 023e 75fa 8d3d 1b49 ecbe
000002e0: 90df 193f 23c4 553d aba6 00be 781e 163e
000002f0: c3c7 0a3f 03f5 d73d 1e75 b63e 43d6 dd3d
00000300: 4394 323f dac8 413f c1a3 a9bd fe39 fd3d
00000310: 9d72 473e e30e 8c3e 4159 86bd c0cf af3e
00000320: 4723 003f cc3b f1be c5a9 073f 485a ca3e
00000330: 0a52 813e 2990 bb3f 6a14 7dbf 839a 013e
00000340: df92 143f ff6f 143d f7a0 0ebf 941a 3abb
00000350: 14c7 b83d 14cf 23bd d1c3 463d 9629 09be
00000360: d59d ce3e e76b 073f 2e89 b43e dbec bf3e
00000370: 598d bd3e d2c4 c23e 6779 21bf 56eb 0abe
00000380: 9def 5abf ac76 6d3e efce 18bf 0088 cc3e
00000390: 72b4 47bf daeb 013f 27bb e23d 0d69 213e
000003a0: c35d 22bf 0cee dc3c 7340 1dbd b10e d43e
000003b0: a45a 55bf 2fd0 003f d091 aa3e fb9c 903e
000003c0: 9998 b9bd e5af 4fbf 5e4f 343e 6e09 41bf
000003d0: d050 063d c7e9 b83e 575a bdbc 057b 50bf
000003e0: e3e8 183f fa11 493e c887 b9bc d818 ed3d
000003f0: 7dbe c23e b7b8 ed3d 99bc ea3e a0fd c23e

fc3.bias f4 [16]
0.34288344 0.13055901 0.11015699 0.34005818 -0.079433054 0.17066103 0.28969532 0.79290384
0.55216044 0.15952516 0.16790745 -0.0919918 0.15545115 0.26503488 0.006936406 -0.016279096
00000000: 6b8e af3e 43b1 053e fd99 e13d 1b1c ae3e
00000010: ccad a2bd c4c1 2e3e f252 943e bffb 4a3f
00000020: 635a 0d3f 905a 233e eeef 2b3e 3266 bcbd
00000030: 962e 1f3e a7b2 873e ca4a e33b bd5b 85bc

fc4.weight f4 [4, 16]
-0.33691332 -0.33440217 -0.36914802 -0.4501403 -0.17824858 -0.46353197 -0.5182953 1.5574492
-0.96547604 -0.5622955 -0.33363417 0.16991952 -0.7603617 0.3602473 0.07901484 -0.29830557
-0.5850584 -0.40354365 -0.2984496 -0.16965312 0.024385005 -0.54257035 -0.5386399 1.5736213
-0.82518274 -0.68095124 -0.30793384 -0.13784772 -0.7712484 0.023883324 0.08402454 -0.70397437
-0.23459081 -0.40144902 -0.63774794 -0.3938548 0.0985063 -0.43005496 -0.4689748 1.6051322
-0.6263918 -0.5747761 -0.2440606 -0.12564772 -0.2628436 -1.0854584 0.09688319 -0.57811326
-0.15499556 -0.34515125 -0.65875596 -0.7613648 -0.043661237 -0.1480841 -0.4321867 1.5664394
-1.0952674 -0.4489579 -0.5981862 -0.1829907 -0.32402033 0.085979156 0.17364348 0.081823625
00000000: e77f acbe c336 abbe f800 bdbe ca78 e6be
00000010: cc86 36be 1054 edbe 00af 04bf 7f5a c73f
00000020: 7029 77bf 99f2 0fbf 19d2 aabe 62ff 2d3e
00000030: 10a7 42bf 5672 b83e 88d2 a13d 82bb 98be
00000040: 63c6 15bf 469d cebe 63ce 98be 8cb9 2dbe
00000050: 10c3 c73c e4e5 0abf 4ee4 09bf 6c6c c93f
00000060: 2d3f 53bf d252 2ebf 81a9 9dbe f427 0dbe
00000070: 8970 45bf f6a6 c33c 0f15 ac3d aa37 34bf
00000080: 9338 70be ba8a cdbe 7343 23bf 56a7 c9be
00000090: acbd c93d 2a30 dcbe 771d f0be f974 cd3f
000000a0: 375b 20bf 8724 13bf 06eb 79be cca9 00be
000000b0: 7093 86be 4df0 8abf b26a c63d 3bff 13bf
000000c0: 28b7 1ebe aab7 b0be 3ba4 28bf cee8 42bf
000000d0: 20d6 32bd 5ca3 17be 9347 ddbe 1681 c83f
000000e0: b931 8cbf cfdd e5be bb22 19bf ea61 3bbe
000000f0: fee5 a5be d715 b03d 99cf 313e 2593 a73d

fc4.bias f4 [4]
0.4958876 0.28429088 0.23588516 0.00038836367
00000000: fbe4 fd3e 938e 913e e18b 713e 4a9d cb39
