project1-navigation/results/banana_submission/banana_submission_model_pytorch.pth (torch_old, 58257 bytes, 8 tensors)

fc1.weight f4 [128, 37]
-0.8557655 -0.31873655 0.005727529 0.27397713 -0.6549867 -0.68149865 0.22798091 -0.8988287
0.049935322 -0.14509875 -0.28925404 -0.72580874 0.10182028 -0.23277642 -0.37239248 -0.3835776
0.3384978 -0.1985427 0.098215416 -0.13567463 -0.58034503 -0.14168848 -0.076128595 -0.15668163
0.08167629 -0.17839487 -0.5147754 0.0894708 0.22737655 -0.231626 -0.07010585 -0.40778595
-0.3889349 -0.08355548 0.46502173 0.08715046 -0.13686764 -0.4305644 0.015034114 -0.108744845
-0.53838515 -1.0291754 0.35842758 -0.35557783 -0.2969297 -0.25539473 -0.7256891 -0.5020043
-0.3099758 0.17964889 0.31504133 0.45474046 -0.013213486 -0.4965128 -0.3129324 -0.46322247
-1.0535159 0.15401833 -0.15822205 -0.6325916 0.18453732 -0.037634544 0.087829046 -0.8639362
0.24007459 -0.39481837 -0.63197744 0.11144451 -0.29375345 -0.20125559 -0.07536384 -0.34732255
0.22542506 -0.2503842 -0.359599 0.10394212 0.2731554 0.21132195 0.26803282 -0.27078643
0.22718367 0.10801437 0.2164 0.44628373 -0.041060735 0.028404815 0.07659271 -0.024348864
0.33588228 -0.24774988 0.15338741 0.1413664 0.14955221 0.12566833 -0.22882713 -0.14936142
0.1924579 -0.073017895 0.08140778 -0.26790437 -0.041978892 0.10609509 0.16740885 0.22769853
-0.3357808 0.04336846 0.25763404 0.20857172 0.5804251 0.024785262 -0.089613 -0.54977506
0.27566186 -0.09823193 -0.1968865 -0.17774244 -0.13110423 0.036441736 -0.5015166 0.23508757
0.04127555 -0.19262551 -0.14918081 -0.08729538 0.2832384 -0.07961773 -0.23030375 0.2311554
0.03929464 -0.24258475 -0.26979595 -0.37261736 -0.1847998 0.15948851 -0.1976307 0.22982122
-0.036659874 -0.14924291 -0.1310438 0.22794789 -0.030720623 0.3076711 -0.7700778 0.055301808
-0.10651672 -0.3315183 0.20386149 0.03417947 0.0017016788 0.13596131 0.008505015 0.14182168
0.17587171 0.18832842 0.20322418 0.01303525 0.009563361 -0.3592246 -0.018025972 0.14562008
0.18086284 -0.010247669 -0.041196536 0.092512324 0.2735719 -0.0041442886 0.22977903 -0.1611409
0.3020924 -0.05082813 0.080162525 0.09355479 -0.29449183 0.093025506 0.030428497 0.046250448
0.10992906 -0.4454042 0.28692138 0.06797384 0.032892577 -0.27022952 -0.31619254 9.9868375e-05
-0.0033870374 -0.27648216 0.30689064 0.16298223 0.08192547 -0.34228066 -0.18021783 0.017340342
0.44920787 0.13305992 0.045971885 -0.18493146 0.19484128 -0.07183793 0.37346026 0.10159029
-0.08607362 0.32688448 0.023545679 0.108640075 -0.26014334 -0.36396825 0.094000086 -0.028282193
0.043548997 -0.05307439 0.2416078 -0.4715874 -0.13554004 -0.7861099 -1.9890957 -0.11783499
0.23635554 -0.08453071 -0.07529082 0.022106202 0.23024738 0.005814126 0.3640722 -0.5346577
-0.5551321 -0.2794836 -1.3587598 0.30654913 -0.29715568 0.28020912 -0.038089808 -0.2722802
-0.10571874 -0.0699954 0.09130999 0.018234331 -0.44800797 -0.0012413294 -0.23817147 0.045944158
-0.041131984 0.043178413 0.081449166 0.08185871 -0.051304005 -0.081726335 -0.0055195447 0.036264922
-0.47670987 0.4000319 -0.09674303 0.022153545 -0.17070167 -0.26411858 -0.08799843 0.18044676
00000000: 7313 5bbf 7031 a3be ffad bb3b bb46 8c3e
00000010: 35ad 27bf b276 2ebf d473 693e a319 66bf
00000020: fb88 4c3d c494 14be 1b19 94be 9ace 39bf
00000030: 2787 d03d f15c 6ebe 3aaa bebe 4864 c4be
00000040: 954f ad3e c74e 4bbe 2a25 c93d 4aee 0abe
00000050: 7e91 14bf c916 11be 4fe9 9bbd 2671 20be
00000060: e645 a73d 25ad 36be 52c8 03bf 773c b73d
00000070: 66d5 683e 5e2f 6dbe a893 8fbd 52c9 d0be
00000080: 7a22 c7be 231f abbd 5417 ee3e f17b b23d
00000090: 0827 0cbe f072 dcbe a551 763c 9eb5 debd
000000a0: 9cd3 09bf 05bc 83bf d283 b73e 4c0e b6be
000000b0: 2b07 98be 19c3 82be c3c6 39bf 5b83 00bf
000000c0: 26b5 9ebe e1f5 373e 194d a13e bed3 e83e
000000d0: 617d 58bc ed36 febe ad38 a0be 7f2b edbe
000000e0: 9cd9 86bf fbb6 1d3e f604 22be 86f1 21bf
000000f0: 5af7 3c3e ae26 1abd b7df b33d ec2a 5dbf
00000100: 1dd6 753e a225 cabe 46c9 21bf 053d e43d
00000110: da66 96be f215 4ebe 5b58 9abd 43d4 b1be
00000120: d4d5 663e 5c32 80be 5c1d b8be 9bdf d43d
00000130: 06db 8b3e c864 583e 993b 893e 85a4 8abe
00000140: d6a2 683e a336 dd3d f697 5d3e 4d7f e43e
00000150: 4d2f 28bd 37b1 e83c a4dc 9c3d 4577 c7bc
00000160: c3f8 ab3e 25b2 7dbe 9711 1d3e 5bc2 103e
00000170: 3724 193e 33af 003e a951 6abe 33f2 18be
00000180: af13 453e 688a 95bd 1fb9 a63d c32a 89be
00000190: 0ff2 2bbd 6248 d93d 3a6d 2b3e ce29 693e
000001a0: 76eb abbe 20a3 313d 9ce8 833e d393 553e
000001b0: bd96 143f 760a cb3c 0587 b7bd 0fbe 0cbf
000001c0: 8d23 8d3e d22d c9bd 9d9c 49be 1d02 36be
000001d0: 3040 06be ee43 153d 6463 00bf ccba 703e
000001e0: 8d10 293d 9f3f 45be dbc2 18be ecc7 b2bd
000001f0: a004 913e 9f0e a3bd bfd4 6bbe 00b4 6c3e
00000200: 6bf3 203d 2368 78be b222 8abe b4c7 bebe
00000210: 293c 3dbe f550 233e b45f 4abe 4156 6b3e
00000220: aa28 16bd 22d3 18be 5930 06be 2c6b 693e
00000230: d1a9 fbbc 1187 9d3e d223 45bf 2684 623d
00000240: 7025 dabd c4bc a9be 11c1 503e c6ff 0b3d
00000250: de0a df3a 7139 0b3e 9e58 0b3c b439 113e
00000260: b717 343e 2ad9 403e 001a 503e cd91 553c
00000270: a5af 1c3c 49ec b7be 34ab 93bc 6e1d 153e
00000280: 1c34 393e d7e5 27bc b3bd 28bd 1a77 bd3d
00000290: 9e11 8c3e d0cc 87bb 324b 6b3e 1f02 25be
000002a0: dbab 9a3e 2831 50bd 402c a43d a799 bf3d
000002b0: a2c7 96be 2884 be3d 2f45 f93c 1c71 3d3d
000002c0: 7d22 e13d 050c e4be 5ce7 923e de35 8b3d
000002d0: 5eba 063d 865b 8abe fde3 a1be 6d70 d138
000002e0: 0ff9 5dbb 128f 8dbe c520 9d3e d0e4 263e
000002f0: 8ac8 a73d 693f afbe 068b 38be 550d 8e3c
00000300: 93fe e53e dc40 083e 044d 3c3d ac5e 3dbe
00000310: 7984 473e c41f 93bd 2f36 bf3e 920e d03d
00000320: 5e47 b0bd 675d a73e dee2 c03c b07e de3d
00000330: 8231 85be 0c5a babe 1e83 c03d 0fb0 e7bc
00000340: 6f60 323d 8864 59bd 0968 773e e773 f1be
00000350: 02cb 0abe 803e 49bf b09a febf 7953 f1bd
00000360: 3007 723e 701e adbd 1332 9abd 1118 b53c
00000370: f8c5 6b3e 6d84 be3b ac67 ba3e 54df 08bf
00000380: 231d 0ebf 7918 8fbe d7eb adbf 02f4 9c3e
00000390: ca24 98be 9277 8f3e 0f04 1cbd 4f68 8bbe
000003a0: 1183 d8bd c059 8fbd bb00 bb3d 2a60 953c
000003b0: 4d61 e5be 1ab4 a2ba 39e3 73be f12f 3c3d
000003c0: 037a 28bd d9db 303d d2ce a63d 8aa5 a73d
000003d0: 2624 52bd 2360 a7bd 4cdd b4bb 878a 143d
000003e0: 5113 f4be fbd0 cc3e 3621 c6bd 5a7b b53c
000003f0: 6bcc 2ebe 8d3a 87be 8538 b4bd 09c7 383e

fc1.bias f4 [128]
-0.25430807 0.19005269 -0.059404325 -0.17827371 0.027568558 0.14121614 0.037287336 0.016789105
0.2457408 -0.15388933 0.021373522 -0.13818865 -0.032528512 -0.15859984 -0.055446375 0.031233398
-0.31749132 -0.1716056 -0.16008262 -0.09751919 0.1368012 0.032881174 -0.22171105 -0.030813763
0.09453785 -0.04727718 -0.0077703875 0.04279108 0.008076075 0.3389342 -0.11249631 0.00932906
-0.02868587 0.255414 -0.040030785 0.019284792 -0.034756236 -0.32257372 -0.089838624 -0.00890954
-0.00968703 0.2172243 -0.026265824 0.19580567 0.07727987 0.13707635 0.06628135 -0.40068898
-0.1553878 0.0034712884 -0.05064728 -0.15984179 0.06756306 0.006056077 -0.017421544 0.0072209626
-0.034916807 0.29924363 -0.13880615 -0.12306044 -0.17056389 0.09499344 0.1561186 0.24149874
-0.13943289 -0.07312776 -0.15019551 -0.0009559096 -0.0051838597 -0.08279183 -0.035347562 -0.14046733
-0.06962165 -0.15035115 0.4349525 0.056396868 -0.027505687 0.06288118 0.016328141 -0.1314062
-0.0063184802 0.018851973 -0.19405173 -0.1803039 0.15350825 0.112302944 -0.0749138 0.0339734
0.085238084 -0.17312995 0.4337028 -0.027427737 -0.094339795 -0.2253109 -0.103979245 -0.084401175
0.083235376 -0.13731034 -0.21592575 0.055743936 0.036983132 -0.030921288 -0.012100282 -0.008389304
0.12463524 -0.0059224926 -0.05538507 -0.049399473 -0.14589237 0.003433196 -0.1732544 -0.058063503
0.036122587 0.07184496 -0.11089346 0.08005901 -0.013938301 0.11893922 0.35210502 -0.09931708
-0.11666201 -0.234944 -0.25905886 -0.06030925 -0.22233208 -0.01364324 -0.28923255 -0.013735166
00000000: ab34 82be 2c9d 423e f351 73bd 628d 36be
00000010: 75d7 e13c f79a 103e 9bba 183d 4e89 893c
00000020: 7aa3 7b3e 2a95 1dbe 8617 af3c 5381 0dbe
00000030: 9e3c 05bd ff67 22be bd1b 63bd 2fdd ff3c
00000040: 398e a2be 61b9 2fbe b3ec 23be 24b8 c7bd
00000050: 9d15 0c3e 69ae 063d 3908 63be 256d fcbc
00000060: 0f9d c13d b7a5 41bd bc9e febb b345 2f3d
00000070: 8451 043c c988 ad3e 7764 e6bd ead8 183c
00000080: a1fe eabc a0c5 823e 52f7 23bd 24fb 9d3c
00000090: 8e5c 0ebd 6228 a5be 50fd b7bd 52f9 11bc
000000a0: 59b6 1ebc 0c70 5e3e 6d2b d7bc 4881 483e
000000b0: e944 9e3d be5d 0c3e 84be 873d 1b27 cdbe
000000c0: fb1d 1fbe 8e7e 633b 8673 4fbd 91ad 23be
000000d0: 805e 8a3d 0e72 c63b a0b7 8ebc d39d ec3b
000000e0: ed04 0fbd 7636 993e 3323 0ebe 1d07 fcbd
000000f0: 4da8 2ebe ec8b c23d 8edd 1f3e 724b 773e
00000100: 7fc7 0ebe 02c4 95bd dacc 19be 0296 7aba
00000110: 5edd a9bb c38e a9bd 9bc8 10bd abd6 0fbe
00000120: cc95 8ebd a7f5 19be 18b2 de3e 6700 673d
00000130: 9b53 e1bc d9c7 803d 98c2 853c 598f 06be
00000140: 410b cfbb 746f 9a3c 7fb5 46be 96a1 38be
00000150: 4431 1d3e 16ff e53d 686c 99bd b127 0b3d
00000160: 4e91 ae3d fa48 31be 4b0e de3e 22b0 e0bc
00000170: 3935 c1bd e7b7 66be 12f3 d4bd 86da acbd
00000180: 4f77 aa3d 159b 0cbe a41b 5dbe c153 643d
00000190: a07b 173d a44e fdbc 4340 46bc 4b73 09bc
000001a0: c340 ff3d 7811 c2bb 75db 62bd 1a57 4abd
000001b0: cf64 15be 79ff 603b 9a69 31be ffd3 6dbd
000001c0: 47f5 133d 7323 933d 1c1c e3bd faf5 a33d
000001d0: 795d 64bc 6896 f33d 1c47 b43e c166 cbbd
000001e0: 7eec eebd 2995 70be 5da3 84be d506 77bd
000001f0: 05ab 63be e587 5fbc 4a16 94be 7609 61bc

fc2.weight f4 [64, 128]
0.16295703 0.23058647 0.26157838 0.23440622 -0.05010887 0.2905984 -0.3906402 0.17730658
-0.045626733 -0.4786772 0.07361445 0.23300633 -0.24367285 -0.04003478 -0.05832914 0.08531641
0.1704228 0.1559009 -0.061751377 0.041361988 0.17152517 -0.40715498 0.078899026 -0.029147267
-0.0068180426 0.3128174 0.028369647 0.3560001 0.033672765 -0.0901543 -0.08687755 -0.17937008
0.040783376 -0.0643277 0.049475417 0.37068516 0.19161709 0.06305303 0.1934726 0.11921345
0.0421134 -0.22788496 -0.03101156 -0.026303027 0.045128554 -0.040478602 0.025566868 0.047487814
0.11073506 -0.0119635565 0.078179814 0.0019546167 0.41646156 0.06361194 -1.4907814 0.18114956
0.1074291 -0.20788325 -0.106648676 0.23582786 -0.077880904 -0.027410721 -0.2883137 -0.021354977
-0.052415416 0.031451106 -0.16051278 0.13870159 -0.24693567 0.008677316 -0.09911013 -0.13346323
0.0028652924 0.03676986 0.16098112 -0.10888712 -0.075857885 -0.12724428 0.040449988 -0.06624741
-0.09798993 -0.08418702 0.13240959 0.060751 -0.2695415 0.25818807 0.08704456 -0.3956236
0.080750585 -0.041518066 0.095432036 -0.3427022 -0.021394012 -0.012167295 0.06329188 -0.16576472
0.7396361 -0.33337924 -0.12670927 0.046525277 -0.15416318 -0.044225294 0.07328035 -0.062234238
0.0041379705 0.09689588 -0.037958298 0.17274398 -0.06359376 0.07455954 -0.10686948 0.39796114
-0.2164197 -0.04959843 -0.20853178 0.68537396 0.14883816 -0.20809235 -0.14253174 0.25425512
0.1629526 -0.047403216 -0.017852994 0.22354297 -0.16965967 0.601631 0.22676249 -0.08722174
0.14571165 -0.16559087 0.18673944 -0.43517113 -0.17388605 -0.236966 0.5876927 0.34997165
-0.06868727 0.30266085 -0.536648 -0.23278773 -0.07947619 -0.0008602031 -0.22477199 -0.5652134
0.011524235 0.026683314 -0.004463782 -0.110374205 0.013885712 0.046812706 0.57597184 0.356271
-0.3638013 -0.07627549 0.1670908 0.27126318 -0.052951552 -0.09620844 0.082732946 -0.16304564
0.43876535 0.10692308 -0.39890957 -0.73393375 0.25677788 0.15226822 -0.24241182 -0.06438321
-0.22113396 -0.36661315 0.2697888 0.33065504 0.19125661 0.25413272 -0.56610346 -0.20763908
-0.32889104 -0.027469793 0.11075094 -0.081658974 0.7181504 -0.940401 0.35373887 -0.07384284
-0.19647071 0.13179824 -0.28689122 0.35655314 0.19358578 -0.04472907 0.04521849 -0.83390814
0.092098616 0.2162985 -0.14683956 0.19656198 -0.164612 -0.56142724 0.008528496 -0.5947854
0.2245489 0.11697576 -0.021973066 -0.20768894 0.07712188 0.12957737 -0.11921836 0.25839436
0.3758815 -0.08167236 -0.6968295 0.18572927 0.4204123 -0.052574854 -0.024448542 -0.015096633
-0.4024853 -0.19355853 -0.04004976 -0.14905964 -0.52230215 -0.5124983 -0.24544561 -0.13253611
0.37036693 -0.28600708 -0.15663694 0.043282133 -0.10216868 -0.19794178 -0.58279425 -0.15899064
0.13448837 -0.06666792 -0.42368624 -0.09903436 0.09929119 -0.32871416 0.019739889 -0.05811318
0.2475597 0.089899965 0.270725 0.4983253 0.24935158 -1.3056692 -0.27206242 -0.19305992
0.066240214 -0.5642193 -0.38937485 0.074760005 -0.027494404 0.35672012 0.025521886 0.17666377
00000000: 35de 263e dc1e 6c3e 9aed 853e 2f08 703e
00000010: f53e 4dbd 50c9 943e fe01 c8be db8f 353e
00000020: 19e3 3abd 2e15 f5be 2cc3 963d 3699 6e3e
00000030: 6085 79be 82fb 23bd 89ea 6ebd 5fba ae3d
00000040: 5183 2e3e 7ca4 1f3e 03ef 7cbd 306b 293d
00000050: 4ba4 2f3e 9e76 d0be d095 a13d 40c6 eebc
00000060: e369 dfbb 9a29 a03e 7667 e83c a545 b63e
00000070: 74ec 093d d1a2 b8bd dbec b1bd caac 37be
00000080: 780c 273d 3ebe 83bd bca6 4a3d 72ca bd3e
00000090: 4537 443e f221 813d ae1d 463e 2e26 f43d
000000a0: 1a7f 2c3d ad5a 69be f40b febc 7279 d7bc
000000b0: b8d8 383d e4cc 25bd 9c71 d13c 9582 423d
000000c0: 10c9 e23d cb02 44bc bd1c a03d 0719 003b
000000d0: 733a d53e fa46 823d edd1 bebf 457f 393e
000000e0: ca03 dc3d 59df 54be 9f6a dabd dc7c 713e
000000f0: 0680 9fbd 738c e0bc da9d 93be a2f0 aebc
00000100: 8cb1 56bd e0d2 003d 765d 24be ca07 0e3e
00000110: b4dc 7cbe 4d2b 0e3c 40fa cabd 96aa 08be
00000120: a1c7 3b3b fe9b 163d 3cd8 243e 3600 dfbd
00000130: 615b 9bbd 534c 02be e3ae 253d b9ac 87bd
00000140: f2ae c8bd 3f6a acbd 6196 073e 0ad6 783d
00000150: 5801 8abe 3a31 843e 6b44 b23d 2d8f cabe
00000160: 9060 a53d d90e 2abd df71 c33d aa76 afbe
00000170: 7f42 afbc 5659 47bc 2c9f 813d 3abe 29be
00000180: cb58 3d3f afb0 aabe 13c0 01be 4a91 3e3d
00000190: f4dc 1dbe 9525 35bd 0214 963d 54e9 7ebd
000001a0: d097 873b 5971 c63d 297a 1bbd cce3 303e
000001b0: 723d 82bd acb2 983d 63de dabd 90c1 cb3e
000001c0: 209d 5dbe b927 4bbd 5b89 55be ab74 2f3f
000001d0: 0869 183e 2916 55be d7f3 11be ba2d 823e
000001e0: 0cdd 263e e029 42bd 7140 92bc 73e8 643e
000001f0: 44bb 2dbe 7d04 1a3f 6d34 683e 50a1 b2bd
00000200: 6f35 153e a790 29be a038 3f3e c0ce debe
00000210: 2f0f 32be 37a7 72be 0773 163f 7c2f b33e
00000220: e9ab 8cbd 5df6 9a3e c361 09bf e85f 6ebe
00000230: 6ac4 a2bd 417f 61ba a12a 66be d3b1 10bf
00000240: 25d0 3c3c f796 da3c eb44 92bb df0b e2bd
00000250: e680 633c aebe 3f3d e472 133f 2769 b63e
00000260: 2a44 babe 5336 9cbd da19 2b3e 02e3 8a3e
00000270: bae3 58bd ee08 c5bd e46f a93d 70f5 26be
00000280: daa5 e03e 7dfa da3d e03d ccbe 15e3 3bbf
00000290: 6478 833e 33ec 1b3e ce3a 78be 58db 83bd
000002a0: f170 62be b8b4 bbbe c221 8a3e 9e4b a93e
000002b0: c6d8 433e af1d 823e 28ec 10bf 579f 54be
000002c0: 6864 a8be 5508 e1bc 64d1 e23d d23c a7bd
000002d0: b4d8 373f 1fbe 70bf 431d b53e ea3a 97bd
000002e0: 9e2f 49be 1ef6 063e 68e3 92be 228e b63e
000002f0: 5a3b 463e d435 37bd 0637 393d 017b 55bf
00000300: 339e bc3d 5b7d 5d3e 1c5d 16be 8b47 493e
00000310: 0c90 28be b2b9 0fbf 1bbb 0b3c db43 18bf
00000320: 26f0 653e fd90 ef3d dc00 b4bc 69ac 54be
00000330: 14f2 9d3d eeaf 043e c128 f4bd 444c 843e
00000340: 8a73 c03e d743 a7bd 6b63 32bf d02f 3e3e
00000350: 4840 d73e bb58 57bd 4f48 c8bc de57 77bc
00000360: 8e12 cebe 3534 46be 380b 24bd 17a3 18be
00000370: 98b5 05bf 1733 03bf 1856 7bbe 8cb7 07be
00000380: bca0 bd3e 856f 92be 6f65 20be 9b48 313d
00000390: d03d d1bd 40b1 4abe 0132 15bf 71ce 22be
000003a0: 52b7 093e 3189 88bd 67ed d8be 87d2 cabd
000003b0: 2e59 cb3d 394d a8be 8cb5 a13c 1608 6ebd
000003c0: 4a80 7d3e 791d b83d 789c 8a3e 7e24 ff3e
000003d0: 0556 7f3e 2b20 a7bf c44b 8bbe 80b1 45be
000003e0: f3a8 873d ad70 10bf 245c c7be c61b 993d
000003f0: f23b e1bc 05a4 b63e 4613 d13c 59e7 343e

fc2.bias f4 [64]
0.3402035 -0.32542393 0.3498182 0.274646 -0.062134843 -0.029222589 0.46262068 -0.057939056
0.77727526 0.021579398 0.815373 -0.01010508 -0.11802551 0.024227608 0.11395943 0.6961104
-0.06358724 0.006383077 0.29938045 0.20589015 0.02248924 -0.018167509 0.14777808 0.055664945
-0.03436825 0.098836526 -0.045625895 0.5463984 0.029089343 -0.087444134 -0.12201468 0.024951756
-0.024101641 -0.18040808 0.046017453 0.4480379 0.036024168 -0.11577784 -0.21579733 -0.082410224
-0.21645844 -0.1608268 0.12552293 0.56270194 -0.0778181 -0.02878617 -0.041191656 0.68803513
0.012347219 0.2998193 0.21117006 0.052528426 0.79281944 -0.01649629 0.03364921 0.13167524
-0.03836718 0.16843209 -0.31559762 -0.30588597 0.2505898 -0.13977772 0.03922431 -0.0021903466
00000000: 272f ae3e f79d a6be 5f1b b33e 679e 8c3e
00000010: 1b81 7ebd 3664 efbc 9edc ec3e 8151 6dbd
00000020: 83fb 463f 47c7 b03c 49bc 503f c78f 25bc
00000030: 5cb7 f1bd fa78 c63c 9063 e93d 4b34 323f
00000040: 073a 82bd 2129 d13b 6548 993e ded4 523e
00000050: 5b3b b83c 07d4 94bc 2353 173e ed00 643d
00000060: b9c5 0cbd ce6a ca3d 38e2 3abd c4e0 0b3f
00000070: c64c ee3c e915 b3bd d5e2 f9bd a067 cc3c
00000080: ce70 c5bc e5bc 38be cc7c 3c3d 3965 e53e
00000090: 148e 133d ef1c edbd faf9 5cbe b1c6 a8bd
000000a0: 48a7 5dbe c8af 24be 1589 003e 3c0d 103f
000000b0: 195f 9fbd f9d0 ebbc 95b8 28bd 1223 303f
000000c0: fd4b 4a3c ea81 993e f73c 583e 0c28 573d
000000d0: 37f6 4a3f 3a23 87bc c1d3 093d e0d5 063e
000000e0: e726 1dbd 7679 2c3e 0396 a1be 169d 9cbe
000000f0: 4e4d 803e e421 0fbe aca9 203d eb8b 0fbb

fc3.weight f4 [16, 64]
0.1492981 -0.31076223 0.045544624 0.089702286 -0.4326639 -0.041933138 0.19267136 0.18716542
0.3070134 0.36870956 0.14148045 -0.04903006 -0.49514237 -0.100997016 -0.5361092 0.2559443
-0.14182237 -0.3771516 0.057748765 0.18690382 -0.13308 -0.072807886 -0.056442488 0.20115949
-0.16972151 -0.024619969 -0.49474642 0.11525066 0.08105278 0.1458174 -0.30387154 -0.5943535
-0.012541556 -0.6290332 -0.48865512 0.04001902 -0.510043 -0.9835714 -0.45629779 -0.0024907065
-0.24621283 -0.37642744 0.084374614 0.35701737 -0.99876046 -0.12331436 -0.020984821 0.27279922
0.21061036 0.18703383 0.3093868 -0.65941316 0.3292285 -0.35704085 -0.25296503 0.1161558
-0.9556084 0.45326495 -0.55914885 -0.1997477 0.1982822 -0.56017625 -0.16250144 0.06596303
-0.6797571 -0.3731528 -0.38451505 0.15723252 0.15601067 0.2290331 0.032467566 0.20055017
0.09227143 -0.2475683 0.08430713 -0.0914005 0.45161197 0.35967115 0.34918374 -0.15734331
0.031495202 0.40115196 -0.18645039 -0.24068798 0.16333191 -0.09753091 -0.104698725 0.09897683
-0.34417185 0.1217722 0.517582 0.045126762 -0.06725785 0.18710218 -0.009419027 0.064538
-0.20410348 -0.41717988 -0.4128094 -0.14036258 0.1799214 -0.19742927 -0.07954283 0.33894292
0.004170804 -0.37517694 -0.54429746 -0.025926108 -0.061290573 0.031920522 -0.11353987 -0.23615675
-0.09078316 0.114782736 -0.46514556 0.43258372 0.037820127 0.23400474 0.2955239 0.06634043
0.17110169 -0.4327925 0.2892332 0.061081365 -0.3750205 0.4688491 -0.20700693 -0.15736325
0.066124715 -0.0029961849 -0.05536561 -0.120155975 0.03229453 -0.1340497 -0.13554338 0.09654268
-0.11715848 -0.10477837 -0.11587845 -0.11522738 0.0424351 -0.07440468 -0.068688154 0.034516033
-0.004385492 -0.047355894 0.06432186 -0.112214714 0.11083227 0.112521216 0.09345638 0.07550764
0.004054037 0.059310183 -0.0404478 -0.16841139 0.04262437 -0.11078194 -0.051477797 0.0016120385
-0.027372252 0.016066803 0.049609892 -0.08184323 -0.02476445 -0.11541414 0.057296753 0.10495414
0.03093606 -0.11332792 -0.008015284 -0.09916059 -0.074664876 -0.093913615 0.097262084 -0.055615712
0.027362984 0.054791607 0.021525271 -0.037773747 0.091183804 -0.07897748 0.07598748 0.098902084
-0.10459635 0.0033745223 -0.008751122 0.09127663 -0.011736526 -0.049357086 0.019672083 0.017742885
-0.7908882 -0.30278406 -0.23484714 -0.09769887 0.36953142 0.24796559 -0.17114265 -0.089011855
0.11565692 -0.35461575 -0.03350607 0.05124732 0.31160116 -0.20595878 -0.09567246 -0.09815926
0.5757506 0.39275867 -0.3065798 -0.4180916 0.061388068 0.024857694 -0.070856005 -0.19333865
-0.03145799 -0.12316948 0.007739611 -0.014979657 -0.1876909 -0.51412106 0.5380205 -0.4506311
-0.2546454 0.029838165 -0.34419775 -0.18247046 0.17582537 -0.18889189 0.53903556 0.026335318
0.6030451 0.28035453 -0.044151746 -0.23363383 0.646122 0.072825596 0.044828597 -0.018052433
-0.30259335 -0.19969231 -0.15783302 0.08823532 0.16301914 -0.42205694 -0.28340855 -0.047686044
0.46468 -0.31664515 -0.09347299 0.3226221 0.008291735 0.44073313 -0.4511983 -0.5543511
00000000: 9ae1 183e 3a1c 9fbe 008d 3a3d d5b5 b73d
00000010: 1f86 ddbe 15c2 2bbd a44b 453e 4ba8 3f3e
00000020: dc30 9d3e 80c7 bc3e 40e0 103e bfd3 48bd
00000030: 4d83 fdbe 86d7 cebd 743e 09bf 220b 833e
00000040: e239 11be 041a c1be f889 6c3d b763 3f3e
00000050: 2046 08be 4d1c 95bd 3d30 67bd c1fc 4d3e
00000060: 7acb 2dbe d1af c9bc 674f fdbe 8a08 ec3d
00000070: 00ff a53d 2851 153e 0d95 9bbe 8d27 18bf
00000080: 197b 4dbc 5208 21bf 0131 fabe fcea 233d
00000090: 2e92 02bf 56cb 7bbf dd9f e9be 1f3b 23bb
000000a0: 371f 7cbe 19bb c0be 99cc ac3d fbca b63e
000000b0: c4ae 7fbf 3d8c fcbd 5ce8 abbc 57ac 8b3e
000000c0: 3eaa 573e cc85 3f3e f267 9e3e 4dcf 28bf
000000d0: a390 a83e 0fce b6be a284 81be 18e3 ed3d
000000e0: c1a2 74bf 5812 e83e 6124 0fbf a98a 4cbe
000000f0: 7d0a 4b3e b667 0fbf c766 26be a017 873d
00000100: 9004 2ebf e20d bfbe 28df c4be 9001 213e
00000110: 43c1 1f3e a787 6a3e b6fc 043d 065d 4d3e
00000120: cef8 bc3d 8b82 7dbe 37a9 ac3d 2f30 bbbd
00000130: af39 e73e d126 b83e 36c8 b23e 9b1e 21be
00000140: 1d01 013d ca63 cd3e daec 3ebe e976 76be
00000150: 7b40 273e 49be c7bd 496c d6bd 5db4 ca3d
00000160: 4b37 b0be b463 f93d 4180 043f d7d6 383d
00000170: 7cbe 89bd b797 3f3e 4352 1abc 802c 843d
00000180: 8100 51be 9a98 d5be c15b d3be 35bb 0fbe
00000190: 513d 383e e62a 4abe 5ae7 a2bd ed89 ad3e
000001a0: 3dab 883b 3117 c0be 1457 0bbf fd62 d4bc
000001b0: d30b 7bbd 18bf 023d 9787 e8bd 13d3 71be
000001c0: 85ec b9bd 3613 eb3d 8f27 eebe 9d7b dd3e
000001d0: 47e9 1a3d f09e 6f3e e94e 973e 7edd 873d
000001e0: 4835 2f3e fb96 ddbe 6016 943e 7430 7a3d
000001f0: b002 c0be fd0c f03e a0f9 53be d523 21be
00000200: 656c 873d a45b 44bb 0dc7 62bd 5614 f6bd
00000210: 4547 043d 5344 09be e2cb 0abe 2bb8 c53d
00000220: c9f0 efbd 0b96 d6bd ae51 edbd 55fc ebbd
00000230: 6dd0 2d3d 7b61 98bd 60ac 8cbd af60 0d3d
00000240: 2cb4 8fbb 41f8 41bd 2ebb 833d d4d0 e5bd
00000250: 07fc e23d 8671 e63d 0f66 bf3d c0a3 9a3d
00000260: bad7 843b 3cef 723d 98ac 25bd 0974 2cbe
00000270: e496 2e3d a4e1 e2bd 62da 52bd 094b d33a
00000280: c63b e0bc 879e 833c be33 4b3d 6c9d a7bd
00000290: d1de cabc 405e ecbd 00b0 6a3d 32f2 d63d
000002a0: 9f6d fd3c 7818 e8bd 8a52 03bc b514 cbbd
000002b0: e6e9 98bd c855 c0bd 5831 c73d 4dcd 63bd
000002c0: 5628 e03c 2a6d 603d c455 b03c a5b8 1abd
000002d0: 93be ba3d f2be a1bd 539f 9b3d 2d8d ca3d
000002e0: 9c36 d6bd 1727 5d3b de60 0fbc 3eef ba3d
000002f0: 8f4a 40bc a82a 4abd 5927 a13c 8759 913c
00000300: a677 4abf 8306 9bbe c57b 70be 5816 c8bd
00000310: 3933 bd3e b1ea 7d3e 0540 2fbe d94b b6bd
00000320: 89dd ec3d 3290 b5be a93d 09bd b6e8 513d
00000330: 308a 9f3e dce6 52be ecef c3bd b907 c9bd
00000340: 6464 133f aa17 c93e 07f8 9cbe 1a10 d6be
00000350: 0e72 7b3d 5da2 cb3c f41c 91bd 91fa 45be
00000360: 18da 00bd 4840 fcbd 909c fd3b 3c6d 75bc
00000370: 0b32 40be 709d 03bf b6bb 093f 1fb9 e6be
00000380: e260 82be 2b6f f43c b03a b0be 89d9 3abe
00000390: 910b 343e e06c 41be 3cfe 093f 2abd d73c
000003a0: 2a61 1a3f a18a 8f3e 76d8 34bd b53d 6fbe
000003b0: 4068 253f 9625 953d 319e 373d b2e2 93bc
000003c0: 84ed 9abe 247c 4cbe fb9e 21be b8b4 b43d
000003d0: 7dee 263e d917 d8be ed1a 91be 7152 43bd
000003e0: 89ea ed3e 501f a2be c46e bfbd b92e a53e
000003f0: 0fda 073c c6a7 e13e 7703 e7be f4e9 0dbf

fc3.bias f4 [16]
0.986481 0.06349072 -0.072537996 0.42204326 1.0375656 -0.12146282 0.100793146 0.05574228
0.0058027455 -0.62522936 0.0687626 0.1875761 -0.19169419 -0.023665793 0.3736279 -0.11872462
00000000: 058a 7c3f 6c07 823d cd8e 94bd 0e16 d83e
00000010: f3ce 843f 80c1 f8bd a36c ce3d 0452 643d
00000020: f524 be3b 080f 20bf 68d3 8c3d f313 403e
00000030: 7b4b 44be c4de c1bc 284c bf3e e525 f3bd

fc4.weight f4 [4, 16]
0.46859622 0.17413792 -0.038716305 0.21991177 0.35795522 -0.20257282 0.015024861 -0.06694271
0.07818525 -0.27907905 -0.5143404 -0.050438944 -0.975646 -0.0010774418 0.05384959 0.023189515
0.43426955 0.2500461 0.0017913855 0.116585664 0.39378014 0.20266372 -0.83545214 0.0858816
0.31381255 -0.3966678 0.3297401 0.19633935 -0.06759096 -0.79123914 0.087526046 0.04246986
0.49430752 -0.094832756 -0.1425144 -0.5756903 0.3510701 0.082929134 0.10908869 -0.05797414
-0.21693248 -0.47876495 -0.11242924 0.2748952 -0.21919872 -0.37818503 0.29849115 0.12223192
0.19011058 0.20605862 0.25176328 -0.19859603 0.58754086 0.124471545 -0.063304126 -0.011635162
0.0027448372 -0.44272214 -0.033677205 0.13994418 -0.40127102 -0.06677088 0.11987052 0.00013950467
00000000: d8eb ef3e 3651 323e fd94 1ebd 8d30 613e
00000010: e845 b73e 406f 4fbe d62a 763c 4219 89bd
00000020: 971f a03d 73e3 8ebe d0ab 03bf 1199 4ebd
00000030: f0c3 79bf f338 8dba 6391 5c3d f0f7 bd3c
00000040: 9458 de3e 0b06 803e eccc ea3a 77c4 ee3d
00000050: 8d9d c93e 1487 4f3e 31e0 55bf b1e2 af3d
00000060: 0aac a03e 0b18 cbbe b2d3 a83e 2f0d 493e
00000070: 216d 8abd a68e 4abf db40 b33d e0f4 2d3d
00000080: e015 fd3e ad37 c2bd 4bef 11be 7160 13bf
00000090: 76bf b33e c0d6 a93d e469 df3d 4b76 6dbd
000000a0: 8c23 5ebe ae20 f5be 4d41 e6bd 10bf 8c3e
000000b0: a175 60be 78a1 c1be d5d3 983e bb54 fa3d
000000c0: 59ac 423e 0801 533e 1ee7 803e c25c 4bbe
000000d0: 1469 163f f0ea fe3d 98a5 81bd 68a1 3ebc
000000e0: bae2 333b 7aac e2be 1cf1 09bd 874d 0f3e
000000f0: 6573 cdbe 2cbf 88bd ad7e f53d 0048 1239

fc4.bias f4 [4]
0.64417356 0.49160224 0.42091858 0.6007065
00000000: 8fe8 243f 4ab3 fb3e a482 d73e e7c7 193f
