project1-navigation/banana_model_weights.pth (torch_old, 28493 bytes, 6 tensors)

fc1.weight f4 [64, 37]
-0.5650937 -0.21443579 0.13641506 -0.42490986 -0.7818399 -0.54112226 -0.01367487 -0.043876197
-0.17486785 -0.18551046 -0.054784648 -0.5994607 -0.17411177 -0.08393473 -0.27746022 -1.1004308
-0.70509046 0.3492379 -0.76203555 -1.9114357 -0.3764346 -0.39596042 -0.20089929 -0.6746342
-1.5799226 -1.04654 -0.4645985 -0.085935324 -0.21612701 -1.8652203 -1.0064433 0.30437717
-0.38625723 -0.25679958 -0.023182645 0.28227448 0.14859268 -0.57627076 -0.042869646 -0.48944408
-0.73435414 -0.13533577 -0.5340334 -0.36158124 -0.06493558 0.408613 -1.6059273 0.48612744
-1.1292099 -0.6777795 -1.0424354 -0.6878763 -0.7373213 0.014900456 -0.123084985 -0.5022444
-0.7328598 0.2273363 -0.457333 -1.2185736 -1.0179741 -0.16813877 -0.3496323 -0.9811766
0.46368992 -0.69720685 0.27020594 0.19953188 0.23402417 -1.4270418 -0.19668326 0.35462514
0.17972958 0.012601509 -1.0300174 -0.89729685 0.19739959 -1.0261061 0.51515573 -1.3130305
0.28577647 -1.1030254 -0.7326877 -0.4378096 -0.79231846 -1.5268718 0.26486585 -0.8809493
-0.4023788 -1.337861 -1.5591604 0.058712155 0.0083832685 0.39214674 -1.2833347 -0.09490695
-1.5362159 0.1348083 -0.71473503 -0.8253075 -1.3892598 0.38507935 -1.2653043 0.008269088
-0.30218163 0.13813649 -1.2913578 -1.0042243 0.0464368 -0.31243056 -0.092563 -0.4570604
0.14598644 0.2141239 -0.5476963 -0.31807256 -0.06318769 -0.4051985 0.52371305 -1.2248542
-4.0055943 -0.105297185 0.05960424 0.27142224 -0.33894113 -0.335063 -0.023534963 -0.14821966
0.06781385 -0.08136928 -0.17054607 -0.23582172 0.031091964 0.034846794 -0.62194604 -0.26948404
-0.027074534 -0.26312438 0.006287777 0.072677486 0.14221105 0.098498695 -0.22512268 -0.1446949
0.28284356 0.121642016 0.030823285 0.003478778 -0.7592096 -0.5219046 -0.5764989 -0.12965475
0.015694806 -0.7366021 0.41467032 -0.60967445 -0.25545853 0.3857523 -0.98766357 -0.6575705
-0.28220674 -0.26538697 -0.48610637 -0.6864662 -0.17565124 -0.70135975 -0.11673969 0.26359466
-0.39795974 0.238794 -0.93811256 -0.7358046 -0.64618593 -0.6267417 -0.15002324 -0.26511046
-0.045704417 0.79376256 -0.35573903 -1.6491653 -0.19594239 -1.1977245 -3.1689157 -0.09075208
-0.029836407 0.07410945 0.11896531 0.07245225 -0.064511545 0.052058984 0.069732025 0.31495932
0.19314034 0.24864869 0.09969396 0.42720467 -0.9304879 -1.1569229 -1.5029744 -4.2674108
0.09679826 0.14266877 0.15475333 0.15816337 -0.013480376 0.016602203 0.14105193 0.19934724
0.27384037 0.2591405 -0.056457482 0.051592696 0.09253882 0.045303117 0.052633766 0.07326384
0.0023210917 0.102070324 0.1154544 0.07649617 0.02166308 0.022181768 -0.054303765 -0.012983117
0.12348034 0.18862124 0.080499455 -0.040228818 0.11306625 0.12499263 0.29600468 0.32849994
-0.123759 -0.032524716 -0.029180428 0.023561884 0.00040804967 -0.08959341 0.1997924 0.029832516
0.07894202 -0.008528569 0.03948199 0.18786885 0.27479342 0.10929615 0.10900244 0.387085
-0.7192407 -0.9527368 -1.6731545 -4.306373 -0.16013369 0.070863105 0.07898163 0.010501123
00000000: fba9 10bf 0e95 5bbe 64b0 0b3e c98d d9be
00000010: a926 48bf fd86 0abf 900c 60bc 87b7 33bd
00000020: 8f10 33be 74f6 3dbe de65 60bd 4276 19bf
00000030: 5b4a 32be f9e5 abbd 440f 8ebe ebda 8cbf
00000040: cf80 34bf 4fcf b23e c314 43bf eda9 f4bf
00000050: 09bc c0be 53bb cabe 8bb8 4dbe d4b4 2cbf
00000060: e73a cabf 06f5 85bf dbdf edbe dcfe afbd
00000070: 6650 5dbe 8abf eebf 22d3 80bf 53d7 9b3e
00000080: 82c3 c5be 3c7b 83be 88e9 bdbc 4886 903e
00000090: ae28 183e 7b86 13bf 1598 2fbd 6a98 fabe
000000a0: a2fe 3bbf 7695 0abe 6ab6 08bf 2d21 b9be
000000b0: f2fc 84bd b935 d13e 078f cdbf b2e5 f83e
000000c0: f389 90bf f582 2dbf 866e 85bf a918 30bf
000000d0: 17c1 3cbf 0b21 743c fb13 fcbd 1793 00bf
000000e0: b39c 3bbf d9ca 683e 8d27 eabe 38fa 9bbf
000000f0: fa4c 82bf 922c 2cbe 0103 b3be 642e 7bbf
00000100: c468 ed3e 267c 32bf 6f58 8a3e 1652 4c3e
00000110: 08a4 6f3e 4ea9 b6bf 5667 49be 6d91 b53e
00000120: 080b 383e 8f76 4e3c 9cd7 83bf 3fb5 65bf
00000130: 1e23 4a3e 7257 83bf 3fe1 033f 6211 a8bf
00000140: 4b51 923e f02f 8dbf 6c91 3bbf 9428 e0be
00000150: 62d5 4abf 8970 c3bf 7f9c 873e e585 61bf
00000160: 9804 cebe 073f abbf 9192 c7bf 287c 703d
00000170: fa59 093c 75c7 c83e 5044 a4bf 935e c2bd
00000180: b9a2 c4bf 300b 0a3e e0f8 36bf 5a47 53bf
00000190: 44d3 b1bf 1f29 c53e 7ef5 a1bf 127b 073c
000001a0: 8db7 9abe a773 0d3e 364b a5bf 6c8a 80bf
000001b0: 8434 3e3d e6f6 9fbe ac91 bdbd d203 eabe
000001c0: 787d 153e 4c43 5b3e d335 0cbf 68da a2be
000001d0: 8c68 81bd 2e76 cfbe 0f12 063f 06c8 9cbf
000001e0: d42d 80c0 0da6 d7bd 9323 743d dbf7 8a3e
000001f0: b189 adbe 618d abbe 65cc c0bc e5c6 17be
00000200: fde1 8a3d f0a4 a6bd a1a3 2ebe 407b 71be
00000210: 93b4 fe3c 83bb 0e3d db37 1fbf d0f9 89be
00000220: 6acb ddbc 3db8 86be b209 ce3b efd7 943d
00000230: c69f 113e afb9 c93d 8f86 66be e62a 14be
00000240: dfd0 903e 731f f93d 1d81 fc3c 36fc 633b
00000250: 8f5b 42bf 8a9b 05bf 6f95 13bf 37c4 04be
00000260: 6592 803c f591 3cbf ab4f d43e a013 1cbf
00000270: 76cb 82be 5381 c53e 85d7 7cbf 8a56 28bf
00000280: 677d 90be cde0 87be efe2 f8be 40bc 2fbf
00000290: ebdd 33be 508c 33bf 3815 efbd e1f5 863e
000002a0: 61c1 cbbe 6a86 743e 2528 70bf b15d 3cbf
000002b0: 716c 25bf 2572 20bf b19f 19be 8fbc 87be
000002c0: 8e34 3bbd 0634 4b3f 6d23 b6be d917 d3bf
000002d0: 1fa5 48be 094f 99bf 84cf 4ac0 3adc b9bd
000002e0: 7b6b f4bc b2c6 973d 16a4 f33d d861 943d
000002f0: a11e 84bd cd3b 553d aacf 8e3d 5942 a13e
00000300: 95c6 453e c39d 7e3e 592c cc3d 92ba da3e
00000310: 7434 6ebf 0d16 94bf 7761 c0bf a18e 88c0
00000320: 2b3e c63d c317 123e a877 1e3e 94f5 213e
00000330: ccdc 5cbc 5801 883c eb6f 103e af21 4c3e
00000340: ce34 8c3e 10ae 843e f63f 67bd dd52 533d
00000350: fe84 bd3d c38f 393d 8196 573d 5a0b 963d
00000360: 751d 183b 3f0a d13d 5b73 ec3d 06aa 9c3d
00000370: c676 b13c 8ab6 b53c a06d 5ebd 24b7 54bc
00000380: 43e3 fc3d ed25 413e e6dc a43d f9c6 24bd
00000390: 478f e73d 23fc ff3d ed8d 973e 2531 a83e
000003a0: 5c75 fdbd a338 05bd cb0b efbc da04 c13c
000003b0: 80ef d539 c07c b7bd 6196 4c3e 5263 f43c
000003c0: 5bac a13d 69bb 0bbc deb7 213d b160 403e
000003d0: b9b1 8c3e a9d6 df3d ac3c df3d 0130 c63e
000003e0: 2920 38bf 8fe6 73bf ed29 d6bf cfcd 89c0
000003f0: 16fa 23be ad20 913d 1fc1 a13d e70c 2c3c

fc1.bias f4 [64]
-0.035018384 -0.11901664 -0.07623571 -0.012344359 -0.18009429 -0.103363365 0.12548588 -0.32256714
-0.1883719 0.13462129 -0.019279663 -0.04343338 -0.15062554 0.010409097 0.022102922 -0.08242371
0.14093995 0.14723346 -0.26336 -0.1875221 -0.01993972 -0.11534429 0.043941624 -0.1516308
-0.23396122 -0.08608528 -0.31594944 -0.09120644 0.07131141 0.16476068 0.100721695 -0.4749407
-0.15102248 -0.23866187 -0.30495313 -0.1882042 0.08012512 -0.14756085 0.12911549 -0.20884708
-0.24468732 -0.026506683 0.2116767 -0.370135 0.3691517 0.102577575 -0.3970941 -0.43212628
0.019634018 0.024977488 0.007930177 -0.34798214 0.10109834 0.16976471 -0.37289175 -0.2592259
-0.2138945 -0.2673212 -0.077075176 -0.0280711 0.079982705 -0.23781954 -0.09305849 -0.26151368
00000000: 706f 0fbd ffbe f3bd 7821 9cbd ff3f 4abc
00000010: a36a 38be 2cb0 d3bd 5f7f 003e 8527 a5be
00000020: 90e4 40be 2ada 093e 62f0 9dbc 33e7 31bd
00000030: 953d 1abe eb8a 2a3c 3011 b53c c3cd a8bd
00000040: 9052 103e 5ec4 163e 1fd7 86be cb05 40be
00000050: a058 a3bc a139 ecbd 22fc 333d 1b45 1bbe
00000060: 8893 6fbe 7b4d b0bd 20c4 a1be 71ca babd
00000070: b70b 923d 06b7 283e 2d47 ce3d 6d2b f3be
00000080: a3a5 1abe c763 74be d122 9cbe 9ab8 40be
00000090: a418 a43d 311a 17be da36 043e 02dc 55be
000000a0: 508f 7abe 8b24 d9bc c7c1 583e 5682 bdbe
000000b0: 7401 bd3e 3114 d23d eb4f cbbe a83f ddbe
000000c0: 85d7 a03c 979d cc3c 93ed 013c b72a b2be
000000d0: a50c cf3d cdd6 2d3e abeb bebe 42b9 84be
000000e0: 2907 5bbe 53de 88be 97d9 9dbd 5df5 e5bc
000000f0: f9cd a33d f786 73be 7395 bebd 1fe5 85be

fc2.weight f4 [64, 64]
0.094559655 0.009817771 0.035766464 -0.23952717 -0.2731635 -0.09495263 -0.58384705 -0.034512002
0.094256006 0.15695168 0.020544754 0.05828811 -0.2764081 0.2726345 0.28718188 -0.31134984
-0.041755892 -0.121327445 0.19716804 0.22734657 -0.84422386 -0.15745102 0.24402541 0.06722919
-0.2064022 -0.3450011 -0.27490124 -0.29713508 0.099340156 -0.4103592 0.15481399 -0.16052859
-0.32431433 -0.014602475 -0.055266395 -0.038073376 0.12635711 0.07799023 -0.446546 -0.119705044
0.2228259 -0.42345467 -0.31835884 0.13643992 -0.18783884 -0.19567965 -0.26317623 -0.025037786
0.018477367 -0.24755901 -0.1007938 -0.16953455 0.10890338 0.10337113 0.06640746 -0.39835292
-0.014844616 0.054761864 -0.079447396 -0.40385586 -0.19169433 0.013225401 0.059401926 0.2986343
-0.65826124 0.44066617 0.3831963 0.12887128 0.19618426 0.060249697 -0.5677116 -0.014912811
0.2854576 -0.08539636 -0.08071504 -0.15356117 -0.02200382 0.312646 0.6208871 -0.008226508
-0.25152543 -0.07103363 0.46083188 0.3560328 0.25068104 0.10052079 0.110730946 -0.38385445
0.2194292 0.2583743 -0.16737345 -0.60041785 -0.14030614 0.60794663 0.19949083 -0.53865063
0.53915465 0.30874 -0.18502243 -0.5754111 -0.44891176 0.013613692 -0.29007465 0.26896822
0.15758415 -0.4783517 0.10954692 0.07495013 0.5255742 0.2341888 -0.6033323 -0.4435452
0.4765757 0.274255 0.5683555 0.060870834 0.19496565 -0.33210593 0.054402776 0.2075881
-0.32552102 0.029085927 -0.032732464 0.39603704 -0.31914622 0.07472676 0.06854895 -0.16869187
-0.5411102 0.7521502 -0.80041677 -0.34359345 -0.7000799 -0.40901342 -0.33678275 0.10480023
0.31965965 0.122569785 -1.036544 -0.09681642 0.019693712 -0.4242161 -0.16522346 -0.5283427
-1.2147983 -0.0784644 -0.32344452 0.49849257 0.0008980546 -0.52711326 -0.033298645 -0.4143007
-0.5957869 -0.12572 0.54003084 -0.07537707 0.19424841 -0.41491795 0.15723963 -0.08801386
-0.110844634 0.13985202 -0.25410566 0.07563733 -0.25470698 -0.39420792 0.27552027 0.4815931
0.13698363 -0.27125594 0.14548713 -0.0656214 0.59740585 0.05697874 -1.2070073 -0.47776455
0.86845267 -0.5206006 0.24162157 0.39775315 -0.5646906 -0.39776474 0.43084437 -1.275263
0.74429685 0.022147255 -0.76188284 0.67849624 -0.9031044 -0.71451217 -0.6020697 0.40807128
-0.6375447 -0.55746245 -0.54913807 -0.21649444 0.19375229 -0.22691382 -0.65072834 0.022474846
-0.5767876 -0.47796988 -0.24958965 0.5227791 -0.15973419 0.45384768 0.35169753 0.072214186
-0.34151772 -0.109190494 0.0805358 -0.7097795 -1.1920303 -0.60545474 -0.069944225 0.4710996
-1.1979005 -0.12706405 -0.5783026 0.12663893 0.47309926 0.14620529 0.3752248 -0.12060476
-0.13349634 -0.46366882 -0.08998783 -0.51290417 -0.5659425 0.18349834 -0.33799934 -0.12375512
-0.7698059 0.16851237 -0.6000323 0.06980637 0.5163874 0.09736214 -0.4172352 0.014616809
-0.23050731 -0.7165542 -0.062800944 0.16220228 -0.3172932 -0.21543804 0.2905949 0.4032678
-0.06395014 -0.4081823 -0.11526349 -0.039507408 -0.15286696 -0.058729287 -1.1492382 -0.28653592
00000000: 7ea8 c13d b7da 203c db7f 123d 9c46 75be
00000010: 16dc 8bbe 8676 c2bd 0077 15bf 755c 0dbd
00000020: 4b09 c13d f1b7 203e 794d a83c 83bf 6e3d
00000030: 5d85 8dbe c096 8b3e 8109 933e 3f69 9fbe
00000040: 3a08 2bbd 867a f8bd 6be6 493e 8acd 683e
00000050: 0e1f 58bf d73a 21be cce1 793e 75af 893d
00000060: 195b 53be fca3 b0be dbbf 8cbe 1722 98be
00000070: da72 cb3d 9a1a d2be 8f87 1e3e 9b61 24be
00000080: 870c a6be 383f 6fbc 045f 62bd d4f2 1bbd
00000090: c263 013e 57b9 9f3d ada1 e4be eb27 f5bd
000000a0: 792c 643e 0dcf d8be eeff a2be e8b6 0b3e
000000b0: d358 40be 3f60 48be 09bf 86be 0b1c cdbc
000000c0: d95d 973c 1c80 7dbe fb6c cebd 779a 2dbe
000000d0: bc08 df3d 3eb4 d33d a200 883d eaf4 cbbe
000000e0: d536 73bc fa4d 603d 51b5 a2bd 32c6 cebe
000000f0: 854b 44be 5aaf 583c 6f4f 733d 98e6 983e
00000100: cf83 28bf ff9e e13e 4e32 c43e d5f6 033e
00000110: 87e4 483e 63c8 763d 8c55 11bf dd54 74bc
00000120: 8027 923e 49e4 aebd ed4d a5bd 243f 1dbe
00000130: 5b41 b4bc 2313 a03e 75f2 1e3f 7ac8 06bc
00000140: f1c7 80be 147a 91bd 28f2 eb3e ee49 b63e
00000150: 4459 803e d8dd cd3d e8c6 e23d 9288 c4be
00000160: 0cb2 603e a349 843e f263 2bbe fcb4 19bf
00000170: 6aac 0fbe 64a2 1b3f 5347 4c3e 02e5 09bf
00000180: 0a06 0a3f 2b13 9e3e 8576 3dbe 244e 13bf
00000190: c3d7 e5be f60b 5f3c aa84 94be 34b6 893e
000001a0: bd5d 213e 84ea f4be 235a e03d 747f 993d
000001b0: 088c 063f 30cf 6f3e fc73 1abf 5b18 e3be
000001c0: bb01 f43e 276b 8c3e bf7f 113f b253 793d
000001d0: 13a5 473e ca09 aabe 72d5 5e3d fa91 543e
000001e0: b1aa a6be 9c45 ee3c 7a12 06bd 5ec5 ca3e
000001f0: 2267 a3be 580a 993d 6463 8c3d 90bd 2cbe
00000200: 3386 0abf ea8c 403f 1de8 4cbf 7beb afbe
00000210: 7038 33bf 356a d1be ca6e acbe 81a1 d63d
00000220: 6eaa a33e de05 fb3d 79ad 84bf b047 c6bd
00000230: b554 a13c da32 d9be 5730 29be 7841 07bf
00000240: 837e 9bbf f1b1 a0bd 859a a5be 6b3a ff3e
00000250: 6d6b 6b3a e5f0 06bf 2964 08bd 391f d4be
00000260: 7e85 18bf bebc 00be 763f 0a3f 4b5f 9abd
00000270: 0ee9 463e 2070 d4be 6d03 213e 9c40 b4bd
00000280: 8302 e3bd 5e35 0f3e 231a 82be bfe7 9a3d
00000290: f468 82be 9fd5 c9be fe10 8d3e 5f93 f63e
000002a0: 7045 0c3e 0fe2 8abe 94fa 143e 8364 86bd
000002b0: 97ef 183f 8a62 693d 377f 9abf 8e9d f4be
000002c0: ea52 5e3f 1546 05bf a56b 773e 4da6 cb3e
000002d0: 908f 10bf d2a7 cbbe a297 dc3e d13b a3bf
000002e0: 3d8a 3e3f 296e b53c c10a 43bf eeb1 2d3f
000002f0: da31 67bf 45ea 36bf 3d21 1abf b8ee d03e
00000300: 2136 23bf dcb5 0ebf 5094 0cbf b8b0 5dbe
00000310: 0067 463e 195c 68be 2296 26bf 2b1d b83c
00000320: 5aa8 13bf 78b8 f4be 6e94 7fbe dad4 053f
00000330: 5c91 23be b95e e83e b311 b43e 08e5 933d
00000340: 69db aebe 449f dfbd f4ef a43d 1cb4 35bf
00000350: 7394 98bf 15ff 1abf eb3e 8fbd f733 f13e
00000360: ce54 99bf 141d 02be a40b 14bf a3ad 013e
00000370: 113a f23e d7b6 153e 771d c03e a1ff f6bd
00000380: 44b3 08be 0066 edbe 8a4b b8bd b04d 03bf
00000390: 9ce1 10bf fde6 3b3e 400e adbe 5373 fdbd
000003a0: 0012 45bf 828e 2c3e b89b 19bf a4f6 8e3d
000003b0: f731 043f cd65 c73d da9f d5be 577b 6f3c
000003c0: 1c0a 6cbe 1970 37bf c89d 80bd 5b18 263e
000003d0: 4174 a2be ca9b 5cbe dbc8 943e 1e79 ce3e
000003e0: 4af8 82bd 45fd d0be 440f ecbd 85d2 21bd
000003f0: 2889 1cbe 1f8e 70bd 3d1a 93bf d6b4 92be

fc2.bias f4 [64]
1.0492746 0.04659279 0.12934819 -0.115782276 -0.15106513 1.9789675 1.3816205 -0.1675558
-0.3555995 -0.366512 -0.2586447 -0.07503868 0.10814341 -0.20089424 0.8636909 -0.05964909
-0.024784563 0.07956355 -0.2559518 -0.27142772 -0.08757941 1.106697 -0.118965 -0.16773608
-0.08340813 -0.16902746 0.055423964 -0.5633161 0.73753875 -0.28335187 0.677462 -0.22821079
-0.16432561 -0.016729997 0.6898384 -0.13499598 -0.2548144 0.12542108 -0.6754512 -0.08006442
-0.37439257 0.8144415 -0.3984255 -0.6970732 -0.10816263 0.059641495 -0.24897788 -0.7821464
0.17744584 0.6088941 -0.27866003 -0.19385959 1.1421752 0.46573427 -0.09663364 -0.07768213
-0.5663266 -0.83661175 -0.1744545 -0.49429902 -0.5275382 0.35171616 -0.11134274 -0.2253664
00000000: a14e 863f 15d8 3e3d da73 043e 421f edbd
00000010: d1b0 1abe cf4e fd3f f1d8 b03f bf93 2bbe
00000020: 2311 b6be 76a7 bbbe 146d 84be e1ad 99bd
00000030: 4b7a dd3d 38b7 4dbe d91a 5d3f 9b52 74bd
00000040: ff08 cbbc 37f2 a23d 1d0c 83be 93f8 8abe
00000050: d55c b3bd 3fa8 8d3f eca3 f3bd 02c3 2bbe
00000060: e2d1 aabd 8915 2dbe 3d04 633d 7c35 10bf
00000070: 57cf 3c3f 7f13 91be 266e 2d3f 17b0 69be
00000080: f944 28be 590d 89bc 4099 303f 633c 0abe
00000090: 0877 82be 626e 003e 5fea 2cbf d1f8 a3bd
000000a0: 62b0 bfbe 3d7f 503f 6dfe cbbe 6473 32bf
000000b0: 5e84 ddbd a44a 743d 0ff4 7ebe bf3a 48bf
000000c0: 5db4 353e 7ce0 1b3f 87ac 8ebe 2183 46be
000000d0: cc32 923f b974 ee3e dce7 c5bd cf17 9fbd
000000e0: c8fa 10bf 302c 56bf 33a4 32be c314 fdbe
000000f0: be0c 07bf 2414 b43e aa07 e4bd 73c6 66be

fc3.weight f4 [4, 64]
0.45275667 0.2267103 -0.3522285 0.29680455 -0.4360508 0.61810476 0.5241377 -0.124828056
0.33809438 -0.48961034 -0.20851262 0.45632428 0.23925135 -0.23812531 0.39987025 -0.02105507
0.26138985 -0.00215549 -0.5425177 -0.19480938 -0.015856484 0.41789976 0.81179327 -1.3920577
-0.2054226 -0.021886846 0.06386898 -0.28818634 0.25574458 -0.057242297 0.23623455 -0.61091614
0.18977627 -0.107021056 0.1800453 -0.12630211 -0.04172787 0.14014965 -0.27305952 0.391683
-0.36056402 0.21880451 -0.23332196 -0.5738733 -0.12439407 0.47316396 0.14172699 -0.42853746
0.20226961 0.15837143 0.4441114 -0.24230154 0.39647645 0.16436397 0.065156996 0.040908124
0.10618878 -0.35832846 0.44553784 -0.14251556 0.33151835 -0.07028371 0.11337285 0.5558655
0.5177675 0.40517187 -0.06636872 0.12708926 -0.3039303 0.6902799 0.3900441 0.063794196
0.33858615 0.39021632 -0.09050368 0.2955433 0.30699998 -0.20105435 0.33348203 0.2114446
0.39340466 -0.027197538 -0.2900984 -0.40801036 0.1447539 0.34001043 0.46694052 0.05103478
0.1102012 0.25086725 0.09970234 -0.3021234 0.24758123 -0.46853185 0.24277471 -0.17956372
0.31038216 0.07587506 0.2920779 -0.3006783 -0.7564194 0.012333191 -0.18417457 0.090358205
-0.06365584 0.067402996 -0.20931476 -0.2805462 0.02474597 0.4609495 0.22947644 -0.27288136
0.2248357 0.18663359 0.5787116 0.0059509403 0.48247162 0.14730763 0.25812218 0.16985275
-0.17524193 -0.39965868 0.17375685 0.0774569 0.22893658 0.15098426 0.27294362 -0.03894733
0.53286695 0.14141482 0.11450661 -0.402714 -0.26712203 0.63882923 0.54180485 -0.04756542
-0.19617915 -0.1310148 0.25530562 0.11805098 0.24066848 -0.16036262 0.16376512 -0.12605613
0.3404262 0.010197003 0.3824026 0.038052507 0.124317065 0.31126362 -0.12822647 0.475922
0.254825 -0.2734902 0.26323768 -0.28247356 0.2546991 0.14189595 0.27747998 -0.08936799
0.32151216 0.2855821 0.29675362 -0.3015467 -0.15723258 0.071247876 -0.19457689 -0.29404327
-0.19422688 0.3411835 0.074058145 -0.53796506 0.33431733 0.3464077 -0.017227253 -0.4456003
-0.15851378 0.123895995 0.6498353 0.3948131 0.4410561 0.1744633 0.09792996 0.39919516
0.22053118 -0.3746805 0.15323323 0.6498581 0.5233772 0.3371022 -0.00025889144 0.13722855
0.33502173 0.34076655 -0.16387706 0.22305487 0.08457844 0.7053086 0.37943986 -0.051878944
0.5403693 0.44872007 0.057664685 0.29549932 0.10113234 0.07096248 0.35049254 0.193924
0.13524435 0.27972192 -0.27179027 -0.504691 -0.24025045 0.38831124 -0.38892916 0.1402057
-1.0174893 -0.2549862 0.07365231 -0.058708034 0.23607635 -0.16009071 0.3180111 -0.16297083
0.13710153 -0.20848586 0.36103973 -0.08267241 0.06981909 0.07638465 0.05178405 -0.30192912
-0.138016 0.3562494 -0.21907221 -0.05481767 -0.22439481 0.2056556 -0.16566119 -0.19338036
-0.30374566 0.15978825 0.49745592 -0.69256705 0.3572401 0.24710144 0.059582453 0.32162285
-0.17436244 -0.49208233 -0.10706012 0.61361367 0.30648816 0.35947275 0.6009852 -0.60890424
00000000: b9cf e73e bf26 683e 4b57 b4be c4f6 973e
00000010: 0d42 dfbe 1d3c 1e3f e32d 063f daa5 ffbd
00000020: b51a ad3e 35ae fabe 5584 55be 56a3 e93e
00000030: 4efe 743e 1fd7 73be cbbb cc3e af7b acbc
00000040: e4d4 853e 1f43 0dbb 71e2 0abf 1c7c 47be
00000050: 75e5 81bc f5f6 d53e afd1 4f3f f22e b2bf
00000060: 4d5a 52be 0b4c b3bc bdcd 823d 298d 93be
00000070: f4f0 823e e676 6abd 78e7 713e 0065 1cbf
00000080: b654 423e db2d dbbd cc5d 383e 5755 01be
00000090: d8ea 2abd 6483 0f3e 75ce 8bbe ad8a c83e
000000a0: d99b b8be 4a0e 603e f4eb 6ebe 5ce9 12bf
000000b0: 51c2 febd 8c42 f23e e120 113e 4369 dbbe
000000c0: c41f 4f3e 1f2c 223e 9262 e33e e51d 78be
000000d0: f6fe ca3e 074f 283e 0871 853d 478f 273d
000000e0: 8179 d93d d476 b7be 891d e43e 99ef 11be
000000f0: c6bc a93e e8f0 8fbd 0630 e83d 344d 0e3f
00000100: 698c 043f b072 cf3e 53ec 87bd b023 023e
00000110: c19c 9bbe 2fb6 303f dcb3 c73e 88a6 823d
00000120: 2a5b ad3e 6fca c73e fe59 b9bd 7451 973e
00000130: 1a2f 9d3e 31e1 4dbe 28be aa3e ef84 583e
00000140: 566c c93e 5fcd debc c787 94be bce6 d0be
00000150: 5e3a 143e d915 ae3e d412 ef3e d809 513d
00000160: 2bb1 e13d ac71 803e be30 cc3d ebaf 9abe
00000170: ef85 7d3e 68e3 efbe ef99 783e 8ddf 37be
00000180: 69ea 9e3e 6264 9b3d 3c8b 953e 82f2 99be
00000190: b4a4 41bf 2711 4a3c 4298 3cbe b90d b93d
000001a0: fe5d 82bd 950a 8a3d 9c56 56be c0a3 8fbe
000001b0: 0fb8 ca3c 9301 ec3e dffb 6a3e 1bb7 8bbe
000001c0: 543b 663e e01c 3f3e 7226 143f 1b00 c33b
000001d0: 8506 f73e d0d7 163e 9728 843e e1ed 2d3e
000001e0: 9f72 33be 10a0 ccbe 51ed 313e b9a1 9e3d
000001f0: 5a6e 6a3e 9e9b 1a3e 44bf 8b3e 3c87 1fbd
00000200: f869 083f 0ccf 103e 7182 ea3d 8830 cebe
00000210: 38c4 88be 508a 233f b9b3 0a3f f5d3 42bd
00000220: 30e3 48be be28 06be 6bb7 823e b6c4 f13d
00000230: cc71 763e 1936 24be 0bb2 273e dc14 01be
00000240: 584c ae3e 5511 273c 46ca c33e f2dc 1b3d
00000250: f299 fe3d f25d 9f3e cd4d 03be 0cac f33e
00000260: 6c78 823e e806 8cbe 17c7 863e 60a0 90be
00000270: ec67 823e 2c4d 113e db11 8e3e 9106 b7bd
00000280: 3e9d a43e d137 923e 17f0 973e 5464 9abe
00000290: 9401 21be 68ea 913d 2a3f 47be d78c 96be
000002a0: 69e3 46be 9baf ae3e ccab 973d 14b8 09bf
000002b0: a42b ab3e 5a5c b13e 2b20 8dbc b925 e4be
000002c0: 7051 22be 2fbd fd3d 9b5b 263f f124 ca3e
000002d0: 1bd2 e13e 82a6 323e 818f c83d 4f63 cc3e
000002e0: edd2 613e 1fd6 bfbe 2ce9 1c3e 1a5d 263f
000002f0: 0cfc 053f a998 ac3e d2bb 87b9 a485 0c3e
00000300: f887 ab3e f478 ae3e 63cf 27be 7f68 643e
00000310: 7637 ad3d 1b8f 343f f145 c23e 047f 54bd
00000320: a455 0a3f a3be e53e ce31 6c3d b04b 973e
00000330: 791e cf3d c754 913d c273 b33e 0394 463e
00000340: 7f7d 0a3e b637 8f3e 1828 8bbe 6e33 01bf
00000350: 3704 76be bbd0 c63e b921 c7be 1592 0f3e
00000360: 173d 82bf 8d8d 82be 06d7 963d d677 70bd
00000370: 00be 713e d2ee 23be 5ad2 a23e d3e1 26be
00000380: 5864 0c3e 517d 55be 33da b83e 2750 a9bd
00000390: 50fd 8e3d 8e6f 9c3d 831b 543d 7496 9abe
000003a0: 1154 0dbe 5266 b63e 7754 60be 7e88 60bd
000003b0: c1c7 65be 6297 523e 16a3 29be 8005 46be
000003c0: 8d84 9bbe 889f 233e 8bb2 fe3e 134c 31bf
000003d0: 2de8 b63e 2908 7d3e bb0c 743d c0ab a43e
000003e0: 118c 32be 37f2 fbbe 5642 dbbd c915 1d3f
000003f0: 04ec 9c3e d00c b83e 2bda 193f 26e1 1bbf

fc3.bias f4 [4]
1.3314171 1.2241043 1.1599991 1.2288677
00000000: e06b aa3f 73af 9c3f da7a 943f 894b 9d3f
