project1-navigation/banana_model_weights_2.pth (torch_old, 58257 bytes, 8 tensors)

fc1.weight f4 [128, 37]
00000000: 8b95 2e3c cb13 a73d 04a0 1b3e 4cc0 943e
00000010: ca6a 2d3e 4211 0b3e c3d5 8e3c 1bc4 2c3e
00000020: fb35 4a3e 09e1 cc3d fdec 3b3c a93d 623d
00000030: d2aa 333d 7f28 0a3d 4784 01be aa94 b23e
00000040: 6d25 19bf 27cf 37bf 1e02 6bbf e47a 31c0
00000050: bb33 033d 4d83 673d cf70 c53d 9eac 27bd
00000060: ed9b a03d f852 babc 2cf7 363d f2c4 f13c
00000070: 7ac4 f53d aa05 693c bcf8 5a3d 67cb 673c
00000080: d26a b83c 3876 20bc 36dd 243d fe48 c83c
00000090: f70b 96ba 7508 ab3c 34a1 153e 85aa d1be
000000a0: 4240 83bb 4bef be3e 41c6 25bf 71c5 9a3d
000000b0: b0d5 303e 7b53 c9bd 72e8 06bf 3bfe 8dbe
000000c0: 9a2e 9c3d e9c5 813e f2c1 80be 4a51 f7be
000000d0: 20f7 7fbe 0ed4 d6bc 69ab 0bbf 97fe b43e
000000e0: 2c9b c2bd 2d8a dcbd 9890 21be 2ea9 1c3e
000000f0: 9f89 c7bc f472 3ebe 8b85 b1bd 856c bbbe
00000100: 44a6 1d3e 8e4c a4be d1e8 82be 663e 033e
00000110: 7e97 0dbe 1fa1 12be 1de1 953e 9ef2 a1bd
00000120: 2fcd 6bbc 42b6 02bd 9fd6 2cbe 35e6 913d
00000130: 15c2 2e3e 43ca 223e 5499 283e 6688 8cbc
00000140: b1b2 113e 29eb 2c3e 5674 ae3b 17c8 a13d
00000150: aa7c 29be 6d39 2d3e 69d7 a0ba eaaf 1abd
00000160: 12df 2dbe 7ab5 883d d666 19be 360f 9fbd
00000170: dda1 123e 7e0e 19be 4514 2ebd 94dd 043e
00000180: 5603 07bf 38f8 3e3d 940b 0bbf 6428 0f3e
00000190: ac14 48be a0ba c03c a8c0 01be c3e2 01bd
000001a0: 876c 8f3e 9ac8 f83d a059 8ebd 46f1 b4be
000001b0: af76 b2bd d968 c6bb efda 8fbd 9977 5e3e
000001c0: c34c 24bf c7f9 633e 2647 b83b fe8d b1be
000001d0: 15e8 da3d b25a 4ebe b7ad 043e 16cd a13d
000001e0: c289 debe f8c6 9cbb 5a29 72bc 48d9 ad3b
000001f0: f92d 2bbe e7e4 51be ddd6 143e a39d b93c
00000200: eeae 3abe 79ff c83e bcd2 66be 01a0 89bd
00000210: 1095 8dbd a725 c53d 7df5 9a3d 6bfe b0bc
00000220: 2250 e6be 43dd de3d 66f5 58bb 1fb3 c83e
00000230: aef0 213e 4de7 3e3e 17d4 20be 9b06 3f3e
00000240: e776 c9ba 40dd 57be c30e e0bb 112f aabc
00000250: e083 4f3e bf11 d3be 2d34 37be 9e07 dbbd
00000260: aaaa 1bbf 1c76 363d 8118 babc 8b79 01be
00000270: d50b 15be 9763 10bf e84d 08bf 37b6 6bbe
00000280: 88c7 853c 10df 913e 23e2 b5be 1262 3bbd
00000290: f2c6 6ebe 1e89 9c3c 72f7 f9be 2736 9fbe
000002a0: fa67 753d 5c04 38be dfde 023e 8705 debe
000002b0: 6697 18be b585 913d 9c34 7b3e 3156 c9be
000002c0: e4c6 663d 384f 0dbf 9291 c6be 8a01 7fbe
000002d0: 2727 68be 23c5 093f 010c 3ebe 7140 57bd
000002e0: 2f4b 3fbe 695d 74bd fa1e 4abe 63f7 c93d
000002f0: b421 273d 6c7c b9bd 9a1d 02be ac14 c939
00000300: 1fd4 453b f69d 6abe 7d27 333e 01e5 4e3e
00000310: 8e2e 05be b8aa a03d d238 6ebe 7649 d1be
00000320: 40f2 b7bb 939e aa3d 933d 583d 1004 83be
00000330: 8c31 a0bd 58ea dabd 041e 633d 787b a3bd
00000340: 70f0 413e d8a7 213e fe97 d0bd 9629 d53a
00000350: 227a 21be aa25 e43e f46e 81bd 0e82 2e3e
00000360: 83db c83d 84e2 063d 7daf 1b3e 3616 60bd
00000370: cf80 d1be df1d 043d 3cd2 563d 9726 e93d
00000380: cca7 4ebe d380 1a3d 9cfc 2ebe 8840 fc3c
00000390: 7b17 16be d789 443e f40b 81bd 6487 3abd
000003a0: 53c1 be3e 8340 cbbe 3cda 083e ced1 b3be
000003b0: ecc1 7abf 8ba9 18bd 49cd 963c 6e9a 6abc
000003c0: 6102 a13e 8bf5 62be 7290 4f3e 77f8 ef3d
000003d0: 1598 02be bb62 61be 4cae bd3c d301 f73d
000003e0: 2893 74bc 9a6f 13bd cf14 57be 38d1 2f3e
000003f0: 674f 793c 957d b83d e4dd 05be 04a5 f93d
0.010655771 0.08158072 0.1519776 0.2905296 0.16935268 0.13580802 0.017435914 0.16871683
0.19747154 0.100038595 0.011470077 0.055234585 0.04386408 0.033730026 -0.12648116 0.34879047
-0.5982273 -0.71800464 -0.91800106 -2.7731256 0.032031756 0.056521703 0.09640657 -0.040936105
0.078422405 -0.02274464 0.044669315 0.029512856 0.120003656 0.014222542 0.053459868 0.014147616
0.022511873 -0.009793811 0.040250026 0.024448868 -0.0011447658 0.020878056 0.14612275 -0.4095041
-0.004005463 0.3729194 -0.64755636 0.0755719 0.17269015 -0.09830376 -0.52698433 -0.27733025
0.07626076 0.25346306 -0.2514797 -0.48304206 -0.24996614 -0.026224162 -0.54558426 0.35350487
-0.09502253 -0.107685424 -0.15777814 0.15298912 -0.024357615 -0.18598539 -0.086680494 -0.3660623
0.15395457 -0.32089657 -0.2556825 0.12816772 -0.13827321 -0.14319275 0.2927331 -0.07907604
-0.014392181 -0.031912096 -0.16878746 0.07123987 0.17066224 0.15897469 0.1646474 -0.017154884
0.14228322 0.16886581 0.005323927 0.07899492 -0.16551462 0.16916437 -0.0012271228 -0.03776542
-0.16979626 0.06675239 -0.14980635 -0.07766573 0.14319558 -0.14946935 -0.0424998 0.1297515
-0.52739465 0.04662344 -0.5431454 0.13980252 -0.19539136 0.02352649 -0.12671149 -0.031710397
0.28012487 0.12147637 -0.06950688 -0.35340327 -0.08714043 -0.0060549793 -0.0702418 0.2172531
-0.6417963 0.22263251 0.005623716 -0.34678644 0.106887974 -0.20151785 0.12956892 0.07900445
-0.43464476 -0.004784461 -0.014780367 0.005305443 -0.16716756 -0.20497476 0.14535089 0.022658175
-0.18230793 0.3925741 -0.22541326 -0.067199714 -0.06913197 0.09626322 0.075663544 -0.021605691
-0.4498301 0.10882046 -0.0033105253 0.3919916 0.15814468 0.18642922 -0.15705906 0.18654864
-0.0015370519 -0.21080494 -0.0068376972 -0.020774396 0.2026515 -0.41224477 -0.17890997 -0.10694812
-0.6080729 0.04454623 -0.022716762 -0.12644021 -0.14555295 -0.5640196 -0.53243876 -0.23018728
0.016330495 0.28490496 -0.3552409 -0.045747824 -0.23318079 0.019108351 -0.48821598 -0.31096002
0.059913613 -0.17970413 0.12780331 -0.43363592 -0.14901504 0.07105581 0.24531788 -0.3932357
0.05634202 -0.55199003 -0.38782936 -0.24902931 -0.22671185 0.5381643 -0.18559267 -0.05255169
-0.18681024 -0.059659395 -0.19738379 0.098616384 0.040803626 -0.09056935 -0.12706605 0.0003835311
0.0030186248 -0.2291182 0.17495532 0.20204546 -0.1300604 0.07845062 -0.23263863 -0.4087636
-0.0056135952 0.08331027 0.052793097 -0.25589037 -0.0782195 -0.10689229 0.055448547 -0.07982534
0.18939376 0.15786684 -0.1018524 0.0016263004 -0.15769246 0.44559985 -0.06319991 0.170418
0.098074935 0.032930866 0.15203662 -0.054708682 -0.40918586 0.03225505 0.05244659 0.113843136
-0.20181197 0.037720513 -0.1708855 0.03079249 -0.14657395 0.19193207 -0.06301108 -0.045539275
0.3725687 -0.39697656 0.133645 -0.35121006 -0.9795215 -0.037271064 0.018408434 -0.0143190455
0.31447127 -0.2216398 0.20269945 0.11717313 -0.12753327 -0.22010319 0.0231544 0.12060895
-0.014927663 -0.035995103 -0.21004032 0.17169654 0.015216685 0.09008328 -0.13072926 0.12189677

fc1.bias f4 [128]
00000000: 22d0 c6bb fed0 88bd 3d74 f93c 9ec2 0cbc
00000010: 7a9a 2ebd ff0b 1dbe f67d 13be b5b2 4dbe
00000020: 2707 18be 634a 9e3d 1bef 7bbe 35ab 543d
00000030: c920 f33d 1766 83bd 6ba6 9fbd 837e 31be
00000040: 29ee 43be 5b5e 033c 2a86 083e 5ed2 e7bc
00000050: 7cf2 11bd cd2f 67be ab55 1abe b80f 943c
00000060: b369 cabd 6a39 91be b2d3 15bd 4306 35be
00000070: f569 a0be 6927 38be 3e11 8bbd fbb6 c6bd
00000080: 1d78 76be fb73 3ebe 7ed3 79bd 3884 ea3d
00000090: 4186 debd 5e79 45bd 8f53 ddbc 9e69 2fbe
000000a0: c4f7 5b3c c5f4 1f3d 6b07 913d 6c8f 293d
000000b0: 2905 053e d5ae 31be 1bc9 2cbe 5a23 36be
000000c0: b331 0f3d 0bba 6d3c 3cf0 673d 4417 b2bd
000000d0: 7621 243d 8029 87bc f644 a8be 0f86 9e3d
000000e0: b156 a83d 0667 c1bc bc04 fc3d 92c1 a83c
000000f0: ddad 29be 00f1 a7bd 92d4 72bd 78a5 ffbb
00000100: 35bc 3abe 47c7 e23d cc6e 47be 3891 8abe
00000110: 8b4e 13be 8126 1dbe b2e8 88be a718 0ebe
00000120: e234 cd3e 98be bcbc 4d22 f6bd 638b 0b3d
00000130: 7911 b2bd 9a84 29bd edd0 2bbc 9d90 7f3e
00000140: 2dbc e4bd a1fb b03c 62e2 fcbd 82ea 0e3e
00000150: f15a e3bd e296 8f3d bf61 b33c 5486 40be
00000160: 3211 76be 379d 1bbe 9b21 a13a 9bdd 4ebe
00000170: c693 2e3d e1d5 113d 47fe 8abe 69ed 8b3e
00000180: 4ad2 70be 5025 8cbe 671f 133e 8f3b 48bd
00000190: 7b96 aebd c65d 2d3d 9916 7ebe a79d 15be
000001a0: 70e1 e53d 48cf ffbd d8cf 973d 414f 9cbc
000001b0: 509b 84be 536c 2cbe 81a6 cb3d d2d4 dfbd
000001c0: ee4a 3dbd 8d80 cf3b b53b 13be 7005 aa3d
000001d0: 9f5c f3bd d4d9 693c a956 87bc dc32 1ebe
000001e0: 07fd 82be 894c f6bd 9031 8bbe 48a6 10be
000001f0: a9bf 64bd d3bc ecba 71a4 863e 3e0f 3a3c
-0.006067292 -0.06680487 0.030450935 -0.008591322 -0.04262779 -0.15336607 -0.14403519 -0.20087703
-0.14846478 0.07729032 -0.2460293 0.05192109 0.11871488 -0.064159565 -0.077954136 -0.17333417
-0.1913382 0.008018102 0.1333243 -0.028298553 -0.03563164 -0.22576828 -0.15071742 0.018073902
-0.09883442 -0.28364116 -0.03657884 -0.1767817 -0.3133084 -0.17983784 -0.06790398 -0.097028695
-0.24069257 -0.1859893 -0.06099271 0.11451 -0.10865451 -0.048211448 -0.027017383 -0.17130134
0.013425771 0.03905179 0.07081493 0.041396543 0.1299025 -0.1735185 -0.1687359 -0.17786923
0.034959506 0.014509688 0.05662559 -0.08695844 0.040070973 -0.01649928 -0.32865113 0.077404134
0.0821966 -0.023608696 0.123055905 0.020600114 -0.1657023 -0.08200264 -0.059284754 -0.007801708
-0.18235858 0.110731654 -0.1947586 -0.27063918 -0.1438543 -0.1534672 -0.26740032 -0.13876592
0.4007941 -0.023040101 -0.12018261 0.034068476 -0.08694739 -0.041386224 -0.0104868235 0.2495751
-0.11168704 0.021604361 -0.123478666 0.13956645 -0.1110133 0.070112005 0.021897195 -0.18801242
-0.24029997 -0.15196691 0.001229334 -0.20201723 0.042621396 0.03560436 -0.27147123 0.27329567
-0.23517719 -0.27372217 0.14367448 -0.048884925 -0.085247956 0.042325757 -0.24813308 -0.14610921
0.112246394 -0.12490708 0.0741269 -0.01908076 -0.25899744 -0.16838197 0.099438675 -0.10929264
-0.046214037 0.006332463 -0.14378245 0.08301818 -0.118829004 0.014273126 -0.016520815 -0.15449089
-0.2558367 -0.12026317 -0.2718625 -0.14125931 -0.055846844 -0.0018061645 0.26297334 0.011356173

fc2.weight f4 [64, 128]
00000000: ebea 59be 6f84 b83c 364c 35bd 21d5 12be
00000010: 2f52 cc3e 813e 13be 4e6c 01be 0106 2e3d
00000020: 93ea 843e 4903 32be a62c b1bd 0f45 c83d
00000030: c70c c93c 9892 80be 3838 ac3c f08c ddbd
00000040: 51b7 aabe a1fc 76bd 6f4d 5dbe 2157 8e3d
00000050: a3f8 22be 459f 8f3e 6cae 11bd 5fe1 b1bd
00000060: a32d 3c3e 1cdf 8b3e c6da 8a3e 6ae2 243d
00000070: 83c4 65bc 7fa5 60bd fe0a 9abe dddf c63d
00000080: 4da0 7bbd 3027 7fbe fdc3 43be 9a1a 25bf
00000090: e358 fc3d e93f 6d3e c6af e9be eaa5 1bbe
000000a0: a49e ab3e f172 43bc d47f b2be ec84 f8be
000000b0: 109a 78be 09de ae3e 2643 073e 24d9 9d3d
000000c0: 8ee6 a33d 0ffe 2f3d fef9 2a3e 8555 2abd
000000d0: b241 c93d 4bf5 84bd bf19 703b 764b a43e
000000e0: 2233 d7be 6072 e7bb 10ab 5abe cd3d 213e
000000f0: 1677 c6be 062f 47bd 743d 3cbe 19a7 12bd
00000100: 640c 923c 6259 043f b32a e03c 7793 a53d
00000110: 510d 2dbe 0e3d b3bd f9fe 833e 01a3 3f3e
00000120: d125 24bd 6a6c 20be 057f 9abc 16f4 943d
00000130: 0df2 8f3d ec6d 053f 9467 193d 2b0c 44be
00000140: cac2 333e 4c71 6a3e 0b97 e03d 029a 523d
00000150: 8d7a 7fbd c950 a33e 360d 143f bc07 0c3e
00000160: dc0d 193e 6282 2dbe ff44 05be 7d79 c7bc
00000170: bfa8 71be 58f0 0bbd 2c75 9fbd 9cd5 57be
00000180: e053 fcbc 0348 f93d 8040 0abe bebe 11bc
00000190: 872a 843e 7b51 0cbe a779 033d eb4b 67be
000001a0: d95f c5bd 7dd1 843e 6a95 97be 6142 c23e
000001b0: e74e eb3d 465f 7e3e 73bd 2b3e 97ac 4bbe
000001c0: d3b5 bdbe 9346 91bd cddb d33d 6ab9 c33d
000001d0: 8fbd d9bd 6670 e5bb 5b16 37be 3b4f 90ba
000001e0: 167b bb3d dcd4 973c 54bb 153e 8a5b e2bb
000001f0: 4dcc 75be bdf9 a2bd 4798 1abd 0c66 35be
00000200: 2acf ac3e 8de6 27be c2a4 89bd 763b 083e
00000210: 619d 4c3d f1c0 b93d 4904 40be 89c7 823d
00000220: 2df8 9d3d 7655 393c 9b85 c8bb b723 b6bc
00000230: 4948 dbbd 5c8f bc3d 6eba c7bc 81b6 29bf
00000240: eba1 23bc 6bda 553e 31d0 77be 3c1f 383d
00000250: db29 e83d 7996 d1bc be47 5b3e f5a4 073e
00000260: e0c0 4bbe 5972 72bd d18d 3e3d 45cf 6fbd
00000270: 02c4 613d 28c5 fdbd f8a3 0cbe 1c75 303e
00000280: 3091 2fbe 0d47 b7bd 0d4c 1dbe 8647 67be
00000290: 3706 0a3e 8580 383d aead ba3e bbf3 0abe
000002a0: bab2 cebd 30df c73d ca80 a03d abe2 443d
000002b0: e722 17be f757 813e 9c5f d6bc 4a57 d23c
000002c0: 1a19 63bc 1212 823e 0c46 883e 669e c3ba
000002d0: 7a09 66bd e2a7 f7bc fd9c 82be 4ea0 50be
000002e0: 1c1e 3bbe 6267 94bd a895 e63c f01c 86bc
000002f0: 9a58 06be 5ed7 c7bc b076 3cbe 1b8c b33c
00000300: 62cc 223e 5561 093f 91ad d13d be10 493e
00000310: 023a 1cbe 3337 c9bd 3197 213d 5e63 c03d
00000320: 7996 cf3d f2e2 40bf 768a febc 3948 453e
00000330: 4b35 0b3d 9e48 803c 1bb6 7b3e 64fe f5ba
00000340: a0c5 42be 8cbe f2be f91c b63d bc8e 88be
00000350: 3a35 3abe 2b7d 773e 27da 7abe e7fa bebe
00000360: 7235 86bd ee4a df3c 5100 033f 473f 26be
00000370: 1ffa 94bf 7b82 e9bd b179 9ebd 7052 32bf
00000380: f2fa 7cbd e199 3c3d 0f81 c53d 16dd 09be
00000390: 7999 38be c350 eebd 777d 05be 426a eb3e
000003a0: ab23 8fbe 8963 5dbe 4381 bfbc 6de8 f4bd
000003b0: fbec 1e3d f3f2 84bd f3d6 2d3e 1d3a 8ebc
000003c0: fdda a63e 5dbf a4bd 6f39 583d 3338 a6bc
000003d0: 79c4 18be a648 b93d 7a75 1abe fa39 b9be
000003e0: 782e 9fbd a97f 013d 3625 b9bd c82b c6bc
000003f0: fae0 50be dd2f 7d3e 235e d4bd a8ac 323d
-0.2128102 0.022524087 -0.044262134 -0.14339115 0.3990645 -0.14379312 -0.12638971 0.042486195
0.25960216 -0.17384066 -0.08651094 0.09778797 0.024542226 -0.25111842 0.021022901 -0.10817897
-0.33342984 -0.06029952 -0.2161157 0.06950212 -0.1591516 0.280512 -0.035566732 -0.08685564
0.18376784 0.27318656 0.27120036 0.040254988 -0.014023903 -0.05484533 -0.3008651 0.09710667
-0.06143217 -0.24917293 -0.19117732 -0.64493716 0.12321641 0.23168911 -0.45641917 -0.1520001
0.3351947 -0.01192926 -0.3486315 -0.4853891 -0.2427752 0.34153774 0.13209209 0.07707432
0.08002959 0.0429669 0.16696927 -0.041585464 0.098269835 -0.064920984 0.003663644 0.32088822
-0.420312 -0.007063195 -0.21354318 0.15746231 -0.3876273 -0.04862883 -0.18382818 -0.035803888
0.017828174 0.5169889 0.02736411 0.08084767 -0.16899611 -0.0875188 0.25780466 0.18714525
-0.040075127 -0.15666357 -0.018859396 0.07273118 0.070285894 0.5212085 0.037452295 -0.19145267
0.17554775 0.22894782 0.10966309 0.051416405 -0.062372733 0.31897572 0.5783266 0.13674825
0.14946693 -0.16944268 -0.13014601 -0.024349922 -0.23599528 -0.034164757 -0.07786021 -0.2107758
-0.030801713 0.12171938 -0.13501167 -0.008895574 0.25813696 -0.13702957 0.03209844 -0.22587554
-0.09637422 0.25941077 -0.2960618 0.37941268 0.11489659 0.24841031 0.16771488 -0.19890057
-0.37052783 -0.07093539 0.10344658 0.09556849 -0.106318586 -0.0070019243 -0.17879622 -0.0011009941
0.09154336 0.018534116 0.14622241 -0.006907885 -0.24003716 -0.0795779 -0.03774288 -0.17714709
0.33751804 -0.16396542 -0.06720878 0.13303933 0.049954776 0.09070004 -0.18751635 0.063857146
0.077133514 0.011311879 -0.0061194426 -0.022233827 -0.10707147 0.09207031 -0.024380889 -0.66294104
-0.009987335 0.20884101 -0.24200512 0.044951662 0.11336108 -0.025584446 0.21414086 0.1324652
-0.19897795 -0.05919108 0.046521965 -0.058547277 0.05511857 -0.1239112 -0.13734424 0.17232174
-0.17145228 -0.08949099 -0.15361042 -0.22585878 0.13478933 0.04504444 0.36460632 -0.13569538
-0.10092683 0.097593665 0.078370646 0.04806773 -0.14759408 0.25262424 -0.026168637 0.025676388
-0.013860965 0.25404412 0.26615942 -0.0014924526 -0.05616138 -0.03023142 -0.25510398 -0.20373651
-0.18273205 -0.07246281 0.028147534 -0.01637122 -0.13119736 -0.024394687 -0.1840465 0.021917393
0.15898278 0.5366414 0.10238183 0.19635293 -0.15256503 -0.098249815 0.039450828 0.09393953
0.10136122 -0.7534629 -0.031071883 0.19265832 0.03398637 0.015659627 0.24581186 -0.0018767831
-0.190207 -0.47411 0.08892245 -0.26671398 -0.18184367 0.24168842 -0.24497281 -0.37300798
-0.06553163 0.027257409 0.5117236 -0.16235076 -1.1638831 -0.1140184 -0.077380545 -0.6965704
-0.061762758 0.046045188 0.096437566 -0.13463244 -0.18027295 -0.11636498 -0.13036142 0.45979506
-0.279569 -0.21620001 -0.023377066 -0.11958394 0.03880022 -0.064916514 0.16976528 -0.017361695
0.3258895 -0.08044312 0.052789148 -0.02029047 -0.14918698 0.0904706 -0.15083876 -0.36177045
-0.07772535 0.031615887 -0.090403005 -0.024190798 -0.20398322 0.2472529 -0.10369518 0.04362169

fc2.bias f4 [64]
00000000: 381f 3e3e acb7 b43e 5e7d 1bbe 6dd4 b4bd
00000010: 3910 9b3d 83fc 7c3d 19de b43c 57cd 2d3f
00000020: 7586 9dbe 48d9 5d3d 1929 aabc 7205 a43e
00000030: 045d ca3e eab1 92bd 5770 8f3a 05e7 9f3e
00000040: 5b77 2fbd eb64 d73e eba9 2bbe f8ca a5bd
00000050: 535c 98bd d773 483e 02c1 f8bd 7da9 76bd
00000060: 53b8 813b 689b e1bd 8488 b73d 1d6c 19be
00000070: f9ec 89bd 363e bb3e 98bc 433f 318c 0d3e
00000080: 70ca 2bbc ebca be3e 3c43 123f 7e99 2c3f
00000090: 8a7d 303d 349c e3bd 39eb 26ba ea0d a43d
000000a0: 8f4d 043e c5d5 43bd 2796 0e3d 6ec4 933d
000000b0: a548 17be 8066 c0bd eb01 da3d 55fc f9b9
000000c0: 2669 b23d 9dbb 003f 03ac 843e 6bcf 03bc
000000d0: a947 3f3e e4e6 833e 7b54 c33d 30c2 673e
000000e0: 931b 39be fcca 15bd b372 703e d340 cf3b
000000f0: a2e6 3b3e f14d ca3e 38e2 85bd 1df4 403c
0.18566597 0.3529638 -0.15184543 -0.088295795 0.075714536 0.06176425 0.02207856 0.6789145
-0.30766645 0.054162294 -0.02077155 0.32035404 0.3952409 -0.07162841 0.0010943514 0.3123094
-0.042838436 0.42069182 -0.16764037 -0.08095354 -0.074394844 0.1957544 -0.12146188 -0.06022023
0.0039587407 -0.110159695 0.08961585 -0.14982648 -0.06734652 0.365709 0.76459646 0.1382301
-0.010485277 0.3726419 0.5713384 0.6742171 0.043088473 -0.11113778 -0.00063674484 0.080104664
0.12920211 -0.04781129 0.034811165 0.072152 -0.14773805 -0.0939455 0.10644897 -0.00047680983
0.08711462 0.50286275 0.25912485 -0.008045058 0.1867968 0.25762093 0.09537598 0.2263267
-0.18076925 -0.036570534 0.23481254 0.0063248663 0.18349698 0.3951259 -0.065372884 0.011776951

fc3.weight f4 [16, 64]
00000000: a93a d93c 1771 c1bc bbb5 adbc 88d2 b53d
00000010: 591d 3e3f 9a7d ecbe b568 e3bd c5d3 8c3d
00000020: 2c36 a9be 8297 dfbe 72d0 97be bd9c a73e
00000030: b138 fabd 736c c93e 8f6a efbd 2229 ae3d
00000040: 5ab1 82be 378c a2bd d40b d4be 5a6e 15be
00000050: 62aa e7be c078 613e 648b a1bd a7d6 8d3e
00000060: 8bc0 d7be de59 1e3e a7ad 3a3e cc6c f03e
00000070: b120 2dbf 304e e33d 93ee d43d 1346 aabd
00000080: f78e 443f a4b9 87bb 08d4 983d c449 3cbd
00000090: 7bd5 4fbe 91f6 b83e 1552 023e 3be0 a3be
000000a0: d3a5 e1be 3a04 42be 7e40 bb3e f67f f6bd
000000b0: bef8 463d 24e6 093e 4d13 f7be 7f1d 633e
000000c0: 459e 63be a873 f63d 5126 f93a 6f1b 6abe
000000d0: a262 89be 9a2a 993b 25b5 1c3f 2ecf f7bd
000000e0: e3ee f6be ae2f 2dbc e3bc 153e ad23 18bf
000000f0: fec7 b93c fbd8 2cbe fd88 3bbd 5bfd a33e
00000100: 1867 91bd a53d febd 64fd 633d 501f c33d
00000110: 4a7c a83c d1a3 f6bc c563 c4ba 2118 e93c
00000120: 04a7 7a3d 9ad0 803d 948c bcbd 3674 8fbb
00000130: 8776 633d 9971 d83c f09e b53c dd78 ac3b
00000140: 88d8 01be d56e 97bc b8df 6cbd 10f9 dabd
00000150: b839 e8bd d768 553d 6068 4cbc df86 88bb
00000160: 57e9 c03d 448c 1fbd ed9e c13d 5dad f5bc
00000170: eb1b a13d cdfa 84bd cafa 0abe 059a c33d
00000180: b5a9 d6bd e1d5 ccbd 1d1c bebc 413b 89bd
00000190: da17 68bc a653 cd3d 285b 803d 8332 8a3d
000001a0: 0699 82bd 50f6 983d 7b5c 1c3d dd88 ba3d
000001b0: 4cf4 363d 2911 b03d 0728 55bd 4a16 e8bd
000001c0: d00e 94bd fde8 06be aed6 02be d364 c03d
000001d0: 00ff e6bd 4e57 ddbd 7c4a a3bd 4a8f 05be
000001e0: 4441 22bd c0c5 3fbd 34d8 a53d 22c7 9dbc
000001f0: 16b0 1ebd 7a85 6c3d bf51 07bd b6c2 9cba
00000200: d51d 883d f3b0 883e c4db 50bf 9959 a1be
00000210: 6982 b83d 7fac 413d 79f2 123e dfde 4d3e
00000220: b583 6bbe c0e6 9d3e 8102 3f3c 60eb 5c3d
00000230: f212 323d dbca 12be 4259 8ebd b044 2ebe
00000240: a938 67be 90fc 4f3e 24e0 f33e d017 253e
00000250: 2a54 3d3e ea62 a5ba be24 5abd 0942 8bbc
00000260: 9549 053e f535 793c 7e96 16be 44e8 2bbe
00000270: 3a2e 32be 9e4d 8abd 36b7 663e 0f84 68bd
00000280: 06fd 9dbd 43ed ba3d df67 27ba fc87 c73d
00000290: c1dd a03d b284 1dbf 1003 e13e 7b3f d0bd
000002a0: df81 1cbd 9ced 063e c1e9 1abf aa17 403e
000002b0: 675d 4d3d b9ac 32be e4aa b63c 4238 51bf
000002c0: b8ca 093e c900 a1bd e085 043e b909 153f
000002d0: 59ce c23d 7d83 37be 5a98 fb3e 0052 bb3d
000002e0: 2203 58bd ad6a 05bd 8885 6e3e 7d3d 86be
000002f0: efe5 c8bd 62d2 d7bd b0ad 573d fffe 33bd
00000300: e8e8 abbd 4ed5 45bc 6319 d5be b559 f7bd
00000310: 99b6 a2bd b7aa 123d 7171 d2be 7320 ea3d
00000320: 23b7 2abe 3ec1 10bd 2625 e73d 4861 5b3c
00000330: 1118 adbd a957 073f 155f 06b7 e0cc f13c
00000340: d6b5 8dbd ed52 613d 95e3 74bd 3ca1 b73e
00000350: 6f4c c4be 342e 4a3e f621 98bd 8aaa 733d
00000360: a154 293d 8e95 a7bc 3923 e83d bf88 7dbd
00000370: 03a3 f5bc bea1 a13d 9ea7 443c a1ab 5e3d
00000380: 7b07 0d3f f80e 9e3c 4453 9d3d e7c4 033e
00000390: 5f33 4fbc 4d57 3f3e a947 813c a943 703d
000003a0: 5492 5a3d 1034 d03e ec35 b0be 7fb3 2c3f
000003b0: 6a10 96bc 045c 92be 119f 443d d9f8 25be
000003c0: 4fe3 723e 8b82 153e cb5c 7e3e d33f 14bc
000003d0: f23a c03b f3e2 5ebd 013b c23e 80e8 ab3d
000003e0: 02c6 82bd 47e9 25bd 4ca1 c63d 9c36 b4be
000003f0: 5d01 543c d8f6 003d 390d abbd ce13 913e
0.02651723 -0.023613496 -0.02120482 0.08878046 0.7426353 -0.46189576 -0.11103956 0.06876329
-0.33049142 -0.4367028 -0.2965122 0.3273677 -0.12217844 0.39340553 -0.11690246 0.08503939
-0.25525934 -0.079369 -0.41415274 -0.14592877 -0.4524718 0.22018719 -0.07887915 0.2770283
-0.42139086 0.15463969 0.18230306 0.46958005 -0.6762801 0.110988975 0.10397067 -0.08314147
0.7678065 -0.004142003 0.07462317 -0.045968786 -0.2029628 0.36125615 0.12726624 -0.32007012
-0.44071826 -0.18946925 0.3657264 -0.12036125 0.048577063 0.13466698 -0.48256913 0.2217922
-0.22228344 0.120337784 0.0019008612 -0.22862028 -0.26833063 0.004674268 0.61213905 -0.12100063
-0.4822913 -0.01057045 0.14622836 -0.59429437 0.022678372 -0.16879646 -0.04578494 0.32029232
-0.07099742 -0.124141015 0.055661574 0.09527457 0.020567078 -0.03010741 -0.0014983347 0.028453888
0.061194435 0.062897876 -0.09206501 -0.004377867 0.05553296 0.026421355 0.022170514 0.0052634315
-0.12680256 -0.018485466 -0.057830542 -0.10692036 -0.11339134 0.052101936 -0.012476057 -0.0041664685
0.09419506 -0.038952127 0.09454141 -0.029989893 0.07866653 -0.06493149 -0.13572231 0.09550861
-0.10481588 -0.10001732 -0.023206765 -0.06700755 -0.014165843 0.1002572 0.06267387 0.067479156
-0.06376843 0.074688554 0.038174134 0.09108136 0.044666573 0.08597023 -0.052040126 -0.11332376
-0.07229388 -0.13174815 -0.12777206 0.09394231 -0.11279106 -0.10807668 -0.07973191 -0.13042942
-0.039613023 -0.04681945 0.08097878 -0.019259993 -0.038742147 0.05774448 -0.033036944 -0.0011959884
0.06646315 0.26697502 -0.81585336 -0.3151367 0.09009249 0.047283646 0.14350308 0.2010455
-0.22999461 0.3084011 0.011658312 0.05393541 0.0434751 -0.14335196 -0.06950618 -0.1701839
-0.22580208 0.20311189 0.47631943 0.16122365 0.18489137 -0.001261798 -0.053257696 -0.016999261
0.1301635 0.015210618 -0.14705846 -0.16787821 -0.17400447 -0.067530856 0.22530827 -0.056766566
-0.07714276 0.09127285 -0.00063860224 0.09742734 0.07854796 -0.615306 0.4394765 -0.10168358
-0.038209792 0.13176578 -0.6051293 0.18759027 0.050137904 -0.17448701 0.022298284 -0.8172647
0.13456237 -0.07861478 0.12941694 0.5821796 0.09512014 -0.17921253 0.49139673 0.091465
-0.052737363 -0.032572437 0.23293126 -0.26218787 -0.09809481 -0.10538174 0.052655876 -0.043944355
-0.08394033 -0.012074782 -0.4162093 -0.12077657 -0.07944984 0.035807338 -0.41102174 0.114319704
-0.16671424 -0.03534054 0.112863824 0.013389893 -0.08451856 0.52868134 -8.00916e-06 0.029516637
-0.06919448 0.055010725 -0.05978735 0.358652 -0.38339564 0.19744188 -0.074283525 0.05948881
0.041340474 -0.020457055 0.11334843 -0.06189799 -0.029984957 0.07892178 0.012002854 0.054362897
0.5508954 0.019294247 0.07681897 0.12868081 -0.012646525 0.18685646 0.01578124 0.058658276
0.053362206 0.4066472 -0.3441614 0.6746139 -0.018318374 -0.28585827 0.04800326 -0.16208209
0.23719524 0.1460058 0.24840085 -0.00904842 0.005866402 -0.054415654 0.3793564 0.08393955
-0.06385423 -0.040505674 0.09698734 -0.35197914 0.012939778 0.03148541 -0.083521314 0.28335422

fc3.bias f4 [16]
00000000: cfb5 993d f1ec 0dbd a461 e63e ef65 273f
00000010: 08e5 bfbc 9593 d5bd 79da 363f cd95 d73e
00000020: 6668 613f 9cec a93e acf1 a63c f9f0 1cbd
00000030: bbdb 98bd 929a acbb 5ade 2b3c 4341 d0bd
0.0750538 -0.034649793 0.4499637 0.65389913 -0.02342464 -0.1042854 0.7142711 0.42106476
0.88049924 0.3318833 0.02037891 -0.038315747 -0.07463785 -0.0052674497 0.010490024 -0.10168698

fc4.weight f4 [4, 16]
00000000: e9df 93bc 9429 1fbe 54d9 883e 20e6 2b3e
00000010: 6cfc c8bd f10f c5bc 42ec 9b3e cb81 e8bb
00000020: 3dbe 963e 5253 543e 4f25 9e3d 92ec 553e
00000030: d1ee 6abf 14c4 e23c c16a e73d a85b 7e3e
00000040: d6fe 38bc bcc7 e53c 5e5a 623e 9663 d83e
00000050: 20e0 7ebb 8bfd 73be fed1 a23e 3732 003e
00000060: 2280 863e 982d 703e 852f 30bf 258e 3fbe
00000070: 4523 3abd 5971 26bf 7578 d33d 640f 2b3e
00000080: 2e38 263d 43fa 413e 1e3f 96bc c688 fe3d
00000090: 0a4d 90be 6327 653e 39c1 403e 9ff6 753e
000000a0: 6af8 fa3e 1dfa ae3e d079 4d3e 0555 40bd
000000b0: 6927 f8bd 07e3 ca3d bc28 313e 4556 133d
000000c0: 657e adbe 3bc6 593b 92fc 033e 9f69 183d
000000d0: bbae 5f3e 8a0d b33e 2518 ad3e 42f7 883e
000000e0: 0445 c03e d15c 6f3e 3aa2 413d 41de 1fbd
000000f0: 3a92 053d 729e c6be 92c8 9dbc c6ba f4ba
-0.018051105 -0.15543205 0.26728308 0.16787004 -0.09813771 -0.024055453 0.30453688 -0.0070955507
0.29442015 0.20734909 0.0772196 0.20891026 -0.91770655 0.027681388 0.112996586 0.24839652
-0.011291226 0.028049342 0.22104785 0.42263478 -0.0038890913 -0.23827188 0.31800836 0.12519155
0.26269633 0.23454893 -0.6882251 -0.18706568 -0.045443792 -0.65016705 0.1032571 0.1670509
0.04058092 0.18943124 -0.018340643 0.12428431 -0.28183776 0.22378306 0.18823709 0.2401986
0.4901765 0.34175196 0.20065999 -0.04695608 -0.12116892 0.09906583 0.17300695 0.035970945
-0.33885494 0.0033229727 0.12889317 0.037210103 0.21843998 0.34971267 0.33807483 0.26751143
0.37552655 0.2337525 0.047273852 -0.039030317 0.032610156 -0.3879276 -0.019260678 -0.0018671385

fc4.bias f4 [4]
00000000: 44b6 423f 43f2 863e 0052 1d3f 9fc8 ee3e
0.76059365 0.26356706 0.6145325 0.46637437
