project2-continuous-control/results/session_gym_pendulum/checkpoint_critic.pth (torch_old, 70930 bytes, 9 tensors)

_fc1.weight f4 [128, 3]
000000 ca f4 92 be 89 8c 1a be d1 ca 83 3e 9e 18 c5 3d
       -0.28702384 -0.15092672 0.25740674 0.09623836
000010 63 9f b8 3d f6 3b 6b bd f8 76 be be ea 17 90 3d
       0.090147756 -0.05743023 -0.3720014 0.07035811
000020 58 28 9f 3e 6c 6a 5a bd 22 21 60 3d b6 3f 2d be
       0.31085467 -0.053324148 0.054719098 -0.16918835
000030 0c 06 7f bd 1b 4e c0 3e 8c 22 94 3f cd 74 30 bf
       -0.062261626 0.3755959 1.1573043 -0.68928224
000040 e1 0c b9 bd c5 ba db be 6d 66 b5 be 65 21 d4 3d
       -0.090356596 -0.4291593 -0.35429707 0.10357932
000050 26 e3 89 3e 64 27 6c bd 4f cd 55 bc 86 7a 53 bb
       0.26931113 -0.057654753 -0.013049438 -0.0032269075
000060 ba 9c be bc 32 20 be bc 02 08 d7 3a 2c a1 13 bd
       -0.023268092 -0.023208711 0.0016405585 -0.036042377
000070 72 c3 7a bd 3e 7e 1f bc 87 b6 b2 3d fb 4e 12 bd
       -0.061221547 -0.009734688 0.087262206 -0.035719853
000080 3d c5 b6 3d 5a 23 f2 be e2 c9 9a 3e f0 5b 45 be
       0.08924339 -0.47292596 0.3023215 -0.19273353
000090 0c 5d b1 3e 85 cc 0d 3c ac ed 76 3d 77 38 ad be
       0.34641302 0.008654718 0.060285255 -0.33832142
0000a0 54 7f 14 3f ea dd 1b 3f 58 07 1d 3b 20 17 50 3d
       0.5800679 0.6088549 0.0023960676 0.050803304
0000b0 6c 80 81 bc 5d 9e 00 be 83 26 cd bd b3 d4 40 be
       -0.015808307 -0.12560411 -0.10017111 -0.18831138
0000c0 17 c2 42 bc af 88 ad be 2a 2f 57 bf 8c d9 30 bc
       -0.011887095 -0.33893344 -0.8405634 -0.010794055
0000d0 34 bf e8 3e b3 4b 00 3f a9 d6 dd 3e 0a c1 55 3e
       0.45458376 0.5011551 0.43327835 0.2087442
0000e0 dd da ce 3e 5a ea ef bc b7 44 0d 3e a5 c8 66 be
       0.40401354 -0.029286552 0.13795744 -0.22537477
0000f0 93 72 66 be 85 63 5c bc 7f 4c 9f be 38 15 37 bc
       -0.22504644 -0.013451462 -0.3111305 -0.011174493
000100 7c 3b b3 3d c3 69 0e bd 6a ba b9 3e a5 06 9e 3c
       0.0875158 -0.03476883 0.36275035 0.019290278
000110 ed b5 2d bb ab ac c7 be 9e 83 6f 3d c7 cb 53 be
       -0.0026506141 -0.38998923 0.05847513 -0.20683204
000120 c5 ca a6 bd 62 76 1e 3d 72 d6 8b bc b4 3c 9c 3e
       -0.08144144 0.038687117 -0.017070029 0.30515063
000130 da 9b 6c bd 66 ca 2c bc d6 29 a5 3d 78 da 08 3d
       -0.05776582 -0.010546302 0.0806462 0.033411473
000140 a2 22 23 3d 3f b9 5b 3e 28 57 11 bf 73 05 1c bf
       0.03982795 0.21457385 -0.56773615 -0.60945815
000150 bc 67 f4 bd 37 c1 0b 3b 1d eb 89 be 6e 60 e3 be
       -0.11933848 0.0021324882 -0.2693719 -0.44409508
000160 56 cb 6b 3d 17 17 94 3e d0 27 35 3c 70 85 42 bd
       0.057566963 0.28923866 0.011056855 -0.047490537
000170 98 73 72 bd 16 9f 10 bd 51 af c9 3a af e4 3b bc
       -0.05919227 -0.035307966 0.0015387331 -0.011468097
000180 63 30 64 bd 0a 23 79 bc d0 09 aa 3a 5f f0 0b 3f
       -0.055710208 -0.015206108 0.0012972895 0.5466365
000190 32 57 70 3e 02 0b fb be ae 75 f8 be c1 c7 d4 be
       0.23470762 -0.49031836 -0.48527282 -0.4155865
0001a0 7a 60 ef be d1 6f da 3e 49 4e 5e bd 02 83 bb 3d
       -0.46753293 0.42663434 -0.054273877 0.09155847
0001b0 10 98 90 be 6b 4d 22 bf b7 56 26 bf c4 4e 04 3d
       -0.28241014 -0.6339938 -0.64976066 0.03230168
0001c0 20 1b d5 3c a8 3e d5 3c cf 8d 0a bf a8 8b 6d 3e
       0.02601391 0.026030853 -0.5412263 0.23197806
0001d0 48 88 77 be 35 2e be 3d 52 ea 16 bf 6c 4c 3a bf
       -0.24173081 0.09286157 -0.58951294 -0.7277286
0001e0 2d 6f 16 3f 58 9f 03 3f c8 03 60 3f 7b e5 53 bd
       0.5876339 0.51415014 0.8750577 -0.05173252
0001f0 f0 4d 2c 3d d3 8a b3 bd be 5a 82 3c 56 50 eb 3b
       0.042066514 -0.08766713 0.01591241 0.0071812076
000200 2b 5e 4e bc 9f f5 ab 3e 60 7f cf 3d 74 31 a8 3e
       -0.012595694 0.33585832 0.10131717 0.3285023
000210 9a 30 96 bd a0 53 e0 3c ab 9a ca 3c f0 bf 1e bf
       -0.07333489 0.027383626 0.024731955 -0.62011623
000220 21 a6 91 3a 2e 23 36 3f 60 eb d2 bb d0 3e aa bc
       0.0011112132 0.7114743 -0.0064367503 -0.020781904
000230 28 6a 5b 3d ca c0 9e bd cc 1c 88 be 47 f4 38 be
       0.053568035 -0.07751615 -0.2658447 -0.18061934
000240 03 b1 b1 bd bd 09 a0 3d 0e 6f 6c bd 6f 73 0f bf
       -0.086763404 0.078143574 -0.057723098 -0.5603551
000250 85 17 7f 3d b0 41 a2 3e 50 aa 01 be cb c4 04 3f
       0.06227829 0.3169074 -0.12662625 0.5186278
000260 03 48 f7 3e 10 60 51 be 13 bd a2 3e 96 73 9a be
       0.48297128 -0.20446801 0.31784877 -0.3016631
000270 3b e6 2d bf 91 17 dc 3d e1 fc fc 3e 6a 1c a5 3d
       -0.6792943 0.107466824 0.4941168 0.0806206
000280 c0 59 87 bc c0 17 79 bc d7 b1 e2 be 20 3a d0 3e
       -0.016522288 -0.015203416 -0.44276306 0.40669346
000290 67 fa b4 3d e0 34 b9 bb 4e dc a0 bd ec 6d 80 3d
       0.08836823 -0.005652055 -0.0785452 0.06270966
0002a0 65 2e 9b bd b9 ac b3 3c 58 4c 38 be d0 b9 33 3d
       -0.075772084 0.021932947 -0.17997873 0.043878376
0002b0 d2 1d ad bd 90 a7 70 3c 7c 20 85 3f 77 1c e3 be
       -0.084529534 0.0146883875 1.0400538 -0.44357654
0002c0 ec 6d 09 be fa 3a 16 bd af 9f 8a 3d 41 d6 02 be
       -0.13420838 -0.03667734 0.067687385 -0.12777044
0002d0 68 9d 96 bc a4 ff 9e 3d fe f0 a6 bd 32 b9 02 bf
       -0.018385604 0.07763603 -0.08151434 -0.51063836
0002e0 52 a2 d9 bd 63 00 b2 be 23 80 57 3c 66 fd 84 3c
       -0.10626663 -0.3476592 0.013153109 0.016234111
0002f0 d9 2c 53 bd b7 51 0e bf 23 f9 b2 3e 94 27 fc 3e
       -0.051556442 -0.55593437 0.349557 0.49248946
000300 65 a4 83 be e9 b9 9a 3e 09 cd be 3e d6 fc a8 3d
       -0.2571136 0.30219963 0.37265804 0.0825135
000310 7c 75 b4 bd fe 6a 95 bd 94 a1 26 3e 66 74 0f bd
       -0.08811471 -0.07295798 0.16272575 -0.035023116
000320 e4 69 0a 3e ec b6 36 be fc 4e 4f be fb 5a 6f 3e
       0.13516957 -0.17843217 -0.20244974 0.2337455
000330 16 2b 23 3e 19 93 64 bd 76 4d 1e 3e 68 f7 e3 be
       0.15934405 -0.055804346 0.15459237 -0.44524693
000340 8b ec 9e be 29 19 c0 be 40 3f 76 bd 40 9f c7 bd
       -0.31039843 -0.37519196 -0.060118914 -0.097471714
000350 eb 87 11 3c e4 91 c0 be aa 19 c2 bd 6e 8a 58 3e
       0.008882503 -0.37611306 -0.09477551 0.21146557
000360 03 3f 9a be 02 c5 d1 be af 9c 00 bf 60 50 ff be
       -0.301262 -0.40970618 -0.5023908 -0.4986601
000370 e0 f4 11 3e 7a 19 72 be 90 00 60 bd d8 02 20 3d
       0.14253569 -0.23642531 -0.054688036 0.039065212
000380 70 61 26 3c 9a 42 d7 3e 25 2b 10 3e d1 9a c7 3e
       0.010155067 0.42043 0.14078958 0.38985303
000390 d8 1d 19 bd 75 03 78 bd f2 80 51 3d 60 fa 2f bc
       -0.037381977 -0.060550172 0.051148362 -0.010740846
0003a0 b0 35 14 bd d0 a1 39 bc 1b 35 12 bf 3c ad 3b 3e
       -0.036184013 -0.011330083 -0.5711228 0.18327802
0003b0 fe 3f cd 3e 28 bb 32 3d 20 bc fd 3c 0c fe 6a bd
       0.40087885 0.043635517 0.030973494 -0.057371184
0003c0 88 89 48 bf cd 26 6a be 86 4d 15 bf b5 37 db be
       -0.78334856 -0.22866364 -0.58321416 -0.4281594
0003d0 18 b2 9e 3e 26 c2 12 be 46 78 a6 be a8 4b 55 3e
       0.3099525 -0.14331874 -0.32513636 0.20829642
0003e0 df 9a 40 be 69 5d c6 3e 18 5c 96 be dd e0 70 3e
       -0.18809079 0.3874314 -0.29367137 0.23523279
0003f0 0d d7 02 be 77 30 d4 3d 9b e8 13 3e 74 6f 46 bd
       -0.12777348 0.103608064 0.144442 -0.048446134

_fc1.bias f4 [128]
000000 19 86 b9 3e 40 37 26 3f bf 99 c4 3e 86 de 06 3f
       0.3623512 0.64928055 0.3839855 0.52683294
000010 d3 8d 16 3f ed 25 f9 3e 35 e3 c4 3e 70 4f 69 be
       0.58810157 0.48661748 0.38454595 -0.22784209
000020 19 9c b6 be 1d 40 b0 be a6 98 f3 be a9 9c ee 3e
       -0.35665968 -0.34423915 -0.475774 0.46603897
000030 c3 6f 55 3f be 25 a8 3d d2 14 ba be 5e 33 c7 3e
       0.8337366 0.08210324 -0.3634401 0.38906378
000040 66 09 02 3f 06 44 11 3e 92 9e a9 be 8b fa 37 3f
       0.5079559 0.14186105 -0.33128792 0.71866673
000050 4c 31 1e 3f 63 72 ef be 1f bd 2b 3f 63 77 e6 3e
       0.6179397 -0.46766958 0.6708545 0.4501296
000060 33 17 92 be e9 9f 1f 3f b4 c5 b6 be ef 15 2f bd
       -0.28533325 0.6235338 -0.3569771 -0.042745527
000070 1e 88 27 3f 22 c8 e9 3e 59 0e d1 be 00 14 79 be
       0.65442073 0.45660502 -0.4083126 -0.24324036
000080 3f d2 6c be 14 05 6a bf 9e ca 9a 3e d1 af 87 3f
       -0.23127078 -0.91414 0.3023271 1.060053
000090 5b ab 25 3e 6f 84 b6 be ce f8 4e 3e bd 06 68 3e
       0.16178648 -0.35647914 0.20212099 0.2265882
0000a0 e3 af 83 3e 46 db 09 bf 14 ff e6 bd 1a 6b 55 bf
       0.25720128 -0.5385021 -0.11279121 -0.8336655
0000b0 41 43 a1 be 67 fc 8a 3e b7 ea d1 be ff 88 d5 3e
       -0.31496623 0.27145693 -0.40999386 0.41706082
0000c0 43 3d 0e 3f bd 04 a1 3e a7 ca de bb 71 07 5e be
       0.5556223 0.31448928 -0.0067990604 -0.21682526
0000d0 46 8a 93 3e 00 58 e1 be 8c 7f 95 3e 44 2f 06 bf
       0.28816432 -0.4401245 0.29198873 -0.5241587
0000e0 e7 cd 3d bf f1 9c 0f bf 69 c1 cf 3d b0 27 f1 3e
       -0.7414231 -0.5609885 0.10144312 0.47100592
0000f0 1b a8 0f bf 4e 24 c3 3e 4e af 7f be d0 7b 6a 3e
       -0.56115884 0.38113636 -0.24969217 0.22898793
000100 96 ae 45 3e 8d 46 05 bf 73 fe 40 3f 6e 7f d2 3e
       0.1930488 -0.52060777 0.7538826 0.41112846
000110 a5 22 4f 3f 45 a6 97 3e a7 99 d5 be eb 91 13 3f
       0.8091224 0.2961904 -0.4171879 0.5764453
000120 35 69 00 3e 57 1f ed 3e fa 05 ed be cb cb ec be
       0.12540133 0.46312973 -0.46293622 -0.46249232
000130 81 37 21 bf 44 45 66 be 35 68 80 3e af 18 e8 be
       -0.6297532 -0.2248736 0.25079504 -0.45331332
000140 65 ce 15 3f 6b be f3 3e 78 f5 9b 3e fd b3 f5 be
       0.5851806 0.47606215 0.30460715 -0.47988883
000150 04 90 f6 be d4 ba 7a be e7 99 7a 3e 82 89 79 3f
       -0.4815675 -0.24485332 0.24472772 0.97475445
000160 90 ec d7 3e 66 b8 2e 3e b6 e6 9a 3e b3 00 11 bf
       0.4217267 0.1706253 0.30254143 -0.5664169
000170 a6 79 fc be 01 65 0a 3f 29 6f a7 be ba a7 96 3e
       -0.4931156 0.5406037 -0.32701996 0.2942484
000180 94 a9 ea be 2f a2 a2 be 80 1b fb be 05 dd b6 3e
       -0.45832503 -0.3176436 -0.49044418 0.357155
000190 2d cb 47 3e ef cd 1c 3f 41 1a e2 3e 0e 56 95 3e
       0.19511099 0.6125173 0.44160655 0.29167217
0001a0 46 b5 42 3f c7 c3 7f be 9c a6 33 3d 43 69 3d be
       0.7605785 -0.24977027 0.043860063 -0.18497185
0001b0 92 57 c9 3e f0 f7 e4 be 51 1c 0e 3f 50 dd 19 bf
       0.39324623 -0.4472041 0.5551196 -0.6010332
0001c0 d3 df 00 bf 00 b3 ae be 46 f9 31 3f 84 5c 22 3f
       -0.5034153 -0.3412094 0.69520986 0.6342242
0001d0 da e7 08 bf ba b8 46 3e 25 de 73 3e ae 32 e8 3e
       -0.5347878 0.19406405 0.2381521 0.45351166
0001e0 70 25 07 3f c1 e8 7d bf f4 97 a2 3e ce ad 7a 3e
       0.527915 -0.9918328 0.31756556 0.24480364
0001f0 39 bf 27 bc 2c 51 0b 3f cc 60 dc bc 4d 1c 03 3f
       -0.010238462 0.54420733 -0.026901625 0.5121506

_fc2.weight f4 [128, 129]
000000 b4 0e 23 3d 78 81 85 3e 52 ba 96 3e 58 86 50 3e
       0.039808944 0.2607534 0.29439026 0.20363748
000010 0f 69 ad be b1 72 32 3d b7 cf af 3e 81 4f 43 bd
       -0.33869216 0.04356641 0.3433816 -0.047683243
000020 ff 43 e7 3d e8 02 3e 3d 61 96 8c 3d dd f9 9b 3e
       0.11292266 0.04638949 0.0686462 0.30464068
000030 24 4f 1f 3e 6f e7 13 bf 50 93 2d 3c a6 ef cb 3c
       0.15557534 -0.57775015 0.010594204 0.024894547
000040 b0 16 c4 3c b3 9c 49 3e 8f 57 b5 3e 4d 5d 8f 3e
       0.0239366 0.19688682 0.35418364 0.2800087
000050 e1 49 21 3e 72 59 28 bd 8a 52 4a 3e 43 84 0e 3e
       0.15750839 -0.041100927 0.19758049 0.13917641
000060 5a 8e a9 3d 20 5a 89 3e 8a 9c cb 3a d3 6e da 3c
       0.082791045 0.26826572 0.0015534323 0.026664173
000070 f2 81 56 3e 5e 9d 02 3f 48 70 f4 3c 59 81 c1 3d
       0.20948008 0.51021373 0.029838696 0.09448499
000080 5e 0d 16 bd a1 6a d8 3f 3e 89 8e 3d e9 89 1d 3e
       -0.03663384 1.690754 0.069597706 0.1538464
000090 4f 1e 1b 3e 4a a7 c2 3d 1c 47 55 3e e0 53 b4 3d
       0.1514828 0.09504564 0.20827907 0.088050604
0000a0 93 3b 8e be a1 24 bb 3b 27 e4 07 bd 4c 28 17 40
       -0.27779827 0.0057111536 -0.033176567 2.3618345
0000b0 5c 0e f3 3c ed fb 10 be 98 7a b0 bd c8 ee 04 3e
       0.029669933 -0.14158602 -0.08617133 0.12981713
0000c0 b9 21 46 3e 49 f4 c1 3e a1 ef 05 bf 36 e7 6f be
       0.19348802 0.37881687 -0.5231877 -0.23428044
0000d0 9f 91 04 3e 50 ef ba 3d 76 f6 81 3e 28 70 e0 bc
       0.12946175 0.091276765 0.25383347 -0.02739723
0000e0 69 34 5b 3f f0 72 bc 3d 20 33 0e 3f 56 60 f0 3c
       0.85626847 0.0920161 0.5554676 0.029342812
0000f0 f8 40 99 bd 94 ba 4b 3d 30 b8 03 3e 52 12 92 3e
       -0.07483095 0.04973848 0.1286323 0.28529602
000100 b9 89 04 3e a8 80 86 bc d8 20 91 3e 9e 87 9a 3e
       0.12943162 -0.01641877 0.2834537 0.30181593
000110 14 43 51 3e 7a 18 3b 3d d5 80 6b bd 42 5f a2 3e
       0.20435745 0.04567764 -0.05749591 0.317133
000120 d8 fc 77 3e 81 e5 04 3e 92 f8 d2 3d c1 94 91 3e
       0.24217546 0.12978174 0.10301317 0.28433803
000130 6a 43 96 3d 90 bb 6c bc 43 1f 5f 3e f6 d1 b0 bd
       0.07337077 -0.014449015 0.21789269 -0.08633797
000140 d8 7f 67 3d 3f 48 4c 3e 1b 2a 9a 3e fc b2 b0 3e
       0.056518406 0.19949435 0.3011025 0.34511554
000150 f9 d7 99 be 00 90 1e bd 5c ea 41 3e 6c cc 97 3e
       -0.30047587 -0.038711548 0.18937057 0.2964815
000160 d6 e2 21 3e d3 e0 07 3f f9 bb b7 3d 30 e3 ad 3d
       0.15809187 0.5307743 0.089714 0.08490598
000170 42 46 c2 bd 1f ad a6 3d 4a 1f cd bd f8 be 29 3d
       -0.09486057 0.08138489 -0.100157335 0.041441888
000180 1d 6b 07 bd e6 2d cd 3d 83 0b c2 bd 55 a5 b6 3e
       -0.033061136 0.1001852 -0.09474852 0.35673013
000190 f0 d6 d6 3e 42 f3 6e 3e f9 75 1e 3e e4 7f 8c 3e
       0.4196086 0.23334983 0.1547469 0.27441323
0001a0 ba e7 44 be 65 93 94 bd e1 00 e5 3e 6b 30 10 bf
       -0.19229022 -0.07254676 0.44727233 -0.5632388
0001b0 3f f4 85 3e 6b 9f a0 bd 33 e3 14 3e fe 62 48 bf
       0.26162907 -0.078429066 0.14539795 -0.7827605
0001c0 14 81 02 3d b0 6b 12 3c 6a 8f fd 3d db d1 66 3e
       0.03186138 0.0089368075 0.1238087 0.22540991
0001d0 bc ce 61 3d 1d c7 eb 3d 8b 15 a4 3e 98 88 82 3d
       0.055128798 0.11512587 0.32047686 0.063737094
0001e0 1d 11 8e 3e a4 0a b5 3f 8a c5 90 3e a8 c1 81 3e
       0.2774743 1.4143872 0.2827571 0.2534306
0001f0 1f 71 ff 3d 08 94 3f 3e e6 5b d9 3e 49 3a aa 3d
       0.12472748 0.18708813 0.42452925 0.08311898
000200 b1 74 ae 3d da bd 67 3e e0 fa 7b 3e 14 63 b3 3e
       0.08518351 0.22631016 0.2460742 0.35036528
000210 35 53 27 3e bc 5f 8b be e0 8e 84 3e a1 c9 d0 3e
       0.16340335 -0.27221477 0.25890255 0.4077883
000220 45 1c c4 3d 7d 77 b2 3c 78 fd f5 bd c5 55 84 3d
       0.095757045 0.021785492 -0.12011236 0.06461672
000230 a0 51 41 3e 15 1e 76 3e 47 41 1a bf 9b a7 a6 3d
       0.18878794 0.24034913 -0.60255855 0.08137437
000240 e6 a8 ab 3d f6 8c 15 be 26 96 d0 3e c8 11 9e 3e
       0.08381824 -0.14604554 0.40739554 0.3087294
000250 dc e8 7e 3e 78 94 58 3e 90 70 b7 bc f6 d7 74 3d
       0.24893516 0.21150386 -0.022392541 0.05977627
000260 6d 2d 23 3e 6b 19 0e 3e 11 3e 2c 3e a2 77 d6 bc
       0.15935297 0.13876884 0.16820551 -0.026180092
000270 7c 48 42 3e 7c 7b 27 3d ed 73 0c 3f b6 7a da 3d
       0.18972963 0.04088925 0.5486439 0.106679365
000280 77 72 6a bd 7e e0 7b bc aa 8b d1 3f c2 75 15 3e
       -0.05723807 -0.015373347 1.6370747 0.14595702
000290 2e 56 69 3e 78 c3 fa 3d 00 97 1e bc 12 e1 85 3e
       0.22786781 0.12244314 -0.009679556 0.26148278
0002a0 bc d7 6d 3d 99 8e 66 be 52 f9 a6 3d 1a 73 a0 bb
       0.05806707 -0.22515334 0.08153023 -0.0048965337
0002b0 c6 c8 1f 40 8e ca ce bd 32 62 49 3d a4 b3 90 3d
       2.4966292 -0.10097228 0.049165912 0.07065514
0002c0 2b ab 0e 3e a8 57 64 3e 05 55 ba 3e 42 3c 06 bf
       0.13932483 0.22299063 0.3639299 -0.52435696
0002d0 b4 a6 bb be 84 27 e7 3d 80 95 8a 3c d8 02 8a 3e
       -0.36650622 0.11286834 0.01691699 0.26955295
0002e0 78 bb b0 bd 75 d2 3f 3f d2 6e c9 3d 9d a1 0e 3f
       -0.08629507 0.74930507 0.098355904 0.5571535
0002f0 8d 9d 5d 3e 18 2b c9 bd 50 09 10 3e 0f 6e f6 bc
       0.21642132 -0.098226726 0.14066052 -0.030081777
000300 0f 1b c1 3e 57 9f 56 3e 16 c7 9d bd da 41 35 3e
       0.37715957 0.20959221 -0.07703988 0.17700902
000310 4a 05 45 3e 53 fa 7a 3e 37 4f 16 3e 62 70 a3 3c
       0.19240299 0.24509554 0.14678656 0.01995105
000320 49 2d ec 3d 39 41 48 3e 7e 2e f3 3d 14 34 52 3d
       0.11532075 0.1955613 0.11874102 0.051319197
000330 94 88 e7 3e 34 3c ce 3d 34 d9 84 3d e7 49 60 3e
       0.45221388 0.100700766 0.06486741 0.21903192
000340 90 fb e6 3d 27 5b 03 3e 18 eb 07 3e 56 9f 31 3e
       0.112784505 0.1282774 0.13273275 0.17345938
000350 ed 21 24 3e db 7c 90 be 9c 57 ee 3c 71 97 2d 3e
       0.16028567 -0.28220257 0.02909451 0.16952302
000360 b7 31 ae 3e 95 2c 03 3e bc c7 dc 3e 8e ff 32 3d
       0.34022304 0.12809975 0.43121135 0.043700747
000370 fc 21 90 3d 28 f6 a9 bc bd ac 97 3d 12 0c fa bd
       0.07037732 -0.02074726 0.07405994 -0.122093335
000380 f8 8a 65 3e da d2 16 3e 8f 85 06 bd ba d8 9a 3d
       0.22416294 0.14728871 -0.032842215 0.075608686
000390 fd ca 9a 3e be f3 5d 3e d7 d4 0f 3e 83 8a 03 bd
       0.30232993 0.21675012 0.14046036 -0.032114517
0003a0 be 0f 7b 3e 23 37 22 be 76 dd 91 3d b8 37 b9 3e
       0.24517724 -0.15841345 0.071223184 0.36175323
0003b0 19 3a 24 bf 55 59 da 3d 32 35 be bd 9f 77 fe 3d
       -0.6415115 0.1066157 -0.0928749 0.1242516
0003c0 22 12 50 bf 38 15 54 3c 4d 10 c8 bb 05 2c fc 3d
       -0.8127767 0.012944512 -0.006105459 0.123130836
0003d0 10 19 db 3d d4 04 86 bd 5d 7c f6 3d e5 dd b2 3e
       0.1069814 -0.0654389 0.12035439 0.34934917
0003e0 05 d0 d8 3d 4a 67 4d 3e 9d d5 ab 3f 3c 47 87 3e
       0.105865516 0.20058933 1.3424565 0.26421535
0003f0 5a eb f3 3d 96 42 27 3e 64 be 69 3d ee a7 db 3e
       0.11910124 0.16333994 0.057066336 0.42901558

_fc2.bias f4 [128]
000000 08 cc 6e 3e 39 ae a6 3e f1 c6 93 bd 75 5f 84 3e
       0.23320019 0.32554796 -0.072156794 0.25854078
000010 c7 5b 89 3e ef 42 14 3e 7c 45 9b 3e 01 7d 03 be
       0.26827833 0.14478658 0.3032645 -0.12840654
000020 4b 16 9f 3e f0 61 a7 3c c1 e8 96 3e d8 fa 10 3e
       0.31071696 0.020432442 0.29474452 0.1415819
000030 83 2a cf 3c c9 41 58 3e 79 1f 85 3e a5 5a f2 bd
       0.025288826 0.21118845 0.26000574 -0.11833695
000040 7d d8 51 3e 89 a8 55 3e d9 e8 9c bd e5 27 3a 3e
       0.2049274 0.20865072 -0.076616 0.18179281
000050 97 f6 6f 3e b6 6e 48 3e 4c 32 98 bd 45 c8 85 3e
       0.2343391 0.19573483 -0.07431468 0.26129356
000060 d6 57 9b 3e 5f 41 52 3e bd 60 69 3e 7c c5 96 3e
       0.3034045 0.2053275 0.22790809 0.29447544
000070 b5 b9 7d bc a0 3b 39 3e 43 34 f0 bd 55 26 59 3e
       -0.015486171 0.18089151 -0.11728718 0.21206029
000080 9e a7 95 3e 65 2e 7b 3e 59 28 6b 3e 06 52 9d 3e
       0.29229444 0.24529417 0.2296461 0.3072664
000090 19 54 a7 bd 9a 2f 81 3e 43 f9 c7 bd 19 2e 97 3e
       -0.08170337 0.2523163 -0.0976434 0.29527357
0000a0 04 59 ad bc 46 b4 4e 3e fb 99 41 3e b8 18 9c bd
       -0.02116061 0.20185956 0.18906395 -0.07621902
0000b0 cf cf 59 3e 06 18 98 3e 41 f6 66 3e b1 2c c6 3e
       0.21270679 0.29705828 0.22554876 0.38705972
0000c0 e0 23 8e 3d 3f 02 1a bd db eb 9c 3e b6 17 27 3e
       0.06940436 -0.0375998 0.30648693 0.16317639
0000d0 d3 9e 5d 3e 52 4a ec 3d a3 71 e4 3e 47 98 d5 bd
       0.21642618 0.11537613 0.44617948 -0.10429435
0000e0 39 86 37 3e 75 a9 ac 3e 1c c6 6e bd 07 dd 89 3e
       0.17922296 0.33723035 -0.0582944 0.26926443
0000f0 30 d8 23 3e 66 f0 60 3e 20 5d 15 bc 18 bc 67 3e
       0.16000438 0.21966705 -0.009116441 0.22630346
000100 0d e3 4f 3e 62 68 8f 3e 4e 10 4c 3e 5e c7 49 3e
       0.20301457 0.28009325 0.19928095 0.19704959
000110 02 b9 23 3e ae 81 a1 3e 0b 62 c8 bc 46 0a c2 3d
       0.15988544 0.3154425 -0.024460813 0.09474616
000120 6c 6c 8b 3e 2e 3f 84 3d 63 ea 26 3e 2b d9 9e 3e
       0.27231157 0.06457363 0.16300349 0.3102506
000130 49 06 8f 3e cf 52 30 3c d1 92 6f 3e 21 1f 43 3e
       0.27934483 0.010761931 0.2339585 0.19054843
000140 d3 99 6e 3e fa 12 a5 3e 80 b5 c9 bd 88 98 51 3e
       0.23300867 0.3224104 -0.098490715 0.20468342
000150 ae bb 66 3e 4a 2c 4d 3e 65 09 cd bd 29 aa 6a 3e
       0.22532532 0.20036426 -0.100115575 0.22916473
000160 87 2a 86 3e 1b 60 4d 3e 70 8f d6 bd cc 26 5d 3e
       0.2620432 0.20056193 -0.10476577 0.21596831
000170 28 79 ca bc ef 00 86 3e a9 ed 94 3d f2 8c c7 3e
       -0.024715975 0.26172587 0.072718926 0.3897472
000180 9d a2 b9 3d b8 61 7a 3e 4d 81 4a 3e c1 a4 94 3e
       0.09064219 0.24451339 0.19775887 0.29031947
000190 78 58 ae bc 22 f3 d4 3b 03 32 1e 3e f5 e6 91 3e
       -0.02128242 0.0064987103 0.15448765 0.2849652
0001a0 4e 8a 89 bd a3 27 95 3e e8 57 f2 3d 37 f9 9b 3e
       -0.06715833 0.29131803 0.11833173 0.30463573
0001b0 12 39 eb bd 94 01 8f 3e 6e 6a 0b bc 61 2c 1d 3e
       -0.11485495 0.27930892 -0.0085092615 0.1534896
0001c0 73 02 80 3e 1a ef f5 3d 28 fd 90 3e aa 6e a5 3e
       0.2500187 0.12008496 0.28318143 0.32310992
0001d0 86 a3 73 3e 65 5d 34 3e 2f 71 9c 3e 88 26 14 3f
       0.23792848 0.17613752 0.30555102 0.57871294
0001e0 ca 4e 2e bd 50 ff 97 3e e7 29 5f 3e c7 d4 0b 3f
       -0.042555608 0.29686975 0.21793328 0.5462155
0001f0 32 91 3e 3e 2e 8e 13 3d 51 62 56 3e f0 22 2b 3e
       0.18610075 0.036024265 0.20935942 0.16712546

_fc3.weight f4 [1, 128]
000000 10 d3 80 be 1e 11 93 be 2a e1 ca 3c d6 78 8f be
       -0.25161028 -0.28723997 0.02476557 -0.28021878
000010 6f fa 81 be 35 08 96 be f8 7d 95 be d0 6c 69 c0
       -0.25386378 -0.29303136 -0.2919767 -3.6472664
000020 80 ac 83 be 6c 08 96 bc b6 be 8e be ab 0b 00 bf
       -0.25717545 -0.018314563 -0.27879876 -0.50017804
000030 ab 0b b3 3c ac 98 89 be 8e 55 9b be ce 94 bd bb
       0.02185615 -0.26874292 -0.3033871 -0.005785561
000040 60 ff 9f bf d5 1b 8c be 53 1c c9 3b 00 de 86 be
       -1.2499809 -0.27364984 0.0061374097 -0.26341248
000050 70 32 8d be 60 30 94 be 0c b1 76 3b ad 08 41 bf
       -0.27577543 -0.28943157 0.003764215 -0.75403863
000060 6e 8a 89 be bf 58 25 c0 90 89 8f be 26 05 91 be
       -0.26863426 -2.5835416 -0.2803464 -0.2832424
000070 fe fa 92 bc 73 75 9f be 3d 9d 5f 40 f9 0b d7 be
       -0.017941948 -0.31144294 3.493972 -0.42001322
000080 9a 7e a7 40 35 16 8e be 23 c6 86 be af 58 8a be
       5.2342043 -0.27751318 -0.2632304 -0.27020785
000090 0e 97 44 ba ea 56 a4 be 9c 73 ea 3b 09 d1 8e be
       -0.00074993155 -0.3209756 0.007154895 -0.27893856
0000a0 a1 75 6e bc de 5c 8d be 80 8b 9e be d8 a8 98 3c
       -0.014554412 -0.27609915 -0.30965805 0.018635198
0000b0 69 66 2b bf b7 ae 9b be 16 d2 84 be ef 72 84 bf
       -0.6695314 -0.30406734 -0.25941533 -1.0347575
0000c0 fd 9a 29 bf cf 7d e3 bc bc a7 f2 be ea 6b 8f be
       -0.6625212 -0.027769951 -0.47393596 -0.2801202
0000d0 a0 ee 83 be 20 56 81 bf 4e 61 d1 bf df d2 82 3b
       -0.25767994 -1.0104408 -1.635782 0.003992423
0000e0 ae 9a 9b be cf 3e a5 be 50 d0 93 3c 80 e5 93 be
       -0.3039145 -0.32274482 0.018043667 -0.28886032
0000f0 1d 34 81 be a1 03 a4 3f 1d b1 d8 3c 97 79 85 be
       -0.25235072 1.2813607 0.026451642 -0.26069328
000100 46 9d 93 be b8 0f 9f be 30 81 7f be 58 d4 8d be
       -0.28830928 -0.3106668 -0.24951625 -0.27701068
000110 61 eb de be bc 6f 7f be 1b 5e f7 ba 78 8d 64 bf
       -0.43538955 -0.24944967 -0.001887265 -0.89278364
000120 b4 14 a2 be f2 1c 68 40 3c ab 92 be 6b 7b 96 be
       -0.3165642 3.6267667 -0.28646266 -0.29391035
000130 23 c2 89 be 2f 59 d4 3b a6 70 9c be 44 53 96 be
       -0.26905927 0.006480358 -0.30554694 -0.29360402
000140 1c d8 97 be b9 c0 89 be 79 62 88 3c 47 27 e7 be
       -0.29657066 -0.26904848 0.016648518 -0.45147154
000150 dd c6 8e be 9c 30 ca be d1 a0 0f 3d 82 1b 17 bf
       -0.27886096 -0.3949021 0.035065476 -0.5902635
000160 fe a5 92 be b7 de 2d bf 30 e7 db bc 2b e5 95 be
       -0.28642267 -0.6791796 -0.026843637 -0.29276404
000170 60 d5 72 ba 72 d1 19 bf 31 42 aa be e6 54 e8 bf
       -0.0009263363 -0.60085213 -0.33253625 -1.8150909
000180 54 e9 8c bf 0b e9 b9 be 63 c3 92 be 0e 93 83 be
       -1.1008706 -0.3631061 -0.28664693 -0.2569813
000190 00 72 ea bb d4 cc 7b ba de e6 90 be af 0c a0 3f
       -0.007154703 -0.0009605412 -0.28301138 1.2503871
0001a0 ad 1b 55 3c f0 a4 95 be 58 9c e4 bf cf 92 8b be
       0.013007087 -0.292274 -1.7860212 -0.27260444
0001b0 69 03 df bc 1a 14 9e be 19 2b 6b bf 39 c0 9b be
       -0.027223306 -0.3087471 -0.91862637 -0.30420092
0001c0 23 3d 89 be 4a 3d 05 c0 56 50 a0 be 7e c6 92 be
       -0.26804456 -2.0818658 -0.3131129 -0.28667063
0001d0 98 fa 88 be 34 f7 94 be 55 ba 8e be 15 b4 70 bf
       -0.26753688 -0.2909485 -0.27876535 -0.94024783
0001e0 c5 7d b1 bc 87 e6 9d be 51 45 07 c0 cb 12 87 bf
       -0.021666417 -0.3083994 -2.1136057 -1.055261
0001f0 98 a7 16 bf 72 43 77 40 9b 69 8a be b7 a6 90 be
       -0.5884948 3.8634915 -0.27033696 -0.28252193

_bn0.weight f4 [3]
000000 ac 2d 8d 3f 1b 0f c3 3f 83 5a c4 3f
       1.1029563 1.5238985 1.5340122

_bn0.bias f4 [3]
000000 bd 96 96 be 75 66 a2 bd e2 44 3d 3e
       -0.2941188 -0.079296984 0.18483308

_bn0.running_mean f4 [3]
000000 b2 db ee 3d d0 3e bf bc f4 ed a9 3e
       0.11662997 -0.023345381 0.33189356

_bn0.running_var f4 [3]
000000 f8 10 27 3f c2 ae aa 3e fc 93 35 41
       0.6526027 0.33336455 11.348629
