project2-continuous-control/results/session_gym_pendulum/checkpoint_actor.pth (torch_old, 145451 bytes, 17 tensors)

_fc1.weight f4 [256, 3]
000000 33 60 19 3e 26 05 76 3e c9 0e df be 58 34 aa be
       0.14978103 0.24025401 -0.43565968 -0.3324306
000010 f4 b7 95 3e 22 5d 94 3e 16 56 31 be 24 16 71 bf
       0.29241908 0.28977305 -0.17317995 -0.9417441
000020 d6 f7 a1 bd fb f0 6f be 26 cd 5e 3e 2f ac d9 3c
       -0.07908599 -0.2343177 0.21757945 0.026571361
000030 d1 c8 a0 3e 9f 1b 3a 3e f9 d8 90 3e 70 a1 05 bf
       0.3140321 0.18174599 0.28290537 -0.5219946
000040 f5 da 6d 3e dc fa 45 3e 11 aa 7e 3d 16 c3 e1 be
       0.23228057 0.19333977 0.062173907 -0.4409415
000050 69 f6 95 be ab db 29 3e 1f 8b a1 3e 22 04 df 3e
       -0.2928956 0.16587703 0.31551453 0.4355784
000060 6e f0 09 bc 9e 5c 04 3d 4f 11 1f 3e 27 94 f5 bd
       -0.008419139 0.03231489 0.15533946 -0.119911484
000070 94 98 22 3f 16 4f 1c 3d 2f a8 a2 3e 5b 3c ef 3d
       0.63514066 0.03816136 0.3176894 0.11681434
000080 26 58 8d 3e 3f 22 f6 3c c5 2c 67 3e e7 dc 0c 3f
       0.27606314 0.030045627 0.22575672 0.5502457
000090 e1 c4 5c 3e 1b 59 ce 3d f9 56 23 3e 0c 1d ea 3c
       0.21559478 0.10075589 0.15951146 0.028578304
0000a0 1e 48 97 3e 2e bb 15 3e 18 16 b8 be 4a 2d 84 bd
       0.2954721 0.14622185 -0.35954356 -0.06453951
0000b0 fe e0 ae be f2 b5 9b 3e 5f 0d 47 3e 78 26 75 3e
       -0.3415603 0.3041225 0.19438694 0.23940456
0000c0 71 33 ad 3e 8c b1 28 3e 7e 26 8f 3e 5d b5 89 3e
       0.3382831 0.16473979 0.27959055 0.26896182
0000d0 21 bd ac 3e a2 81 70 3e 7e 13 83 be 97 8d 57 be
       0.33738044 0.23486951 -0.2560081 -0.21050106
0000e0 c1 c6 ac 3d b4 41 bf 38 14 d6 31 3e 29 b2 71 3d
       0.08436347 9.119828e-05 0.1736682 0.059007797
0000f0 7d 5b fa bd a1 88 40 bf 23 76 4b be ec 5e e5 3e
       -0.12224481 -0.7520848 -0.19869284 0.44798982
000100 53 38 75 3e 13 b6 38 be 61 02 9c 3c 01 a5 de be
       0.23947267 -0.18038206 0.019044103 -0.43485263
000110 35 3c 9c be 3d 95 da bb a8 ff 73 bd 44 48 3b 3e
       -0.30514684 -0.0066706226 -0.059569985 0.18289286
000120 67 99 ae be c1 8a b8 bd 16 c1 b0 be 8a c5 8d bd
       -0.34101412 -0.0901084 -0.34522313 -0.06922443
000130 94 69 99 3c be f2 03 bc 15 00 b6 bd 33 72 4e bd
       0.018727101 -0.00805348 -0.088867344 -0.050401878
000140 e7 fc 02 3c 81 8e 2b 3c bc 43 48 3e 27 61 0f 3f
       0.007994867 0.010470987 0.19557089 0.5600762
000150 d7 45 cf 3e 08 5f 2b 3e 91 1b a2 3e 88 37 2b bf
       0.4048297 0.1673547 0.31661656 -0.6688161
000160 0f 67 94 3e 90 26 28 3e a1 d7 04 be a6 32 12 3e
       0.28984877 0.1642096 -0.12972881 0.14277133
000170 b6 46 40 bc c8 df b8 3c 54 de af 3e ac e0 94 3e
       -0.011735609 0.022567645 0.3434931 0.2907766
000180 ca b8 93 3e 33 1a bf 3e 7a da 46 3e e1 be 9f bb
       0.2885192 0.37324676 0.1941928 -0.0048750495
000190 6b 63 bd 3d f2 ec 25 3e 75 dd c7 be a5 b3 73 be
       0.09247478 0.16203669 -0.39036146 -0.23798998
0001a0 b4 0e 64 be 86 f4 7f be 5c a4 6d 3e 30 a4 b6 3e
       -0.22271234 -0.24995622 0.2320723 0.3567214
0001b0 80 44 2c 3e 1a 5d 2b 3f 3a 12 2d 3d 84 03 51 be
       0.16823006 0.66938937 0.04225371 -0.20411497
0001c0 a1 e2 e3 3c 8b 0a 4c bc 52 3f 4a be e3 f8 cc 3e
       0.027818026 -0.0124536855 -0.19750717 0.40033635
0001d0 13 8e 84 3e 0f 17 3c 3e 16 d7 81 3e 27 1b b1 be
       0.25889644 0.18368171 0.2535941 -0.34591028
0001e0 c8 c4 16 be a6 8e 21 bc 37 b0 dd 3d 90 83 7f 3e
       -0.14723504 -0.00986067 0.10824626 0.24952531
0001f0 8a f8 0f 3f a1 d9 5e 3c f2 bd ff bd 0c 5a 2b bd
       0.56238616 0.013601691 -0.12487401 -0.041833922
000200 16 78 c3 bb 81 b0 7f be 88 15 8f 3e cb 30 86 3e
       -0.005965243 -0.24969675 0.27946115 0.262091
000210 1c 7e b5 be f6 19 85 bd cb b2 8f be 75 b0 7e be
       -0.35447776 -0.06499092 -0.28066096 -0.24872
000220 6f da 0e 3f 0a 9d 45 3d 79 44 85 3e 0f ea ce 3d
       0.55802053 0.048245467 0.26028803 0.10103237
000230 cb f7 6a 3e 98 af cc be e8 8a a8 3e 94 a3 1f 3e
       0.22946088 -0.39977717 0.32918477 0.15589744
000240 cf 1c 59 bc 4f 58 94 3e 24 fe b9 3e 7d 5e 81 be
       -0.013251497 0.28973624 0.36326706 -0.252674
000250 8c 00 97 3e 3e 12 ae 3e 13 84 0a be 6c fe 9e be
       0.29492605 0.33998293 -0.13526945 -0.31053483
000260 ae ab 73 be fb 3a 1b 3e 90 ff 47 3e 76 7b 13 3e
       -0.2379596 0.15159218 0.19531083 0.14402565
000270 28 b0 05 bf 16 c8 4c be 57 fb 32 bd 92 fd c4 3e
       -0.5222192 -0.19998202 -0.043696728 0.3847471
000280 a8 6c 8b 3e 39 3a 79 be 7d ca 3c bd 11 62 3b 3d
       0.27231336 -0.24338616 -0.046091545 0.04574782
000290 fe a8 0b 3e 4c 80 f3 3e ab e7 8c 3e 67 f2 27 be
       0.13638684 0.4755882 0.275205 -0.16401063
0002a0 d3 4d a0 bf 0d e8 c5 bc 0d 7b 90 bc 3f fa 3d bf
       -1.252375 -0.024158502 -0.0176368 -0.7420997
0002b0 48 df 8b 3e 9d 03 c1 3c 16 e1 61 be bd e5 55 bd
       0.27318788 0.023561293 -0.2205852 -0.05222105
0002c0 66 c7 ba bc a3 30 9f bd a9 64 04 be 5b 42 8e 3d
       -0.022800159 -0.077729486 -0.12929024 0.0694625
0002d0 80 8b 86 be 70 e1 57 3e 82 d7 89 3e ee 64 c2 3d
       -0.26278305 0.21082091 0.26922232 0.09491907
0002e0 16 35 8f 3e 2a 96 d6 3e dc 34 52 be 78 39 05 3e
       0.2797019 0.4191144 -0.20527977 0.13010204
0002f0 2f ce 28 3f 9e 5c a2 bd 56 3b e1 be c7 f5 9d be
       0.6593961 -0.079278216 -0.43990582 -0.30851576
000300 eb 0e dc be f1 16 fc bc e7 cf 86 be 87 89 96 be
       -0.42980132 -0.030772658 -0.26330492 -0.294018
000310 bd 29 fd 3e bb 5d 39 3e cb 07 cb 3e 79 58 0f 3e
       0.49445906 0.18102162 0.39654383 0.13998593
000320 d2 7d 89 3e 3a b1 0c 3e 86 99 2f bd 4f 6a c4 3d
       0.26853806 0.13739482 -0.04287102 0.09590589
000330 ba 56 cc be bd 9a 75 3e 62 b3 13 3e 3f ef b4 bd
       -0.39909917 0.23984809 0.14423898 -0.08834695
000340 12 3e 4e 3d 79 f4 98 bc a7 1a 9a 3d e3 ab 34 be
       0.050352164 -0.018671261 0.07524615 -0.17643695
000350 b8 4c 00 be 15 03 95 3c 97 3b 92 bf 8c 99 23 bd
       -0.12529266 0.018189946 -1.1424435 -0.039941356
000360 0a 16 a3 bd 20 6a 22 3f 73 2d ac 3d a4 d8 a7 be
       -0.07963188 0.63443184 0.08407106 -0.3278247
000370 88 81 8c be fa f0 0d bc 85 c4 47 3d b3 6b d2 3e
       -0.27442575 -0.00866341 0.0487714 0.41097793
000380 a8 73 96 3e d8 ed 97 3e ab 5a 0e 3e d3 02 b3 3d
       0.29385114 0.29673648 0.13901775 0.08740773
000390 b5 98 ee 3d d7 f8 9d 3e 2f 76 8e 3e 82 0f ce be
       0.1165022 0.30853912 0.27824542 -0.40246207
0003a0 63 7f a8 bd 35 23 a7 be e1 83 20 3e 61 08 60 3d
       -0.08227422 -0.32644048 0.15675308 0.05469549
0003b0 1b af 12 3f 6d 0e 43 3e ab 30 1f 3f fa fd a9 3d
       0.5729844 0.19048472 0.62183636 0.08300395
0003c0 fc 68 c6 be 76 81 b5 3e b8 fc 87 3e e4 7f 83 ba
       -0.38751972 0.35450333 0.26559997 -0.0010032621
0003d0 08 18 5f 3d 81 61 08 3e 8e 64 22 bf 4b a0 d6 bd
       0.054466277 0.13318445 -0.63434684 -0.10479792
0003e0 aa b9 d2 3c 52 2b ce be 8b 94 4c 3e ea ef 95 3e
       0.025723297 -0.40267426 0.1997854 0.29284602
0003f0 64 ab a7 3e 42 1e c3 3d 88 89 66 3e 06 2e 90 bd
       0.32747948 0.095272556 0.22513402 -0.07040028

_fc1.bias f4 [256]
000000 65 98 13 bf bc 1c 56 be 15 8a af 3e 45 12 01 bf
       -0.5765441 -0.20909399 0.34285036 -0.504185
000010 10 70 5f 3e 8f 69 e7 3e cb 22 b3 3e a9 0e e0 be
       0.21820092 0.45197722 0.34987482 -0.43761185
000020 aa 28 13 3f 8f 28 b2 be 97 30 18 3f 9a 2a 1e bf
       0.57483923 -0.3479657 0.5944914 -0.61783755
000030 0f b7 01 bf e1 89 b7 3e b4 66 58 bd e5 40 01 bd
       -0.5066995 0.3584738 -0.05283232 -0.03155603
000040 d2 15 1f bf 68 b0 1e be 36 d7 27 be b7 24 10 bf
       -0.6214267 -0.15496981 -0.1639069 -0.5630602
000050 d6 95 1b bc 2c 7b f5 3d 60 ab cd bd 9c 40 3f 3e
       -0.009496173 0.11986384 -0.10042453 0.1867699
000060 a8 69 0b 3f 26 2c 1d 3e 0c 76 58 be 61 7f 98 be
       0.54458094 0.15348873 -0.21138781 -0.29784682
000070 2e e9 db be 78 1a d7 be c6 85 be bd 1b 83 5a bd
       -0.4295134 -0.42012382 -0.09302859 -0.05334769
000080 8b 32 6f 3e 97 a3 7c be d7 5b 04 3f 54 6e 04 bf
       0.23359124 -0.2467178 0.51702636 -0.5173085
000090 ba 84 2c bc 05 dc 04 3f 51 e6 0a 3f 0f 19 21 be
       -0.010529691 0.51898223 0.54257685 -0.15732215
0000a0 0a 08 d3 3d f7 63 bf 3c 37 8f 8a be 0f dc 42 be
       0.10304268 0.023363097 -0.2706239 -0.19029258
0000b0 92 65 f3 3d 81 d5 a7 be 55 46 0b 3e bc b6 4c 3e
       0.118846074 -0.32780078 0.13601048 0.19991583
0000c0 82 57 1f be 7d a6 e2 3e 55 14 1d bd f2 e2 86 3e
       -0.15560725 0.44267645 -0.03834947 0.2634502
0000d0 c3 01 e6 3e a0 e0 04 be f9 9f a0 3e 49 aa de bd
       0.4492322 -0.12976313 0.3137205 -0.10872323
0000e0 7a 6f b4 bd 53 b8 a2 bd f8 82 6a bb 0f 47 5f be
       -0.08810325 -0.07945313 -0.003578363 -0.2180445
0000f0 27 74 b7 3d aa 87 07 3e 84 95 cd 3e 42 92 5e be
       0.08957701 0.13235345 0.40153134 -0.2173548
000100 2c 7c af 3d ff 29 48 be 84 94 ba be f9 41 6f 3e
       0.08568606 -0.1954727 -0.36441433 0.2336501
000110 85 47 d6 3d a9 c4 6c be b8 8d 47 be 0d 6f 86 3e
       0.1046286 -0.23121895 -0.19487655 0.262566
000120 16 4c bb bd 09 48 c0 3e 6c 59 fe bb 89 1b 58 3e
       -0.091453716 0.37554958 -0.0077621248 0.21104254
000130 de 5a 66 3e 31 25 0e be d9 db 27 3e 46 42 fb 3e
       0.224956 -0.13881375 0.16392459 0.49074
000140 c7 ac 32 3d fc 8a e7 3d d4 5a 95 3d 13 8e d9 3e
       0.043621805 0.11305806 0.07292715 0.42491207
000150 fa 89 ab bd f1 22 9d be ec e5 80 3e 3e 08 97 be
       -0.08375926 -0.3069072 0.25175416 -0.29498476
000160 0f 4b a1 bc ce 81 88 be 93 1d 0b 3f 11 79 00 bf
       -0.019689111 -0.26661533 0.54342 -0.5018473
000170 0d e7 bf 3e 6b 6f 0e 3f 83 7f b4 3d 7a b6 93 bc
       0.37480965 0.5563876 0.088133834 -0.018031348
000180 bc 1c 11 3f ba fd 86 be 9e ba 3d bd a0 b5 9c be
       0.5668447 -0.26365453 -0.04632055 -0.3060732
000190 03 24 a1 bc 2e 8c 00 3e 2b 0a cc 3d e7 50 b0 bd
       -0.019670492 0.12553474 0.09962877 -0.08609181
0001a0 30 9e 1c bf 1c 3c be bc 4d 02 5d bd 5d d6 b2 3d
       -0.61178875 -0.023222022 -0.053957272 0.08732293
0001b0 d3 2f fc 3e 2a 00 1e 3f 22 83 af be a7 5f 13 bd
       0.49255237 0.61719 -0.34279734 -0.035979893
0001c0 ca 17 b0 be 9a e4 dd be c0 46 dd be 21 b1 05 3f
       -0.3439315 -0.43338472 -0.4321804 0.522234
0001d0 73 55 ac 3e 0b 9d 9e 3e 58 1a cd 3e 22 9c ea be
       0.33658943 0.3097919 0.4005916 -0.45822245
0001e0 a0 03 76 3d 05 0f e0 3e e4 ac 87 be 4c b7 df 3e
       0.06006205 0.4376146 -0.26499093 0.43694532
0001f0 d3 aa 16 3e 55 f9 dd 3e 19 45 35 be 06 28 8b 3e
       0.14713602 0.43354288 -0.1770214 0.27178973
000200 b0 dc 02 bf c3 eb 25 be 6c 9f 46 3e 7d 6b d4 3d
       -0.5111799 -0.16203217 0.19396752 0.10372064
000210 b8 76 38 3f 81 a9 1b 3f 02 6e 06 3f de b0 c7 3e
       0.7205615 0.6080552 0.5251161 0.39002126
000220 72 42 d0 3e e5 90 98 bd 35 32 0c bf a0 85 52 be
       0.40675694 -0.074495114 -0.5476411 -0.20558786
000230 46 5c 7f bd fd 97 a3 be fe 90 9a 3e 88 94 eb 3d
       -0.06234386 -0.31951895 0.30188745 0.115029395
000240 5d 0b f2 3d c5 fb 08 3e 27 d2 01 3f 38 04 6a 3e
       0.118185736 0.13377292 0.5071129 0.22853172
000250 a6 fe cf be 2b 9d d6 be 79 2f 31 3e 8a 1a a1 3d
       -0.4062397 -0.41916785 0.17303266 0.0786639
000260 41 10 90 3e 9a c4 13 bf 6b 16 0b bf 2f c1 a5 3e
       0.281374 -0.57721865 -0.5433108 0.3237395
000270 74 6e ac 3e bb 14 fd be e3 b4 15 3e 0a d2 25 bf
       0.3367802 -0.4942988 0.14619784 -0.6477362
000280 4a ce c7 3e ff 43 39 3e 0f 03 13 3f 96 0f 10 bf
       0.39024574 0.18092345 0.5742654 -0.5627378
000290 3d 4f 81 be 0d ce b0 3e 5d d2 1c 3f dc 19 b5 3e
       -0.25255767 0.34532204 0.6125849 0.35371292
0002a0 58 e9 a2 3e 34 2a f9 be 83 28 d5 3e f5 a1 f3 be
       0.31818652 -0.4866501 0.4163247 -0.475845
0002b0 c3 27 00 3e bf a2 b4 be 67 fa 6a be ad 48 4a 3c
       0.12515168 -0.35280415 -0.22947083 0.012346429
0002c0 5f 9a 3f be a6 59 d8 bd ec 98 08 bf f1 77 26 bf
       -0.18711232 -0.10563974 -0.5335834 -0.65026766
0002d0 eb 06 72 3e 00 22 42 be c0 36 b3 be 91 22 4a be
       0.23635451 -0.18958282 -0.35002708 -0.19739749
0002e0 e2 38 d4 be 37 a7 eb be 86 e3 a6 3e 21 3c 6f 3e
       -0.41449648 -0.46026012 0.32595462 0.23362781
0002f0 22 81 9d 3d 52 db 74 be 4b 42 a4 3d 2e c3 1d 3d
       0.07690646 -0.23911789 0.08020457 0.038516216
000300 b3 d2 a9 be e0 83 fe 3d f6 ee ee 3e 75 63 09 bf
       -0.33168563 0.12427497 0.46666688 -0.53667384
000310 89 17 0b bf 31 7d 97 3d 7a 38 03 3f 48 39 b4 be
       -0.54332787 0.07396925 0.5125805 -0.35199952
000320 c9 7d 38 3e 01 45 b5 3e c3 dc 5e 3e 87 e3 ff 3d
       0.18016733 0.35404208 0.21763901 0.12494569
000330 30 68 19 3f 75 22 05 3f ac b6 9f be 60 1c 1f 3e
       0.599246 0.520057 -0.31194055 0.15538168
000340 94 f1 97 3e aa 34 d7 3e 58 12 0c bf da fe b3 3e
       0.29676497 0.42032367 -0.5471549 0.35155374
000350 d3 1d 2c be 0c 27 07 bf 02 ba 2f 3e 81 93 c2 be
       -0.16808252 -0.52793956 0.171608 -0.38003162
000360 8e 4f a7 3d ca 11 c0 be 85 7d de be 1a 30 51 bd
       0.08169471 -0.37513572 -0.4345514 -0.051071264
000370 33 96 46 be 9e ed ce 3e d5 14 85 3d ce be e6 3e
       -0.19393234 0.40415663 0.06498114 0.45067447
000380 12 63 14 bd 4b 6e 54 be 8d f8 c7 3e ce e9 eb 3c
       -0.036227293 -0.20745198 0.39056817 0.02879801
000390 7a e5 12 3e b3 f5 12 be 8b 46 f2 bc 5b 0d e4 bd
       0.14345351 -0.1435154 -0.029574653 -0.1113536
0003a0 ff 2a 84 bc c4 55 01 bf 54 87 2e 3e a2 18 e7 be
       -0.016133783 -0.5052149 0.17043811 -0.4513598
0003b0 04 52 97 bd 09 8c 78 3e 25 b1 cb be 9a ff d0 be
       -0.0738869 0.24272169 -0.39783588 -0.4082001
0003c0 90 b3 21 be e3 1f 92 be 04 2b c8 3d 5a 59 c3 3d
       -0.15791154 -0.28539953 0.097738296 0.09538527
0003d0 a4 9a b2 3e ed d3 b5 be 7e 35 19 bd bf 6d 89 3e
       0.34883606 -0.3551325 -0.03740453 0.26841542
0003e0 0a 59 e7 3e 2b 56 b9 3a 1b 65 b3 be 6d 5f 0a 3e
       0.4518512 0.001414006 -0.35038075 0.13512965
0003f0 ea 38 47 3e 0b 24 be be 8d ba ab be d3 c1 7b 3e
       0.19455305 -0.37136874 -0.33540764 0.24585657

_fc2.weight f4 [128, 256]
000000 03 a3 e4 3e ea 01 7b be 90 f5 11 bf c2 db 0c 3e
       0.44655618 -0.24512449 -0.57015324 0.13755706
000010 b7 23 87 3d f0 6d d2 be 30 93 fd 3d aa 92 ae 3d
       0.06598609 -0.410995 0.123815894 0.08524068
000020 4a 19 e9 3d 44 6f b1 bc b8 5b 1d 3e 76 5c 0a 3e
       0.11381777 -0.0216595 0.15367019 0.13511834
000030 bf ab a2 3e ab 9d a3 bc a5 7c 87 3e 0c 6f 2a 3e
       0.31771657 -0.019972643 0.26462284 0.16643924
000040 b6 80 a1 3e 1a 89 be bb dd 3a 0b 3c 0a 10 4a 3d
       0.3154351 -0.0058146836 0.008497921 0.049331702
000050 7c b8 f1 be 82 21 82 bf d9 38 53 3d 83 54 63 bc
       -0.47211063 -1.0166476 0.051567886 -0.01387513
000060 33 57 04 3f 4c 14 da 3c ce 85 4c bd 46 c0 a3 3e
       0.51695555 0.026621006 -0.049932294 0.3198263
000070 f0 b2 92 bd 6e 1a 15 bf 70 66 5d 3b e1 4d 1e be
       -0.07163036 -0.58243454 0.0033782981 -0.15459396
000080 4d 05 2b bf 8f b9 cc 39 87 95 d5 3e ec f2 26 3e
       -0.66804963 0.00039048164 0.41715643 0.16303605
000090 11 0a 26 be 19 e5 a7 bd 51 28 56 3e 82 dc 11 bf
       -0.16214778 -0.08197994 0.20913817 -0.56977093
0000a0 0d 67 9a 3d df 3e e6 be 92 f5 b7 bd d5 74 5e 3d
       0.075391866 -0.44969842 -0.08982386 0.05431064
0000b0 79 c7 e5 3e 9e e6 a4 be 13 f2 cf bd 8a 19 97 3e
       0.44878748 -0.32207197 -0.10153594 0.29511672
0000c0 34 f0 69 be 9d 0a 84 be 41 3e 61 3c 60 6f 23 be
       -0.22845536 -0.25789347 0.013747753 -0.15960455
0000d0 9b 10 73 be a4 b4 92 bf a9 37 d6 b9 4f 3d 9c bf
       -0.23736803 -1.1461377 -0.0004085873 -1.220621
0000e0 d2 ac ab be 1d 5a 26 be ee fb 97 bd 7b 9b d7 3d
       -0.3353029 -0.16245313 -0.07421099 0.105277024
0000f0 6c 05 a5 3e 96 d0 af 3d be dc bf bc b1 4b d5 3d
       0.322307 0.085847065 -0.023420688 0.104148276
000100 e9 84 20 3e 24 a2 5b 3e 52 ac 5e 3e 43 b5 5f bd
       0.15675701 0.2144857 0.21745422 -0.054616224
000110 10 b6 25 3f 67 62 5f 3d 6b 0f 3f bd 6d 11 7c be
       0.6473093 0.054537203 -0.046645563 -0.24616022
000120 45 6e 3a 3d 52 6c 33 3e c6 bb 91 3e 5b 51 14 3e
       0.045515317 0.1752179 0.28463572 0.1448416
000130 c4 7c 11 be 53 7d 90 be ee b4 01 3d 0c 82 50 be
       -0.1420775 -0.28220615 0.03166669 -0.20362109
000140 09 d2 4e 3e 36 0f 6a 3e d2 7e 64 be 4f 32 0b 3e
       0.2019731 0.22857365 -0.22314003 0.1359341
000150 51 69 82 3f c7 a6 3b be a0 3b 9f bc 54 80 b4 3e
       1.018839 -0.1832534 -0.019437611 0.35254157
000160 63 ff 07 be 21 bb 20 3e 7a 43 92 3c 9b 7f 89 be
       -0.13281016 0.15696384 0.017854441 -0.26855168
000170 11 40 e2 bd e6 4b 38 bf 0e d7 27 be 12 bb 46 bf
       -0.11047376 -0.7199081 -0.1639063 -0.77629197
000180 29 37 dd 3d 78 6c 07 3f e9 0c f1 3d 35 0a c2 be
       0.108015366 0.52899885 0.117700405 -0.37898412
000190 e5 9e a9 3e bb 3a ed 3b 5b d2 cd bd c9 4e dd bc
       0.3312904 0.0072396672 -0.10049888 -0.027015107
0001a0 e2 85 44 3e cf 31 9b 3d d0 66 f0 3d 40 56 24 3e
       0.19191697 0.075778596 0.1173836 0.16048527
0001b0 4f 3f fe 3e af 76 cc 3d 96 b6 6b 3c c3 62 f4 3c
       0.49657676 0.099835746 0.014386794 0.02983225
0001c0 be 1c 0a bf 3a 2f 15 bd 53 a1 57 bf de 71 f6 3d
       -0.5395011 -0.036421992 -0.84230536 0.12033437
0001d0 91 87 89 bd 3d 77 1d 3e 75 6f 68 bf be c2 2f be
       -0.0671531 0.15377517 -0.9079507 -0.17164132
0001e0 53 b8 13 bf 7e aa 09 3e 96 e8 f9 bd 50 d4 2f bf
       -0.5770313 0.13443944 -0.12202565 -0.6868334
0001f0 97 8b dc bd f7 36 86 3d 51 04 a1 3d 4b f2 28 be
       -0.10768812 0.065534525 0.078621514 -0.16498677
000200 fc bc c7 bd c3 64 23 be 49 f3 f3 3c 9a 41 88 bd
       -0.09752843 -0.15956406 0.029779093 -0.066531375
000210 b8 96 35 3f 9c 80 01 be ed d9 0c bd 57 53 bc 3d
       0.70933104 -0.12646717 -0.034387518 0.09195583
000220 a9 98 28 3e 0f a9 c6 bd bd 98 dd 3e 4c e1 c6 3d
       0.16464485 -0.09700214 0.43280593 0.09710941
000230 b6 e8 eb 3e b8 6c 98 be 44 36 0b be 00 94 80 3d
       0.46075982 -0.29770446 -0.1359492 0.06278229
000240 80 2c a7 3e c4 89 46 3e 1b c5 8a bd ca 99 dc 3d
       0.32651138 0.19388491 -0.06775876 0.107715204
000250 5a d4 3f bd 0a e6 d1 bd cf b6 a5 3e 89 cc e5 bd
       -0.046833374 -0.102489546 0.32366034 -0.112206526
000260 08 17 2c bb 8a e6 b9 bd 96 96 0f bf 45 61 71 be
       -0.0026258845 -0.09077175 -0.5608915 -0.23572262
000270 1b ea c3 bd d2 5e 75 3d 24 14 6d be 47 16 b5 3e
       -0.095661364 0.05990488 -0.23152214 0.3536856
000280 98 9c 11 3e d0 76 75 3d 5f 4f 1e 3e 75 ac c3 3d
       0.14219892 0.05992776 0.15459965 0.09554378
000290 b7 c8 18 3f 6e 8e 16 3e 40 f5 6a bf b6 45 be 3d
       0.59681267 0.1470277 -0.9178047 0.0929064
0002a0 36 f1 32 be e3 29 59 bd 8d f0 10 3e 95 c3 a8 bd
       -0.17474827 -0.053018462 0.14154263 -0.08240429
0002b0 9e 97 b7 3d e9 3b cc be 10 11 16 be a6 ae 6b be
       0.089644656 -0.39889458 -0.14654946 -0.23015842
0002c0 ac d2 95 3d e4 4f 70 be b9 47 f1 bd 83 57 1a bd
       0.07315573 -0.23467976 -0.11781258 -0.037681114
0002d0 85 47 7c 3e f3 86 5a 3e e5 fa 89 bd 5f 7d 95 be
       0.24636658 0.21340542 -0.067373075 -0.29197213
0002e0 d8 6a bf 3f cf e6 07 3e 4d d1 ed 3e ca c5 62 bd
       1.4954481 0.1327164 0.46448746 -0.055364408
0002f0 9f f6 0a 3e 7f 8f 54 3e ec e5 5b be e9 8e 3f bf
       0.13570641 0.20757864 -0.21474427 -0.7482744
000300 03 1f 1a 3f 3d 28 42 be 2e c6 da bc 57 1d 31 bf
       0.6020357 -0.18960662 -0.026705828 -0.69185394
000310 1c 58 be bf 8e 96 95 3d 1a 19 fe bd ac 2c 36 3e
       -1.4870639 0.07304107 -0.124071315 0.17790478
000320 5b f6 a5 3e 9f 99 99 bd 6c 07 e7 bf 1b 04 af bd
       0.32414517 -0.07500004 -1.804914 -0.08545705
000330 57 09 64 be 08 b5 3e 3d 41 16 fb 3e d2 5f 95 be
       -0.22269188 0.046559364 0.49040416 -0.29174668
000340 67 21 b2 bd d2 d9 ed 3e 38 03 1d be 05 a8 82 bc
       -0.08697777 0.46455246 -0.15333259 -0.015949259
000350 2a f3 7f 3e 2b fc 15 3f 73 92 93 3d d8 ad 27 bf
       0.24995103 0.585879 0.07205667 -0.6549964
000360 cc ce f3 bd 33 69 a1 3d 7f f1 39 3c 03 10 5e bc
       -0.11904678 0.07881393 0.011349081 -0.013553622
000370 55 90 70 3d b8 42 30 bb 15 c8 2e bf 72 1d 22 bc
       0.058731396 -0.0026895236 -0.6827405 -0.009894716
000380 b6 04 0f 3f fb 1c 4d 3e a0 15 01 3d f2 80 2b 3e
       0.55866563 0.20030586 0.031514764 0.16748407
000390 16 d3 4d bf ff ce 53 bf 6a 3a 94 3e 31 fe dd 3d
       -0.80400217 -0.82737726 0.28950816 0.10839499
0003a0 73 87 27 be 42 6d 4f be cd 6e 02 3e a6 c8 41 be
       -0.16360264 -0.20256522 0.1273758 -0.18924198
0003b0 d9 41 31 be 4f 78 32 3e 5c d3 b6 3e a9 14 83 3b
       -0.17310275 0.17428707 0.3570813 0.0040002656
0003c0 ab b2 51 3e af 21 18 be 10 de bb bc e3 90 22 bf
       0.20478313 -0.148566 -0.022933036 -0.6350233
0003d0 53 3e 73 be c9 4c ad be 11 08 c5 bd 8f 5d 1f 3d
       -0.23754244 -0.33847645 -0.09620679 0.038907584
0003e0 fe c3 ad 3d dd 29 33 3f 93 79 15 be f9 44 52 3e
       0.08484648 0.69985753 -0.14597158 0.20534123
0003f0 fa 28 32 3e 46 a4 81 be 30 ab 87 3d 15 94 b1 3e
       0.17398444 -0.25320643 0.06624448 0.3468329

_fc2.bias f4 [128]
000000 1a 89 f4 3b 01 1a 57 bd 78 9c eb bc 2b fe d3 3b
       0.007462633 -0.052515034 -0.028761134 0.006469508
000010 0f 07 7f 3d b3 29 85 bd fb 8f 12 3d 4b 03 96 3c
       0.06226259 -0.06502094 0.03578184 0.018312117
000020 1b d8 2e bd f2 dc 80 3d 78 ca fa bc 2e 83 4c bc
       -0.042686563 0.06292142 -0.030614123 -0.012482448
000030 3d ad 88 3c 0f 74 0e 3d 7b 3a c6 3b 6a 86 50 3d
       0.016684169 0.03477865 0.006049452 0.050909437
000040 bb b9 43 bc 3b 10 3e bd f5 82 06 bd 73 7a e7 3b
       -0.011946137 -0.046402197 -0.032839734 0.0070641576
000050 99 7d 7d bd 8a 30 1d 3d 0e f0 36 bd 68 0f 29 3c
       -0.061887357 0.03837637 -0.044662528 0.010318615
000060 9f 95 92 bc b9 7a 4f 3d 7e 81 21 3d e3 34 9a 3a
       -0.01789361 0.050654147 0.039430134 0.0011765029
000070 dc f8 ed 39 e3 ca 5e bc 71 6d ad bc 62 d7 44 3d
       0.00045389577 -0.013598177 -0.02117035 0.048056968
000080 52 9b de bc 8c 49 27 3d 89 55 6b bd 46 45 89 3c
       -0.027173672 0.040841624 -0.05745462 0.016756665
000090 12 54 e4 bc 0c fa 45 3d df 15 c1 bb b4 38 9b 39
       -0.02787212 0.048334166 -0.0058925 0.0002960615
0000a0 20 13 10 3d 93 7b 40 bc d4 05 6b bd 85 9d 3f 3d
       0.03517449 -0.011748212 -0.057378605 0.04678108
0000b0 e2 5c 6c 3c ec de 7d bb 9a 53 ed bc 4f eb 43 3c
       0.014426442 -0.0038737608 -0.028970528 0.011957957
0000c0 8b d2 03 3d 1f b4 1f bd e1 e9 60 bc 44 a0 91 3c
       0.03218321 -0.038990136 -0.013727636 0.017776616
0000d0 e3 56 25 bd 4f 83 42 3d cc 50 6c 3d a2 fb 47 bc
       -0.040366065 0.047488507 0.05769424 -0.01220599
0000e0 4f 19 6c 3d a2 75 26 bd cb 3a 27 bb 8e eb 21 bd
       0.057641324 -0.040639527 -0.002551722 -0.039531283
0000f0 ea 0f cc 3c 8c fb 33 3d 1b d4 2e bd 07 90 2c bd
       0.024909932 0.043941066 -0.04268275 -0.042129543
000100 34 7c d1 3c 41 90 0c 3d ac 77 35 bd 11 ea 09 bb
       0.02557192 0.03431726 -0.04430358 -0.0021044055
000110 dd 46 42 bd 13 f6 73 3c 83 3e 39 bd e3 a4 05 3d
       -0.04743086 0.014890212 -0.04522563 0.03262795
000120 6f 27 ab bc 30 73 5f 3d 58 a3 d8 bc ea 93 10 bd
       -0.020892827 0.05455321 -0.026445076 -0.03529731
000130 9f b0 d6 bb f4 99 55 3d 10 8b d5 3c 94 e4 1c bc
       -0.0065518166 0.052148774 0.026067287 -0.009575982
000140 04 9c 1e bd 67 82 12 bc 11 c1 6f 3d 85 ea 20 3b
       -0.038723007 -0.008942223 0.05853373 0.0024553847
000150 29 2b 49 3d f5 aa f4 3c c6 53 a9 bb 6b 26 41 bd
       0.049113426 0.029866675 -0.0051674573 -0.04715578
000160 a9 55 66 3d 2a e4 4e 3c 7c b7 41 bd 0f 75 30 bd
       0.056234036 0.012627641 -0.047294125 -0.043080386
000170 09 94 82 3c 49 77 e0 bc 8e 6b 55 bd 96 b2 6d 3d
       0.01593973 -0.02740063 -0.052104525 0.05803164
000180 63 26 80 bc 9f 02 04 bd e1 b9 40 bd 56 ce 7d 3d
       -0.015643304 -0.032229062 -0.047052268 0.061964355
000190 cb 12 5f 3d 81 b7 82 3d 66 36 c3 3d b5 ca 07 bd
       0.05446128 0.06382657 0.0953186 -0.0331523
0001a0 76 54 75 bd ae 23 3b 3d 85 3c 70 bd 92 94 6a bc
       -0.059895 0.045688324 -0.058651466 -0.0143176485
0001b0 82 c5 cd ba 46 43 f3 bb 59 54 f1 bc 9b 87 08 bd
       -0.0015699121 -0.007423791 -0.029459165 -0.03333245
0001c0 f1 ea 2c 3d 7f b9 73 3d 96 e9 72 3c e4 fb 2f bd
       0.042216245 0.059503075 0.014826199 -0.04296483
0001d0 ea b3 51 bc cf 81 cc bb 8f 0f 5d 3c 71 2d 48 bd
       -0.0127992425 -0.0062410603 0.013492479 -0.04887146
0001e0 ab 1d 83 3d f8 b7 c5 bc b2 07 1a bd 70 39 11 bd
       0.06402143 -0.024135575 -0.037604995 -0.035455167
0001f0 3b 68 81 bd 59 02 a2 3c 97 c5 0c bd ac 4e 0f bd
       -0.063187085 0.01977651 -0.034368124 -0.034987137

_fc3.weight f4 [1, 128]
000000 7c de 0b c0 78 05 fc bf 13 d7 bd bf 7b 9d d7 bf
       -2.1854544 -1.9689169 -1.483126 -1.6844934
000010 05 89 1d be 44 54 ed be 90 38 ec bf 7e 14 1e be
       -0.153843 -0.46353352 -1.8454762 -0.15437505
000020 9d 0d 92 bc b1 df 26 be f8 82 1e bd 01 d8 25 bf
       -0.017828757 -0.16296269 -0.03869912 -0.6478272
000030 a1 39 a5 bf 26 d2 5d bf ce be b0 bf e0 24 8d be
       -1.2908212 -0.86648786 -1.3808229 -0.27567196
000040 78 b8 dd bf 20 3c d8 bd ac 65 6c bf 40 43 93 be
       -1.732192 -0.10558343 -0.9234264 -0.28762245
000050 7f 24 87 bf c8 98 e3 3d 79 cb 22 bf 0c dc 00 c0
       -1.0558013 0.11113125 -0.63591725 -2.0134306
000060 17 62 dd bd 65 86 29 bf 5c 4f 89 be 4f 19 27 be
       -0.10809725 -0.66220695 -0.2681836 -0.16318248
000070 19 6e 74 bf 9a a6 33 bf 71 a1 35 be 3e df 1b bf
       -0.95480496 -0.7017609 -0.17737366 -0.60887516
000080 03 37 b4 bf 27 9f 57 3f 55 e3 47 c0 cb dc 23 3e
       -1.4079288 0.8422722 -3.1232502 0.16002195
000090 57 f7 1b bf 85 8e f3 bf 83 7c 53 be 6c dd 20 bf
       -0.60924286 -1.9027869 -0.20652966 -0.6283786
0000a0 fc 07 ab bf dd 59 0e bf 60 42 e3 be 7d 27 f4 be
       -1.3361812 -0.5560587 -0.44386578 -0.47686377
0000b0 a4 77 ed 3c cb c8 cd be e4 bf c2 bc 09 c0 a2 be
       0.028987713 -0.40192255 -0.023773141 -0.31787136
0000c0 ff 58 d1 bd c1 62 c0 bf c3 d5 d3 bf 78 4d cc be
       -0.10222053 -1.5030137 -1.654961 -0.39902854
0000d0 25 e7 d7 be a0 30 9f bf 49 53 bd bf cd 78 3e be
       -0.42168537 -1.2436714 -1.4791042 -0.1860077
0000e0 75 84 ed bf 6d 23 62 bf e8 12 ce bf 21 dc 8e bf
       -1.8556048 -0.88335305 -1.609952 -1.1160928
0000f0 6c e6 a0 bf e8 99 cb bf 1c bf a2 bf fa 89 37 be
       -1.2570319 -1.5906343 -1.2714572 -0.17923728
000100 5c ec b1 bf 18 03 8b bf 3b 56 71 bf 4e a6 c3 3c
       -1.3900256 -1.0860319 -0.942722 0.023883011
000110 20 08 1a bf 7b fc 06 bf f6 c3 ae be bc ef cd be
       -0.6016865 -0.52729005 -0.3413388 -0.40221965
000120 5a 65 65 be 9a b9 ca be bd a3 19 be 67 0f 68 bf
       -0.22401944 -0.39594728 -0.15003867 -0.906485
000130 9e d3 34 c0 2e 66 6b bf 55 f2 1e bf 9d 0d 25 bf
       -2.825416 -0.9195279 -0.6208852 -0.644739
000140 2d 5f bb bd 2e 34 6a 3f f6 02 26 be 76 f4 bc bf
       -0.09149013 0.9148587 -0.16212067 -1.4762104
000150 68 f6 ee bd d0 69 a9 bf 9c 0d 2c c0 c3 15 be be
       -0.11668092 -1.3235416 -2.6883307 -0.37125978
000160 75 83 f3 be ae ff cd be ba 69 33 40 0a 2f af be
       -0.4756123 -0.4023413 2.803328 -0.34215575
000170 ed 55 25 3b ad 88 34 c0 db 5f 5e bf d3 2d 90 bf
       0.0025228218 -2.820842 -0.86865014 -1.1263984
000180 cc 9c 91 bc c8 d4 24 bf 54 3a ac bc 5f bb 30 3f
       -0.017774962 -0.6438718 -0.021023907 0.69035906
000190 a6 60 c6 3d ce 2a 5c bf c4 26 58 3f cf 29 b1 bf
       0.09686403 -0.86002815 0.8443415 -1.3840884
0001a0 97 96 55 3a a2 35 1a be a7 9e e3 bf 0e bb af be
       0.0008147745 -0.15059522 -1.7782792 -0.343224
0001b0 4c 28 79 be 49 b5 8a 3f 0b 08 1d be e3 31 8a bf
       -0.24331778 1.0836574 -0.153351 -1.0796474
0001c0 3c ca f8 be 75 a8 bf bf b1 d5 88 bf 50 70 91 bf
       -0.48591793 -1.4973284 -1.0690213 -1.13624
0001d0 f4 57 c3 be 81 a7 44 be ec 08 82 bf 62 19 8c bf
       -0.3815304 -0.19204523 -1.0158973 -1.0945246
0001e0 41 2c 0a c0 46 e6 eb be 94 a5 15 be e1 33 0e bf
       -2.158951 -0.46074122 -0.14613944 -0.5554791
0001f0 0b 47 15 bf 8a 54 60 be c6 11 a6 bf 13 4d d1 bf
       -0.5831153 -0.21907249 -1.2974174 -1.6351646

_bn0.weight f4 [3]
000000 66 69 ea 3e 9a c0 0d 3f 10 c1 2e 3f
       0.45783538 0.5537201 0.6826334

_bn0.bias f4 [3]
000000 1c 05 0c be d8 37 24 bd ec 4f 63 bc
       -0.13673824 -0.04009232 -0.013874035

_bn0.running_mean f4 [3]
000000 98 0c 02 3e 8b 4a ab bc f9 6c a6 3e
       0.12700117 -0.020909568 0.32505015

_bn0.running_var f4 [3]
000000 a9 c0 25 3f 90 fa ab 3e 81 77 35 41
       0.647471 0.33589602 11.341676

_bn1.weight f4 [256]
000000 eb 52 3c 3f 12 f0 8a 3f 3d 8b 38 3f d8 f9 f9 3d
       0.7356402 1.0854514 0.7208746 0.12205857
000010 52 bf 8e 3f c9 d3 ff 3e 15 d1 01 3f 1d 04 61 3e
       1.1152136 0.49966267 0.5070966 0.21974225
000020 15 50 e1 3d 27 70 c5 3e 63 45 cb 3e b1 86 9d 3e
       0.110016026 0.38562128 0.39701375 0.30766824
000030 96 7e 5e 3e d7 f9 e5 3d 23 e0 84 3f c6 a5 4b 3f
       0.21727976 0.11229294 1.0380901 0.79549825
000040 7c 37 1d 3f 4c c0 25 3f 46 42 3c 3e e6 ea 96 3d
       0.6141279 0.64746547 0.18384656 0.07369022
000050 3b 37 9f 3e b7 f0 ce 3e fc 37 95 3f 0b e1 13 3e
       0.31096825 0.40418026 1.165771 0.14441316
000060 c4 bd b4 3f 10 61 65 bb f9 ce 52 bc 46 93 4a 3f
       1.4120412 -0.003500048 -0.012866729 0.7913097
000070 00 d2 0c 3f b5 54 f2 3e 05 5d 06 3c 30 1a 38 3f
       0.55007935 0.4733025 0.0082008885 0.7191496
000080 35 8f 2d 3f f6 ae b7 3d e9 a2 4d 3f 11 1a 2f 3f
       0.6779664 0.08968918 0.80326706 0.6839915
000090 de ac 25 3f a9 d7 97 3c 6e 29 9a 3e d4 dd 4a 3f
       0.647169 0.018535452 0.30109733 0.7924473
0000a0 a0 2a e2 3d ba 19 b9 3e d4 c1 a3 bc bb f7 32 3f
       0.11043286 0.3615244 -0.019989885 0.69909257
0000b0 c6 2c 70 3f f7 d1 27 3f 9c 5d 07 3f b6 d6 28 3f
       0.9381832 0.65554756 0.5287721 0.6595262
0000c0 28 c7 60 3e dc 2b 87 3f dc 45 9b 3a 25 57 1f 3e
       0.21950972 1.056026 0.0011846381 0.15560587
0000d0 cb be 77 3e 24 35 98 3e aa e6 14 3d 3d 17 18 3f
       0.24193875 0.29728043 0.03635279 0.5941046
0000e0 a6 60 36 3f 35 42 07 3f 53 2a 90 3d 30 9a 24 3d
       0.71241224 0.528354 0.07039323 0.040186107
0000f0 fd 73 17 3f 21 53 60 3f 90 ff 04 3f 30 dd bc 3f
       0.5916136 0.87626845 0.5195246 1.4755001
000100 2c 24 30 3f 46 80 16 3f b6 16 29 3f c1 08 6f ba
       0.68805194 0.5878948 0.6605028 -0.0009118431
000110 be ac 40 3f e0 b2 af 39 db 83 8b bd 64 76 2a 3f
       0.75263584 0.00033511873 -0.06812259 0.665869
000120 e3 05 d5 3e 72 89 5e 3e 63 06 63 3f 95 1e a7 3e
       0.41606054 0.21732119 0.8868162 0.3264052
000130 2e b6 99 3e 54 15 53 3f 08 98 80 3f 7a b1 f9 3e
       0.30021805 0.8245442 1.0046396 0.48768216
000140 55 bb bb 3e 46 61 ce 3d 31 30 57 3f e4 6c 16 3f
       0.3666636 0.10077147 0.8405791 0.58759904
000150 f5 5c 10 3f ad 40 99 3e 46 07 b4 3c 4b 18 06 3f
       0.5639184 0.29932156 0.021976124 0.5238082
000160 b4 75 27 3f 74 7f 2c 3f 34 df 2e 3f a8 7d 35 3f
       0.65413976 0.6738198 0.6830933 0.7089486
000170 c8 ae 01 3f 70 7b e7 3e 3d 8f 47 3f 5c b6 13 3f
       0.5065732 0.45211363 0.7795294 0.57700133
000180 9d b8 05 3e e2 44 3c 3f 9f ed 13 3c 6b 6f 77 3e
       0.13058706 0.73542607 0.009028821 0.24163596
000190 39 79 0c 3f 07 9b 60 3d 72 da 73 3f 36 f3 43 3f
       0.5487247 0.054835346 0.95255196 0.76542985
0001a0 eb 76 33 3f 97 f6 88 3f a2 72 2d 3f c7 04 84 3e
       0.7010333 1.0700253 0.6775304 0.25784895
0001b0 27 2c ff 3e 0b f7 64 3f a7 0b c2 3d da ce 0c bc
       0.49838373 0.8943946 0.09474879 -0.008594239
0001c0 13 4a 0e 3f c7 33 1f 3f b3 26 12 3f 96 a7 74 3f
       0.5558178 0.6218838 0.570903 0.95568216
0001d0 ca 05 a2 bc 94 ac 4b 3d 34 61 12 3f 4a f7 89 3d
       -0.019778151 0.04972513 0.5717957 0.0673662
0001e0 41 8b 1d 3f db 96 d4 3e ff 79 13 3f 1f ca 04 3f
       0.6154061 0.41521344 0.57608026 0.5187091
0001f0 fb 4c f8 3e 72 9e bc 3e 4c b0 f1 3e c8 7a f6 3e
       0.4849623 0.36839634 0.47204816 0.4814055
000200 34 e6 8f 3d 36 ee 05 3f 6c 36 28 3e ea be e7 3e
       0.0702633 0.52316606 0.1642701 0.45262843
000210 f7 b4 bb 3e a6 57 31 3f 44 25 96 3c d8 7a 20 3d
       0.36661503 0.69274366 0.018328317 0.039179653
000220 f3 d2 6c 3d 4d 96 9c 3c ea 70 fe 3e b8 e4 72 3f
       0.057818364 0.019114638 0.49695522 0.9488025
000230 5e 12 d6 3e e2 71 00 3f 19 48 95 3e 46 3d ee 3e
       0.41810888 0.5017377 0.2915657 0.46531123
000240 8b cf 57 3f f7 fe 60 3e 52 4d d6 3c db 14 8b 3e
       0.8430106 0.21972261 0.026159916 0.2716435
000250 3a 3a 22 3f 66 46 93 3c 17 ce 44 3f d5 ac f4 3b
       0.63370097 0.017977905 0.7687697 0.0074668922
000260 23 9d b7 bb 70 94 e8 3c bb fd 83 3e 78 51 ea 3e
       -0.005603449 0.028391093 0.25779518 0.4576528
000270 42 a4 7e 3e 49 19 d2 3e 97 68 2c 3f f0 63 57 3f
       0.24867347 0.41034916 0.6734709 0.8413687
000280 bd 58 36 3f 68 b9 3b 3b 1e e3 67 3e 74 cc d2 3e
       0.71229154 0.0028644446 0.22645232 0.4117161
000290 4a 09 5b 3f ef 05 29 3f 3c 9e 15 3f de 54 b7 3c
       0.8556105 0.6602468 0.5844457 0.022379335
0002a0 6f bb 32 3f e1 7c 85 3d 08 aa 55 3c 51 b5 6d 3f
       0.6981725 0.065179594 0.013041027 0.9285479
0002b0 24 f4 9b 3e 08 f5 52 3f 25 8a f5 3d 1d fb 2f 3f
       0.30459702 0.8240514 0.119892396 0.68742543
0002c0 2f 86 ec 3e 71 ca 3b 3f 43 ee b4 3e 46 56 02 3f
       0.46196124 0.73355776 0.3533803 0.5091289
0002d0 19 4b b0 3e d0 5e 1b 3f e6 84 d2 3d 2e 7f e8 3e
       0.34432295 0.6069155 0.102792546 0.4540953
0002e0 06 c5 07 3f 3e ea 7b 3d af e9 59 3e 1f c0 96 3e
       0.5303501 0.061502688 0.2128055 0.29443452
0002f0 bd 7b d5 ba 1e 3d 4a 3f 1f e8 86 3f 4a f9 a3 3e
       -0.0016287487 0.7899951 1.0539588 0.3202613
000300 04 d9 a5 3e 6f 72 c8 3c 76 9b 4c 3f cd 94 08 3f
       0.32392132 0.024468629 0.79924715 0.5335205
000310 9c ff 10 3f 01 45 4f 3c d9 87 74 3f 1c a3 56 3e
       0.5664003 0.012650729 0.9551979 0.20960659
000320 0b f4 84 be 97 9b 27 3f 90 8c 37 3f 16 05 c6 3d
       -0.2596744 0.65471786 0.71698856 0.09668939
000330 bf 3d c4 3e fe b6 5d 3f 2b a1 6c 3f 02 9b 21 3f
       0.3832836 0.8660735 0.9243342 0.6312715
000340 8c 99 7d 3e 1c 59 08 3f e1 5d 19 3f 1e d6 20 3f
       0.24765605 0.5326097 0.5990887 0.62826717
000350 11 08 d6 3d d7 68 2f 3f 6e 60 2c 3f 6c f6 43 3f
       0.10450757 0.6851935 0.6733464 0.76547885
000360 ce 77 3d 3e 96 a4 ee 3c 65 dd 61 3d 42 a8 fa 3d
       0.18502733 0.029131215 0.05514278 0.12239124
000370 a2 b5 b6 3d 32 36 29 3f 97 41 13 3f fb 87 11 bb
       0.089213625 0.6609832 0.5752196 -0.0022206295
000380 32 ac 14 3f 91 82 14 3f 17 c0 ed ba 34 24 e4 3e
       0.5807525 0.5801173 -0.0018138912 0.4455887
000390 6f 89 13 3f 8a a8 7e 3f c5 61 1d 3f c6 54 a4 3e
       0.5763158 0.9947592 0.6147731 0.32095927
0003a0 f3 ad 48 3f e6 aa 41 3f cd 6e 34 3f 19 49 33 3f
       0.78390425 0.75651395 0.7048157 0.70033413
0003b0 6c fb 6f 3f b8 10 64 3f 3b 21 47 3f 6d 74 2d 3f
       0.93743014 0.8908801 0.7778508 0.67755777
0003c0 53 6a 64 3e 44 2b 5b 3f 8a 7b 42 bb 00 4b f8 3e
       0.22306184 0.85612893 -0.0029675686 0.4849472
0003d0 31 1a d7 3e 86 f5 36 3f c6 49 bc 3e c1 c9 5c 3f
       0.4201217 0.7146839 0.36775035 0.8624535
0003e0 18 4f f0 3e 48 1a e5 3e fe b8 23 3f 84 37 2f 3f
       0.46935344 0.44746614 0.6395415 0.68444085
0003f0 7b 54 47 3f 6b da 51 3f 47 c2 c5 bb 98 01 74 3f
       0.7786328 0.81973904 -0.0060351226 0.9531493

_bn1.bias f4 [256]
000000 79 a7 1f be 26 b8 11 bd 01 f5 10 bf a9 c5 ba be
       -0.1559123 -0.03557601 -0.56623846 -0.36478928
000010 55 14 dd be 1c 7a 90 be a6 20 46 be c0 ea e0 3d
       -0.43179575 -0.28218162 -0.19348392 0.10982275
000020 a3 55 e4 be 5f 9c 17 bf 78 16 a2 be 63 22 a2 3e
       -0.44596586 -0.5922298 -0.31657767 0.3166686
000030 8a bf 00 bf fc 2e af be aa 75 cf 3d 77 f9 d3 be
       -0.50292265 -0.34215534 0.101298645 -0.41401264
000040 a6 ed 84 be 0b 53 3e be 64 55 16 bf b3 2f 81 be
       -0.2596256 -0.18586366 -0.58724046 -0.25231704
000050 65 c9 72 be a1 5e 17 bf 95 e5 99 be 62 b1 eb be
       -0.23709638 -0.5912877 -0.3005797 -0.4603377
000060 f8 b6 8c bb 20 54 8f bd a4 42 81 bd fd 3c 6f 3c
       -0.0042942725 -0.069984674 -0.06311539 0.014601943
000070 48 31 6e be e3 c3 53 be 2b 07 16 be e9 dd 26 3e
       -0.23260987 -0.20680194 -0.14651172 0.1629559
000080 ce b4 57 bf 48 b1 bf be 73 e3 be be dd 1c d5 3d
       -0.8426026 -0.37439942 -0.37282905 0.10405896
000090 08 bc 87 be 5f f4 00 be 05 6b 24 bc 48 a7 18 bf
       -0.26510644 -0.1259322 -0.010035281 -0.5963025
0000a0 6c cf be be dc 02 24 be 08 30 82 bd d7 d9 bc bd
       -0.37267625 -0.16016716 -0.063568175 -0.09221237
0000b0 e9 04 30 bf 9d 6e 8c be 90 a9 d7 be 02 8b 0a be
       -0.6875749 -0.2742814 -0.42121553 -0.1352959
0000c0 0c e9 01 3d 17 92 aa 3e 6f cc 25 3e c9 01 ff be
       0.03171639 0.33314583 0.16191266 -0.4980605
0000d0 08 5e 8c 3d cf a5 e2 be 67 a5 11 be 3b ec 3e bf
       0.068538725 -0.44267127 -0.14223252 -0.7457921
0000e0 40 86 56 3e ec 46 e6 be d3 75 2e be f1 2e fa bd
       0.2094965 -0.44975984 -0.17037134 -0.122159846
0000f0 10 9a 5b be 2a c7 9a 3d df 22 d2 bd 15 9f 10 be
       -0.21445489 0.07557519 -0.102605574 -0.14123185
000100 42 11 76 bf 4c d1 68 be 2f b0 0d bf 42 19 24 bd
       -0.96120083 -0.2273609 -0.5534696 -0.04006315
000110 d0 d2 5c bf 28 8f b2 bd 6e 1d 65 be 72 5c b3 be
       -0.86259174 -0.08718711 -0.22374508 -0.35031468
000120 a3 f9 89 be 38 ad e7 be 0e 1b e7 3d e7 13 4a bf
       -0.2694827 -0.45249343 0.11284457 -0.7893662
000130 9f c5 97 3c d4 fa 5d bf 41 87 bb be bc e5 0a be
       0.01852685 -0.8671086 -0.36626628 -0.13564199
000140 14 32 66 bb 8b 0e cf be 38 c7 b8 be 09 74 f6 be
       -0.0035125064 -0.40440783 -0.36089492 -0.48135403
000150 55 3c ee be 31 f4 23 bf 96 64 33 bd 52 bd dd be
       -0.46530405 -0.6404448 -0.043797098 -0.43308502
000160 f7 07 1e be e5 4c 2d be c9 01 2f be 17 29 6d be
       -0.15432726 -0.16923864 -0.17090525 -0.23160206
000170 03 89 b6 be d1 be a8 be b3 c1 27 bf f5 15 8b be
       -0.35651407 -0.3295808 -0.65529937 -0.2716519
000180 ce 6f d5 be 59 5a d1 be 43 70 4f bd 1b 41 24 3d
       -0.41686863 -0.40889242 -0.05064417 0.040101152
000190 09 af e0 be 22 d9 4e be 2d 27 3a 3e 33 5d 04 be
       -0.4388354 -0.20200017 0.18179007 -0.12926178
0001a0 8b a3 26 3c eb 14 d8 be 77 01 ae 3c 4e 74 3e be
       0.010170828 -0.4220346 0.021240933 -0.18599054
0001b0 11 6e 2b bf 68 40 99 be 4f 81 9b be e0 28 9a 3e
       -0.66964823 -0.2993195 -0.30372092 0.3010931
0001c0 56 a2 01 bf b0 f0 bb be 76 bf 56 bf f7 ff 94 3e
       -0.5063833 -0.36707067 -0.83885896 0.29101536
0001d0 93 61 39 bd fb 8b 68 be 7e 8a 50 bf 08 18 69 be
       -0.04525907 -0.22709648 -0.8146132 -0.22763073
0001e0 4b ad 12 bf 60 3e 90 be 49 64 a3 be ba 2a 16 3f
       -0.57295674 -0.28172588 -0.3191245 0.58658946
0001f0 85 a8 0a 3d 37 3d df be cf 8c c2 be 11 d9 b8 3d
       0.03385212 -0.4360139 -0.37998053 0.09025777
000200 87 9f 67 be 4a e6 e3 3d 45 5e 06 bf a2 4b 63 bb
       -0.22619449 0.111279085 -0.52487594 -0.0034682532
000210 33 90 14 bf 80 a0 0d 3f 7e 84 d4 bd 45 9c 6a be
       -0.5803253 0.5532303 -0.103768334 -0.22911175
000220 89 89 2e be 7e 81 82 bd aa 72 c8 be 5a b1 a6 bc
       -0.17044653 -0.06372355 -0.39149982 -0.02034824
000230 82 f6 6a be b7 3b bb be 4e 58 31 bf 5f 95 54 be
       -0.22945598 -0.36568996 -0.6927537 -0.20760106
000240 66 58 46 be 93 65 26 bf ee e3 05 be f7 b7 29 bf
       -0.19369659 -0.6499874 -0.1307523 -0.66296333
000250 ed ce a1 be ab 99 bb bd 5b 07 47 3d 6d 17 ec bc
       -0.31603184 -0.09160169 0.048591 -0.028819764
000260 23 c1 8f 3e be e2 9d bd d9 94 82 3e e8 db f7 be
       0.2807704 -0.07709263 0.25504187 -0.48409963
000270 41 cb 53 be 66 45 41 be 0d b8 c0 be 2f 5f 21 be
       -0.20683004 -0.1887413 -0.3764042 -0.15758966
000280 0f d3 b2 be e1 97 b7 3e ca be 43 bd 49 1a a3 3c
       -0.3492665 0.35858062 -0.047789373 0.019909995
000290 e8 dd 35 bf 84 29 d2 be e8 33 ac be 43 30 85 bd
       -0.7104173 -0.410473 -0.3363335 -0.06503346
0002a0 04 ec 00 bf 09 77 68 be 52 52 4c bd 69 6e 29 3e
       -0.5036013 -0.22701658 -0.049883194 0.16546024
0002b0 8f da 5e bf 8c d2 84 3d ba 35 a8 be f6 f9 93 be
       -0.87052244 0.06485471 -0.3285349 -0.28901643
0002c0 e6 0d 80 be ff e6 0d 3e 02 4d d2 be f3 f2 8b bd
       -0.25010604 0.1385765 -0.41074377 -0.06833448
0002d0 47 27 74 bf 1c 5e f4 be e6 09 b7 be a1 1d 28 bf
       -0.9537243 -0.4772805 -0.3574974 -0.6567021
0002e0 b8 5f d3 be aa bc 15 be 78 35 ff be 7e ab c5 be
       -0.41283965 -0.14622751 -0.4984548 -0.386074
0002f0 ca 1a a7 3d a5 13 cd 3c 98 09 b5 be 51 eb 09 bf
       0.081594065 0.025033781 -0.35358882 -0.5387469
000300 79 80 9c be 9f 14 b7 bd 5a d3 48 3d d5 2e 41 bf
       -0.30566767 -0.0893948 0.049029686 -0.75462085
000310 2b 0d f4 be f1 7e 82 bd 5e b1 d1 bd c0 1f e9 be
       -0.47666296 -0.063718684 -0.10238908 -0.45532036
000320 6a a0 72 be 29 90 70 bb ff 46 44 bf e1 b1 a0 be
       -0.23694006 -0.003670702 -0.7667083 -0.3138571
000330 78 0d ea be 79 af a6 be be ec 6d be 79 13 04 bf
       -0.457134 -0.3255575 -0.23234841 -0.5159221
000340 d1 79 05 bf 31 65 26 bf 1d 3d 6e be ae 2b 7e 3e
       -0.52139 -0.64998156 -0.232655 0.2482135
000350 e8 6b 9e be 12 8f 13 be 8a 70 e6 be 28 39 2d bf
       -0.309417 -0.14410046 -0.45007735 -0.6766534
000360 80 e3 f1 be d2 fb 49 be eb 60 6b be e4 6b 96 be
       -0.4724388 -0.19724968 -0.2298619 -0.2937919
000370 e1 dc b7 be b7 d3 c1 be 8c 5f 29 bf 91 24 3c bd
       -0.35910705 -0.37856838 -0.6616142 -0.04593331
000380 79 72 fe be 89 45 fc be 0a b0 49 3e 5a d8 00 bf
       -0.4969671 -0.492718 0.1969606 -0.50330126
000390 99 b9 5a bf 57 ed 99 be 76 fb ac be 63 2d 2a bf
       -0.8543945 -0.30063888 -0.337856 -0.66475505
0003a0 6c e4 b1 3e 92 dd 15 bf 68 39 77 be 88 1b 80 be
       0.34744585 -0.58541214 -0.24142992 -0.25021005
0003b0 73 e2 f5 be 25 bc f0 be c1 5b d6 be ee 19 2d be
       -0.4802433 -0.47018543 -0.41866878 -0.16904423
0003c0 44 0f ec bd 9d 0f b6 3e 72 ba 85 bc a7 bc 28 bf
       -0.11526349 0.35558787 -0.016324256 -0.6591286
0003d0 24 b5 08 3e 5c 27 8d be 38 07 6b be 6e 07 e4 be
       0.1335035 -0.2756909 -0.22951972 -0.44536918
0003e0 58 f4 4b be 98 5b 96 be 96 b5 aa be d2 86 9e be
       -0.19917428 -0.29366755 -0.33341664 -0.30962235
0003f0 21 61 6d be 39 3a 6c be ad a8 1d 3f cb 9b 1f be
       -0.23181583 -0.23069085 0.61585504 -0.15586774

_bn1.running_mean f4 [256]
000000 f6 43 1a bf 98 39 38 be d3 5a cf 3e 44 b2 f6 be
       -0.6025995 -0.1799072 0.4049898 -0.4818288
000010 8b 5b 2a 3e f4 87 02 3f 62 ee b9 3e 4e c0 f4 be
       0.16636483 0.509887 0.36314684 -0.47802967
000020 86 ae 12 3f c3 98 b7 be 21 85 0b 3f e8 fc 22 bf
       0.5729755 -0.35858735 0.54500014 -0.63667154
000030 c4 a2 0a bf 3d 95 ae 3e f3 7e a9 3a 27 4f ac bd
       -0.5415461 0.34098235 0.001293151 -0.084135346
000040 fc a5 2c bf 13 6e 54 be cf 63 f9 bd 19 20 12 bf
       -0.6744077 -0.20745115 -0.1217724 -0.5708023
000050 ad c3 23 3d 1b 94 54 3d b0 fd a6 bd 2a a4 40 3e
       0.039981533 0.051899057 -0.08153856 0.18812624
000060 18 c6 18 3f 38 04 26 3e 5f 32 4a be bf f0 9f be
       0.5967727 0.16212547 -0.19745778 -0.31238362
000070 6c 84 fc be 7a f3 af be 85 74 a6 bd d8 19 97 bd
       -0.4931978 -0.34365445 -0.08127693 -0.07377976
000080 f3 9c 36 3e 18 d0 80 be 62 99 14 3f 97 22 fe be
       0.17833309 -0.25158763 0.58046544 -0.49635765
000090 e8 67 79 bd 53 a2 0b 3f d0 e0 0c 3f ea 1a 41 be
       -0.06089011 0.5454456 0.55030537 -0.18857923
0000a0 94 09 fa 3d 0e 28 09 bd 74 0c 81 be fe 3f 2f be
       0.12208858 -0.033485465 -0.25204813 -0.17114255
0000b0 56 d3 2d 3e 99 ac a2 be c8 ab c0 3d 10 04 74 3e
       0.1697515 -0.31772307 0.09407765 0.23829675
0000c0 10 1a 2e be 22 2d ec 3e 78 df 9d bb 16 20 6f 3e
       -0.1700213 0.46128184 -0.0048178993 0.23352084
0000d0 b1 35 07 3f 0f a6 42 be 05 17 a2 3e a7 be 3a be
       0.528163 -0.19008659 0.31658188 -0.1823679
0000e0 f7 19 a7 3d 93 27 11 3c 04 53 e9 3c 92 ed 4f be
       0.08159249 0.008859533 0.028481968 -0.2030547
0000f0 8c dd e8 3d 5a c7 d3 3d 68 4d d5 3e 9a a8 3d be
       0.11370382 0.10340758 0.4166062 -0.18521348
000100 d1 88 17 3e 27 8b 36 be 64 16 db be 31 0f 5d 3e
       0.14798285 -0.1782652 -0.4279052 0.21587826
000110 43 2d 16 3e 9a 7e 62 be 60 28 49 be 17 47 9d 3e
       0.14665703 -0.22118607 -0.19644308 0.307183
000120 0f 36 dc bd 18 a7 dc 3e b0 73 0c bd e3 70 28 3e
       -0.10752498 0.43096232 -0.034290016 0.16449313
000130 09 02 46 3e f6 27 a1 bd 64 90 09 3e a3 e8 e0 3e
       0.19336714 -0.0786895 0.13433987 0.43927488
000140 a3 1c a0 3d c1 51 e0 3d 7f fb 26 3e c3 0a ef 3e
       0.07817962 0.10953093 0.16306876 0.46687898
000150 0f e6 08 be 14 d4 9f be f7 9f 96 3e 5c a0 76 be
       -0.1336901 -0.3121649 0.29418918 -0.2408461
000160 ee 40 94 3b fc 15 98 be 02 d2 02 3f 3d 8e fb be
       0.004524342 -0.29704273 0.51101696 -0.49131957
000170 80 c2 cb 3e dc 5c 18 3f 51 34 0b 3e 55 15 a7 bd
       0.3979683 0.5951669 0.13594176 -0.08158366
000180 cc f2 10 3f 8b 05 7f be 67 e9 86 bc 61 ba 6c be
       0.5662048 -0.24904458 -0.016468717 -0.23117973
000190 85 a1 82 bb b9 27 06 3e b4 65 db 3d f9 66 c1 bc
       -0.00398654 0.1310109 0.10712758 -0.023608672
0001a0 21 87 21 bf de 81 56 bd 8d da e5 bc 77 c5 24 3e
       -0.63096815 -0.052369945 -0.028058315 0.16090952
0001b0 bb d2 e8 3e 0e fe 0d 3f ce 5b ba be 0e f9 30 3b
       0.45473275 0.5546578 -0.36398166 0.0027003917
0001c0 84 40 d4 be 17 4f df be a6 82 fe be 12 97 11 3f
       -0.41455472 -0.43615028 -0.49709052 0.5687114
0001d0 b8 4d ab 3e 7c f2 9a 3e 37 65 a8 3e 8f 53 e5 be
       0.33457732 0.30263126 0.3288972 -0.44790313
0001e0 32 85 f7 3d b0 d0 ef 3e 66 77 8c be f5 17 ea 3e
       0.12085952 0.46838903 -0.27434844 0.45721403
0001f0 c0 bb 35 3e 22 e1 f6 3e b1 8d 66 be 4b f1 60 3e
       0.17747402 0.48218638 -0.22514988 0.21967046
000200 6a d3 00 bf 39 35 39 be 74 88 31 3e 9b a5 ce 3d
       -0.5032259 -0.18086709 0.17337209 0.100901805
000210 ec 6b 3b 3f d6 aa 17 3f 56 56 0f 3f 7d 83 c5 3e
       0.7321155 0.5924505 0.55991113 0.3857688
000220 f9 05 d1 3e 39 65 79 bd f6 0f 19 bf 73 4c 4d be
       0.4082487 -0.06088755 -0.5978998 -0.20048694
000230 50 92 41 bd 7a e4 bd be 76 69 89 3e 55 00 f7 3d
       -0.047258675 -0.37088376 0.26838273 0.1206061
000240 b3 d0 55 3e 82 83 d6 3d 00 04 06 3f 22 df 6a 3e
       0.20880394 0.10474302 0.52349854 0.22936681
000250 7a 27 d0 be 5f c8 d4 be d3 d4 03 3e e0 b8 d8 3d
       -0.40655118 -0.4155912 0.12874155 0.10582137
000260 bd 1e a3 3e 48 0e 0f bf e0 06 09 bf 0a 2d c1 3e
       0.3185939 -0.55881166 -0.53526115 0.37729675
000270 80 ff bf 3e 71 ab fc be c1 ce 19 3e 43 f6 2a bf
       0.3749962 -0.4934955 0.15020277 -0.66782016
000280 4c ef ac 3e e5 d6 55 3e f6 9f 1b 3f 48 d3 04 bf
       0.3377632 0.20882757 0.60790956 -0.5188489
000290 0c 51 40 be 29 a1 a9 3e 9c c6 22 3f f4 32 bb 3e
       -0.18780917 0.33130768 0.63584304 0.36562312
0002a0 40 9a 9d 3e 50 5d f3 be 11 6c db 3e 11 97 ff be
       0.30781746 -0.4753213 0.42855886 -0.49919942
0002b0 71 a1 f9 3d b8 fa 93 be 0a c8 51 be 7d 04 a6 bc
       0.12188996 -0.2890222 -0.20486465 -0.020265812
0002c0 86 f2 6d be e1 fe b3 bd a9 82 00 bf 6b 02 20 bf
       -0.23237047 -0.08788849 -0.5019937 -0.6250369
0002d0 f0 d7 63 3e 3b ec 35 be df fc ae be bf fd 1c be
       0.22250342 -0.17765896 -0.341773 -0.15331171
0002e0 6e 49 f5 be 9d b1 d9 be 5f 40 93 3e f5 46 93 3e
       -0.47907585 -0.4251832 0.2876005 0.28765073
0002f0 1b f2 ca 3c 0e 92 8e be b4 6d b8 3d 98 67 d4 bc
       0.024773648 -0.27845806 0.09005299 -0.025928304
000300 23 67 a0 be f9 c1 28 3e 6f 92 2a 3f 1b 29 1a bf
       -0.31328687 0.16480245 0.6662969 -0.6021897
000310 db 47 29 bf 2c e7 a3 3d 55 0c ec 3e 89 dd a6 be
       -0.6612527 0.08003077 0.4610316 -0.32590893
000320 46 6f 43 3e 22 1d c4 3e df 97 fd 3d bd f6 ca 3d
       0.19085416 0.38303477 0.12382483 0.09910343
000330 bb ae 18 3f ed 97 ee 3e d2 ad a9 be e5 10 69 3e
       0.5964162 0.46600285 -0.33140427 0.22760351
000340 54 b2 a8 3e 52 1d d9 3e 53 7c f3 be 45 3c b0 3e
       0.32948554 0.42405182 -0.4755579 0.34420982
000350 84 fc 13 be 75 58 02 bf 6b dc 6a 3e d4 e9 e5 be
       -0.14451796 -0.50916225 0.22935645 -0.4490496
000360 25 cc c5 3d 7b 21 bc be 40 18 e1 be 0f 2d 80 3c
       0.09658078 -0.36744294 -0.43963814 0.015646486
000370 8a 30 2e be c1 c6 ea 3e 7d da a5 bc da df ef 3e
       -0.17010704 0.45854762 -0.020245785 0.46850473
000380 af 4c aa bd cd ab 1d be 2f 82 d8 3e a2 7e 38 bd
       -0.083154075 -0.15397568 0.42286822 -0.04504264
000390 e3 75 aa 3d d8 56 21 be 1e ef 83 3d 10 5e c3 bd
       0.08323266 -0.15755785 0.06442092 -0.095394254
0003a0 b5 66 2b bc 70 2e ec be 67 7d 3b 3e a8 c7 c7 be
       -0.010461499 -0.4612918 0.18309556 -0.39019513
0003b0 dd 16 28 bd fc ad 3d 3e 43 04 d7 be d1 17 de be
       -0.04103743 0.18523401 -0.4199544 -0.43377545
0003c0 dc 5e 32 be d1 36 8e be ce 8a c5 3d 22 1b 1f 3d
       -0.17418998 -0.27776197 0.096456155 0.038844235
0003d0 7a 35 ad 3e 05 e9 5f be dc ae c1 bd 99 01 9f 3e
       0.33829862 -0.21866234 -0.0945718 0.31055906
0003e0 7f ff e6 3e a5 26 9f 3c 7d 58 cd be 62 bf 57 3e
       0.45116803 0.019427607 -0.40106574 0.210691
0003f0 b8 ca 05 3e 17 bd b5 be 57 4f 99 be 39 38 6c 3e
       0.13065612 -0.35495827 -0.29943344 0.23068322
