project3-collaboration/results/session_submission_original/maddpg_actor_reacher_1.pth (torch_old, 167781 bytes, 18 tensors)

bn0.weight f4 [24]
000000 46 97 c5 3e 15 54 da 3e 0b 1e 8d 3d 6d 00 9c 3c
       0.38591975 0.42642274 0.06890496 0.019043172
000010 a7 a0 d1 3f 70 b0 c1 3f 15 a2 b8 3e d2 cd a6 3e
       1.6377152 1.513197 0.3606116 0.32578903
000020 52 07 75 3d cc 6c 90 3c 68 c4 ff 3d 28 2f 42 3e
       0.059821434 0.017630003 0.124886334 0.18963301
000030 ba d8 f3 bc 2e 0c ee 3c 26 81 68 3e 2a 9b 5d 3e
       -0.02976643 0.029058542 0.22705516 0.21641222
000040 a1 26 7f 3f a2 4b 16 3f 9c 82 66 3b d5 bd 39 3d
       0.9966832 0.58709157 0.0035173064 0.045347054
000050 ff ec f4 3f fc b0 b5 3f b7 e8 01 3f 2e 75 34 3f
       1.9134825 1.4194636 0.5074572 0.704913

bn0.bias f4 [24]
000000 e6 45 cf ba f9 cc 5a 3a 56 a0 64 bb 0f 31 8a ba
       -0.0015813678 0.00083465833 -0.0034885607 -0.0010543185
000010 0e 41 58 3c 8e 42 c7 3a d4 99 9c b9 e0 ec 2f bb
       0.013199104 0.001520233 -0.0002986925 -0.002684407
000020 95 e6 54 3b 0c 48 61 bb 96 06 85 b9 69 d5 a7 bb
       0.003248607 -0.0034375219 -0.00025372644 -0.005121876
000030 2f cb 24 bb 65 4e cb 3a 17 35 4e bb e5 10 21 bb
       -0.002514552 0.0015511034 -0.003146475 -0.002457672
000040 7f dd cb ba 2a ab 69 ba 16 8a 57 3a 3f bc 21 3a
       -0.0015553682 -0.000891375 0.00082221755 0.00061697135
000050 5c d3 4d b9 8b 12 a0 bc 2a 1e ee bb c9 78 94 ba
       -0.00019629061 -0.019540092 -0.0072667794 -0.0011327501

bn0.running_mean f4 [24]
000000 f8 1c d1 c0 a2 73 ed be 19 37 ad 40 fa 81 98 bd
       -6.534786 -0.46377283 5.412976 -0.07446666
000010 40 6a 0e 3f 34 71 5a 40 19 37 ad 40 fa 81 98 bd
       0.55630875 3.4131594 5.412976 -0.07446666
000020 dc c7 d2 c0 3f 2d ed be 08 e3 ab 40 1a cf b4 bd
       -6.586897 -0.46323583 5.371464 -0.08828564
000030 4d ad 09 3f 63 06 5b 40 08 e3 ab 40 1a cf b4 bd
       0.5378006 3.4222648 5.371464 -0.08828564
000040 25 c1 d3 c0 38 96 ee be 14 7b b1 40 5d c8 5e bd
       -6.617327 -0.46598983 5.546274 -0.0543903
000050 aa 9d 05 3f 3f 25 5b 40 14 7b b1 40 5d c8 5e bd
       0.521937 3.4241483 5.546274 -0.0543903

bn0.running_var f4 [24]
000000 e5 d7 89 41 a3 27 80 3f b1 70 e9 43 9d 8c 71 41
       17.230417 1.0012096 466.8804 15.096829
000010 71 63 d9 41 88 3d 24 40 b1 70 e9 43 9d 8c 71 41
       27.173555 2.5662556 466.8804 15.096829
000020 8a 8e 89 41 08 2c 80 3f e0 75 eb 43 a9 67 72 41
       17.1946 1.0013437 470.9209 15.150308
000030 42 f3 da 41 42 ed 23 40 e0 75 eb 43 a9 67 72 41
       27.368778 2.561356 470.9209 15.150308
000040 41 90 87 41 b4 d5 80 3f 64 43 ec 43 fa 36 75 41
       16.945436 1.0065217 472.5265 15.325922
000050 cc ae dd 41 86 0c 28 40 64 43 ec 43 fa 36 75 41
       27.71035 2.6257644 472.5265 15.325922

fc1.weight f4 [256, 24]
000000 38 d1 ec 3e 39 49 ab be 5a 2f 84 3e 3c 1f d1 be
       0.4625337 -0.33454302 0.25817376 -0.40844142
000010 41 0e 87 3e c7 cd 2e 3f 43 38 c5 be 4b 37 ca 3e
       0.26378062 0.6828274 -0.38519487 0.3949531
000020 56 46 9f 3e cb 12 53 3e f8 ea 8e 3d 8d ec 64 3e
       0.3110835 0.20612638 0.069784105 0.22355862
000030 da 6e b5 3e d9 6b c0 3e aa 67 72 3c 0d 23 88 3e
       0.35436136 0.3758228 0.014795223 0.26589242
000040 dc f7 77 bc f5 48 9e 3e 19 79 ee be 17 19 24 3f
       -0.015134778 0.30915037 -0.46576765 0.64100784
000050 6f b2 8d 3f 50 34 ab 3f d3 65 99 be 5d 53 6e 3e
       1.1070079 1.337534 -0.29960498 0.23273988
000060 b2 aa b5 3d 3a ef 1b 3e 98 0d 88 3d 0f 7e 6e bd
       0.08870448 0.15227976 0.06643218 -0.058225688
000070 a3 92 c5 be 79 7f 5d be 8b 8a 5a 3e 12 63 a0 3e
       -0.38588437 -0.21630658 0.21341912 0.31325585
000080 cb 6f f3 3d 14 a6 83 3e 64 2c 36 bc 84 b5 93 bd
       0.11886557 0.25712645 -0.011118982 -0.07212356
000090 fc d2 f4 be 38 87 3b 3c ed 2b 92 3c 48 b9 89 bd
       -0.47817218 0.011445813 0.017843211 -0.06724793
0000a0 81 11 49 3d 87 29 80 3e f0 08 10 bf 71 56 99 bd
       0.04908896 0.25031683 -0.5626364 -0.074871905
0000b0 13 18 ab be 86 b1 3c 3e 33 53 02 bf 03 e5 a6 bd
       -0.33416805 0.18427095 -0.509082 -0.08149149
0000c0 7b c2 15 3f 25 ed 8e be ab 73 88 3d 08 55 c1 3e
       0.5849988 -0.27915302 0.06662687 0.37760186
0000d0 80 a8 82 3e e3 12 d1 3e 48 c0 3e 3f 4e c5 7a bf
       0.2551918 0.40834722 0.7451215 -0.97957313
0000e0 63 bc 97 3f ec 15 a3 be 74 cd 62 3f 93 2c 05 be
       1.1854366 -0.31852663 0.88594747 -0.13005285
0000f0 5d 5d 6f be d9 98 e6 bd 96 1e 4f 3f 25 ba 59 be
       -0.23375459 -0.11259622 0.80906045 -0.21262415
000100 55 59 31 be cb 4a 34 bf 0c cf a9 bf cf 83 b4 bd
       -0.17319234 -0.70426625 -1.3266311 -0.08814203
000110 e2 1c b1 3f d3 4e 2a be 19 10 6e bf 41 d4 06 bd
       1.3836939 -0.16631632 -0.92993313 -0.032917265
000120 49 fb ac be 95 89 3a 3f 81 fd 2e bd ac c2 c7 bd
       -0.33785465 0.72866184 -0.04272223 -0.097539276
000130 93 ab bb bf 4f 30 3c bf 2a a1 1c bf be 3e ee bc
       -1.4661735 -0.73511213 -0.61183417 -0.029082652
000140 f8 7f bd be 7d 6c 71 3e cb 95 f7 3e 39 8c 50 3e
       -0.37011695 0.23576541 0.4835647 0.2036599
000150 45 f1 86 3d 66 62 05 3e f4 e4 27 3f 7c 29 79 3e
       0.06588987 0.13025817 0.6558373 0.24332231
000160 9d d7 5d bc bb 2a 6b 3f 77 95 83 bf 6f a3 19 be
       -0.013540176 0.91862077 -1.0279988 -0.15003751
000170 2c 86 59 3d 6c 41 24 3f a4 44 0c 3f a2 d9 e0 3e
       0.053106472 0.64162326 0.5479224 0.4391604
000180 46 27 87 be cf eb 6a be dd bb 86 3d 07 5b 96 3d
       -0.2639715 -0.22941516 0.06578801 0.07341581
000190 46 f1 9c bf 5e 3c 0f bf 73 93 ee 3e 24 39 8e 3e
       -1.2261131 -0.5595149 0.4659687 0.2777797
0001a0 58 b4 b9 be f0 b7 43 be a4 f6 2b bf d0 57 45 be
       -0.36270404 -0.19113135 -0.6717322 -0.19271779
0001b0 40 fe c4 bc da 92 1a be cd 57 5c bf c0 5d 90 be
       -0.024047017 -0.15095082 -0.86071473 -0.28196526
0001c0 06 76 d6 bd 2c 4c 11 3e f7 c5 30 3d 32 3a 0a bf
       -0.1047173 0.14189214 0.043157544 -0.5399505
0001d0 c4 62 06 3e 3e 1b 94 3f 4f 7d 6a 3e c3 f4 c5 3e
       0.13123614 1.1570814 0.22899364 0.386633
0001e0 74 cc f7 be 16 19 90 be fc 5f 7b 3e 73 d2 13 3f
       -0.48398173 -0.2814414 0.24548334 0.57742995
0001f0 09 06 d0 be 0f 55 6b bf a2 33 c2 be b5 95 2a 3f
       -0.40629604 -0.91926664 -0.37930018 0.66634685
000200 82 a7 3c bf cf 63 df 3c e7 db 9e be 70 3f 5a bf
       -0.73693097 0.027269272 -0.31027147 -0.8525305
000210 34 cb 3f 3e 02 4e 89 3c 1f 73 d7 be 88 73 49 bf
       0.1872986 0.01676083 -0.42080018 -0.7869191
000220 64 a9 6e bf 8f af 09 bf d3 fc 7f be 76 be ac be
       -0.9322722 -0.53783506 -0.24998789 -0.3373906
000230 4a 58 5b bf a7 81 f5 3e fd f9 b5 3f cf 64 1a 3f
       -0.85681593 0.4795048 1.4216915 0.6031007
000240 f1 31 8d 3f 53 ec 78 bd 86 7a 51 3e de ac 0b 3e
       1.1030866 -0.06077225 0.20456895 0.13640162
000250 9e 9d ec 3e 9c 7d 4a 3d cf 20 91 3e 3c 99 1f 3f
       0.46214002 0.049436197 0.28345343 0.6234319
000260 e2 ea 89 3f 13 07 39 3e 55 33 32 be a8 45 46 3f
       1.0774806 0.18069105 -0.17402394 0.77450037
000270 5d 0d f8 3e be 3c 1a bf ca 32 a9 be 7d 9a 3e 3f
       0.48447695 -0.60248935 -0.3304656 0.7445448
000280 1b 2f bf 3e 69 cb 2e 3f 3d f8 04 be b2 56 77 bd
       0.37340626 0.6827913 -0.1298532 -0.060385413
000290 f6 64 d2 bf a2 1f df 3e f2 ff 16 bf 5e 22 64 bf
       -1.6437061 0.4357882 -0.5898429 -0.8911494
0002a0 0e 8e 34 3f 02 f0 0e 3e 65 17 b2 be f6 7a 5d 3d
       0.7052926 0.13958743 -0.34783474 0.054072343
0002b0 cf d5 aa 3f eb 27 93 3e f0 61 9e be 85 31 cd bc
       1.3346499 0.28741392 -0.30934095 -0.025048027
0002c0 79 5a 53 be e1 31 6c 3d f1 84 73 bd 14 bd 16 3c
       -0.20639981 0.057664756 -0.059452955 0.009200353
0002d0 85 75 1c 3e 18 40 90 3e 4f 7b c1 3d 2e f1 8a bd
       0.15279205 0.281739 0.094473474 -0.067842826
0002e0 28 4c 9f bd a1 88 d4 3d aa 63 73 3e bf bc 62 3e
       -0.077781975 0.103776224 0.23768488 0.22142313
0002f0 b0 2f 13 c0 35 a0 9c 3d 70 3e c6 3e 92 18 9a 3e
       -2.2997856 0.076477446 0.3871951 0.3009687
000300 12 b0 16 3f f7 5c ac 3e 5a 88 69 be 6e a2 a6 be
       0.5886241 0.33664677 -0.2280592 -0.325458
000310 91 9b c7 3f f6 b2 78 3e 3c 55 17 be 87 b6 1c be
       1.559435 0.24287018 -0.14778608 -0.15304004
000320 04 d6 5c 3d 60 1d 3c 3e 8f 2c 7d be 18 54 48 bf
       0.05391504 0.1837058 -0.24724029 -0.78253317
000330 42 3b f9 3d 5c 54 a0 3d 91 33 e9 be f1 8b 43 bf
       0.12169506 0.0782859 -0.45547155 -0.7638541
000340 71 17 27 be 04 9b 28 3e 03 65 6b 3e 1c ff c5 bd
       -0.16317536 0.16465384 0.22987752 -0.09667799
000350 62 f5 1b bf 73 7c cb bd ca b0 84 be 42 48 a3 bf
       -0.609213 -0.09935846 -0.2591613 -1.2756426
000360 66 fe 1c 40 40 88 b5 bc f1 c9 df be 35 a5 54 be
       2.4530272 -0.022159696 -0.43708757 -0.20766146
000370 0e 55 04 bf 9b 15 f5 be b9 b2 6f bf 67 55 de 3e
       -0.51692283 -0.47868046 -0.93632084 0.43424532
000380 0c b4 77 3f b1 38 f1 be a0 85 53 bf 10 13 b6 3c
       0.96759105 -0.47113565 -0.8262577 0.022225887
000390 1c f8 97 bd 81 a8 14 3e 81 a0 94 bf d0 c1 b4 bd
       -0.0742037 0.14517404 -1.1611482 -0.08826029
0003a0 b0 f6 2d 3f c0 36 da be 1c 79 2f bf 05 e2 04 bf
       0.6795454 -0.42619896 -0.68544173 -0.5190738
0003b0 c6 6c ec 3d ee 41 f0 3d f3 92 c4 bf c8 11 12 be
       0.115441844 0.11731325 -1.5357345 -0.14264596
0003c0 d1 7b 0a bd a7 67 84 3e 60 22 37 be a5 b7 df bd
       -0.033809487 0.2586033 -0.17884207 -0.10923699
0003d0 a6 25 5e 3e af 62 3d 3d 38 a5 41 be 6e 49 f0 bd
       0.21694049 0.04623669 -0.18910682 -0.117327556
0003e0 04 58 ae bd f7 a9 1d 3e aa ef ec bd e8 3b c3 be
       -0.085128814 0.15396868 -0.1156915 -0.38131642
0003f0 bd 78 4b 3e 3b f8 47 3e 20 02 b5 bd cf b6 8b be
       0.19870277 0.19528286 -0.08838296 -0.2728791

fc1.bias f4 [256]
000000 b2 60 67 3c ab ba 4c be 35 ca 8b 3d 8d 04 1a 39
       0.014122175 -0.19993083 0.06825677 0.0001468828
000010 92 82 09 be d2 cf 9b bd 54 09 a7 bd f6 b3 bc bd
       -0.13428715 -0.07607998 -0.08156076 -0.09214012
000020 26 b5 51 bd c4 e4 1b 3d 35 59 f0 bd a3 8b 56 3d
       -0.051198147 0.038059965 -0.11735765 0.05237926
000030 1b e5 2b be 8a e1 44 3e 3e 72 fc bd 88 d3 b0 3d
       -0.16786616 0.19226661 -0.123264775 0.086340964
000040 8c 58 0f be de 4b 0e be 49 e3 f6 bc 1a 1b ee bd
       -0.13998622 -0.13896129 -0.030137675 -0.11626263
000050 da b8 69 bd 2c f5 b5 bd 6a 18 6f bd ce ba 21 be
       -0.057061054 -0.088846534 -0.058372892 -0.15793917
000060 a3 44 4c 3e d8 f5 eb 3d 62 a7 94 bd f0 e1 17 3e
       0.19948058 0.115215 -0.07258488 0.14832282
000070 ee 40 ba bd d6 96 2a be 0f e4 88 3d 56 73 8f bd
       -0.090944156 -0.16659102 0.06684124 -0.070044205
000080 e4 cc 1e 3e e6 65 61 bd c8 79 2a be e3 60 30 3e
       0.15507847 -0.05502882 -0.16648018 0.1722446
000090 8d de 3e 3d 03 83 7e 3d 28 41 9e bc 8f cb 25 be
       0.04659896 0.06213666 -0.019318178 -0.16190933
0000a0 f9 27 87 3d c7 10 0b 3a 1b a4 0a be 0b d7 ed 3d
       0.06599421 0.0005304929 -0.13539164 0.11613282
0000b0 86 bb 43 be 93 b9 01 be ab 77 43 bd 11 40 45 be
       -0.19114503 -0.12668447 -0.047721546 -0.1926272
0000c0 24 d2 3c be d8 bf 77 bd 1d 4c 1d bd 41 8a 19 3e
       -0.18439537 -0.06048569 -0.038402665 0.14994146
0000d0 04 3e c3 3d 1a 7f 42 3e 4d fa 84 3d 79 a7 df 3c
       0.09533313 0.18993798 0.064930536 0.027301537
0000e0 54 99 21 bd 40 6d ae bd bb 76 3b be 6a 73 3e be
       -0.039452866 -0.085169315 -0.18307011 -0.18598714
0000f0 fb 24 b2 3d 2d ff 03 be 8d 6c ab bd 35 0b c3 3d
       0.0869846 -0.1289031 -0.08370314 0.09523622
000100 f5 38 01 be 57 e4 9a 3d 3f 1b 32 bc a8 43 2c 3d
       -0.12619384 0.075630836 -0.010870754 0.04205671
000110 bf 6d be bd b8 9a 17 3e 3e 8b 2b be e9 dd 42 be
       -0.09298276 0.14805114 -0.16752335 -0.19029965
000120 64 15 23 3e df 2a 0d be f9 c4 47 3e 04 32 b9 3d
       0.15926129 -0.13785885 0.19508733 0.09042743
000130 a4 13 a0 3d dc e7 cf bc f0 1e 1b 3d 25 3d 52 3d
       0.07816246 -0.025379114 0.0378713 0.051327843
000140 10 38 c4 bd 2f fd 19 3e a9 80 00 3e 90 fa 40 3c
       -0.095810056 0.15037988 0.1254908 0.011778489
000150 21 88 71 3d f0 d7 c7 bc 0f ec 96 bd 23 ad 20 be
       0.058967713 -0.02439496 -0.07369243 -0.15691046
000160 34 86 a1 bd 13 98 48 be 08 ad 84 bd 28 c5 db 3d
       -0.07886925 -0.19589262 -0.064783156 0.10730964
000170 af 1c 4b 3e 68 d5 3e be f1 e6 2a be 46 85 2c 3e
       0.1983516 -0.18636096 -0.1668966 0.16847715
000180 c1 ac 92 bd 28 e6 0b 3a fe 64 03 3e 7b 37 3a 3e
       -0.071618564 0.0005336725 0.12831494 0.18185227
000190 00 91 9e 3d 47 ca 4d 3d 2a 7c 92 bb a0 85 a2 3b
       0.077425 0.050241735 -0.004470368 0.004959777
0001a0 89 07 a9 3d 13 5b 45 be 79 e1 4a be 7a 01 0d 3e
       0.0825339 -0.19273023 -0.19812573 0.13770095
0001b0 2b a5 4c be c8 af db 3d be 54 17 3e 23 19 0b 3e
       -0.19984882 0.10726887 0.1477842 0.13583808
0001c0 b8 56 7f 3d 0d f0 c2 3c 5e 6e c1 3d 91 17 fa 3d
       0.06233856 0.023796106 0.09444879 0.12211526
0001d0 17 a1 d4 3b c9 4f 16 be 0e ac 01 3e 88 75 b8 3c
       0.00648893 -0.14678873 0.1266329 0.02251698
0001e0 9a 1e fc 3d 44 0d 0c be ac 1e 51 bd 55 54 06 be
       0.12310524 -0.13676935 -0.05105464 -0.13118108
0001f0 27 31 3d 3c f3 c8 32 3e 15 25 1f 3d 23 23 32 3e
       0.011547363 0.17459469 0.038853724 0.17396216
000200 2a 7d 1a 3e 30 32 0f be 78 e3 47 3e 1e 78 37 3c
       0.15086809 -0.13983989 0.19520366 0.011198072
000210 91 c7 2e 3e e3 9a 1e 3d 12 86 10 bd fd 08 31 3e
       0.17068316 0.03872193 -0.03528411 0.17288585
000220 53 ed 1a be 39 60 83 3b 68 f2 f1 bc e9 f9 19 3c
       -0.15129595 0.0040092734 -0.029534534 0.009397962
000230 c3 e0 6f bd 62 76 26 3e dd 5b 2e bc a1 41 ad 3d
       -0.05856396 0.16256097 -0.010642019 0.08459783
000240 fb 05 b4 3d 6a 76 3e 3e 52 f7 95 3d 29 42 50 be
       0.08790203 0.18599859 0.07322563 -0.20337738
000250 05 b7 2d be dc 37 46 be 2c eb 4c be eb 6e 2e be
       -0.16964348 -0.19357246 -0.20011586 -0.170345
000260 f8 c8 5c bb 3b d5 45 3e 4d 13 07 be 73 e2 b2 3d
       -0.0033689123 0.19319622 -0.13190956 0.08734598
000270 37 7d be bd 27 b0 21 3e a0 5d 07 3e c1 3d c2 3d
       -0.093012266 0.15789853 0.13219309 0.09484435
000280 8a 24 38 3e 09 31 1e be 16 be 31 be 69 b1 d5 bd
       0.17982689 -0.15448393 -0.17357668 -0.10434229
000290 cf e2 28 3d 3c 7f 38 3e 6b dd 0a 3e 35 69 83 3d
       0.041231927 0.18017286 0.13561027 0.06416551
0002a0 e7 dd 0d bd 4e d5 ec bd 98 4a 50 3e ee 56 37 be
       -0.03463545 -0.11564122 0.20340955 -0.17904255
0002b0 9c 55 10 be 87 a3 f6 3d 57 02 23 3e 4a 57 59 3d
       -0.14095157 0.12042909 0.15918861 0.05306176
0002c0 95 96 4d bb 5c ca c4 bc df 5d d9 3c 2e 4c d2 bd
       -0.0031370271 -0.024022274 0.026534019 -0.10268436
0002d0 7e 48 4e 3e 02 70 50 3e 88 c7 9f bd a0 d6 11 3e
       0.20144841 0.20355228 -0.078017294 0.14242029
0002e0 8e 53 47 bd 15 06 17 be a0 70 13 3d fc 68 22 bd
       -0.04866367 -0.14748414 0.03599608 -0.039650902
0002f0 d1 a3 2d 3e 72 71 6a 3c b9 7a 3c bd 00 3c 26 be
       0.16957022 0.014309274 -0.046015475 -0.16233826
000300 b9 fc 08 3e a3 c9 0b 3e ae 16 eb 3c fc 09 95 bc
       0.13377656 0.13651137 0.028697338 -0.018193237
000310 a2 51 8c bd fd 19 3e 3d 03 97 48 3e c2 cd 08 bd
       -0.06851508 0.046411503 0.19588856 -0.03339935
000320 ab 2c 9a 3c b2 07 48 be 5b 30 57 3d 5d 40 b4 bd
       0.018820127 -0.19534186 0.05253635 -0.08801339
000330 c0 77 45 bd c7 a4 dd bd 4e 66 41 3e b7 46 0d 3e
       -0.048209906 -0.108224444 0.18886682 0.13796507
000340 07 69 b5 bd 22 bc 4a bd ba 39 7e 3d 66 82 9d 3d
       -0.08857923 -0.049495824 0.06206677 0.07690887
000350 e8 87 c5 bd 85 73 a9 3d 70 13 06 3d ca db f1 3d
       -0.09645063 0.08273987 0.03273338 0.118094996
000360 56 bc e2 bd 0c 00 07 be 51 34 c2 3d d0 24 09 bc
       -0.110710785 -0.13183612 0.09482635 -0.008370593
000370 4e 40 b6 bd 80 d0 23 3e c0 49 bb bc ab b8 0b be
       -0.08898984 0.15997505 -0.022862315 -0.13644664
000380 ce 9e f2 bc 55 ad c0 bd 63 ba 90 bd 71 b8 2c be
       -0.02961674 -0.094080605 -0.070668004 -0.16867234
000390 e1 d1 26 3e b5 17 38 3e 61 9c 2e be cc 24 03 3e
       0.16291 0.17977794 -0.17051841 0.12807006
0003a0 4d 20 74 3d bf e9 a8 bd af 33 74 bd bf 52 0e 3d
       0.059601117 -0.082477085 -0.0596196 0.03474688
0003b0 a6 09 2f 3d d2 7d 31 3e 8b ac 46 3e 5a 49 4b 3c
       0.04273381 0.17333153 0.19401757 0.012407625
0003c0 4c 5d 44 3e 40 cb f5 bd e8 18 c4 3a 3a 59 2c be
       0.19176215 -0.120016575 0.0014961036 -0.16830912
0003d0 aa 43 c8 3d f0 67 26 3d 43 72 fe bd 4d 9e 1f be
       0.09778531 0.040626466 -0.124241374 -0.1558773
0003e0 d8 07 26 bd 44 f9 9d bd 8c 5c aa bd a8 b8 35 be
       -0.040534824 -0.07713559 -0.08318433 -0.17746222
0003f0 92 7a 06 be d8 d8 2c 3e 79 e5 cd bd 03 c4 a8 3d
       -0.13132694 0.16879594 -0.10053534 0.08240511

bn1.weight f4 [256]
000000 dd 96 32 3f 4b 04 2a 3e 0e f6 38 3f 47 f0 2e 3f
       0.6976145 0.166032 0.7225045 0.68335384
000010 73 5b 8c 3f ec 36 14 3f 7f fc 6b 3f 64 20 91 3f
       1.0965408 0.57896304 0.92182153 1.133801
000020 05 11 53 3f aa 6f 21 3f f7 52 17 3e b4 03 ae 3f
       0.82447845 0.6306101 0.14777742 1.359488
000030 15 51 3d 3f 9b 27 24 3f d9 ac 7b 3f b1 80 91 3f
       0.73951846 0.64122933 0.9831062 1.1367399
000040 43 38 46 3f 7f 29 3f 3f 9d ef 0d 3f 43 bb 00 3f
       0.774296 0.74672693 0.55443746 0.5028574
000050 20 0e 35 3f 15 ec 21 3f 20 56 82 3f bc 71 f1 3d
       0.7072468 0.6325086 1.0182533 0.11789271
000060 57 34 e4 3e 9f be a4 3f 92 8f 31 3f 3d 52 33 3f
       0.44571182 1.2870673 0.69359696 0.7004736
000070 b6 2b 3f 3b 5f c3 c6 3e 9a 8d 8f 3f ca 43 0b 3f
       0.002917034 0.3882093 1.1215088 0.5440031
000080 4d be 9d 3f 25 f7 5a 3f e8 16 79 3f 11 29 15 3f
       1.23237 0.8553336 0.9730058 0.5826579
000090 08 2e 82 3f 1c af fa 3f 0a 61 55 3f cf 1c 47 3f
       1.0170298 1.9584689 0.83351195 0.77778333
0000a0 30 50 0c 3f 00 f3 67 3f 16 7b 15 3f a1 7d 59 3f
       0.54809856 0.90605164 0.5839094 0.8495732
0000b0 a1 68 5c bb ed c7 33 3f 43 23 69 3f d2 30 db 3e
       -0.00336317 0.7022694 0.9106943 0.42810684
0000c0 94 c0 9e 3f 8b 74 cd 3f 65 b1 5a 3f 72 12 85 3f
       1.240252 1.6051191 0.8542693 1.0396254
0000d0 30 cb 09 3f 66 2d 9b 3f 90 ce 46 3f a2 bb 9e 3d
       0.53825665 1.212323 0.7765894 0.07750632
0000e0 26 95 6d 3e 10 9a ca 3e 83 52 62 3f f9 c8 79 3f
       0.23201427 0.39570665 0.8840715 0.97572285
0000f0 c8 c3 4f 3f ae df 75 3f 8a 59 c1 3d cf 83 29 3f
       0.81158113 0.96044433 0.09440906 0.6621675
000100 10 43 26 3f ec 97 11 3f db ca 1d 3f f1 24 39 3f
       0.6494608 0.5687244 0.6163766 0.72321993
000110 48 74 ea ba 6d 35 c1 3f 11 a2 a8 3f cd 9f 0a 3f
       -0.0017887438 1.5094429 1.3174459 0.54150087
000120 1e d9 b3 3b f8 c4 36 3e 4c a0 b5 3f 6d a6 6f 3f
       0.005488529 0.17848575 1.4189544 0.9361332
000130 11 a4 81 3f e3 40 46 3f d7 b0 5e 3f 8d 8f 2d 3f
       1.0128194 0.7744276 0.86988586 0.67797166
000140 d9 c8 5f 3f 16 98 4f 3f fc 43 6c 3f fd dd 2e 3f
       0.87415844 0.8109144 0.92291236 0.6830748
000150 61 46 ff 3e a0 22 82 3f 3a cc 20 3f 90 09 5c 3f
       0.49858382 1.0166817 0.62811625 0.8595209
000160 81 e1 4f 3f 89 6f 48 3f 97 2c b7 3f 4f a0 03 3f
       0.81203467 0.7829519 1.4310483 0.51416487
000170 fb 13 99 3e 94 c6 78 3e 15 5a b1 3f aa 0c 45 3c
       0.29898056 0.24294502 1.3855616 0.012026945
000180 12 c9 33 3f d3 3a ad 3f d9 3a 89 3f 9b d0 81 3f
       0.70228684 1.3533577 1.0721084 1.0141786
000190 03 7a 0d 3f 29 8f 7f 3f ca b6 a0 3f 87 cd 5e 3f
       0.552643 0.9982782 1.2555783 0.8703236
0001a0 eb 80 45 3f d6 e8 37 3f 2e c1 36 3f 06 d0 0f 3f
       0.7714984 0.71839654 0.7138852 0.56176794
0001b0 3b 85 12 3f 44 b5 7e 3b e8 3e 21 3e 43 90 68 3f
       0.57234544 0.0038865367 0.15746653 0.90845126
0001c0 9e cd 1f 3f ae fb a9 3f 80 e7 b5 3f 3f a4 29 3f
       0.6242312 1.3279932 1.4211273 0.66266245
0001d0 8e 31 27 3f 79 59 e0 3e 97 ba 39 3f 9a f4 39 3f
       0.6530999 0.43818262 0.7255034 0.7263886
0001e0 de 20 40 3f 48 af d8 3d 74 c7 b2 3f 54 69 61 3f
       0.7505015 0.10580307 1.3967118 0.8805134
0001f0 f7 f9 61 3f ba 5a a4 3f d4 64 14 3f 3b ed 93 3f
       0.8827204 1.2840188 0.5796635 1.1556772
000200 da 3e 2d 3f 11 b8 2b 3e 58 51 70 3f f7 00 15 3f
       0.6767403 0.16769435 0.9387412 0.582046
000210 19 70 24 3f f6 da 27 3f ee 39 ab 3f 7d f1 ea 3e
       0.6423355 0.6556848 1.3377054 0.45887366
000220 e5 ed 8f 3f 6b 41 4a 3f 25 aa 0e 3f 37 04 fa 3e
       1.1244475 0.7900607 0.5572837 0.4883134
000230 c5 72 b7 bb 22 fc 2e 3f 01 56 18 3f b6 9e 0d 3f
       -0.0055983984 0.68353474 0.5950623 0.553203
000240 93 ab 61 3c 94 53 40 3f 27 0f 37 3f 53 ac 41 3f
       0.013773817 0.7512753 0.71507496 0.7565357
000250 95 05 28 3f a4 d1 81 3f f5 f0 8a 3c cf 10 14 3f
       0.6563352 1.0142102 0.0169606 0.5783815
000260 ae 1d 1d 3f dd bc 1b bc a1 40 0a 3f 8b 9e 86 3f
       0.6137341 -0.009505478 0.54004866 1.0517133
000270 80 51 0e 3f 95 2b 3e 3f b0 b9 01 3f 2f 29 5f 3b
       0.5559311 0.7428525 0.5067396 0.0034051647
000280 58 00 84 bc ab 1c 47 3f 16 a2 3d 3f 97 e7 4f 3f
       -0.016113445 0.7777812 0.7407545 0.81212753
000290 22 1c b4 3e 5a 17 4d 3f 6f 28 bb 3f 1e 5b 1d 3f
       0.35177714 0.80113757 1.4621714 0.6146716
0002a0 62 56 ad 3f c2 d6 fe 3e 03 2b 37 3f 43 80 c9 3e
       1.3541987 0.49773222 0.71550006 0.39355668
0002b0 b1 3b 85 3f 4d 16 62 3f 30 c0 5e 3f aa 06 c6 3e
       1.0408841 0.8831528 0.87012005 0.3867696
0002c0 16 48 9a 3f 05 93 8c 3f e6 35 d4 3e 1b 90 4b 3f
       1.2053249 1.0982367 0.4144737 0.7951676
0002d0 e1 da 75 3f c8 50 1d 3f d0 4f 83 3f e2 dc 1b 3f
       0.9603711 0.6145139 1.0258732 0.60883915
0002e0 98 d2 8c 3e b4 5e 7d 3f 9b c1 fd 3e 4f 6d 2d 3f
       0.2750442 0.9897263 0.49561772 0.67744917
0002f0 b7 6b 32 3f 6b ae 1d 3f 2d bc 64 3f 53 a5 11 3f
       0.6969561 0.61594266 0.89349633 0.5689289
000300 6f b8 20 3f 3e 6a 50 3f fb ee 89 3e ab 02 f2 3e
       0.62781423 0.8141211 0.2694014 0.4726766
000310 2d 53 58 3f 9c 0c 8a 3f 67 37 e8 3b 05 72 ef 3e
       0.84501916 1.0785098 0.0070866826 0.46766677
000320 c2 2e 6a 3f a9 7e 5a 3f 6d 21 8c 3f 27 1b 46 3f
       0.91477597 0.8534952 1.0947701 0.7738518
000330 1c b0 28 3f e3 9c 1c 3f 37 de 9b 3f be 50 39 3f
       0.6589372 0.6117689 1.217719 0.7238883
000340 ee 84 38 3f 57 2c 55 3f 1b 2f 40 3f 8b 1b 39 3f
       0.72077835 0.8327078 0.7507188 0.7230765
000350 31 26 2b 3f 0b 97 39 3f 5b 77 4f 3f 08 cd 51 3f
       0.6685515 0.724961 0.81041497 0.8195348
000360 b7 06 28 3f d2 36 51 3f b1 df 58 3f 1f 57 47 3f
       0.65635246 0.81724274 0.84716326 0.7786731
000370 e2 8a 40 3f 9f 69 6b 3f bb b2 c3 3f 82 1f fd 3e
       0.7521192 0.9195804 1.5288919 0.494381
000380 f6 44 5c 3f 31 d3 41 3f 15 3c 74 3f e2 c3 67 3f
       0.86042726 0.7571288 0.9540418 0.9053327
000390 f8 50 17 3f 62 82 6e 3f dc f7 eb 3e ad 66 5e 3f
       0.59107924 0.931677 0.4608754 0.8687542
0003a0 5e 7d a0 3f 91 ec 49 3f e3 20 3d 3f ee ab 24 3f
       1.2538259 0.78876597 0.73878306 0.64324844
0003b0 e3 4a 37 3f cf 06 50 3e ab 0f 55 3f 0b 03 86 3f
       0.71598643 0.20315097 0.8322703 1.0469679
0003c0 43 74 6d 3f 00 9f 81 3f 0f d9 58 3f bd 53 2e 3f
       0.92755526 1.0126648 0.84706205 0.68096524
0003d0 bb 70 d4 3c 15 b8 78 3f 21 36 28 3f 14 67 41 3f
       0.02593266 0.97155887 0.65707594 0.7554791
0003e0 07 e8 23 3b 9f ea 1c 3f 43 80 50 3f 10 9d 2f 3f
       0.0025010125 0.61295503 0.8144571 0.68599033
0003f0 82 dd 63 3f ee 69 2c 3f b9 39 38 3f 6f 84 9a 3f
       0.8900987 0.67349136 0.7196308 1.2071666

bn1.bias f4 [256]
000000 19 57 1b bf af 7e 25 bf c9 e3 4f bf 91 ac 4f bf
       -0.60679775 -0.6464643 -0.8120695 -0.8112269
000010 69 e0 3e bf 4b 62 c9 be f2 a9 ad bf fc d4 9e bf
       -0.7456117 -0.39332804 -1.3567488 -1.2408748
000020 84 d5 ed 3e e2 04 12 bf 10 2f 0a bf 3a 89 8d bf
       0.46451962 -0.570387 -0.5397806 -1.1057503
000030 44 39 05 bf 0c 41 1b bf c8 42 46 bf d6 ee 1a bf
       -0.52040505 -0.6064613 -0.7744565 -0.60520685
000040 e2 7a f4 be 7a 0e 7b bf 0f 59 c0 be 6e ef 74 bf
       -0.47750002 -0.98068964 -0.37567946 -0.9567784
000050 03 81 77 bf 27 81 35 bf 56 fc 58 bd 0e b9 20 bf
       -0.9668123 -0.70900196 -0.05297502 -0.6278237
000060 5b d2 87 bf 35 f4 13 bf 73 52 a1 be 11 fb 4c bf
       -1.061107 -0.57794505 -0.31508216 -0.80070597
000070 42 64 87 bc 37 f1 8c bf 36 85 f2 be 01 33 3e bf
       -0.016527299 -1.1011113 -0.47367257 -0.74296576
000080 de 1a 86 bf 7c cd 82 bf a4 44 82 bf 90 8e e6 be
       -1.0476949 -1.0218959 -1.0177197 -0.45030642
000090 fc 5d 0e bf dd 20 32 bf 36 7c 32 bf 21 0b e2 be
       -0.5561216 -0.69581395 -0.6972078 -0.44149116
0000a0 e6 80 ae 3d 5a 63 86 bf 0a 0b a6 be 2d ce 4c bf
       0.08520679 -1.049907 -0.32430297 -0.800021
0000b0 fd 0d 8f bc 56 7e 28 bf 94 d0 10 be d2 65 5c 3c
       -0.017462725 -0.65817773 -0.14142066 0.01345201
0000c0 75 9a 12 bf fa 1c f3 bd 29 ad 84 bf 03 11 df be
       -0.5726693 -0.11870761 -1.0365344 -0.43567666
0000d0 df c0 98 be 86 01 88 bf 9a 43 8d bf 37 e9 ac be
       -0.2983465 -1.0625465 -1.1036255 -0.3377168
0000e0 f6 c9 38 bf 2c aa b3 3d 8f d2 c5 be a6 49 13 bf
       -0.7218317 0.08772692 -0.38637206 -0.57534254
0000f0 a5 6a 5a bf c2 3b 94 bf 60 21 e8 be 9e 55 71 bf
       -0.85318977 -1.1580737 -0.45337963 -0.94271266
000100 97 f3 71 bf 7a 33 4e bf 82 d0 94 bf 9d 7b 01 bf
       -0.94512314 -0.80547297 -1.1626132 -0.50579244
000110 ae 81 a8 bc ca 87 29 bf 12 f7 67 be 1e 16 b5 be
       -0.020569649 -0.6622282 -0.22652844 -0.35368437
000120 2e e2 32 bd f9 07 52 bf 93 dc 81 3e 50 85 76 bf
       -0.043672733 -0.82043415 0.25363597 -0.9629717
000130 dd 0b 8a bd f8 f4 31 bf 7a d0 63 bf 97 c9 03 bf
       -0.06740544 -0.6951442 -0.88989985 -0.51479477
000140 f6 75 d3 be d6 84 8b bf f5 b7 e8 be b8 13 9a bf
       -0.41300935 -1.0899913 -0.45452848 -1.2037268
000150 0e b4 0f bf 39 8f b6 be ea 9a f0 be c3 1a b0 bf
       -0.56134117 -0.35656145 -0.4699319 -1.3758167
000160 46 73 64 bf d5 53 86 bf ba 87 11 bf 96 87 2f bf
       -0.89238393 -1.0494334 -0.5684773 -0.6856626
000170 a2 6b 83 bf d3 f8 4b bf f4 25 41 bf 8a 15 67 bd
       -1.0267222 -0.7967655 -0.75448537 -0.056417026
000180 70 67 59 bf 15 2d 29 bf 6a 40 2b bf 13 fb 07 bf
       -0.8492346 -0.66084415 -0.66895163 -0.53117484
000190 94 ae 2f bf 0b 50 90 bf c7 d2 53 bf ab f5 2c bf
       -0.6862576 -1.1274427 -0.82743496 -0.6756236
0001a0 b0 90 5f bf 6a a7 46 bf 85 3a c9 bd 13 b1 56 bf
       -0.8733015 -0.77599204 -0.09825615 -0.83863944
0001b0 08 4c ad bf 60 6b ae bc b4 f4 2c bf 37 3d 46 bf
       -1.3538828 -0.021291435 -0.6756089 -0.77437156
0001c0 27 f9 75 bf 18 55 7b bf f6 30 15 3f f6 96 c7 bf
       -0.960833 -0.9817672 0.58277833 -1.5592945
0001d0 72 8b 57 bf 16 0e 42 bf 91 57 7a bf 99 94 33 bf
       -0.8419715 -0.75802743 -0.97789866 -0.7014862
0001e0 53 a1 63 bf c2 67 cb be 3e ff 0a be 40 c6 95 bf
       -0.88918036 -0.39727598 -0.1357393 -1.1701126
0001f0 a0 5a bd be 5e ba 8e bf 75 1d 18 bf 85 2c 1a be
       -0.36983204 -1.1150625 -0.5941995 -0.15056045
000200 90 19 55 bf f2 23 28 bf c2 01 77 bf 8c 3d 60 be
       -0.8324213 -0.6567985 -0.9648706 -0.21898478
000210 06 01 17 bf b7 43 04 bf 3e a4 35 bf 24 7f 46 bf
       -0.58985937 -0.51665825 -0.7095374 -0.7753775
000220 9c c6 4e bf b5 db 75 bd 12 4c e5 3e 9b 7e 3b bf
       -0.80771804 -0.060023982 0.447846 -0.7324006
000230 dc 79 bd bd 04 94 78 bf 20 32 7f bf cd b3 70 bf
       -0.092517585 -0.97100854 -0.9968586 -0.94024354
000240 c0 69 64 bd 2b a2 62 bf d3 88 42 bf 0a 11 4e be
       -0.055764914 -0.885287 -0.7599003 -0.20123687
000250 0a 4e 45 bf 72 28 26 bd f4 41 0f be 58 20 84 bf
       -0.77072203 -0.040565915 -0.13990003 -1.032237
000260 2a 96 77 bf 61 16 97 bd 92 21 94 be e8 4c a8 be
       -0.9671351 -0.07377315 -0.28931862 -0.32871175
000270 21 67 54 bf 5a 0b ef be 13 c5 85 bf 01 02 f5 bc
       -0.8296986 -0.46688348 -1.0450767 -0.029908182
000280 90 2e 6c bd 2b 95 01 bf 34 49 55 bf 01 4f 59 bf
       -0.057661593 -0.5061824 -0.83314824 -0.84886175
000290 af da 84 bf 46 0b 6a bf df 32 e1 bd e0 7c 27 bf
       -1.0379237 -0.9142345 -0.10996031 -0.6542492
0002a0 4f 6a 82 bf 37 0d 9b bf 26 f3 88 bf 5e 26 96 bf
       -1.0188693 -1.2113408 -1.0699203 -1.1730459
0002b0 83 66 b7 bf 6f 41 4a bf 4e df 6f bf f9 0c 82 bf
       -1.4328159 -0.79006094 -0.9370011 -1.0160209
0002c0 18 8e 86 bf ed 05 52 bf 06 fb 05 bf 81 1f 82 bf
       -1.0512114 -0.8204029 -0.52336156 -1.0165864
0002d0 c1 27 f1 be a3 43 53 bf b9 ff 16 3e ed a4 04 bf
       -0.47100642 -0.8252508 0.14745988 -0.51814157
0002e0 ca 89 91 bf c2 83 82 be 6b 6a 1a bf d0 c2 77 bf
       -1.1370175 -0.25491148 -0.6031863 -0.96781635
0002f0 cf c5 a4 be 75 39 a6 3d ae 62 fa be ad 72 9c bf
       -0.32182166 0.08116428 -0.48903412 -1.2222496
000300 ef 10 d0 be ab 73 84 bf ab 17 7a bf 2b 3f 1c bf
       -0.4063792 -1.0347799 -0.97692364 -0.61033887
000310 3f cb 30 bf b9 5f b7 bd ba 0a 16 bd f7 44 90 bf
       -0.6906013 -0.089538045 -0.036631323 -1.1271046
000320 5c ec 0c bf 6a c8 86 bf 37 07 52 bf e3 d2 0d bf
       -0.55048156 -1.0529912 -0.8204226 -0.5539991
000330 d9 20 9f bf 16 39 ec be d1 a6 6f bc 1c dc 4c bf
       -1.2431899 -0.46137303 -0.0146271745 -0.8002336
000340 f8 90 9e bf 9f 37 9e be c7 9c 12 bf 36 4d 83 bf
       -1.2387991 -0.3090181 -0.57270473 -1.0257938
000350 db 8f 1e bf 5f 4d 5c bf c7 c1 93 bf d6 30 8e bf
       -0.61938256 -0.8605556 -1.1543511 -1.1108654
000360 c8 75 a8 be 63 cf 7f bf 71 fb 04 bf 10 1c 0d bf
       -0.3290236 -0.9992582 -0.5194617 -0.55120945
000370 6f 48 4f bf 3d cd 0f bf 23 bc fa be 3f de 74 bf
       -0.809699 -0.56172544 -0.48971662 -0.9565162
000380 04 88 da be af de 38 bf a0 f1 c1 be a5 e9 54 bf
       -0.42681897 -0.7221479 -0.37879658 -0.83169013
000390 5d 0e 44 bf e4 a8 a1 bf 96 bc 7f bf 0e 58 5e bf
       -0.76584417 -1.2629666 -0.99897134 -0.8685311
0003a0 b0 ab 0e bf a3 22 1d bf f6 b2 32 bf 6d af 70 bf
       -0.55730724 -0.61380976 -0.6980432 -0.9401768
0003b0 c9 bc 7f bf 75 a2 50 bf 22 b4 80 bf 52 be 52 bf
       -0.9989744 -0.8149789 -1.0054972 -0.82321656
0003c0 a6 aa 93 bb 15 70 93 bf ab 20 5d bf 88 7f fc be
       -0.004506427 -1.151858 -0.8637797 -0.4931605
0003d0 00 18 f3 bd c0 83 c7 be 01 74 6d bf a2 aa b5 bf
       -0.11869812 -0.38967705 -0.9275513 -1.4192698
0003e0 03 7c 8f bc a9 57 59 bf e3 0c 26 bf 72 47 0a bf
       -0.017515188 -0.84899384 -0.64863414 -0.54015267
0003f0 15 2c 8a be 84 0c eb be 46 d9 86 bf 47 a1 39 bf
       -0.26986757 -0.45907986 -1.0535057 -0.72511715

bn1.running_mean f4 [256]
000000 0f 36 27 bc 5c b8 52 be 7d 7b b0 3d 62 e9 30 bd
       -0.01020576 -0.2057814 0.086173035 -0.04319132
000010 ff 7f 31 be d4 72 cb bd d8 56 b4 bd ee 1b a1 bd
       -0.17333983 -0.09934011 -0.08805627 -0.07866655
000020 4e 1f 8b bc 18 6c 34 3d bf 6a f5 bd de b1 7e 3d
       -0.0169827 0.0440484 -0.11983251 0.062181346
000030 d9 28 4f be 7d 95 49 3e 75 03 19 be f8 68 a4 3d
       -0.20230426 0.19685932 -0.14942725 0.08027834
000040 f3 cf 10 be 71 32 30 be 1e 60 df bc 33 69 d3 bd
       -0.14141826 -0.17206742 -0.027267512 -0.103227995
000050 a4 76 81 bd c9 81 02 be 0e 14 bf bd e9 a7 22 be
       -0.06321457 -0.12744822 -0.09329997 -0.15884365
000060 01 c2 59 3e b4 dc f3 3d da c5 ae bd 08 c5 2a 3e
       0.21265413 0.1190733 -0.08533831 0.16676724
000070 79 14 c1 bd 08 17 37 be 1f 6f 8d 3c 37 30 93 bd
       -0.09427733 -0.1787988 0.0172649 -0.071869306
000080 3b 89 62 3e e9 c4 a2 bd c0 42 32 be 33 9e 3b 3e
       0.22122662 -0.07947714 -0.17408276 0.18322067
000090 0f 63 48 3d a5 9e 37 3d 7a c7 4d 3b 64 0d 22 be
       0.048922595 0.04482903 0.0031399415 -0.1582542
0000a0 18 54 a3 3d 0f a6 ad bc 46 ad 09 be f7 0a f3 3d
       0.07975024 -0.021197347 -0.13445005 0.11867326
0000b0 40 74 40 be 47 92 fc bd dc bd 19 bd 03 b4 42 be
       -0.18794346 -0.12332588 -0.03753458 -0.19013982
0000c0 6f 3f 44 be 90 26 6a bd fa 07 41 bd 58 0e 0d 3e
       -0.19164823 -0.057165682 -0.047126748 0.13775003
0000d0 28 f8 a8 3d 14 53 41 3e 24 ef b1 3d 56 c9 ee 3c
       0.08250457 0.18879348 0.086881906 0.029148739
0000e0 bb 61 61 bd 25 0c f6 bd 73 b1 5c be b8 46 3d be
       -0.055024844 -0.12014035 -0.21552067 -0.18484008
0000f0 03 37 a5 3d 99 37 20 be 41 ef aa bd d0 50 d5 3d
       0.08067133 -0.15646209 -0.08346415 0.104158044
000100 f2 ba 0f be e5 46 a8 3d 17 ea 89 3c 2f ae 7a 3d
       -0.14036158 0.08216647 0.016835256 0.06120127
000110 67 17 bc bd 9a 7d d3 3d 10 73 42 be b3 3b 3d be
       -0.09184151 0.10326691 -0.18989205 -0.18479805
000120 84 f7 20 3e d7 3d 1d be 27 c2 67 3e 3a cc e2 3d
       0.1571942 -0.15355621 0.22632657 0.110741094
000130 32 c9 34 3d 7e 61 ba bc 85 7a e0 3c 33 b8 54 3d
       0.044137187 -0.022751566 0.027402172 0.05193348
000140 38 c4 c5 bd 0c 56 0e 3e cc 27 cd 3d 02 19 e3 3c
       -0.096565664 0.13900012 0.10017356 0.027721886
000150 6b cc 68 3d c1 2a 0b bd 8d 37 ef bd bd c5 48 be
       0.056835573 -0.03397632 -0.11680517 -0.19606681
000160 af 29 af bd c1 fc 32 be 2e 73 b2 bd ca bf 07 3e
       -0.085528724 -0.1747923 -0.08713375 0.13256755
000170 68 b4 50 3e 92 a5 60 be 09 8f 3d be e6 40 2d 3e
       0.2038132 -0.2193816 -0.18511595 0.16919288
000180 29 22 c8 bd 81 cd ee ba d5 71 19 3e 65 4f 43 3e
       -0.097721405 -0.0018219204 0.1498483 0.19073255
000190 1a 0a aa 3d 52 9f a8 3d 39 db df bc 23 63 eb bc
       0.08302708 0.08233513 -0.027326213 -0.028733796
0001a0 1d 07 b4 3d 08 19 5e be c1 2c 4e be 6b ca 2d 3e
       0.08790419 -0.21689236 -0.2013426 0.16971748
0001b0 80 56 53 be 6f 15 d7 3d 51 f4 14 3e e6 5e da 3d
       -0.20638466 0.10502135 0.14546324 0.10662632
0001c0 34 90 6f 3d c8 a6 70 3d d3 0c 90 3d ae 72 f3 3d
       0.058487132 0.058752805 0.07033696 0.11887108
0001d0 ff 2a 7a bc 54 6f 04 be 94 bf fc 3d 0d 98 da 3c
       -0.01526904 -0.12933093 0.12341228 0.026683832
0001e0 f1 4b f0 3d 9a 30 17 be 3a 5b d1 bd e2 c2 1f be
       0.11733235 -0.14764634 -0.10222478 -0.15601686
0001f0 9b b2 2c 3d 65 91 39 3e 22 9a 72 3d 39 68 43 3e
       0.04216252 0.1812187 0.059229024 0.19082727
000200 ae 11 f7 3d d6 45 10 be 8a 20 48 3e 76 4a 74 bc
       0.12063919 -0.1408914 0.19543663 -0.014910331
000210 14 81 3d 3e f1 3e 40 3d b5 65 50 bd e2 05 3b 3e
       0.1850627 0.046935026 -0.050878245 0.18263963
000220 3a ea 3f be a2 b8 21 3b 42 42 45 bc 4b 43 73 bc
       -0.18741694 0.00246767 -0.012039723 -0.014847587
000230 89 81 49 bd b6 e1 17 3e 0d a3 54 bc b2 73 aa 3d
       -0.0491958 0.14832196 -0.012978327 0.083228484
000240 82 cc b3 3d f5 cd 4a 3e 96 3a 42 3d a9 e5 61 be
       0.08779241 0.19805129 0.047419153 -0.22060265
000250 1f b5 51 be 6a c0 4e be f1 43 4f be 00 50 15 be
       -0.20479248 -0.20190588 -0.20240761 -0.14581299
000260 9b 2e b5 bc 2a d6 48 3e 0c 75 bc bd 09 5c 6a 3d
       -0.02211695 0.19612947 -0.092020124 0.057216678
000270 34 67 eb bd cb 99 27 3e b8 49 e6 3d 2a e7 c7 3d
       -0.11494294 0.16367261 0.112445295 0.09760888
000280 1d 87 38 3e 37 71 13 be db 64 4c be d3 51 f6 bd
       0.18020292 -0.14398657 -0.19960348 -0.120273255
000290 93 11 25 3d e5 f5 24 3e 9a fb 10 3e 35 68 47 3d
       0.040299963 0.16109426 0.14158478 0.048683364
0002a0 7b d3 06 3c 3f 9a df bd 63 e7 6a 3e 2d 36 3c be
       0.008229132 -0.10918092 0.2293983 -0.18380041
0002b0 3d 22 07 be e2 45 ec 3d cd 6c 24 3e f9 52 90 3d
       -0.13196655 0.115367666 0.16057129 0.07047076
0002c0 b3 23 35 3d 3a 2c 1c bd d3 f4 29 3d 81 3f cf bd
       0.0442235 -0.038128115 0.04149325 -0.10119534
0002d0 93 e1 5a 3e 85 af 50 3e 98 0e a5 bd 89 ca 22 3e
       0.21375112 0.20379455 -0.08059424 0.15897574
0002e0 65 d9 99 bd 90 ac 05 be 82 a8 b0 3c 16 7d 8d bd
       -0.07512168 -0.13054109 0.021564726 -0.06908624
0002f0 4d 86 11 3e ef 12 c2 3b 84 46 f7 bc 54 d5 24 be
       0.14211388 0.005922667 -0.030184992 -0.16097003
000300 ae 88 0d 3e 62 23 0c 3e 5a 46 71 3c f4 c0 97 3c
       0.1382167 0.13685372 0.014726246 0.018524624
000310 1f 13 a6 bd 11 c8 52 3c bc b1 46 3e e6 c7 99 bc
       -0.08109116 0.012865082 0.19403738 -0.018772077
000320 38 eb 10 3c 88 a2 59 be d2 df 37 3d 2d e5 b4 bd
       0.008845143 -0.21253407 0.044891186 -0.08832774
000330 19 c1 5d bd 5c d3 f6 bd be 4e 53 3e 29 06 07 3e
       -0.05413923 -0.12052032 0.20635507 0.13185944
000340 c0 e7 c1 bd d0 7b 64 bd b7 56 2c 3d 7e db 87 3d
       -0.09468031 -0.05578214 0.042074885 0.06633662
000350 57 66 c6 bd 71 fc b7 3d 4b c1 b8 3c bb 06 13 3e
       -0.096874885 0.08983696 0.022553107 0.14358036
000360 40 2e dd bd 3b 27 04 be 01 dc e2 3d 43 ac ee bc
       -0.10799837 -0.1290559 0.11077119 -0.029134875
000370 01 d4 d0 bd 81 8b fe 3d c6 54 f3 3a e8 0c 06 be
       -0.101966865 0.12428952 0.0018564693 -0.13090861
000380 b8 73 66 bd 48 10 d1 bd 2a 00 a6 bd 19 b1 26 be
       -0.0562627 -0.102081835 -0.081055 -0.16278495
000390 b4 74 01 3e 63 0f 37 3e 7c d7 25 be 7a d9 e7 3d
       0.12642175 0.17876963 -0.16195482 0.11320777
0003a0 32 33 a4 3d b9 bd 8b bd e3 0a bf bd 8b d5 2a 3d
       0.08017577 -0.06823296 -0.09328248 0.041707557
0003b0 0c cf 25 3d 44 bc 2d 3e 62 78 33 3e 68 59 58 3c
       0.04048066 0.16966349 0.17526391 0.01320491
0003c0 30 26 46 3e 19 fd dd bd 09 b4 22 bc bb e7 25 be
       0.19350505 -0.1083929 -0.009930619 -0.1620168
0003d0 0b 4f b9 3d 88 22 be 3c ad ca 07 be fd 04 39 be
       0.090482794 0.023209825 -0.13260908 -0.18068309
0003e0 88 98 2c bd d9 31 91 bd 35 29 ae bd f2 0c 48 be
       -0.042137653 -0.07089586 -0.08503953 -0.19536188
0003f0 04 bc 16 be f5 17 11 3e 4a 89 04 be 53 10 6f 3d
       -0.1472016 0.14169295 -0.12942997 0.058365177

bn1.running_var f4 [256]
000000 a9 f5 5c 41 d8 57 d4 3f 46 65 26 41 1e d3 cf 40
       13.809976 1.6589308 10.399725 6.494521
000010 bc 30 9b 40 96 ca 10 41 8f 2a e6 40 c6 7f ca 40
       4.849699 9.049459 7.192695 6.3280973
000020 48 71 88 40 eb 19 1d 40 0b 49 9a 3f 40 77 87 41
       4.2638283 2.454707 1.2053541 16.933228
000030 3c 68 88 3f c6 07 a3 40 10 8d 70 40 88 c1 52 41
       1.065681 5.094699 3.7586098 13.172249
000040 e2 68 40 41 e9 80 0e 41 bd 65 e2 40 f5 ff d2 40
       12.025606 8.906472 7.074919 6.5937448
000050 5f 91 87 40 16 ad 70 40 09 a4 42 41 d9 05 13 40
       4.2364955 3.7605643 12.165048 2.297232
000060 a7 66 28 41 db 2d cf 40 58 cd c8 3f 85 6e 3c 40
       10.525062 6.4743476 1.5687666 2.9442456
000070 42 a9 5c 3d 3f f4 de 40 25 49 4c 41 43 df 81 40
       0.053872354 6.967315 12.767858 4.0585036
000080 d8 d6 8c 41 79 a6 9b 40 22 55 57 40 43 f7 8f 40
       17.604904 4.8640714 3.364571 4.4989333
000090 8f b9 6f 40 67 01 e3 3f 9f 30 ec 40 4d 82 a4 40
       3.7457006 1.7734803 7.380935 5.140906
0000a0 b4 1c d7 40 49 4e 14 41 6f 71 b5 40 e5 ab 55 40
       6.722254 9.269113 5.670097 3.3386166
0000b0 1e 1e 9b 3d 90 18 1a 41 b2 68 8e 40 72 c0 db 3f
       0.07574104 9.630997 4.45028 1.7168105
0000c0 97 a1 4b 40 61 b6 09 40 45 9e 2d 41 e8 9c cc 40
       3.1817377 2.1517565 10.85114 6.3941536
0000d0 a4 5d 59 40 ff 9d ea 40 cd 96 03 41 6e 7d 85 3e
       3.3963404 7.3317866 8.224317 0.26072258
0000e0 f1 8c 93 40 75 73 ea 40 ac 9b 30 40 4d bc 4f 40
       4.6109548 7.326594 2.7595015 3.245868
0000f0 ed 9e b2 40 7b 79 d1 3f 6a 32 2f 3e 10 08 bc 3f
       5.5819 1.6365198 0.17109075 1.468996
000100 fd cf c2 40 25 43 9d 40 3a ae 58 40 2f bc 81 40
       6.087889 4.9144464 3.385634 4.0542216
000110 ea b0 20 3d 8c 5a 3f 40 b2 fb 5d 40 c1 d5 48 40
       0.03923122 2.9899015 3.4684873 3.1380465
000120 81 c6 17 3e b8 20 71 40 ed ae 18 40 1f 47 b2 41
       0.14821817 3.767622 2.3856766 22.284727
000130 05 f5 18 40 d3 4d 66 40 54 b7 d7 40 be 31 ee 40
       2.3899548 3.5985 6.741129 7.443572
000140 ee 47 7e 40 22 ef a4 40 9e e3 4d 40 5b 8d 05 41
       3.9731402 5.154191 3.2170177 8.347011
000150 9c 90 44 40 64 06 56 40 a5 dc d2 40 1e f5 4b 40
       3.0713263 3.34414 6.589434 3.1868358
000160 5a c9 a8 40 40 ec 47 40 82 8b 35 40 75 45 48 40
       5.274579 3.1237946 2.83664 3.1292393
000170 8b 39 a4 40 3b a1 86 40 51 c1 03 41 b1 21 5b 3d
       5.1320243 4.2071815 8.234696 0.053498928
000180 2f 8e 17 40 e3 0d 17 42 3c d9 81 41 ba 3f 31 41
       2.3680532 37.76356 16.231071 11.078058
000190 71 bf 93 40 fa 9d ba 40 0d 05 d7 40 00 ea fe 40
       4.6171193 5.8317842 6.7193666 7.9660645
0001a0 be 53 45 40 8c 3d d8 40 0c 37 87 40 47 1c 94 40
       3.0832362 6.757513 4.2254696 4.628452
0001b0 6a 1e 70 40 ca a3 f9 3c 31 0a c4 3e 28 a2 20 41
       3.7518563 0.030473609 0.38289025 10.039589
0001c0 89 01 38 40 e8 57 02 41 39 db a3 40 52 ff 27 40
       2.8750937 8.1464615 5.1205106 2.6249585
0001d0 f9 ca f7 3f 1c a9 c0 40 88 b0 03 41 9f 08 c1 40
       1.9358817 6.020643 8.230598 6.0323024
0001e0 0a d2 24 41 b5 1e bd 3f a0 b6 7a 40 d6 00 8a 40
       10.301279 1.4774996 3.9173965 4.312602
0001f0 35 ac a4 40 96 1b 07 40 9f 6e ef 3f a5 81 ce 40
       5.1460214 2.1110587 1.8705634 6.4533257
000200 8d f6 9d 40 e5 e4 ed 3f 6c b4 dc 40 e5 a5 95 40
       4.9363465 1.8585478 6.897024 4.676501
000210 80 db e9 40 0d 5a a2 40 f7 16 40 40 96 c1 55 40
       7.3080444 5.0734925 3.0014017 3.3399405
000220 75 aa b1 40 4c 42 b7 40 e0 99 f6 3f 56 92 51 40
       5.5520577 5.726843 1.9265709 3.2745566
000230 fe 30 28 40 77 2d be 40 55 9c b7 40 20 c3 32 40
       2.6279902 5.94305 5.7378335 2.7931595
000240 a3 f8 ae 3d 8b 41 95 40 62 0c 22 40 f7 05 d3 40
       0.085435174 4.664251 2.5320058 6.594478
000250 84 93 90 40 e8 c7 4c 40 49 76 80 3d 32 a1 85 41
       4.5180073 3.1997013 0.06272561 16.703709
000260 37 ba a4 40 e8 d0 3c 3f 41 fe 4d 41 4e 44 24 41
       5.1477313 0.73756266 12.874574 10.266676
000270 9b 64 27 41 99 91 a8 40 b4 f8 f6 40 68 26 0e 3d
       10.462062 5.267773 7.7178593 0.034704596
000280 5e b6 0c 3c 9e 70 fb 40 5c 14 0a 41 b5 3b 78 40
       0.008588402 7.857497 8.629971 3.8786442
000290 65 cc aa 40 33 96 91 40 18 c4 e3 41 93 84 21 41
       5.3374505 4.549585 28.470749 10.094867
0002a0 bd 47 49 40 93 13 21 40 5c 3d 18 40 45 f2 b4 40
       3.1450036 2.5168197 2.378745 5.654574
0002b0 03 20 ad 41 3a 72 c1 40 93 fa 87 40 ae d9 0d 40
       21.64063 6.0451937 4.2493377 2.216411
0002c0 cd 75 8b 41 49 8f bd 3f 20 e1 27 41 f2 a0 7c 40
       17.43252 1.4809352 10.492462 3.9473233
0002d0 78 2d 10 41 37 7c ca 40 93 7a eb 40 81 7f 62 40
       9.011101 6.327663 7.3587127 3.5390322
0002e0 e1 ab 84 40 db 12 ff 40 d8 c2 5a 40 d5 9f 25 41
       4.1459813 7.9710517 3.4181423 10.3515215
0002f0 5e b8 07 41 c2 3d ce 41 77 b9 74 40 92 ab 6b 40
       8.4825115 25.780155 3.8238199 3.6823468
000300 8a fc a9 40 a6 6f d4 40 f7 9e 3d 40 cd e4 a9 40
       5.3120775 6.638629 2.9628274 5.30918
000310 d8 8f d5 41 5a 9d ce 40 e6 12 16 3e cb f1 a1 40
       26.695236 6.456708 0.14655647 5.0607657
000320 7a c3 b3 40 9a 2f 2a 40 38 a3 82 40 2a e0 ad 40
       5.617612 2.6591554 4.082424 5.433614
000330 d5 77 03 40 4b 3a f3 40 59 c3 cd 3f f1 12 45 40
       2.054189 7.600866 1.607524 3.079281
000340 83 52 9b 40 ce 64 16 41 a0 41 c3 40 dc c9 ab 40
       4.853822 9.3996105 6.101761 5.368391
000350 d1 38 b4 40 93 37 8d 40 d2 d6 e2 40 65 15 c0 40
       5.6319356 4.413034 7.088723 6.0026116
000360 5c 2c dd 40 44 92 b9 40 3a 7a 36 41 00 d7 23 41
       6.911665 5.7991047 11.40484 10.23999
000370 71 38 cd 40 8b f6 5e 40 2c 80 a8 40 13 0f a5 40
       6.41314 3.4837978 5.265646 5.15809
000380 e8 6a 09 41 07 b9 9b 40 a1 66 16 41 d4 8e 9b 40
       8.5886 4.8663363 9.400056 4.861185
000390 88 30 d9 40 5d 6a 0e 42 51 dc b7 3f f4 76 b8 40
       6.787174 35.60387 1.436411 5.7645206
0003a0 ae 06 74 40 0a cf bc 40 b4 e0 96 40 15 3f 74 40
       3.8129077 5.9002733 4.7149296 3.8163502
0003b0 cd 06 55 40 3d a4 ce 3f ac db 23 40 38 df 78 40
       3.32854 1.6143872 2.5602827 3.8886242
0003c0 07 f8 f4 3f e2 ea 1a 41 3f 0d ee 40 9c 03 b1 40
       1.9138192 9.682344 7.439117 5.5316906
0003d0 36 71 81 40 74 5c 8d 40 02 cc d7 3f 57 ab 9c 40
       4.0450697 4.417536 1.6859133 4.8959155
0003e0 72 6a 8a 3d 49 c6 ac 40 2b 42 18 41 77 58 28 40
       0.06758584 5.3992047 9.516154 2.6303995
0003f0 2a b7 ad 40 d8 a3 22 41 57 8c ac 3f 89 65 36 40
       5.428609 10.165001 1.3480328 2.8499472
