project3-collaboration/results/session_submission_original/maddpg_critic_reacher_0.pth (torch_old, 96211 bytes, 9 tensors)

bn0.weight f4 [48]
0	0x3e20aea1	0.15691616
1	0x3e9a65ef	0.30155894
2	0xbb06e3b7	-0.0020582506
3	0x3b33ec01	0.0027453902
4	0x3f631071	0.8869696
5	0x3f2613b6	0.64873827
6	0x3da6d68a	0.08146389
7	0x3e35bb59	0.17747249
8	0x3e30caa8	0.17264807
9	0x3dc8e8b8	0.098100126
10	0x3de79737	0.11308139
11	0x3dd096bf	0.101850025
12	0xbe7bb190	-0.24579453
13	0x3e053232	0.13007429
14	0xbafc4f72	-0.0019249751
15	0x3dfce5c3	0.12348511
16	0x3f56fd4d	0.83980256
17	0x3ef5fb20	0.48043156
18	0x3d320af5	0.04346748
19	0x3d999feb	0.07501205
20	0x3fc232a7	1.5171708
21	0x3f902e15	1.1264063
22	0x3e44d71e	0.19222686
23	0x3ef49dbe	0.47776598
24	0x3e55d708	0.20882809
25	0x3ea33c56	0.3188197
26	0x3dd0e2d4	0.10199514
27	0x3c3418b3	0.010992217
28	0x3f4d7420	0.8025532
29	0x3e71be31	0.23607709
30	0x3d5431d2	0.051805325
31	0x3e35eb63	0.17765574
32	0x3dd95653	0.10612168
33	0x3d0d877f	0.034553047
34	0x3c8e9807	0.017406477
35	0xbbbe81ee	-0.0058138287
36	0x3f204a53	0.6261341
37	0x3f5ac4a9	0.8545633
38	0x3e05face	0.13083956
39	0x3e769ee1	0.24084045
40	0x3f372caf	0.71552557
41	0x3ed1f508	0.41007257
42	0x3d8dbc54	0.06920686
43	0x3bacc5aa	0.005272587
44	0x3f41c429	0.7568994
45	0x3ed40629	0.4141095
46	0x3e18334e	0.14863321
47	0x3f0655ab	0.5247447

bn0.bias f4 [48]
0	0x3d6955f2	0.05696673
1	0x3d475e7f	0.048674103
2	0x3e84dfc0	0.25951958
3	0xb9c83e75	-0.00038193507
4	0xba206394	-0.0006118354
5	0x3ea7aff5	0.32751432
6	0x3a6c8ea5	0.0009023941
7	0xbd36828a	-0.044558086
8	0x3d43eb20	0.047831655
9	0x3deeee0b	0.11666497
10	0xbd03c069	-0.03216592
11	0x3c5c6b13	0.013453263
12	0xbf237236	-0.6384615
13	0x3e411ccc	0.18858641
14	0x3b089c79	0.0020845218
15	0xbd685beb	-0.056728285
16	0xbe016a64	-0.12638241
17	0xbd8843d3	-0.066535614
18	0x3c8ce9dc	0.017201357
19	0xbd6c2e59	-0.057661388
20	0x3dc9e9c8	0.09859043
21	0x3ea9da11	0.33174184
22	0xbd88fe6d	-0.06689153
23	0xbd80fae8	-0.062978566
24	0xbc75d789	-0.015005001
25	0xbd2c71cd	-0.042100716
26	0xbd4bd67e	-0.049765103
27	0xbb1a2a3a	-0.0023523704
28	0xbcd1bb8f	-0.02560213
29	0x3e03d323	0.12873511
30	0x3d9f8205	0.07788471
31	0xbd18787e	-0.037224285
32	0xbd2ba5dc	-0.041906223
33	0xba880e4b	-0.0010380236
34	0x388993d9	6.560208e-05
35	0xb995a400	-0.00028541684
36	0xbd9a7123	-0.0754111
37	0x3ea627e8	0.3245232
38	0xbc80f78e	-0.015743043
39	0xbda45f1f	-0.080259554
40	0xbdda34ae	-0.10654579
41	0xbdbf5434	-0.09342232
42	0xbcd2ddef	-0.025740592
43	0x3a162fe7	0.0005729184
44	0xbe6b7264	-0.22992855
45	0x3ee3c3cb	0.44485316
46	0xbcf153c6	-0.029458892
47	0xbce3a2d5	-0.027787605

bn0.running_mean f4 [48]
0	0xc0d07954	-6.5148106
1	0xbef3be47	-0.47606108
2	0x40b8ad2e	5.77114
3	0xbac2045d	-0.0014802326
4	0xbf20a987	-0.6275868
5	0x40581284	3.37613
6	0x40b8ad2e	5.77114
7	0xbac2045d	-0.0014802326
8	0xc0d3e786	-6.622012
9	0xbef52b2a	-0.47884494
10	0x40a9c5d7	5.3054004
11	0xbe13c010	-0.14428735
12	0xbf1fc45d	-0.62409
13	0x405779b6	3.3668036
14	0x40a9c5d7	5.3054004
15	0xbe13c010	-0.14428735
16	0xc0d498c5	-6.6436486
17	0xbef83919	-0.48481062
18	0x40c366b6	6.106288
19	0xbe21a173	-0.15784244
20	0xbf197276	-0.5994028
21	0x40569338	3.3527355
22	0x40c366b6	6.106288
23	0xbe21a173	-0.15784244
24	0xc0d3a189	-6.6134686
25	0xbeeeaa8b	-0.4661449
26	0x40b315d9	5.596417
27	0xbd6f62ce	-0.058443837
28	0x3f20a987	0.6275868
29	0x40581284	3.37613
30	0x40b315d9	5.596417
31	0xbd6f62ce	-0.058443837
32	0xc0d3dbb6	-6.62057
33	0xbef0ba1c	-0.4701699
34	0x40bed2a3	5.9632125
35	0xbd7d8a3e	-0.061899416
36	0x3f1fc45d	0.62409
37	0x405779b6	3.3668036
38	0x40bed2a3	5.9632125
39	0xbd7d8a3e	-0.061899416
40	0xc0d3a94d	-6.6144166
41	0xbef193e2	-0.47183138
42	0x40c2adc7	6.083713
43	0xbdeb35ff	-0.11484908
44	0x3f197276	0.5994028
45	0x40569338	3.3527355
46	0x40c2adc7	6.083713
47	0xbdeb35ff	-0.11484908

bn0.running_var f4 [48]
0	0x4192ca2c	18.348717
1	0x3f7cb864	0.9871886
2	0x43f4d3ff	489.65622
3	0x41722da9	15.1361475
4	0x41dd8699	27.690722
5	0x40241f51	2.5644114
6	0x43f4d3ff	489.65622
7	0x41722da9	15.1361475
8	0x418b3939	17.40294
9	0x3f7e520c	0.99343944
10	0x43f4f28c	489.8949
11	0x41755d35	15.335256
12	0x41e3acd8	28.459396
13	0x4026f732	2.6088376
14	0x43f4f28c	489.8949
15	0x41755d35	15.335256
16	0x418d2c34	17.646584
17	0x3f805911	1.0027181
18	0x43f655d6	492.6706
19	0x41763d83	15.3900175
20	0x41e8e830	29.113373
21	0x4029966e	2.6498065
22	0x43f655d6	492.6706
23	0x41763d83	15.3900175
24	0x418a7c11	17.31058
25	0x3f7c0cd2	0.9845706
26	0x43e426a6	456.30194
27	0x416d4234	14.828663
28	0x41dd8699	27.690722
29	0x40241f51	2.5644114
30	0x43e426a6	456.30194
31	0x416d4234	14.828663
32	0x418a6e3e	17.30383
33	0x3f7fc797	0.99913925
34	0x43e2db67	453.71408
35	0x4171d0fe	15.1135235
36	0x41e3acd8	28.459396
37	0x4026f732	2.6088376
38	0x43e2db67	453.71408
39	0x4171d0fe	15.1135235
40	0x4188de3d	17.108515
41	0x3f814395	1.0098749
42	0x43e58fca	459.12335
43	0x417959c0	15.584412
44	0x41e8e830	29.113373
45	0x4029966e	2.6498065
46	0x43e58fca	459.12335
47	0x417959c0	15.584412

fc1.weight f4 [128, 48]
0	0xbd71cabc	-0.059031233
1	0xbe072425	-0.13197382
2	0xbe8f7803	-0.2802125
3	0x3ce2a9b4	0.027668811
4	0xbe9feaaf	-0.31233737
5	0xbdbd3d77	-0.09240239
6	0x3d06f77b	0.03295086
7	0xbe4ef7e5	-0.20211752
8	0xbe7bc607	-0.2458726
9	0xbde71fc7	-0.11285358
10	0xbd4c9bcb	-0.049953263
11	0xbedabf0f	-0.4272389
12	0x3e664956	0.22488913
13	0x3e38b5e7	0.1803814
14	0xbc49f2d1	-0.012325958
15	0xbe5f9ed0	-0.21837926
16	0x3d7d5b0a	0.0618544
17	0xbe001547	-0.12508117
18	0xbe783dc9	-0.24242319
19	0xbd18d4ce	-0.03731232
20	0x3e22d01f	0.15899704
21	0x3e0e34d2	0.13887337
22	0xbd889f3d	-0.06670997
23	0xbef7a0c3	-0.4836484
24	0x3e22f7b5	0.15914805
25	0x3db34d73	0.08755007
26	0x3e0a2dc5	0.13494022
27	0x3a433f34	0.00074480777
28	0x3ebffc1e	0.37497038
29	0xbd98b0c2	-0.07455589
30	0xbe81810e	-0.25293773
31	0x3e6240d2	0.2209504
32	0xbdee9a83	-0.116505645
33	0x3d86f339	0.0658936
34	0xbc69381b	-0.014234568
35	0x3cbec782	0.023288492
36	0x3e822da9	0.2542546
37	0x3d914de0	0.070949316
38	0xbe1c0845	-0.1523753
39	0x3e47a61f	0.19496964
40	0xbdde04ec	-0.108407825
41	0x3ebbc7d8	0.36675906
42	0xbe15f39e	-0.14643714
43	0xbc021e08	-0.00794173
44	0xbe72a743	-0.23696618
45	0x3e0fd35b	0.1404547
46	0xbd17242e	-0.036899738
47	0x3e2a47b8	0.16628921
48	0x3e5d69cb	0.21622388
49	0xbb7f0909	-0.0038915297
50	0xbea08fe5	-0.31359783
51	0x3e073c1f	0.13206528
52	0x3cd3fbce	0.025876906
53	0x3dbd25bc	0.09235713
54	0x3e608f6b	0.2192971
55	0x3da36c85	0.07979683
56	0xbc8442a6	-0.016145062
57	0xbe3b5dd1	-0.18297507
58	0x3e9f1e3d	0.31077757
59	0xb92513d8	-0.00015743019
60	0x3ea539f4	0.32270777
61	0xbc808098	-0.015686318
62	0x3cd4ee7d	0.025992626
63	0x3e25bbae	0.16184875
64	0xbd4eb061	-0.050461177
65	0x3d8c26ea	0.0684336
66	0xbdcd5a8a	-0.100270346
67	0x3e504280	0.20337868
68	0x3eca5c6e	0.39523643
69	0x3e510e44	0.20415598
70	0x3de65032	0.11245765
71	0x3b2679d1	0.0025402198
72	0x3db570f2	0.08859433
73	0xbe84c6c0	-0.25932884
74	0xbd458579	-0.048222993
75	0x3e4489e8	0.19193232
76	0xbe49ee0b	-0.19719712
77	0x3df8f1ec	0.12155518
78	0xbe633ba9	-0.22190727
79	0xbcd86d4d	-0.026419306
80	0x3d093fa0	0.033507943
81	0xbe70498e	-0.23465559
82	0x3de2fd97	0.11083525
83	0x3c8d6e3a	0.017264474
84	0xbe8c35d1	-0.2738481
85	0x3dd564f8	0.10419649
86	0xbdc6c27a	-0.09705062
87	0x3e35634d	0.17713661
88	0x3eefd041	0.46838573
89	0x3e64e747	0.2235385
90	0x3eb18c26	0.34677237
91	0x3d059c7f	0.03261995
92	0xbeaa9083	-0.3331338
93	0x3e5371d3	0.20648889
94	0x3e6fb63a	0.23409358
95	0x3e2f6ec0	0.17132092
96	0x3c1bd0b8	0.009510212
97	0xbac09f63	-0.0014695938
98	0xbe6e025d	-0.23243089
99	0xbd1b4c2e	-0.037914447
100	0x3e2193a2	0.15778974
101	0xbd29ebb6	-0.041484557
102	0x3e9d1029	0.30676392
103	0xbea1a1ea	-0.31568843
104	0x3d14e7ab	0.03635375
105	0xbe74266c	-0.23842782
106	0x3ed67e75	0.41893354
107	0xbd8edb84	-0.06975463
108	0x3e8d9a3c	0.27656734
109	0xbf093d7b	-0.53609437
110	0xbd5bc8c7	-0.053658273
111	0x3d5a842f	0.053348716
112	0xbd945d50	-0.072443604
113	0xbd4ba0c4	-0.049713865
114	0x3db82f4b	0.089933954
115	0x3e9dba82	0.30806357
116	0x3daf721c	0.085666865
117	0xbdde242c	-0.10846743
118	0x3ebad384	0.364895
119	0x3d7a7009	0.061142
120	0xbee6b515	-0.4506003
121	0x3e401a06	0.18759927
122	0x3f593922	0.848528
123	0x3ea75565	0.32682338
124	0x3cdef3e6	0.02721591
125	0x3e054fd0	0.13018727
126	0x3d97bb42	0.074087635
127	0xbf4277b1	-0.75963885
128	0xbcca7b5f	-0.024717031
129	0xbeb09989	-0.34492138
130	0x3dc0ccf5	0.094140925
131	0xbd679667	-0.05653992
132	0x3d8a56ab	0.06754812
133	0xbe88acf8	-0.26694465
134	0x3e714bd8	0.23564088
135	0xbed29b7b	-0.41134247
136	0x3de98842	0.11402942
137	0xbefb98ff	-0.49140164
138	0x3e3db4d0	0.18526006
139	0x3d6eefbe	0.058334105
140	0xbc111be2	-0.008856745
141	0xbe892d30	-0.26792288
142	0xbe00ae1c	-0.12566417
143	0x3f04656f	0.51717275
144	0xbcef36c8	-0.029200926
145	0x3ee58118	0.44825053
146	0xbe2eefaf	-0.1708362
147	0xbca3a079	-0.01997398
148	0xbcb24f45	-0.021766314
149	0x3d5312c9	0.051531587
150	0x3f01231e	0.5044421
151	0x3f134a99	0.575357
152	0xbd2e6007	-0.042572048
153	0x3e653898	0.2238487
154	0x3e91b6f5	0.28459898
155	0xbd249f2b	-0.040190857
156	0x3f1f97d5	0.6234105
157	0xbeb1b0a6	-0.34705085
158	0x3e1db208	0.15399945
159	0x3db2e45d	0.08734963
160	0x3e7f2ca8	0.24919379
161	0x3e10f097	0.14154278
162	0xbdbd36a1	-0.09238935
163	0xbeb249cb	-0.34821925
164	0xbe54134d	-0.20710488
165	0xbd8b1b4f	-0.06792318
166	0x3d72c2a3	0.05926765
167	0xbf168aad	-0.5880535
168	0xbe19db67	-0.15025102
169	0xbd44107a	-0.047867276
170	0x3e516a0c	0.2045061
171	0xbc891edc	-0.016738348
172	0x3d20eebb	0.03929017
173	0xbd80afd6	-0.06283538
174	0xbd82b17a	-0.06381507
175	0x3d83ae7e	0.06429766
176	0x3e0124f8	0.12611759
177	0x3d4684e9	0.048466597
178	0x3d95f796	0.07322614
179	0x3bde78ce	0.0067893034
180	0xbd01fdd1	-0.0317362
181	0xbe419062	-0.18902734
182	0x3eba3492	0.36368233
183	0x3de3d05b	0.11123725
184	0xbddf1da2	-0.10894324
185	0xbda86a0b	-0.08223351
186	0x3e0d3e5e	0.13793322
187	0x3d504f4f	0.050856885
188	0x3e83f29c	0.25771034
189	0xbecadfea	-0.39623958
190	0x3de704ec	0.11280236
191	0xbe92b4dd	-0.28653613
192	0x3db31aac	0.08745322
193	0xbd4860b9	-0.048920367
194	0xbe5ef044	-0.21771342
195	0xbca264d6	-0.019823473
196	0x3e638e8b	0.22222345
197	0xbe128213	-0.14307432
198	0xbea61d8a	-0.32444412
199	0x3e531b0b	0.20615785
200	0x3e2b14df	0.1670718
201	0xbe09a7a5	-0.13442858
202	0xbd11bb02	-0.035578735
203	0x3e0450b1	0.12921406
204	0x3ea75efc	0.32689655
205	0xbf3db958	-0.7411094
206	0x3d668a81	0.05628443
207	0x3ed0d360	0.40786266
208	0x3de9573e	0.11393593
209	0x3c273192	0.01020469
210	0xbeb437fa	-0.35198957
211	0x3dab041d	0.08350394
212	0xbdaa6347	-0.08319717
213	0xbdf94f80	-0.121733665
214	0xbeae36c5	-0.3402616
215	0xbe420dd5	-0.18950589
216	0x3f2d09f9	0.6759334
217	0x3e12b791	0.14327838
218	0xbe69671c	-0.2279324
219	0x3d16acde	0.036785953
220	0xbeaf69cc	-0.34260404
221	0xbe85e12b	-0.26148352
222	0xbf1f118c	-0.6213615
223	0xbea67a14	-0.32515013
224	0xbe2979b8	-0.16550338
225	0x3e98d19d	0.29847422
226	0xbd4dcfaf	-0.05024689
227	0xbddf167d	-0.10892961
228	0x3bd18056	0.0063934727
229	0xbe8ba9d2	-0.27278
230	0x3dd334d2	0.10312809
231	0x3e23bb0b	0.1598932
232	0xbec7b63a	-0.39006215
233	0x3e9f6f34	0.3113953
234	0xbf1fe58d	-0.6245964
235	0xbd38928a	-0.045061626
236	0x3e892f16	0.26793736
237	0xbe4fb8d9	-0.20285358
238	0xbf1ed117	-0.62037796
239	0xbea042bb	-0.3130091
240	0xbba23a55	-0.0049508014
241	0xbcecc915	-0.028904477
242	0x3dbf38e9	0.093370266
243	0xbcf66943	-0.03007949
244	0x3efe40ca	0.49658805
245	0x3e686c11	0.22697474
246	0x3ebebc12	0.3725286
247	0xbe34e937	-0.1766709
248	0x3d8320e6	0.06402759
249	0x3dd66227	0.1046794
250	0x3eab2e4c	0.3343376
251	0xbd043699	-0.03227863
252	0x3d811bf0	0.06304157
253	0x3e8bb5cc	0.27287138
254	0x3dcda961	0.10042072
255	0xbd8f61eb	-0.07001098

fc1.bias f4 [128]
0	0xbcb79545	-0.022410044
1	0xbe811749	-0.25213078
2	0xbef12904	-0.47101605
3	0xbecc768e	-0.399342
4	0xbed860f0	-0.42261457
5	0xbe351b33	-0.17686157
6	0xbed0f3e4	-0.40811074
7	0xbe7f96b3	-0.24959831
8	0xbdcd29a9	-0.10017712
9	0xbf06b754	-0.52623487
10	0xbd882a1a	-0.06648655
11	0x3e8b77e6	0.27239913
12	0xbea8af48	-0.3294623
13	0xbdd2fc3e	-0.10302018
14	0xbdcb3fc6	-0.09924273
15	0xbed00115	-0.40625826
16	0xbe969e1e	-0.2941751
17	0xbdabbe6c	-0.083859295
18	0xbf02a281	-0.5102921
19	0x3d828060	0.06372142
20	0xbed8421e	-0.42237943
21	0xbe222912	-0.1583598
22	0xbe059f04	-0.13048941
23	0xbe945c59	-0.28976706
24	0xbeb08645	-0.3447744
25	0xbe628f32	-0.22124937
26	0xbf081dde	-0.53170574
27	0xbe74fb0a	-0.23923889
28	0xbda5cc45	-0.08095602
29	0xbe5b1582	-0.21394923
30	0xbe61e8dc	-0.22061485
31	0xbeb5a66e	-0.35478538
32	0xbe8d798e	-0.276318
33	0xbe1042ab	-0.14087932
34	0xbe78ad7a	-0.24284926
35	0xbee33c54	-0.44381964
36	0xbd8a697e	-0.06758402
37	0xbec0a274	-0.37623942
38	0xbe396793	-0.18105917
39	0xbe745e34	-0.2386406
40	0xbe901fe8	-0.28149343
41	0x3d043ac8	0.03228262
42	0xbe3b06f5	-0.18264373
43	0xbf698e88	-0.9123311
44	0xbe92739d	-0.2860383
45	0xbdb4a4e2	-0.088205114
46	0xbefd8d19	-0.4952171
47	0x3d971282	0.07376577
48	0xbe1c8cd2	-0.15288094
49	0xbee24d00	-0.4419937
50	0xbda13dbf	-0.07873105
51	0xbe8742ce	-0.26418155
52	0xbdedd4ee	-0.11612879
53	0xbe5b1338	-0.2139405
54	0xbc5a8d4f	-0.013339355
55	0xbdb7dd97	-0.08977812
56	0xbe7ea41f	-0.24867295
57	0xbe2eb5d2	-0.17061546
58	0xbe2eb98b	-0.17062967
59	0xbe2b6f4e	-0.16741678
60	0xbec0b09c	-0.37634742
61	0xbeacb232	-0.33729702
62	0xbe914a37	-0.28376934
63	0xbe933113	-0.28748378
64	0xbe9f9484	-0.31167996
65	0xbec4aa9b	-0.38411412
66	0xbe92acb3	-0.28647384
67	0x3e5b4e65	0.21416624
68	0xbc97300c	-0.018455528
69	0xbf492d46	-0.78584707
70	0xbe5d2dbe	-0.2159948
71	0xbd990341	-0.07471324
72	0xbe28685c	-0.1644606
73	0xbe983cd1	-0.297339
74	0xbe165f92	-0.14684895
75	0xbebb0105	-0.36524215
76	0xbe052a18	-0.13004339
77	0x3e562a62	0.20914605
78	0xbddd62a1	-0.108098276
79	0xbe07c996	-0.13260493
80	0x3cc4578a	0.023967523
81	0xbdb385e7	-0.08765774
82	0xbd3e83ab	-0.046512287
83	0xbe52d515	-0.20589097
84	0xbf0ef5fa	-0.5584408
85	0xbf01721b	-0.50564736
86	0x3e8dcbc4	0.27694523
87	0xbda350f3	-0.07974424
88	0xbe597b14	-0.21238357
89	0x3ddf0b8a	0.10890873
90	0xbe82bc5b	-0.2553433
91	0xbe31f9a0	-0.1738038
92	0xbe71be08	-0.23607647
93	0xbe8b95eb	-0.27262816
94	0xbdf502ba	-0.11963411
95	0xbf0c8b25	-0.5489982
96	0xbd2e0956	-0.042489372
97	0xbe8da09c	-0.27661598
98	0xbe30f75c	-0.1728186
99	0xbf3d3017	-0.73901504
100	0xbe29eed3	-0.1659501
101	0x3e26a93d	0.16275497
102	0xbc2f30d0	-0.01069279
103	0xbe6e6d22	-0.23283818
104	0xbd99055f	-0.074717276
105	0xbe5c658c	-0.21523112
106	0x3d50f39e	0.05101358
107	0xbe89a1ad	-0.2688116
108	0xbd96d2ac	-0.07364401
109	0xbddc1ae8	-0.107473195
110	0xbe4d3247	-0.2003871
111	0xbdfbea85	-0.123005904
112	0xbe4127e1	-0.18862869
113	0xbf0bb1ea	-0.5456835
114	0xbe1111af	-0.14166902
115	0xbe46b2a9	-0.19404091
116	0xbe8ca0dd	-0.2746648
117	0xbccf8211	-0.025330575
118	0xbe3ef4ee	-0.18648121
119	0xbc61d194	-0.0137828775
120	0x3d653112	0.055955
121	0xbe8aa464	-0.27078545
122	0xbdcf91b2	-0.10135211
123	0xbeb19122	-0.3468104
124	0xbe503830	-0.20333934
125	0xbe285b1a	-0.16441002
126	0xbeba18b2	-0.36346966
127	0xbf347401	-0.7048951

fc2.weight f4 [128, 132]
0	0x3e3ea826	0.18618831
1	0xbda4f7ea	-0.08055098
2	0xbe26b70e	-0.16280767
3	0xbcf2931d	-0.029611165
4	0xbee2e66e	-0.4431643
5	0xbee1c6b4	-0.4409691
6	0x3dc5fa70	0.09666908
7	0xbcec60f5	-0.028854826
8	0xbfc650bf	-1.5493392
9	0xbe006762	-0.12539437
10	0xbd1b2ef0	-0.03788656
11	0xbe0682f3	-0.1313589
12	0xbead5192	-0.33851296
13	0x3de49a00	0.11162186
14	0xbf3551df	-0.7082805
15	0xbf0f97c9	-0.5609098
16	0xbf18ebef	-0.59735006
17	0xbf9229ca	-1.1419003
18	0xbc18512f	-0.009296699
19	0xbf1da843	-0.6158487
20	0x3f55cb0e	0.8351296
21	0xbeb042e0	-0.34426022
22	0xbf0e0db5	-0.55489665
23	0xbde97c45	-0.11400656
24	0xbc8271b5	-0.01592336
25	0x3ec7b131	0.39002374
26	0x3e11c956	0.1423696
27	0xbe92ba9d	-0.28658
28	0x3dcb4bfd	0.09926603
29	0x3da0ba95	0.07848088
30	0x3b2c0aa7	0.0026251466
31	0xbe2a2c69	-0.16618504
32	0x3dba3f24	0.09094074
33	0xbe0a0f9c	-0.13482517
34	0xbeee5fb1	-0.46557382
35	0xbf55a4e4	-0.8345473
36	0xbf33bb85	-0.7020801
37	0xbf9cc87c	-1.2248683
38	0x3c9b05c4	0.018923648
39	0xbf3fa17a	-0.7485577
40	0xbe806db1	-0.25083688
41	0xbec53ce8	-0.3852303
42	0xbe77179f	-0.24130104
43	0xbf1a9c4f	-0.6039476
44	0x3e409539	0.18806924
45	0x3d3c44c8	0.045964032
46	0xbec13eca	-0.37743217
47	0x3d8e1eb1	0.06939448
48	0x3e01f72c	0.12691945
49	0x3f188ac5	0.59586746
50	0xbe85de34	-0.2614609
51	0x3e1b05a5	0.15138872
52	0x3d99d7ae	0.07511841
53	0xbdf4b63d	-0.11948822
54	0xbe463901	-0.19357683
55	0x3d3724e1	0.044712905
56	0xbebebd52	-0.37253815
57	0xbe9dd51d	-0.30826655
58	0xbe5759c7	-0.21030341
59	0xbec19ee9	-0.3781655
60	0xbf44c065	-0.7685607
61	0xbe75f6a6	-0.2401987
62	0xbd8ceed1	-0.06881488
63	0xbefdfb3c	-0.4960574
64	0xbd67891a	-0.056527235
65	0xbdc2ea69	-0.095173664
66	0xbea898b5	-0.32929006
67	0xbea53932	-0.322702
68	0xbf662218	-0.8989577
69	0x3e844512	0.25833946
70	0xbf057705	-0.52134734
71	0xbec07ad4	-0.3759371
72	0xbeca4afb	-0.3951033
73	0x3e3a3161	0.18182899
74	0xbcfd3b70	-0.030912131
75	0x3e1c9e95	0.15294869
76	0xbeaf4e94	-0.34239638
77	0x3e386cf8	0.18010318
78	0x3e64f3d8	0.22358644
79	0xbea3f9f6	-0.32026643
80	0xbe8787be	-0.2647075
81	0xbd8dd01a	-0.06924458
82	0xbde88f72	-0.11355485
83	0x3e1ea8e9	0.15494122
84	0x3f0420b1	0.51612383
85	0xbe230a74	-0.15921956
86	0xbebe9b18	-0.37227702
87	0xbe25681f	-0.16153
88	0xbeaeb1d1	-0.34120038
89	0xbe29aedb	-0.16570608
90	0x3e399975	0.18124945
91	0xbbcc5ea6	-0.006236869
92	0xbe564962	-0.20926431
93	0x3d5eefd6	0.054427944
94	0x3d3c9dcf	0.046048936
95	0x3c8ec256	0.017426651
96	0xbdb3bd2e	-0.087763175
97	0xbfb484be	-1.410301
98	0x3e55cb78	0.20878398
99	0x3b985415	0.0046486952
100	0x3e8186fb	0.25298294
101	0xbf35c2ad	-0.71000177
102	0xbe034e6c	-0.12822884
103	0x3e8274d9	0.25479773
104	0xbdd561e0	-0.10419059
105	0xbe33bbf2	-0.17552164
106	0xbea15946	-0.31513423
107	0xbf2427d9	-0.641233
108	0xbdf17564	-0.117899686
109	0xbe7a82b2	-0.24463919
110	0xbe13534c	-0.14387244
111	0xbe30a553	-0.17250566
112	0xbe0c5640	-0.13704777
113	0xbcfa704e	-0.03057113
114	0xbe7f8133	-0.2495163
115	0xbf813831	-1.0095273
116	0xbf19c8c4	-0.6007197
117	0x3d9d0d96	0.07668607
118	0x3d5384bb	0.051640254
119	0xbd0af7e1	-0.033927802
120	0xbe26d50f	-0.16292213
121	0xbda4e60e	-0.08051692
122	0xbf6d3eb6	-0.92673814
123	0xbe278116	-0.16357836
124	0x3dce9dec	0.10088715
125	0x3ea8d20f	0.32972762
126	0xbf2cf9cd	-0.67568666
127	0xbf192efb	-0.5983731
128	0x3e496b19	0.19669761
129	0x3e6cbf3d	0.23119827
130	0xbe980e2d	-0.29698315
131	0x3e434a94	0.19071418
132	0x3ddc5165	0.10757712
133	0xbd251f22	-0.040312894
134	0xbdb8d104	-0.090242416
135	0xbdac5bdb	-0.084159575
136	0xbdeb7f18	-0.114988506
137	0xbeaa614e	-0.33277363
138	0x3d8437d2	0.064559594
139	0xbf20fa64	-0.62882066
140	0x3e3c636a	0.18397298
141	0x3ce338aa	0.02773698
142	0xbe76faf4	-0.24119169
143	0x3e39eddb	0.18157141
144	0xbea17f53	-0.31542453
145	0x3e21ef98	0.15814054
146	0x3e25e90d	0.16202183
147	0x3e144b88	0.14481938
148	0xbd3c3fcf	-0.04595929
149	0xbe7b7add	-0.24558587
150	0xbe9f4cc2	-0.3111325
151	0xbe549011	-0.20758082
152	0xbe6aea74	-0.22941
153	0xbc8fdd84	-0.017561682
154	0x3dd8bc38	0.10582775
155	0xbe1b9f5c	-0.1519751
156	0xbe8a4938	-0.27008986
157	0x3e87cde7	0.2652428
158	0xbeb5acd7	-0.3548343
159	0xbf21af97	-0.63158554
160	0x3d434578	0.047673672
161	0x3dadde3c	0.084896535
162	0xbe72ccc7	-0.23710929
163	0xbf955525	-1.1666609
164	0xbd8275a4	-0.063700944
165	0x3dcd5305	0.100256
166	0x3ea8ee1f	0.32994172
167	0xbf5655d0	-0.8372469
168	0xbedebbbd	-0.43502608
169	0x3eb50f4c	0.35363233
170	0xbdad892d	-0.0847343
171	0xbf6013d6	-0.8753027
172	0xbefd2578	-0.4944265
173	0xbe003f22	-0.12524083
174	0x3e6f361a	0.23360482
175	0xbfa5d7f7	-1.2956532
176	0x3ca07e0b	0.019591352
177	0x3dfb0b72	0.122580424
178	0x3eb228a1	0.34796622
179	0xbc1e7ddc	-0.009673562
180	0x3da2b725	0.07945088
181	0xbbbc8e48	-0.005754266
182	0xbdd96366	-0.10614662
183	0x3e73509b	0.23761217
184	0xc0653d14	-3.581853
185	0xbd44ba31	-0.04802913
186	0x3e8b4e53	0.27208194
187	0x3d62ee0d	0.055402804
188	0xbedf326b	-0.43593153
189	0x3e9027c0	0.28155327
190	0xbca460b0	-0.020065635
191	0xbee116bf	-0.43962666
192	0xbc1f6f49	-0.009731122
193	0xbed00f9d	-0.40636912
194	0xbd135676	-0.035971127
195	0x3e4bd5cb	0.19905774
196	0xbbdbd491	-0.0067086895
197	0xbdd45f8d	-0.10369787
198	0xbe9192ab	-0.2843221
199	0xbee8a774	-0.45440257
200	0xbe40edc1	-0.18840696
201	0x3c765bab	0.015036504
202	0xbe3565c9	-0.17714609
203	0x3e915b47	0.28389952
204	0xbd4fadd5	-0.05070289
205	0x3dc057a8	0.09391719
206	0x3dac7e81	0.08422566
207	0xbf486770	-0.78282833
208	0x3e53700e	0.20648214
209	0xbd9f46b7	-0.0777716
210	0xc0492074	-3.1426058
211	0xbf0f89bf	-0.5606956
212	0xbd37e9f3	-0.044900846
213	0xbef08d5d	-0.46982852
214	0xbecb60d3	-0.3972231
215	0xbdf2b83d	-0.11851547
216	0xbeac3b02	-0.3363877
217	0x3e187a90	0.14890504
218	0x3ec9bb69	0.39400795
219	0xbe997b51	-0.29976895
220	0x3e68e371	0.22743012
221	0xbbbd45d1	-0.005776145
222	0xbd748669	-0.059698496
223	0x3e0e68b6	0.13907132
224	0xbe8d28b2	-0.2757011
225	0xbe84f0f9	-0.25965098
226	0x3eb4867f	0.35258862
227	0x3e188c67	0.14897309
228	0xbcc212e9	-0.023690658
229	0x3e47fc12	0.19529751
230	0xbca03c8b	-0.01956012
231	0x3e86c3bb	0.26321205
232	0x3e739f8d	0.23791333
233	0xbf0bdc03	-0.54632586
234	0xbe98928f	-0.29799315
235	0x3ed1736f	0.4090838
236	0xbcbeaeda	-0.023276735
237	0xc082b75f	-4.084884
238	0x3eb5da9c	0.35518348
239	0xbd2c4cd2	-0.04206545
240	0x3eae5256	0.34047192
241	0x3d3dfaa4	0.046381608
242	0xbd5b5853	-0.05355103
243	0x3e6d935c	0.23200744
244	0xbeca64c5	-0.39530006
245	0xbedf2c21	-0.43588355
246	0x3eba0e06	0.36338824
247	0xbd9e9aea	-0.07744391
248	0x3d98b460	0.07456279
249	0xbd3fb394	-0.04680212
250	0xbe9e88f6	-0.30963868
251	0xbf8a67b3	-1.0812896
252	0x3c77329f	0.015087753
253	0x3da74bf1	0.081687815
254	0xbf07faf5	-0.53117305
255	0x3daa4a53	0.083149575

fc2.bias f4 [128]
0	0xbe711229	-0.23542084
1	0x3e385c3b	0.18003933
2	0x3d9082f9	0.07056231
3	0xbe2ac40a	-0.16676345
4	0xbcc698a7	-0.024242712
5	0x3d922866	0.07136612
6	0xbedb6a24	-0.42854416
7	0xbed8c7d9	-0.42339972
8	0x3db8660f	0.09003841
9	0x3d95e56c	0.073191494
10	0x3e8685a4	0.26273835
11	0x3c89212b	0.016739449
12	0xbe7caccb	-0.2467529
13	0xbe66b34a	-0.22529331
14	0xbd242c29	-0.040081177
15	0xbe3740ee	-0.17895862
16	0x3e19f554	0.15034992
17	0xbd6f16e2	-0.058371432
18	0xbe5a880d	-0.21340962
19	0x3f328922	0.697405
20	0xbe28af86	-0.16473207
21	0x3d7de947	0.06199005
22	0xbd06c961	-0.032906894
23	0xbe521c17	-0.20518528
24	0x3e64d4b7	0.2234677
25	0x3ef9f232	0.48817593
26	0xbe63471b	-0.22195093
27	0x3c59f04c	0.01330192
28	0x3e89aa7a	0.26887876
29	0x3e5d7ad0	0.2162888
30	0xbc6be650	-0.0143981725
31	0x3de86626	0.11347608
32	0x3efcd65f	0.49382302
33	0xbf197441	-0.59943014
34	0x3d7632fe	0.060107224
35	0xbe902517	-0.28153297
36	0xbd25a5d9	-0.040441368
37	0x3e8e642b	0.27810797
38	0xbe83b79d	-0.25726023
39	0xbe64ccc0	-0.22343731
40	0xbe3b4eab	-0.18291728
41	0xbe4227cb	-0.18960492
42	0x3eda789d	0.42670146
43	0xbe3407f0	-0.17581153
44	0xbdf8ccb8	-0.12148422
45	0x3dff5384	0.12467101
46	0x3e6c9d1a	0.23106804
47	0x3d6e1de4	0.058133975
48	0x3e291cd3	0.16514902
49	0xbe76057c	-0.2402553
50	0xbebc394e	-0.3676247
51	0xbdffac05	-0.12483982
52	0x3d81fea1	0.06347395
53	0x3e611821	0.2198186
54	0x3dad8c49	0.08474023
55	0xbe2cf312	-0.16889599
56	0xbe4d2bc5	-0.20036228
57	0x3e82b765	0.25530544
58	0x3ecf6504	0.40506756
59	0xbe5e2824	-0.21695
60	0x3e0e8eca	0.13921657
61	0xbec7bf38	-0.39013076
62	0xbe7083ff	-0.23487853
63	0x3e0323bf	0.12806605
64	0xbeb9c51a	-0.3628319
65	0xbd46ecb6	-0.04856559
66	0xbe3c1959	-0.18369044
67	0xbc205c63	-0.009787652
68	0xbea7ce1e	-0.32774442
69	0x3d5016dc	0.05080305
70	0xbe6c1a85	-0.23056991
71	0x3efdb155	0.49549356
72	0xbde1421e	-0.10998939
73	0xbe6d89e4	-0.23197132
74	0xbc9338f0	-0.017971486
75	0xbea496f0	-0.32146406
76	0x3e82945d	0.25503817
77	0x3ea7a704	0.3274461
78	0xbe153ff9	-0.14575185
79	0x3e8dfebb	0.27733406
80	0xbe1970e9	-0.14984478
81	0x3e73c464	0.23805386
82	0xbed6f212	-0.4198156
83	0xbd86a596	-0.06574552
84	0xbefc3833	-0.49261627
85	0x3dfeb96b	0.124377094
86	0xbdee7436	-0.11643259
87	0xbe1e673d	-0.1546907
88	0x3e3fda59	0.18735637
89	0xbe922ab2	-0.285482
90	0x3ce20dea	0.027594525
91	0xbec679b8	-0.3876474
92	0xbe0314fc	-0.12800974
93	0xbd7d0e33	-0.06178112
94	0xbe51233b	-0.20423596
95	0xbeedaf13	-0.46422634
96	0xbe706144	-0.23474604
97	0xbcd5d32e	-0.026101675
98	0xbd22241b	-0.039585214
99	0xbeddde34	-0.4333359
100	0xbe9cd9fb	-0.30635056
101	0xbee5afc2	-0.44860655
102	0xbe477067	-0.19476472
103	0x3e183070	0.14862227
104	0xbe3d0235	-0.18457873
105	0xbf26a50b	-0.65095586
106	0x3dabc9ab	0.083880745
107	0xbd046bb9	-0.032329295
108	0xbd546514	-0.051854208
109	0xbd5e3b5b	-0.054255825
110	0xbee3e660	-0.445117
111	0xbec53d06	-0.3852312
112	0x3dcd0787	0.10011201
113	0xbe6ff5fb	-0.23433678
114	0x3e2349ee	0.1594617
115	0xbe983d78	-0.29734397
116	0xbe277e0a	-0.16356674
117	0xbce23959	-0.027615236
118	0xbde6be29	-0.11266739
119	0x3ea31704	0.31853497
120	0x3e8d4a50	0.27595758
121	0xbe8a1bd4	-0.26974356
122	0xbd3db095	-0.04631098
123	0x3d40efd4	0.047103718
124	0x3bc942a1	0.006141976
125	0xbe8fd211	-0.28089955
126	0x3ee8b0ac	0.4544729
127	0x3d75a2fc	0.059969887

fc3.weight f4 [1, 128]
0	0xbeee7d5a	-0.4658001
1	0x3d89bcb2	0.06725444
2	0x3db0b5c6	0.086284205
3	0xbf5ecb38	-0.8702884
4	0x3cbb869f	0.02289134
5	0x3e8bbca1	0.2729235
6	0xbef833ca	-0.48477012
7	0x3eb01897	0.3439376
8	0xbe2f4d7c	-0.17119402
9	0x3da470d4	0.08029333
10	0x3d05cde8	0.03266707
11	0x3e2c6c4b	0.16838185
12	0xbeb07def	-0.3447108
13	0x3e0bfcc5	0.13670643
14	0x3dd42e12	0.1036035
15	0x3e3fdc43	0.18736367
16	0x3e4c862b	0.19973056
17	0xbd96b4ff	-0.07358741
18	0x3eaaff72	0.33398014
19	0x3d94ad71	0.07259644
20	0xbd809cb4	-0.06279889
21	0xbdd0f5b3	-0.102031134
22	0xbf1ffe03	-0.62496966
23	0xbe361c05	-0.17784126
24	0xbd79d6bf	-0.060995813
25	0x3d5eca01	0.054391865
26	0xbe2bb90f	-0.16769813
27	0x3e660d85	0.22466095
28	0xbe1f3994	-0.15549308
29	0x3d9f3ab9	0.07774872
30	0x3e18984c	0.14901847
31	0x3e3967cc	0.18106002
32	0x3cf24d71	0.029577943
33	0xbe8deb67	-0.2771866
34	0xbeef9f27	-0.4680111
35	0x3e8c5137	0.27405712
36	0x3dff6046	0.124695346
37	0xbecdcf6d	-0.40197316
38	0xbed37402	-0.41299444
39	0xbdb37e0a	-0.087642744
40	0x3e3c0bcc	0.18363875
41	0x3f1a2412	0.6021129
42	0xbe7c42f2	-0.24634913
43	0xbf3dab8d	-0.7408989
44	0x3daa16ad	0.08305106
45	0x3de581b9	0.11206383
46	0xbdf8e80e	-0.12153636
47	0x3ed6c0ac	0.41943872
48	0x3df4d82b	0.11955293
49	0xbedbdfca	-0.42944175
50	0xbe1395d6	-0.14412627
51	0x3d2cb62c	0.04216592
52	0xbe19cbee	-0.15019199
53	0xbdf6b0d5	-0.12045447
54	0xbe3d4ecc	-0.1848709
55	0xbf27b6b0	-0.65513134
56	0xbeadd4db	-0.33951458
57	0xbe8385a0	-0.25687885
58	0xbdfebf81	-0.1243887
59	0x3e7d8e68	0.24761355
60	0x3df6651e	0.12031005
61	0xbe9a6480	-0.301548
62	0x3f3bb41c	0.733217
63	0x3dad26b3	0.08454647
64	0xbe87a642	-0.26494032
65	0x3e61f659	0.2206663
66	0x3ef9c094	0.48779738
67	0x3e8052cf	0.25063178
68	0xbf18824c	-0.5957382
69	0x3e18474d	0.14870949
70	0xbf140802	-0.5782472
71	0x3d7d3269	0.061815653
72	0x3d077522	0.03307069
73	0x3d9fb6a4	0.07798508
74	0x3e37e033	0.17956619
75	0x3e0902ef	0.13380025
76	0x3d4ac964	0.049508467
77	0x3d06c855	0.032905895
78	0xbf1fd0fc	-0.6242826
79	0x3cfc86e6	0.030826043
80	0x3eb12dcc	0.34605253
81	0x3d5743ec	0.05255501
82	0xbeadb7d3	-0.3392931
83	0x3eaca260	0.33717632
84	0x3e38f648	0.18062699
85	0xbe92dcf4	-0.286842
86	0x3e0a9b82	0.13535884
87	0x3ee6bf8c	0.45068014
88	0xbe257c51	-0.16160704
89	0x3e2151aa	0.15753809
90	0x3d45bcfb	0.04827593
91	0xbd42c56b	-0.047551554
92	0x3db7d24b	0.08975657
93	0x3e0eb164	0.13934857
94	0xbf041cb0	-0.51606274
95	0x3e39593a	0.18100443
96	0xbe71528d	-0.23566647
97	0xbddbee3c	-0.10738799
98	0xbe80f7cd	-0.25189057
99	0xbf3cfb02	-0.7382051
100	0xbe98914e	-0.2979836
101	0x3e914a32	0.2837692
102	0xbf44a707	-0.76817364
103	0x3dda61b6	0.10663168
104	0xbe718245	-0.2358485
105	0x3ec0e1a5	0.37672153
106	0x3dcaebe7	0.09908276
107	0xbe8e26ca	-0.2776397
108	0x3e48d4a6	0.19612369
109	0x3d29ba15	0.041437227
110	0x3f10367d	0.5633314
111	0xbf426fa9	-0.7595163
112	0x3e857699	0.26067045
113	0x3eae9206	0.34095782
114	0x3cff7315	0.031182805
115	0xbec04baf	-0.37557742
116	0x3e1fb140	0.1559496
117	0x3e424253	0.18970613
118	0xbd912111	-0.07086385
119	0x3db3de20	0.08782601
120	0xbee563ac	-0.44802606
121	0x3e82e141	0.2556248
122	0x3da2fa97	0.079579525
123	0x3e30e9bd	0.17276664
124	0xbdf4a5d6	-0.11945693
125	0x3db13dba	0.086543515
126	0x3ce03f8c	0.027374052
127	0x3e8aec03	0.27133188
