project3-collaboration/results/session_submission_original/maddpg_critic_reacher_1.pth (torch_old, 96211 bytes, 9 tensors)

bn0.weight f4 [48]
00000000: e659 413e f276 a83e 8bbf 3f3d a5d2 093b
00000010: 5603 6d3f 4cc9 403f 71c7 cf3d 1f06 5d3e
00000020: 3d9a 503e 98f0 053b b0ac 08ba 83c6 a53d
00000030: 4f07 99be 35e1 45bb 21be 123e e274 2f3e
00000040: bbfd 543f ab21 0c3f c8dc 943d a5b5 cb3d
00000050: 05cb b83f 383b a43f 3710 3c3e d761 163f
00000060: 0451 5c3e 79a2 bb3e 698d 0c3e 9a26 17bc
00000070: 093c 693f c7a5 b13e 9dd4 c03a 9155 193e
00000080: 663e 983d a982 643d 7ed5 123c a181 973d
00000090: 2e21 f63e f609 593f 2375 e63d 32e7 8a3e
000000a0: 8679 653f 9620 cc3e 5ea1 023e 897a 95bd
000000b0: 0fd3 743f 636a a63e f7a3 3a3e 60ff 173f
0.1888195 0.32903248 0.04681353 0.0021030095 0.92583215 0.75307155 0.10145462 0.21584366
0.20371337 0.0020437595 -0.0005213721 0.08094504 -0.2988839 -0.0030194048 0.14330341 0.17134431
0.8319966 0.54738873 0.07268673 0.09946755 1.4436957 1.2830572 0.1836556 0.5874304
0.2151528 0.36647394 0.13725819 -0.009225512 0.9110723 0.3469679 0.0014711801 0.14974047
0.074337766 0.05578867 0.008962033 0.073977716 0.4807219 0.84780824 0.11252811 0.27129513
0.89638555 0.3986861 0.12756869 -0.07298762 0.9563455 0.32503042 0.1822661 0.59374046

bn0.bias f4 [48]
00000000: 0f37 d1bc fa4c fb3d 666b 873c 9abf 7839
00000010: db83 96bd 638a b53e 534f 61bc f83f 1cbd
00000020: 0685 87bd daab 2a3b 40b7 8eba 1229 04bb
00000030: c7e7 9cbe 0f88 fc38 7fa8 81bd 4f74 6abd
00000040: 84f5 8dbe 0233 023e 6558 5abb 1cb0 8ebd
00000050: 9f24 12be a8c1 c63e ddc4 13be ad96 a4bc
00000060: 9a5a 43bb 7575 f6bd b1c4 d93c 4921 a2be
00000070: 7b29 323e e3e8 b63c a6f9 b43b d368 34bd
00000080: aa43 8dbc 25a1 2a3c 0058 8cbb f012 80be
00000090: 81cf b63e 70bf 6b3e 49a9 aa3c 9cff 1fbd
000000a0: 0d4b 11be 8935 3bbe 651c 8d3a 526f fabe
000000b0: 16b0 e33d f62a 363e 12e9 13bb 1a42 53be
-0.02553895 0.122705415 0.016530704 0.000237225 -0.07349368 0.35457143 -0.0137518225 -0.038146943
-0.06617169 0.0026042373 -0.0010888353 -0.0020166081 -0.30645582 0.00012041639 -0.06330966 -0.057239827
-0.27726376 0.1271477 -0.0033316847 -0.06967184 -0.14271782 0.38819623 -0.14430566 -0.020091379
-0.0029808641 -0.12034122 0.026583048 -0.3166602 0.17398636 0.022327846 0.0055229245 -0.04404528
-0.017244179 0.010414396 -0.0042829514 -0.25014448 0.35705188 0.23022246 0.020832675 -0.039062127
-0.14188786 -0.18282141 0.0010765909 -0.48913056 0.1111757 0.17789826 -0.002256934 -0.20630684

bn0.running_mean f4 [48]
00000000: ab41 cfc0 3f80 e6be 0321 b540 cd70 13be
00000010: 547b 06bf 56fd 5a40 0321 b540 cd70 13be
00000020: 0ab7 d0c0 52f4 eabe 316e be40 f5d4 1abe
00000030: 1095 00bf da43 5b40 316e be40 f5d4 1abe
00000040: 630a d0c0 33d7 f0be 9fc9 d640 803f 65be
00000050: 550b f4be 1734 5b40 9fc9 d640 803f 65be
00000060: c5c8 d1c0 26b6 ebbe 3a52 ac40 b63d aebd
00000070: 547b 063f 56fd 5a40 3a52 ac40 b63d aebd
00000080: 5a59 d3c0 8f08 ecbe 59eb aa40 2207 e3bd
00000090: 1095 003f da43 5b40 59eb aa40 2207 e3bd
000000a0: c135 d4c0 0def edbe fd57 b140 44d3 52bd
000000b0: 550b f43e 1734 5b40 fd57 b140 44d3 52bd
-6.476766 -0.4501972 5.6602798 -0.14398499 -0.52531934 3.4217124 5.6602798 -0.14398499
-6.5223436 -0.45889527 5.950951 -0.15120299 -0.5022745 3.4260163 5.950951 -0.15120299
-6.501268 -0.47039184 6.712112 -0.22387505 -0.47664896 3.4250543 6.712112 -0.22387505
-6.555758 -0.46037406 5.3850374 -0.08507864 0.52531934 3.4217124 5.3850374 -0.08507864
-6.604657 -0.4610028 5.341229 -0.11085345 0.5022745 3.4260163 5.341229 -0.11085345
-6.6315618 -0.46471444 5.5419908 -0.05147101 0.47664896 3.4250543 5.5419908 -0.05147101

bn0.running_var f4 [48]
00000000: a6a8 8e41 6602 7a3f 3ac6 fa43 6e82 7941
00000010: f5c3 d741 de57 2340 3ac6 fa43 6e82 7941
00000020: eeb0 8f41 3e46 7d3f e375 fb43 6f6a 7841
00000030: 8329 d941 d6f0 2440 e375 fb43 6f6a 7841
00000040: 85d1 8f41 2b22 813f f080 f143 ec91 7541
00000050: a474 dc41 e814 2b40 f080 f143 ec91 7541
00000060: 5323 8941 40c1 803f b2ef e943 be8f 7241
00000070: f5c3 d741 de57 2340 b2ef e943 be8f 7241
00000080: c325 8941 4b9d 803f c130 ec43 f33f 7241
00000090: 8329 d941 d6f0 2440 c130 ec43 f33f 7241
000000a0: 81a7 8641 12ee 803f c694 eb43 d30f 7541
000000b0: a474 dc41 e814 2b40 c694 eb43 d30f 7541
17.832348 0.9765991 501.54865 15.594343 26.970682 2.552238 501.54865 15.594343
17.961391 0.98935306 502.921 15.525985 27.14527 2.5771995 502.921 15.525985
17.977304 1.0088552 483.00732 15.348125 27.556953 2.673151 483.00732 15.348125
17.142248 1.0058975 467.87262 15.160093 26.970682 2.552238 467.87262 15.160093
17.143438 1.0048002 472.3809 15.140613 27.14527 2.5771995 472.3809 15.140613
16.831789 1.0072653 471.1623 15.316363 27.556953 2.673151 471.1623 15.316363

fc1.weight f4 [128, 48]
00000000: d3ba 34be 5290 c1be 4b8b b4bd 4b5d e9bc
00000010: 8963 613e e223 52be 1efd 89bd 3ab4 a7bb
00000020: 223e a4bd 9071 60bd be37 083d c84f 47be
00000030: f421 d1be 6d87 f0bb b629 19be 5730 37be
00000040: aff8 153e 37dc 443e 1222 98bd cdce 6d3d
00000050: 3df7 a3be 284b 0a3f 8096 12be 443d d4bd
00000060: d1d4 7dbe 0417 39be 8c55 ee3d 586b 46bd
00000070: ea17 26be 1037 21be a0bf 2cbd 1d58 9dbe
00000080: 8a6b c6be 1fab bbbe 2d72 0e3d 04a5 b2bd
00000090: 29a2 0ebf 60f9 62bf 4a8c 81bd 2b99 15be
000000a0: 5a7a 5e3d 5340 b63d 9f27 6dbe a975 d63d
000000b0: 1682 6c3e cfc4 f13e 3f58 75bd a352 83bd
000000c0: c185 2e3d 10eb 69bd 943f 02be 3844 e2bc
000000d0: 3aae e3be 16b1 253e 3293 a43d 1eb9 d73d
000000e0: 9301 c83d 6bf7 f2bd 4272 89bc d3c7 85bc
000000f0: fd35 d73e 9e80 b03d 4dc2 ed3c 56b4 1b3e
00000100: fbd1 f6bc 77db 16be 2005 99bd 6d3d f03d
00000110: 0ee2 2e3f 33df 9bbe d1c5 863c 8796 f1bd
00000120: 7b22 9c3d d07e 3f3e 25cf 85be cf33 ec3e
00000130: 7c60 923e d36a af3e 2d75 61bd 527f cc3d
00000140: 5fda 403e 5906 503e b129 663d 1d24 ab3e
00000150: aa61 ed3d 8d1f c13e 406f 05be 6e91 65bd
00000160: 778b 313f 72f6 ab3d f665 b33c 28b9 163f
00000170: 9f5f 3fbf 53fe 1abe 07b5 c5bd 36d4 103e
00000180: b6a1 d6bd 471c d0be 8abb 1dbe 9821 40bd
00000190: 37e8 cd3d 34e8 833d bd56 033d 8cf5 6e3e
000001a0: 5685 483e 8ccd 1d3c 92a4 9bbd a61f 8a3e
000001b0: 18e5 4fbe a491 96bc f87c 40bc 2a05 723e
000001c0: 7e77 ab3e fd90 753d 816a 123e 46b4 00be
000001d0: 436b 08bf dfdf 453e 6fcc b13d 3e73 46be
000001e0: 1c01 e5bd 0a89 023d 4cbf f4bc 7c74 d53d
000001f0: a969 8a3d fb05 9c3e 63e3 d0bc 396d a7bd
00000200: 3e80 42be 2e19 0dbe df31 8d3d bb80 013e
00000210: 3716 e23d e5bc 7bbd 639b 1e3d 98f6 8e3e
00000220: 230d 31be 65c5 9abe 3e3f aabc 24ba 703d
00000230: 5e79 0e3f e2f9 553e 7e8b 6dbe 02f9 973e
00000240: 5458 40bd b0de 05be bf75 db3e 7979 ccbd
00000250: 5c7c b1bd 1376 913d 2022 583f d2b3 053e
00000260: da58 893d 5001 0f3d 131b 783d e77c 653e
00000270: 5096 113e dc69 0d3c a1fb 603e 283c 853e
00000280: a8dd 3f3d 2254 4f3d b22f febe 9b62 fcbd
00000290: 20b0 2ebc 8d24 6c3d 7d23 ddbe 4a66 3bbe
000002a0: 3a6a 55bd ed3e 5cbe bd9a 3b3f ee87 443e
000002b0: 3e2c da3d 2feb 3b3d e8ea a53c 3981 753f
000002c0: 30f0 44be fd72 303d a746 a7bd 4c78 da3e
000002d0: 7476 1bbe ddb7 03bf e70b 073c 2ba8 0e3f
000002e0: fd83 95be 9349 963e 4a01 69be e3fa 503e
000002f0: cd72 a3bc 0b61 dabd 827c 83be 08ee 34bf
00000300: 1ff1 263f f520 a33f f602 cfbd 3e29 16bd
00000310: 426a 61bf 2131 8cbe 606b ac3d d4ee 983d
00000320: ab02 4a3e b675 11be 3648 243c 828b e83e
00000330: dc1a 403f 068d 2c3c e225 ea3e a639 373f
00000340: d53a d9be a1c0 81bf 16f9 ca3e 9a0a 0a3f
00000350: b1ba 943e a60e 7e3e df22 0e3f 01b0 9b3e
00000360: 8abf 433f ffc5 b03f 74cf 0f3e 3659 163f
00000370: 43a0 303f 2298 7ebe 07d2 763b 4ef3 51be
00000380: 700d ca3e dba1 20be 2e0b fe3e cf2e cf3e
00000390: f39e c9bc bdbf 21be 3115 1b3f 7686 333e
000003a0: 4dfb 8bbe 8114 70bf 7e84 433e dc30 053f
000003b0: c3af 16be 5454 b03e 7c2e b03e e4fd 463e
000003c0: 3dc0 413d a005 8c3e 5f43 2cbe b559 99bd
000003d0: 64b1 8a3d b8d0 b13e d169 183d f650 a3be
000003e0: f21e bd3d 2f9b 723e 34c1 c7bd 0434 1dbe
000003f0: 930e 0d3f d26a 9c3b 3513 913c 3f7e c8bd
-0.17649393 -0.3780542 -0.088156305 -0.028486868 0.22010626 -0.205215 -0.067377314 -0.00511792
-0.080196634 -0.0547958 0.033256285 -0.19464028 -0.40846217 -0.0073403628 -0.14957318 -0.17889534
0.14645647 0.1922463 -0.074283734 0.05805855 -0.32024565 0.5402093 -0.14315224 -0.10363248
-0.24788214 -0.18075186 0.116374105 -0.048442215 -0.1622006 -0.15743661 -0.042174935 -0.30731288
-0.3875392 -0.36653993 0.034776855 -0.087228805 -0.55716187 -0.88661766 -0.06325586 -0.1460921
0.054315902 0.088989876 -0.23159645 0.10471661 0.23096499 0.47220466 -0.05989861 -0.06412246
0.042608026 -0.05710894 -0.12719566 -0.02762042 -0.44468862 0.16180834 0.08035888 0.10533355
0.09765925 -0.118635975 -0.016778115 -0.016330635 0.42033377 0.08618282 0.029023314 0.15205511
-0.030129423 -0.14732157 -0.07471681 0.11730466 0.6831368 -0.30443725 0.016451748 -0.11796289
0.07623764 0.18700719 -0.261346 0.46133277 0.28589237 0.34261188 -0.05504339 0.09985222
0.18833302 0.20314921 0.056192104 0.3342599 0.115908936 0.37719384 -0.1303072 -0.056046896
0.6935343 0.08396615 0.021899205 0.58876276 -0.7475528 -0.1513608 -0.09653669 0.14143452
-0.10480063 -0.40646574 -0.15403572 -0.046907037 0.10054057 0.064407736 0.032065142 0.23335856
0.19582114 0.009631526 -0.07599749 0.2697727 -0.20302236 -0.018379994 -0.011748545 0.23634782
0.33489603 0.059952725 0.1429844 -0.12568769 -0.5328867 0.19323681 0.08681571 -0.19379899
-0.11181852 0.031868972 -0.029876374 0.10422608 0.06758434 0.30473313 -0.025499051 -0.081751294
-0.18994233 -0.13779137 0.06894278 0.12646763 0.110393934 -0.06145944 0.038722407 0.2792251
-0.17290168 -0.30228725 -0.02078211 0.058771268 0.5565394 0.20896104 -0.23197743 0.29682165
-0.046959236 -0.1307323 0.4286327 -0.099841066 -0.08666298 0.07102599 0.8442707 0.13056877
0.067064 0.03491336 0.060572695 0.22410928 0.14217496 0.008631196 0.21970989 0.26022458
0.046842247 0.050617345 -0.49645764 -0.12323495 -0.010662109 0.057652045 -0.43191138 -0.18300739
-0.05210326 -0.2150838 0.73282987 0.19192478 0.1065297 0.045878585 0.020253614 0.95900303
-0.1923225 0.04307841 -0.08167773 0.42669904 -0.15181905 -0.5145243 0.008242584 0.55725354
-0.29202262 0.29353008 -0.22754398 0.20408206 -0.019952202 -0.10663041 -0.2568093 -0.70675707
0.6521167 1.2744433 -0.10107987 -0.036660425 -0.8805276 -0.27381232 0.08418918 0.07467428
0.1972758 -0.1420506 0.010026982 0.45418936 0.75040984 0.0105316695 0.45732027 0.7157234
-0.42427698 -1.0136911 0.39643162 0.53922427 0.29048684 0.24810275 0.5552196 0.30407718
0.7646414 1.3810424 0.14043981 0.58729875 0.6899454 -0.24862722 0.0037661807 -0.2050297
0.39463377 -0.15686743 0.49617904 0.404654 -0.024611926 -0.15795799 0.6057921 0.17531762
-0.27340165 -0.93781286 0.1909351 0.5202768 -0.14715485 0.34439337 0.34410465 0.19432789
0.047302473 0.27348042 -0.16822575 -0.074878134 0.06772116 0.34729552 0.03721029 -0.31897706
0.09234418 0.2369201 -0.097536474 -0.15351874 0.55100363 0.004773476 0.017709354 -0.097897045

fc1.bias f4 [128]
00000000: b67b 7f3a c70a bdbe ebad 54be b244 d9bd
00000010: 9038 27bf 4773 f0be dcf8 8cbd 62ec 03be
00000020: ddf0 a43d 33cc aebe 006e 373e 5934 3dbe
00000030: 0393 46be 791e 4fbe 8b84 08be c975 92be
00000040: a4c6 94be 573b d5bc add5 42be 0e7a d33d
00000050: 3fee 92be 16ab 68be 4e93 7fbe 4ae4 62be
00000060: 8113 88be 3566 83bd 29b2 c2be 4248 19be
00000070: e0b2 21be be5b ff3d 2e78 bc3d df03 54be
00000080: 3eff 53be 5bea 44be 0f52 2fbf aa5a 92be
00000090: 75b2 90be a980 a9be 52f9 883c ffde 75bf
000000a0: b806 89be aeb5 33be 499d 8dbd db34 a6be
000000b0: 63ad a6be 73c3 283d 71c9 12bf 8ee7 14be
000000c0: d5e5 9e3c 36f7 62be 0986 83bd 5ee8 10be
000000d0: 1990 d3be 5b08 9fbe 3c38 0d3c 7124 1abd
000000e0: e83f 83bf be0c 01bd 5a34 02be 5a71 86be
000000f0: 8277 ebbe f194 43be 3659 b5be 1216 7bbe
00000100: 7ea6 c4be cec8 c1be 132a 9abe 22be 57be
00000110: 828b 593d 101c 8cbe 2ea0 81be 1400 27bd
00000120: 46b8 d5be b423 1ebe f59d 26be 01df 27bd
00000130: a738 6a3d aae0 2cbe 4e32 b6be a02a f3bd
00000140: 7815 fdbd f23e 8abe bc99 3abe 01aa 82bc
00000150: 4c1c 2dbf 900b 9ebe 63e4 123e 7104 b23c
00000160: 5bd6 1abe 93bb 85bd d974 37be 7154 7f3c
00000170: dccf f5be cabc aebd e254 92bd c1ea 57be
00000180: 9ed3 cdbe 652e f4bd df71 12be b31d d7be
00000190: 49ba fabd 44d0 6dbc 2621 95be 3a7d 163d
000001a0: bd7e 8e3e f0ee c1be 032b aebe c084 25bd
000001b0: 9ef2 073e 04f4 98be 49a7 f9be a6d6 9f3e
000001c0: 273d 33bd ccbf c7be b892 4fbe 0e18 99be
000001d0: 0e65 51be 82f7 cabd f672 8cbe a8b1 29be
000001e0: 6478 a3be 724f 4c3d 2fff 9cbe 79b5 bbbe
000001f0: df55 2bbd 0b4c 7abd d8dc 11bf d5ac 0cbe
0.00097459124 -0.36922285 -0.2076947 -0.10608806 -0.6532068 -0.4696295 -0.06883404 -0.12883142
0.080537535 -0.34140167 0.17913055 -0.18477 -0.19392018 -0.20226468 -0.13331811 -0.28605488
-0.290578 -0.026029272 -0.19026823 0.103260145 -0.28697392 -0.22721514 -0.24958536 -0.22157398
-0.2657738 -0.06415979 -0.3802655 -0.1496897 -0.15790892 0.1246867 0.0920261 -0.20704602
-0.20702836 -0.19230025 -0.68484586 -0.28584796 -0.28261152 -0.33105972 0.016720448 -0.9604339
-0.26762938 -0.17549774 -0.069147654 -0.324622 -0.3255416 0.04120202 -0.57338625 -0.14541456
0.019396702 -0.22164616 -0.064220496 -0.14151141 -0.41320875 -0.31061062 0.008619364 -0.03763241
-1.0253878 -0.031506293 -0.12715283 -0.26258355 -0.45989615 -0.19099785 -0.35419625 -0.24520138
-0.38408273 -0.37848514 -0.30110225 -0.21068624 0.05311156 -0.2736516 -0.2531752 -0.04077156
-0.41742152 -0.15443307 -0.16271193 -0.040984157 0.057182934 -0.16882578 -0.35585254 -0.118733644
-0.123576105 -0.27001148 -0.18222708 -0.015950205 -0.676213 -0.30868196 0.14344935 0.021730633
-0.15120833 -0.065299176 -0.17915668 0.015584097 -0.48010147 -0.085321024 -0.07145096 -0.21085645
-0.40200514 -0.119229116 -0.14301251 -0.42014846 -0.12242562 -0.014514986 -0.29126853 0.03674052
0.2783107 -0.37877607 -0.3401719 -0.040409803 0.13276145 -0.2987367 -0.4876044 0.3121845
-0.04375949 -0.39013517 -0.20270813 -0.29901165 -0.20448706 -0.099104896 -0.27431458 -0.16571677
-0.31927788 0.049880452 -0.3066344 -0.3666189 -0.04182994 -0.061107676 -0.56977606 -0.13737805

fc2.weight f4 [128, 132]
00000000: cdd9 10bf 0e80 c23d 1eec abbd 3520 23be
00000010: 3df9 31bf 9031 683f 0c1d 92bf e993 a9be
00000020: a6dc d73b b356 c33e 605b 213e d9bd 25be
00000030: 106c 63be 8ecb 3abc c130 25bd 59fe 2fbf
00000040: e9bd 383e fccc b03e bed3 d3bd cf77 793e
00000050: 1049 39bb 1cc8 ac3e 8c53 a83e d5a2 323e
00000060: 189e 9bbd dc63 893c 65f2 c9be be15 ef3d
00000070: 8b58 9dbd 67f7 02be ae92 ef3d ef43 4fbe
00000080: 4d73 1fbf 263c 483e f7a0 c4be fb48 0bbe
00000090: 9a81 f7bd 644a 86bd 012d 343d e217 65bf
000000a0: 23f7 11bf 4229 aebe 8390 023f f264 abbf
000000b0: c311 9bbe aa81 01be 9436 45bf c392 49bf
000000c0: 2f31 3d3e 0b88 8a3d 73b0 093e cde0 283e
000000d0: 56bd 053e f13d 15be 9873 4bbe a28e 903e
000000e0: cc0d 99bf 8242 e2be 9bf8 febd 385b 33bd
000000f0: ecfd 8ebe 623a 1dbf 4432 8c3d 3e63 7fbd
00000100: 0ada 41be 6685 fe3e 75f0 08bf f0c9 06bf
00000110: b3f8 70bd d53e b3be 82de 6a3d ab21 afbc
00000120: 46a2 2f3d 16c9 b13e b98a 7a3d ef4f dcbe
00000130: 49c8 7ebe 706a bbbe d849 dbbd dbba cd3d
00000140: 394d 803d 6f6b 6ebf 82e4 73bf 4bca 7c3d
00000150: b53f 8ebf 4d26 55bd 1179 4f3e 0700 43bd
00000160: 110c 94be 8101 84bf c94e 3f3e 4646 803e
00000170: ae7b 553c fed3 56be ebac 92be 63c5 2bbf
00000180: 0a59 703e ddd1 ba3e b8df 09be 06e3 a13e
00000190: e5c8 cfbd 4399 38be c8c4 35be 5bc2 343e
000001a0: ffcc 0f3e 8b9e 113e 0dbc aabe 4a33 4bbe
000001b0: f735 83bf 0f6d a53d 7094 2f3d ea5f 243c
000001c0: 333c ee3d 3e69 823e 88df 9bbe 08e1 2cbe
000001d0: 6736 56be 40ae 53bf 1952 03bf e45e 953d
000001e0: af72 2ebe d8d1 15be 1878 683f 4a70 693e
000001f0: c218 d0be 9f69 16be 8ac4 d8be 4be7 bbbe
00000200: 8e21 8d3c ff91 9bbd 617d 123e cf65 fabd
00000210: 2781 b0bf 99db 763e 6fe6 ed3e aeff 89be
00000220: 6bf0 e0be d3f4 d9be e488 87bf 16b6 193f
00000230: b3ff 4ebf 5e4c 303f e98b 8dbc 7fc2 dabd
00000240: 1099 99bd a07e 053f 893b 313e 87d3 eb3b
00000250: 50e0 d2be 8ba0 99be d4cb 353e 43a5 023e
00000260: a9b2 babd 2a55 83bf 704d 623e 7577 7abb
00000270: a735 acbe 2da1 72bd 44df 89bf 0f51 033d
00000280: 023b 76bf cad4 343e a582 8bbd b61b 6cbc
00000290: 1492 bcbe 6cd0 99be 553b bebd 9ef3 dfbf
000002a0: 88f2 6fbe 9b38 073d 7244 823e 005e 65bf
000002b0: 5378 adbe 7164 bc3c 78b9 efbe b71f 373e
000002c0: 4b52 653e 7444 5fbe 172d b83d 16be 673e
000002d0: dc29 e4be 5029 80bf d78d 873e b60c babd
000002e0: de70 7f3e b9a7 9fbe fa23 45bd bdd2 e2bd
000002f0: 4568 39be ef4a 9b3e 3ad2 8a3d 1730 60bd
00000300: 8be1 623e 631b 53be e15c e7be bed1 a7bd
00000310: 1220 b23e 368a 883d a671 83bf 1c90 21be
00000320: 6218 dabe de17 0cbe d33a 33bd eb3f f2bd
00000330: 128a d73d 1051 22bf 84dd e5be 1ed0 12bf
00000340: 7144 ae3e e3c4 f0b9 bc87 7dbe a58f ffbd
00000350: 30ee aabd 30ed d6bd da1d 8b3e 75e6 0d3d
00000360: 4338 01bf 5915 c03e a0dd c13d 48cb 373e
00000370: dc30 4b3d 5c58 4ebf 7ab7 ac3d c52f 5bbd
00000380: dcd7 57be a69f ecbe 2d01 933d adf8 33bd
00000390: 030c 72be f16a ff3d 45e7 8fbf e705 a53e
000003a0: 9976 00bf c775 a5be b0cb 8bbf 819e 8d3e
000003b0: b3de 0dbe f035 6bbe 2ccc 1fbf de1c 943c
000003c0: 910f 0abf b633 e1bd 1995 353e 354f 5abe
000003d0: 345b 54bf b73b 27bf 4b19 8bbf 94c6 24bf
000003e0: 00b5 c5bf 325d 443e f9de 37be ec82 473f
000003f0: 24ac e23c 5aa0 aa3d 1574 a0be e232 253e
-0.5658234 0.09497081 -0.08394645 -0.15930255 -0.6952093 0.90700626 -1.1415114 -0.3312066
0.0065875826 0.38152084 0.15757513 -0.16185702 -0.22209191 -0.01140107 -0.0403297 -0.6874748
0.18041195 0.3453139 -0.10343121 0.2436211 -0.0028272308 0.3374642 0.3287624 0.17444928
-0.07598513 0.01677125 -0.39442745 0.11674069 -0.07682904 -0.12789689 0.11697899 -0.20240758
-0.6228531 0.19554195 -0.38404056 -0.13602059 -0.120852664 -0.06557158 0.04398823 -0.8948957
-0.57017726 -0.34015852 0.5100176 -1.3390181 -0.3028699 -0.12647119 -0.77036405 -0.78739566
0.18475793 0.067642294 0.13446216 0.16492005 0.13060507 -0.1457441 -0.19868314 0.2823382
-1.1957335 -0.44191366 -0.124497615 -0.043788165 -0.27928102 -0.6141721 0.06845525 -0.062350504
-0.18930832 0.4971115 -0.5349191 -0.5265188 -0.058830928 -0.35008875 0.057341106 -0.021378359
0.042879365 0.3472373 0.061167452 -0.43029734 -0.2488109 -0.36604643 -0.10707444 0.100454055
0.06264729 -0.9313268 -0.9527055 0.06171636 -1.1113192 -0.05203848 0.20261027 -0.047607448
-0.28915456 -1.0312959 0.18682398 0.25053614 0.013029976 -0.20979306 -0.2864755 -0.67098063
0.23471466 0.36488238 -0.13464248 0.31618518 -0.101457395 -0.18027215 -0.17750847 0.17652266
0.14043044 0.14220636 -0.33346596 -0.19843784 -1.0250844 0.08077442 0.04286617 0.010032633
0.11632576 0.25470918 -0.30443978 -0.16882718 -0.2091919 -0.8268776 -0.51297146 0.072934896
-0.17035936 -0.1463083 0.9080825 0.22796741 -0.4064389 -0.14688729 -0.42337447 -0.366999
0.017227914 -0.07596206 0.14305641 -0.1222645 -1.3789414 0.24107207 0.4646487 -0.2695288
-0.43933424 -0.425696 -1.0588651 0.60043466 -0.80858916 0.6886653 -0.017278628 -0.106816284
-0.074998975 0.5214634 0.17307867 0.007196847 -0.41186762 -0.30005297 0.17753536 0.12758355
-0.09116108 -1.0260365 0.22099853 -0.0038218175 -0.33634683 -0.05923574 -1.077126 0.032059725
-0.9618379 0.17659298 -0.06812028 -0.014410904 -0.368302 -0.30041826 -0.092886604 -1.7496221
-0.23432362 0.033012968 0.25442845 -0.8959656 -0.33880863 0.022997113 -0.4682119 0.17883192
0.22394674 -0.21803457 0.08992975 0.22631106 -0.44563186 -1.0012608 0.26475403 -0.09084456
0.24945399 -0.3118265 -0.048130013 -0.110753514 -0.18106182 0.30330607 0.06778379 -0.054733362
0.2215635 -0.20615916 -0.45188048 -0.08194302 0.34790093 0.06666987 -1.0269058 -0.1577763
-0.42596728 -0.1368098 -0.04375727 -0.11828598 0.10524382 -0.6340494 -0.44895566 -0.5734881
0.34036592 -0.0004592306 -0.2475881 -0.1247857 -0.08346212 -0.10494459 0.27171212 0.03464361
-0.50476474 0.37516287 0.094661 0.1794864 0.049607143 -0.80603576 0.08433433 -0.053512353
-0.21078438 -0.46215552 0.07177959 -0.043938328 -0.23637395 0.12471569 -1.1242453 0.32231066
-0.50180966 -0.3231642 -1.0921535 0.2765999 -0.13854484 -0.22969794 -0.62420917 0.018080171
-0.5393 -0.10996191 0.17732657 -0.21319278 -0.82951665 -0.6532549 -1.0867094 -0.64365506
-1.5445862 0.19176176 -0.17956151 0.77934146 0.027669974 0.08331366 -0.31338564 0.16132692

fc2.bias f4 [128]
00000000: 3228 00be f2fe cebd 4a40 58bd 6b33 34bf
00000010: 6647 403d 0519 34bd c5ed 06bc 6452 5ebf
00000020: 9901 10bf ad10 603e b6ce 09be 2567 c739
00000030: 1d40 a0bd 3698 97be 530f 26bf 4fb6 41bc
00000040: c31d 8abe 6de9 3c3e e872 9bbd 66c1 11be
00000050: fe27 da3c 6e3e 20be 654d 59be fc2a 3ebe
00000060: 6d65 61bd 137c 83be efc8 30bd 9de7 b33e
00000070: 2dc0 6d3e 0d48 0a3d aaef d13c f00b 32be
00000080: 0971 3dbe 7d61 8f3e b9cc 253e 9c16 7fbc
00000090: 60f8 5bbe 9769 5dbe 7325 463e 823d 1f3e
000000a0: e749 fbbd 3bfa bebe 1e21 2abe 22d3 ac3d
000000b0: e640 37be dd9b 203a 5c73 95bd afbc febd
000000c0: c330 afbb ac54 7fbe 567a 9ebe 916e 8bbe
000000d0: 63f7 06be 056d 6f3e 3064 dfbd 0841 fabe
000000e0: 87e4 723e 06fe 84be 0e06 9cbe 3d9e 203e
000000f0: 2168 dfbd d70d debc a791 bcbc 8514 e63d
00000100: 2030 12bd 003d 01bd 9b08 443d c721 e53c
00000110: 3ee7 54bb b46e fabd 1381 32bf 9731 413d
00000120: 0567 433e 1d34 41be 3b9d b03e fae1 3d3d
00000130: f187 0d3f d72a a63e 0c77 4a3e 1ecf 333f
00000140: 6ad2 2d3c 8d42 5c3e e60f e93e 3313 99be
00000150: fd32 f3bd c5b6 73bc b949 173f 7a6d 59be
00000160: 83c9 3fbe 0101 823d d0ca 83be efbe 8bbe
00000170: 7ccc 88be 31aa 33be 8d21 cdbd 173c a9bd
00000180: e723 c43c f43b 053e b14b 873e af64 dfbe
00000190: a0e6 263d 1f99 54be 33d7 4dbf 074f 653d
000001a0: 6fff 4a3e fc52 dabd 0be1 16be 02db 2bbe
000001b0: f072 e43d e5a2 5cbe ba0d 33bf da35 a5be
000001c0: 30ea 48be 13f4 e3bd 8166 84be 7ba9 aabe
000001d0: 8d1a 95bd 469b 193d 0a80 4ebe 5a76 6dbd
000001e0: c40e 6bbe b525 ffbc 928d 38bd d949 00bd
000001f0: 0065 d23d 195d febc 2db7 2a3f cb6e 3d3e
-0.12515333 -0.10107221 -0.052795686 -0.7039096 0.04694309 -0.043969173 -0.0082354 -0.8684447
-0.5625244 0.21881361 -0.1345776 0.00038033086 -0.07824729 -0.29608315 -0.6486713 -0.011823251
-0.2697583 0.1844842 -0.07590276 -0.14233932 0.026630398 -0.15648815 -0.2122093 -0.18571085
-0.055028368 -0.256806 -0.043160375 0.35137644 0.2321784 0.03376012 0.025626976 -0.17387366
-0.1850015 0.28004065 0.16191377 -0.015569355 -0.21481466 -0.2162231 0.19350223 0.15550807
-0.12269955 -0.37300286 -0.16614196 0.08438708 -0.1789585 0.0006126741 -0.07297394 -0.12438332
-0.005346389 -0.24934644 -0.3095271 -0.27232793 -0.13180308 0.23381431 -0.10907781 -0.4887774
0.23719989 -0.25975055 -0.3047337 0.15685363 -0.10908533 -0.027106209 -0.023018671 0.112343825
-0.035690427 -0.031552315 0.04785977 0.027970208 -0.0032486464 -0.12228146 -0.697282 0.047166433
0.19082268 -0.18867536 0.34494957 0.046358086 0.55285555 0.3245456 0.19771975 0.7023791
0.010609249 0.21509762 0.45519942 -0.2989746 -0.118749596 -0.014875119 0.59096867 -0.21233168
-0.18729214 0.06347848 -0.2574067 -0.27294108 -0.2671851 -0.17545392 -0.10016165 -0.08263414
0.0239429 0.13011152 0.26424935 -0.43631503 0.040747285 -0.20761536 -0.8040649 0.05598357
0.19824003 -0.10660359 -0.14734285 -0.16782764 0.11154735 -0.21546514 -0.6994282 -0.32267648
-0.19620585 -0.11130538 -0.25859454 -0.33332428 -0.07280455 0.037501596 -0.2016603 -0.057974197
-0.22954851 -0.03114591 -0.045056887 -0.031320427 0.102731705 -0.031050252 0.66685754 0.18499295

fc3.weight f4 [1, 128]
00000000: fa3c 203e e869 7b3e 5218 5c3e 252e 3ebe
00000010: 4e9c 63be 844d a93d 6456 c4be 8bd8 023f
00000020: c9ca f2be 0b0c a73d b65c e33d c06b 9a3e
00000030: e91b 81bf 26a9 28bf bdf5 12bf d299 ff3d
00000040: 11fe 153f bc02 dcbe f2e2 693d f62f bb3e
00000050: 3ff8 26be 6c27 7ebe 5858 b53e fbb3 e1be
00000060: 5429 4b3e 4151 a83e e9d4 50be 0061 c53d
00000070: 21b7 2ebd 803a 7e3d 8626 1e3d a7a2 08bf
00000080: 6841 17bd 4af6 4bbe 9db6 093e 8207 853e
00000090: f4d6 6d3e adaf e8be 93e9 e3bd 3b7f 65be
000000a0: fa31 8f3e 9eec 8abe e3da 63bf d501 4dbe
000000b0: 0789 093f 3a5e 0a3e ca08 c2be a8a7 63be
000000c0: 229d e33e 9447 2bbe ad35 6dbd 2544 403e
000000d0: a04f 3b3d 39c0 d9bd 3922 1fbe d536 f53e
000000e0: e305 09be 5fbf 61be 5f49 75be d63c 693d
000000f0: 817f fabe 7f7d a03e 6bf2 863e eb81 b23d
00000100: 503b 6ebe 84e9 8c3e c4d3 9b3d 79a0 ea3c
00000110: 9a62 00bf b1bb 8b3e ef2c 61be 6f57 193e
00000120: 6d1a e5be 8128 5e3e e935 c43d ce22 db3e
00000130: 8df1 fa3c a7da 543d 1211 083d 3ff5 883d
00000140: dfd9 323e d2cb 913d 0123 a5be dfde 6c3e
00000150: b6c3 c73e 17a3 14be e503 dc3c 00f1 6a3e
00000160: 0e2c d2bd 84b7 403d ae6f eebe 849b 0bbd
00000170: d4b2 683e d124 f33e 6510 2ebe 0ae3 bd3c
00000180: c169 ecbd 551f 8abe 1cdd 7f3d 7446 8abe
00000190: 192c 133e 5148 333d 2f4f 363e 52b0 123e
000001a0: 9dca 5bbe 8dce 4c3e b7fc f13d 2214 1dbf
000001b0: 25da ab3e 7fdd 673f c704 9d3e 2713 68be
000001c0: 11d3 29bf 63dd 39be a28d a53e 0311 a1bd
000001d0: 0c8f 923d 87e3 063d ec8c 49be e81e 143e
000001e0: 8ca5 d4bd 354d ab3e 5f4d 103f 7074 8c3d
000001f0: defc 21be 4901 403d b02d 053d 3640 f13c
0.1564826 0.24552119 0.21493652 -0.1857229 -0.22227594 0.08266738 -0.3834716 0.5111167
-0.47420338 0.08156594 0.111016676 0.30160332 -1.0086643 -0.658831 -0.57406217 0.12480511
0.585908 -0.42970836 0.057101198 0.3656003 -0.16305636 -0.24819726 0.35418963 -0.44082627
0.19839984 0.32874492 -0.20393719 0.09637642 -0.042655114 0.06206751 0.038610958 -0.5337319
-0.03692761 -0.1991817 0.13448568 0.2598229 0.2322653 -0.4544653 -0.11128535 -0.22411816
0.27967817 -0.2713365 -0.8900587 -0.2002023 0.5372471 0.13512507 -0.3789733 -0.22231925
0.4445582 -0.16726524 -0.057912517 0.18775995 0.045730233 -0.10632367 -0.15540399 0.47893396
-0.13381152 -0.22045659 -0.2395377 0.056942783 -0.48925403 0.31345746 0.26356825 0.08716186
-0.23264813 0.27521908 0.076087505 0.028640972 -0.50150454 0.27291635 -0.21989797 0.1497476
-0.44746724 0.21695139 0.09580595 0.4279999 0.030632759 0.051966336 0.033219405 0.06687402
0.17465924 0.07118954 -0.32253268 0.23131894 0.39016503 -0.14515339 0.026857326 0.22943497
-0.10262309 0.047050014 -0.4656958 -0.034083858 0.22724468 0.47489026 -0.16998442 0.02317955
-0.115436085 -0.2697703 0.062466726 -0.27006876 0.1437229 0.04377014 0.17803644 0.14325073
-0.2146401 0.20000668 0.1181578 -0.61358845 0.3356487 0.9057235 0.30667707 -0.22663556
-0.66337687 -0.18150859 0.3233462 -0.07864573 0.0715619 0.03293183 -0.19682664 0.14464915
-0.10383138 0.33457342 0.5636806 0.06858146 -0.15819117 0.046876226 0.032514274 0.029449563
