project3-collaboration/results/session_submission_original/maddpg_actor_reacher_0.pth (torch_old, 167781 bytes, 18 tensors)

bn0.weight f4 [24]
00000000: f477 c23e 0e9f 913e 91a0 94bc 9614 c63c
00000010: 0faf bc3f 4870 9c3f 77e1 c83d 568b 813e
00000020: adaa 0dbd bdee 3ebc 0627 413e 7ed3 e33d
00000030: 18ef b0bc 87d0 003f f81b 97bc adb2 5b3e
00000040: 653f 533f 554e 303f 2815 863d f184 9bbc
00000050: e7b3 f13f 1e85 ca3f 03d8 bd3e 2e81 1e3f
0.37982142 0.28441662 -0.01814297 0.024179738 1.4740924 1.2221766 0.09808629 0.25301617
-0.034586597 -0.011653599 0.18862543 0.11124323 -0.021598384 0.5031819 -0.018445954 0.21454878
0.8251861 0.68869525 0.06547004 -0.01898429 1.8883027 1.5821874 0.37078866 0.6191586

bn0.bias f4 [24]
00000000: 1b1e dd3a eb23 0cbc 92d1 1cbb 955c c3bb
00000010: 7abe 1fbc 7410 96bb 271d bf3b 61c3 ab3b
00000020: e0c5 7bb9 7e5a 9ab9 7afa 2f3b 70ba dcbb
00000030: 3d8c cbb7 9566 01bc 5c2a a4ba 469e de3a
00000040: 5cc3 40b9 fea7 3a3c 0095 48bb e5e3 88bb
00000050: 640b 0ebb 5ed4 af3c 86fb 863b 081e fcb9
0.0016869934 -0.008553485 -0.0023928625 -0.0059619644 -0.009750003 -0.004579598 0.0058323327 0.005241797
-0.0002401094 -0.0002944059 0.0026852177 -0.0067360923 -2.426479e-05 -0.007897993 -0.0012524831 0.0016984425
-0.00018383324 0.0113925915 -0.003060639 -0.004177558 -0.002167427 0.02146357 0.0041193394 -0.0004808756

bn0.running_mean f4 [24]
00000000: d75d cec0 8a93 f0be f7aa c140 0e11 3cbd
00000010: 34d5 1dbf f5a3 5840 f7aa c140 0e11 3cbd
00000020: 4173 d0c0 c9fc f2be 868e bb40 ca93 0fbe
00000030: a5d9 1abf 1b49 5840 868e bb40 ca93 0fbe
00000040: a836 d1c0 f341 f7be bc8c ca40 4b06 2fbe
00000050: 70c2 15bf 8bd2 5740 bc8c ca40 4b06 2fbe
-6.448955 -0.46987563 6.0521197 -0.045914702 -0.6165345 3.3850071 6.0521197 -0.045914702
-6.514069 -0.47458485 5.861148 -0.14021221 -0.6048835 3.379462 5.861148 -0.14021221
-6.537922 -0.48292503 6.3296795 -0.17092244 -0.58499813 3.3722255 6.3296795 -0.17092244

bn0.running_var f4 [24]
00000000: 1e08 9241 a5f5 7c3f feff f543 1615 7241
00000010: 2f3e dd41 a153 2640 feff f543 1615 7241
00000020: 6d99 8d41 6bfd 7d3f 1994 f643 48db 7441
00000030: 89aa e241 d68c 2840 1994 f643 48db 7441
00000040: 6a72 8e41 bf38 803f 419d f743 a9d5 7641
00000050: b07a e741 4d8f 2a40 419d f743 a9d5 7641
18.253963 0.98812324 491.99994 15.130148 27.655363 2.5988543 491.99994 15.130148
17.699915 0.9921481 493.157 15.303535 28.33327 2.633596 493.157 15.303535
17.805866 1.0017318 495.22855 15.427163 28.934906 2.6649964 495.22855 15.427163

fc1.weight f4 [256, 24]
00000000: 379f fbbe 7e6d 24bf beed 7c3e cae1 a7bc
00000010: c2e3 15c0 159b 563f addb 6a3e 33f0 48be
00000020: 97d8 1abf 1311 4abe 1b91 3e3f bbe4 b63e
00000030: e06a 33bf c5a0 f73e c722 cd3e d03c d83e
00000040: 31ce a1be 62a3 f4bd a2a1 393e 1835 213e
00000050: 60ff a33e 0718 dbbe fd6b 913e 58d0 a43d
00000060: c59b 1d3e cac5 ac3f c914 21be 27ba c2be
00000070: bb42 c93d 7277 853e a884 e93d baeb bf3e
00000080: 5e14 7bbd 2aa8 d73d 683e 03be 31e1 fe3c
00000090: f063 25bd 6455 50bf b0bb 2dbe 90e5 8d3d
000000a0: a4a3 00bf 4ed6 0540 69f5 e7be c86f 933d
000000b0: e250 a23e 8e9c aebf 2de4 ffbe a448 323f
000000c0: 5479 9a3e 3800 3c3e c932 1f3e fef9 e33d
000000d0: 6dbb 02c0 46d4 f13e 0d14 bf3b 2cf8 7cbd
000000e0: 79c3 a3be 6c1d 3dbd 601e 67be 8ab8 a2bd
000000f0: e9c7 513e 6e08 af3d 1ae8 e1bd 9a50 1abe
00000100: 1f18 42bd 9592 853d ab18 97bc a5ad 863d
00000110: 2d56 8d3f 0cbb c9be 7048 8fbd 7c51 34be
00000120: 14b8 0c3e c064 7bbf ce15 f5be 4726 713f
00000130: 9ba3 b9be 9799 84be e7aa 62bf a197 de3c
00000140: b7eb 803f f716 3d3e ed23 0abf f16f 5e3f
00000150: b299 21bf baf5 353f 72e4 84bc fb41 763f
00000160: 2003 c03e 70ae 47bd a707 f8be 1d19 2e3f
00000170: 4da2 433e d41a 463f 52e8 2dbf c79e ff3f
00000180: 7d39 983f 678d 223f 3574 bbbe 7f28 ba3e
00000190: b219 30bf fa47 24bf 4967 4bbf 48c0 893e
000001a0: 5191 e23d c6e6 923e 2626 58be c13b 433f
000001b0: 2099 0dbf 2d56 4bbf c91f debd 4dd9 293f
000001c0: 47db b53f 3170 173e ff87 29be 4f5e 933e
000001d0: 41ef c8be 1697 8a3e a845 47be a0d2 0f3f
000001e0: d991 29bf 0e9f 45bf 4752 80be 26e8 bebe
000001f0: 046c 25bf b127 c2bd 7078 993e ea61 f13e
00000200: 3635 5a3e b174 bf3e 1b2d 1f3f 438f 5f3c
00000210: 8d3b c63e 73b4 a2be 8195 28be 15b1 d63d
00000220: 8ce0 ed3e 8030 2ebf 255e c33c 49c7 74bd
00000230: 6589 343e 4dca 1e3f cc0b d53d de66 edbf
00000240: 654b 40bf 074d eabe 85e8 76be ca18 ccbc
00000250: b6b0 233f 7d8c 5f3f b6bc 78bf 4ec9 ebbe
00000260: 03f1 c4be f4c0 17bd d731 2d3e 7c27 4f3e
00000270: 8685 8c3e ceaf f53d 5fd0 a33e 1fd3 f53d
00000280: fe5c 453f 4613 bbbe 4641 1440 37e1 d43e
00000290: 09e8 49bf be75 bebe a888 3d40 0e35 e73e
000002a0: 0020 243e d9cf d53e 019d e6be caf1 21be
000002b0: 405d ce3e c20b 20be 2079 cfbe f347 cc3e
000002c0: 0bb8 62bd cee4 173e bdd3 883e 36dc 2440
000002d0: 8bdb 803d 5fe3 afbf 22e5 453e 5c64 2940
000002e0: 2604 053e 5f6f d03e a0c0 d83e 695f 4abe
000002f0: 16e8 40be 9e0b f13e 68aa 3d3f fcbb 68bf
00000300: 870d 99be 6975 a1bf 7396 ff3e 24f4 b0be
00000310: 4a75 9a3f f146 ab3f 6a40 353e cfc5 47be
00000320: 8981 8b3d 578c a2bc f07f a4bb d788 90bc
00000330: e37b b9b6 d67f 0d3f ba5d acbb ab5b 883c
00000340: 5eaf 09be 6f2f 16bf ca1a 423f 4fa4 9a3e
00000350: b927 763e 2494 c4be 3fab 053f 81a7 d1bd
00000360: 6b87 3dbf 62a9 57bd 205b 2d3e 1c99 a0be
00000370: 3297 b73f 795c 4f3f ac60 ae3f 1b60 983f
00000380: a116 fa3e 7229 d7bd 7a61 8c3f 74f0 d7be
00000390: d248 cf3e ff4a 5a3f d746 95be 7645 05bf
000003a0: 88e5 203e 75ad 51be b287 7dbc 62bd 223e
000003b0: 8611 5cbd 7564 78be b3ff a83d c838 7dbe
000003c0: d881 313e e9d1 0fbf 74f2 60bf 3812 babe
000003d0: b004 5dbe 930e a8be 88bc 01bf 095c ab3f
000003e0: e656 54be 227a e5be 3421 2ebf de31 8b3f
000003f0: 1987 d4be 7c31 b7bd d848 d8be 7368 9a3f
-0.4914491 -0.6422957 0.24700066 -0.020493407 -2.3420262 0.83830386 0.22935362 -0.19622879
-0.6048674 -0.19733076 0.74440163 0.35721382 -0.70084953 0.48364845 0.40065596 0.42233896
-0.31602624 -0.11945225 0.18128064 0.1574291 0.32030773 -0.4279177 0.284027 0.08047551
0.15391453 1.349786 -0.15730585 -0.38032648 0.09827181 0.26067692 0.11402255 0.37484533
-0.06129872 0.105301216 -0.12816775 0.031113239 -0.04037851 -0.81380296 -0.16966128 0.06928551
-0.50249696 2.0912051 -0.4530442 0.07199055 0.31702334 -1.3641527 -0.49978772 0.6964209
0.3017069 0.18359458 0.15546717 0.111316666 -2.0426896 0.47232264 0.0058312477 -0.061760113
-0.3198507 -0.046170637 -0.22570181 -0.07945354 0.20486416 0.0854653 -0.11030598 -0.1506981
-0.047386285 0.06522099 -0.01844438 0.06576089 1.1041924 -0.39400518 -0.06996238 -0.17609209
0.13742095 -0.9820061 -0.47868198 0.9419903 -0.36257634 -0.2589843 -0.88542026 0.027171912
1.0071934 0.18465792 -0.5396107 0.8688956 -0.63125145 0.71078074 -0.016222212 0.9619443
0.37502384 -0.04875034 -0.48443338 0.6800707 0.19104882 0.77384686 -0.6793262 1.997033
1.1892544 0.6349701 -0.36612096 0.3635902 -0.6878921 -0.6417233 -0.79454476 0.2690451
0.11062873 0.2869169 -0.21108302 0.7626305 -0.55311775 -0.7942837 -0.10845906 0.663472
1.4207543 0.14788891 -0.16555785 0.2878289 -0.39245036 0.27068394 -0.19460166 0.56180763
-0.6623817 -0.77195823 -0.25062773 -0.3728649 -0.64617944 -0.09480227 0.299747 0.47145015
0.21309361 0.37393716 0.621782 0.013644996 0.3871731 -0.31778297 -0.16463281 0.104829945
0.46460378 -0.68042755 0.023848603 -0.059760366 0.17630537 0.62027436 0.10402641 -1.8547018
-0.7511504 -0.45761892 -0.24112137 -0.024914164 0.63941514 0.87323743 -0.9716295 -0.4605202
-0.38465127 -0.03704925 0.16913544 0.20229906 0.2744562 0.11996423 0.31994912 0.12003159
0.7709502 -0.36538142 2.316484 0.41578075 -0.7886968 -0.37199205 2.9614658 0.45157665
0.16027832 0.41760138 -0.4504166 -0.15814891 0.4030552 -0.15629485 -0.405221 0.39898643
-0.0553513 0.14833376 0.26724043 2.5759406 0.062918745 -1.3741263 0.19325688 2.6467505
0.12989864 0.4070997 0.4233446 -0.19762959 -0.18838534 0.47079176 0.74088144 -0.9091184
-0.29893133 -1.2613956 0.4991947 -0.34561265 1.2067044 1.3381025 0.17700353 -0.19509052
0.06811816 -0.01984231 -0.005020134 -0.017643375 -5.527852e-06 0.5527319 -0.0052601965 0.016645273
-0.13445804 -0.5866613 0.75822127 0.30203483 0.2403859 -0.38394272 0.52214426 -0.10237027
-0.74034756 -0.05265177 0.16929293 -0.31366813 1.4343016 0.8100048 1.3623252 1.1904329
0.4884539 -0.10505952 1.0967247 -0.4217564 0.40485245 0.85270685 -0.2915561 -0.52059114
0.15712559 -0.20476325 -0.015474247 0.15892556 -0.05372765 -0.24257071 0.08251896 -0.24728692
0.17334688 -0.5617967 -0.87869954 -0.36342025 -0.2158382 -0.3282362 -0.506783 1.3387462
-0.20736274 -0.44819742 -0.68019414 1.0874593 -0.4150932 -0.08944985 -0.42243075 1.2063125

fc1.bias f4 [256]
00000000: b5ee 6c3c 95cf 4cbe 0e16 893d 6565 063a
00000010: 91eb 09be d494 9bbd 4833 a6bd 471c bdbd
00000020: ceb9 53bd c214 193d 0e63 f0bd b7a5 543d
00000030: 7cee 2bbe a9a6 443e 4385 fabd f3a3 b03d
00000040: 975e 0fbe 0a71 0ebe 1041 f4bc bdee edbd
00000050: 1e99 6ebd f504 b6bd 1189 6cbd 52b0 21be
00000060: 9e95 4b3e 7191 e93d 07a2 94bd 8208 183e
00000070: e2d6 b9bd 90d2 2abe b6cc 853d 3fdb 8fbd
00000080: 35ce 1c3e 44a1 60bd 49c3 29be 1d6f 303e
00000090: c186 3a3d 70e0 7c3d 618f a2bc c40a 26be
000000a0: ea2d 873d 2535 803a 38a1 0abe 8544 ec3d
000000b0: 86bb 43be d9ac 01be e4d3 43bd cc63 44be
000000c0: 4bcc 3bbe 9325 7cbd e357 1cbd 5c8e 193e
000000d0: 0026 c23d 6326 433e f0d7 813d ba98 df3c
000000e0: 59e3 22bd ec1a b1bd 9c42 3bbe 802c 3ebe
000000f0: bbd4 b33d fd35 05be 1c0f acbd e4ae c33d
00000100: f895 00be a905 9c3d cfac 34bc 26b2 2c3d
00000110: 8c74 bebd b2f8 173e 8426 2bbe c739 43be
00000120: 6415 233e ba29 0dbe c13f 483e b691 bb3d
00000130: 8943 a13d e856 d0bc bb1b 1d3d bbbe 563d
00000140: 5873 c5bd 73df 193e 3533 013e 6d61 443c
00000150: 6eb9 6f3d 54a7 c0bc fd79 95bd 2984 21be
00000160: 8906 a1bd e8a4 48be 36db 82bd 37c0 da3d
00000170: 1f58 4b3e ae6a 3ebe 5ef2 2dbe 0a14 2d3e
00000180: 214a 93bd 5652 053a 172a 033e 2b08 393e
00000190: c793 9d3d 3d43 4e3d 95f9 a5bb a408 a43b
000001a0: 672a a83d 23f8 44be f042 4abe a129 0f3e
000001b0: 297b 4cbe 870d dc3d 504a 173e ecb5 0a3e
000001c0: bff4 7b3d 6462 b83c eefd c03d f819 f93d
000001d0: 2c29 c23b 9839 16be d317 023e 63b8 cd3c
000001e0: 9108 003e ca02 0cbe 2678 50bd b50a 06be
000001f0: 4a06 3f3c a1e5 313e c035 1e3d 808b 313e
00000200: 8c79 193e 924c 10be aaf2 483e 32b8 393c
00000210: a5d2 2e3e 1414 223d bbdc 0ebd fe71 313e
00000220: ad6e 1abe 1287 9d3b 7bf9 ebbc 6d24 1d3c
00000230: 4f03 71bd b56a 253e 6816 2dbc b207 ac3d
00000240: 6a78 b33d e540 3e3e 796c 953d 9d01 50be
00000250: 213c 2dbe 03b1 44be a2f0 4cbe be2a 2dbe
00000260: 5ea4 14bb 6ad4 453e 5b8f 06be 7af1 b03d
00000270: b4b6 bebd 610b 213e 2c61 083e c03d c23d
00000280: d924 383e bb23 1dbe 5c39 31be 2b3c d5bd
00000290: 711d 2e3d 278f 383e 6a68 093e 8e4c 833d
000002a0: b009 14bd 2df0 efbd 8c66 4f3e bb1d 36be
000002b0: d890 10be 8e97 f53d 016e 223e b2c3 5b3d
000002c0: e482 78bb be2d c7bc e8cb d93c ece9 d2bd
000002d0: 45ab 4e3e 2581 513e 8196 a1bd ccd1 103e
000002e0: c251 46bd 182a 17be a60b 0f3d 676d 1ebd
000002f0: cfe3 2e3e 369f 533c 047d 36bd 4575 26be
00000300: 883f 093e b57d 0b3e dabf eb3c 9b5a 93bc
00000310: d435 8cbd d1db 453d 6892 483e 31cd 0cbd
00000320: e06d 9c3c ba9f 47be 2265 553d 6494 b3bd
00000330: 337a 44bd 8fb3 ddbd a379 3f3e 2ffc 0f3e
00000340: 4817 b4bd b0f3 4cbd 5641 7d3d 650f 9f3d
00000350: 0cb1 c4bd 705f ad3d 02ef 033d 0428 f03d
00000360: 2e74 e1bd fc94 08be 907b c03d b07d 01bc
00000370: 5f4d b5bd a518 243e 9839 b6bc 3a3d 0bbe
00000380: 659c f1bc 4c93 c3bd 1a4c 94bd 52aa 2bbe
00000390: 9dd7 263e 6596 373e e327 31be 6fa6 023e
000003a0: 1da5 743d 33d7 a9bd 5824 76bd d977 0e3d
000003b0: 41be 2f3d 6ae6 313e 1da2 473e b9ba 433c
000003c0: 2fa7 443e cf52 f6bd d28c f43a e321 2dbe
000003d0: 5e9d c73d f9e0 263d 9e71 fdbd f578 1fbe
000003e0: c436 26bd 7c2a 9ebd 9a5b aabd aa4b 35be
000003f0: 600e 06be 744f 2d3e d068 cdbd b32a ab3d
0.014461209 -0.20001061 0.0669366 0.00051268033 -0.13468768 -0.07596746 -0.0811525 -0.09233909
-0.05169087 0.03737331 -0.11737643 0.05191585 -0.16790193 0.19204201 -0.12232449 0.08625021
-0.14000927 -0.13910308 -0.02981618 -0.11617801 -0.058251493 -0.08887664 -0.057747904 -0.15789917
0.19881293 0.11404694 -0.07257467 0.14846995 -0.09074189 -0.16681886 0.06533186 -0.0702424
0.15313037 -0.054841295 -0.16578402 0.17229886 0.045538668 0.061737478 -0.019843759 -0.16215044
0.06600554 0.0009781463 -0.13538063 0.115365066 -0.19114503 -0.12663592 -0.047809497 -0.19178694
-0.1833965 -0.06155927 -0.038169753 0.14995712 0.09479904 0.19057612 0.06340015 0.027294505
-0.039767597 -0.08647713 -0.18287128 -0.18571663 0.087808095 -0.13008876 -0.084013194 0.09554842
-0.12557209 0.07618267 -0.011027529 0.042162083 -0.09299573 0.14840963 -0.16713911 -0.19065009
0.15926129 -0.13785449 0.1955557 0.091586515 0.078742094 -0.025432065 0.038356524 0.05242799
-0.09641141 0.15026645 0.1261719 0.011986119 0.05852645 -0.023517288 -0.07298658 -0.15773071
-0.078625746 -0.19594157 -0.063894674 0.10681193 0.19857834 -0.18595383 -0.16986987 0.16902176
-0.07191873 0.00050858164 0.12809025 0.18069522 0.07694202 0.050357092 -0.005065153 0.005005913
0.082112126 -0.19235282 -0.19752097 0.13980724 -0.19968857 0.10744768 0.14774442 0.1354596
0.061512705 0.022507854 0.09423433 0.12163156 0.005925318 -0.14670408 0.127044 0.025112337
0.12503268 -0.13672939 -0.050895832 -0.13090022 0.011659214 0.17372753 0.03862548 0.17338371
0.14987773 -0.1409171 0.19623819 0.0113354195 0.17072542 0.03956993 -0.034878474 0.17328641
-0.15081282 0.0048073614 -0.028805485 0.009591204 -0.058841046 0.16153987 -0.010564424 0.08399905
0.087632015 0.18579443 0.0729608 -0.20313115 -0.16917469 -0.1920815 -0.20013669 -0.16910836
-0.0022680978 0.19319311 -0.13140623 0.08639808 -0.093121916 0.15726997 0.13318318 0.09484434
0.17982806 -0.15345661 -0.17307037 -0.10411867 0.042508546 0.18023358 0.13418737 0.06411086
-0.03614205 -0.11715732 0.20253962 -0.17784779 -0.14117754 0.119917974 0.15862276 0.053653426
-0.0037919814 -0.024313804 0.026586488 -0.10298523 0.20182522 0.20459421 -0.078900345 0.14142531
-0.048417814 -0.14762151 0.03492322 -0.038678553 0.1707909 0.012916377 -0.044552818 -0.16255672
0.13403141 0.13622172 0.028778005 -0.01798754 -0.068462044 0.048305336 0.195871 -0.034375373
0.019095361 -0.19494525 0.0520984 -0.08768538 -0.0479681 -0.10825264 0.18698744 0.14061044
-0.08793503 -0.050037086 0.061829887 0.07766608 -0.096040815 0.08465469 0.032210357 0.117263824
-0.11008488 -0.13338083 0.09398568 -0.007903501 -0.08852648 0.16025026 -0.02224426 -0.13597575
-0.02949352 -0.09549579 -0.07241078 -0.16764191 0.16293187 0.17928465 -0.17300372 0.12758802
0.059727777 -0.08292999 -0.060093254 0.034782264 0.04290605 0.17373052 0.19495435 0.011946374
0.192044 -0.12027513 0.001865769 -0.16907458 0.09746812 0.040741894 -0.123751864 -0.15573485
-0.040579572 -0.07722947 -0.08318253 -0.17704645 -0.13091421 0.1692484 -0.10029757 0.083577536

bn1.weight f4 [256]
00000000: dc6e 193f ccf9 613f a1ca ea3f 59c5 423f
00000010: 612c 543f 33fd 423f a26c 893f da6b 623f
00000020: 7861 823f 79a4 8e3f 4978 883e a24d 8a3f
00000030: 6fd2 4d3f 64c8 953e 3738 503f 8b5f ad3f
00000040: bef3 0e3f 0104 303f bca8 1a3f 1ae6 e23e
00000050: 99b9 c53f d8bc 703f 952b 1f3f c9d2 fe3e
00000060: 8d7f 373f 402e 973f 8b28 d63e 5d6f 2b3f
00000070: 3e7e 723f 7831 a53f 06e2 ae3e 399c 4c3b
00000080: 364d 863e 96a9 443f fb78 1d3f 4e49 233f
00000090: 46f3 f73e aa1b 113f 4641 3c3f 7f3a 5d3f
000000a0: 67b2 d33f 9d06 733f c726 613f 8bbe 963f
000000b0: 2bcf e6bb f3e1 6d3f f294 233f cca1 163f
000000c0: 361d 4d3f 23b3 303f 1fb0 473f 7225 133f
000000d0: b860 3c3f 5387 283f 845d 443f cc36 283f
000000e0: 0f7c 2c3f 78ab 373f 7cdb 503f 8f40 293f
000000f0: d0d8 193f 767f 663f d801 333f ea29 773f
00000100: 1532 7f3f ffd8 793f 3ba6 213e 3f48 553f
00000110: b746 2f3d 8fbe 9c3f 41b3 a93f d0a0 843f
00000120: cf5f 1dbb 5044 753c caca 163f ef29 783f
00000130: 078b 413f c981 373f 2fed 26bc 76e9 eb3f
00000140: 5682 153f 4d22 943f 85c0 483f d664 143f
00000150: 84aa 693d 748f 653f 4d77 683f 7f8a 513f
00000160: e575 273f 9ce9 103f 72e0 303f 8a43 1f3e
00000170: b6f0 503f 9cda a33f f3f8 423e dbbf 8b3f
00000180: ed15 583f 408d 5d3f c2d7 d13d 032f 193f
00000190: af49 ba3e 01c3 fd3e d4a8 003f db27 763f
000001a0: 6082 4b3f 7f98 423f 858d 1b3f de81 a73f
000001b0: 0312 953f a5e6 0d3f 0344 3a3f fa66 8f3e
000001c0: dc2f a13f 8c6e 533f 620c 603f cac6 a03f
000001d0: bd55 573f 7da6 d53e da16 013f ca69 c43f
000001e0: 2fb8 633f 95ee 543f 6134 6f3f de64 363f
000001f0: 83ff 0e3f f107 173f 8759 383f ca06 d93e
00000200: 8b80 4a3f fb12 253f 9094 453f 0b19 14bc
00000210: 7d72 173f 8675 cb3f ada5 c53f 12aa b33b
00000220: 4899 2c3f 2847 cd3f 0c14 2b3f b093 833f
00000230: a85f fc3e e56a 933f 4390 a13e 8d11 603f
00000240: 988e 173f e813 cd3e 3a4e 8a3f 6427 8f3f
00000250: 7b76 8e3f d83a fc3f f8ea ca3d 6f6b 453f
00000260: 06bc ab3f 4a7e cd3b fea2 2b3f 55de 813f
00000270: f84e ea3a 163e 8e3f 6e8e 593f 2ed2 d0bb
00000280: 3053 9abc 8e2e 9f3f 7852 343f 3134 5d3f
00000290: 4945 d03f 1ee5 1a3f 08f0 c03f 7704 7d3f
000002a0: 68ea 4d3e 361d 763f bd12 223f 5666 543f
000002b0: 6bdc 813f e1ae 043f 9c21 603f daf9 363e
000002c0: 5f8c a63f c7b6 7c3f 9f17 f93a 41a0 f33e
000002d0: a6de 763f c835 713f 6b76 373f aeb5 1c3f
000002e0: 00ba 013f b6df 373f 26e5 773e f39a b03e
000002f0: d809 623f a903 513f af9e 833f 80be 843f
00000300: 8003 ce3e dda0 473f d4f2 d93d 60ae a13d
00000310: e6f8 213f d5ac 593f 93a4 d13e eab9 343f
00000320: fd14 833e 8040 fe3e f0f8 153f f27d 4f3f
00000330: 5589 a83f 70cb 933b 6f1f de3f 7f80 553f
00000340: 81e1 3a3f 8f4f b63e 0c42 fd3e d6c7 413f
00000350: fafc 3f3f cd9e 733f cd54 7e3e 4e2a 813f
00000360: c83b 453f 445b 733f fdcc 6f3f 96ae 2f3f
00000370: 9b94 613e 210c c43e 003f 593f 539b 3d3f
00000380: de2f 703f 6840 683f 34d2 783f 64b5 103f
00000390: b177 8b3b b290 7d3f c008 4a3f 578a 823f
000003a0: 3881 783f f0b0 013f e76e d93f f968 ff3e
000003b0: 7a2d bd3f 17fe 493f 91ba 723f 95fa 0140
000003c0: e879 453f 19ad 833f f001 713f 39a9 363f
000003d0: eb29 603f 4bae 5f3f 8a59 903e fc8d 273f
000003e0: 343b 923f 0d2f 353f 3060 08bc dd58 453f
000003f0: b50d 683f c4b5 163f 851a 693f 19dc 2d3f
0.59934783 0.88271785 1.8343087 0.7608238 0.82880217 0.761676 1.0736277 0.8844582
1.0185995 1.1143943 0.2665427 1.0804942 0.8039922 0.29254448 0.8133578 1.3544782
0.5584067 0.6875611 0.6041372 0.4431618 1.5447265 0.9403815 0.62175876 0.4977019
0.71679 1.1810989 0.41827807 0.669668 0.9472388 1.2905722 0.34156817 0.0031221046
0.26230782 0.7682127 0.61512727 0.6378373 0.4842779 0.56682837 0.735371 0.8641738
1.6538819 0.94931966 0.87949795 1.1776899 -0.0070437393 0.92922896 0.6389915 0.5884063
0.801227 0.6902334 0.78003114 0.5747901 0.7358508 0.6583149 0.76705194 0.65708613
0.673768 0.71746016 0.81584907 0.66114134 0.60096455 0.9003824 0.6992469 0.9654833
0.99685794 0.97596735 0.15786068 0.83313364 0.04279205 1.2245654 1.3257829 1.0361576
-0.0024013405 0.0149699 0.5890318 0.96938986 0.75602764 0.7168241 -0.010188385 1.8430622
0.58402 1.1572968 0.7841876 0.57966363 0.057047382 0.8967202 0.9080704 0.81851953
0.6541427 0.5660646 0.69092476 0.15553108 0.81617296 1.2801089 0.19040279 1.0917925
0.84408456 0.86543655 0.10246231 0.5983736 0.3638434 0.4956284 0.5025761 0.96154565
0.7949581 0.7601394 0.60762817 1.3086507 1.1646122 0.5543006 0.7276003 0.28008252
1.259273 0.82590556 0.87518895 1.2560666 0.841152 0.41728583 0.50425494 1.5344784
0.88952917 0.8317655 0.934393 0.7124766 0.5585863 0.5899649 0.7201161 0.42387992
0.7910239 0.64482087 0.77179813 -0.009039174 0.5915907 1.589524 1.5441185 0.0054829204
0.6742139 1.603734 0.66827464 1.0279446 0.4929173 1.1516997 0.31555375 0.8752678
0.59201956 0.4005425 1.0805123 1.1183896 1.1129907 1.9705458 0.09908098 0.77117056
1.3416755 0.0062711583 0.6704558 1.0145975 0.0017876318 1.1112697 0.84982955 -0.0063727116
-0.018838495 1.2436082 0.7043834 0.8640776 1.6271144 0.60505855 1.5073252 0.9883494
0.2010895 0.9613832 0.6330984 0.8296865 1.0145391 0.51829344 0.87551284 0.17868748
1.3011588 0.98716396 0.0019004232 0.47583202 0.96433485 0.9422269 0.71665066 0.6121472
0.5067444 0.7182573 0.24208507 0.34493217 0.8829627 0.8164621 1.0282801 1.0370636
0.40237045 0.7797983 0.10642019 0.078945875 0.63270414 0.85029346 0.40945873 0.7059618
0.2560195 0.49658585 0.58582973 0.8105155 1.316691 0.0045103356 1.7353343 0.83399194
0.7300034 0.35607573 0.49464452 0.7569555 0.74995387 0.95164186 0.24837036 1.0091035
0.77044344 0.95061135 0.9367216 0.6862577 0.22029345 0.38290504 0.84861755 0.7406513
0.9382304 0.90723276 0.97195745 0.5652678 0.0042562117 0.9904891 0.789196 1.0198468
0.9707217 0.5066061 1.698697 0.49884775 1.4779503 0.78903335 0.9481593 2.0309193
0.7713914 1.02872 0.9414358 0.71351963 0.8756396 0.87375325 0.28193313 0.65451026
1.1424317 0.7077492 -0.008323714 0.7708872 0.90645915 0.588711 0.9105609 0.6791397

bn1.bias f4 [256]
00000000: fd69 643e 0d5f 67bf 0afe 1ebf b004 0dbf
00000010: e1d4 8ebf 4d8c 11bf c428 fbbe dcf1 5bbf
00000020: 7029 3abf db8b 1cbf f98d 56bf 993d 2abf
00000030: 9619 17bf 0777 53bf 44f5 07bf 1238 bdbe
00000040: e090 d3be e67b 26be bb2c 4abf db1c a1bf
00000050: 6358 2bbf 93b0 78bf 65cf 24bf dfc9 0cbf
00000060: 8385 8bbe 1eb0 52bf 2ac7 17bf 0ab2 14be
00000070: 0e84 40be e646 5ebf b5c4 b1bf e775 84bd
00000080: e113 95bf 81ac 63bf efc9 23bf 965c 0bbf
00000090: 323c 58bf 830b 0f3c b45f 5abf 787e 88bf
000000a0: e790 00bf 2163 3fbf 9b52 30bf 53db 2cbf
000000b0: f642 f3bc a3c8 3ebf f3ea 1cbf 57ae eebe
000000c0: 24b3 88bf 1b81 a8be 9ccd 84bf a401 58bf
000000d0: d350 22bf 48d8 79bf 218d 73bf c63b 6ebf
000000e0: 09c2 5fbf bdf0 cebe cb76 46bf a06e 2fbf
000000f0: e997 5cbe 7d8b 08bf 0f3f 5bbf 4fca e0be
00000100: 4401 73bf a73d 11bf 0e49 24bf d1bd 23bf
00000110: 05d7 a0be 00c4 1fbf 658f 32bf 764c 28be
00000120: bcfd 1dbd 28dc 23be 5ca5 e4be b7ea 74bf
00000130: fbe3 a3bf 214a 5abf 1653 85bd 25f0 9cbe
00000140: 147a 76bf 56e4 89bf 54ed 7cbf 14e1 4dbf
00000150: 3dd0 9ebe c67e 1d3e 4618 95bf 8e15 52bf
00000160: 4161 07bf 964a 54bf 73f2 11bf 94f7 0dbf
00000170: 2fee 5dbf fe45 a4be 92b8 85bf 894c cdbd
00000180: 8a2d a1be 0cb7 3dbf 75aa e6be 7de1 96bf
00000190: 1b56 a7be f5c9 66bf 8deb 773b e888 86bf
000001a0: 235e 96bf 9953 5bbf 8496 b3bf 6769 123f
000001b0: f91e aebf f752 83bf 56f0 eabe 2efd 90bf
000001c0: b48a b0bd b307 aebe 0632 24bf 81c6 7cbf
000001d0: 0bc0 f6bd 224e 6dbf 1944 90bf 654e 91bf
000001e0: 74fb 4dbf 06f4 2abf e3b9 23bf 03c5 b03e
000001f0: bbcd a0be cda2 3fbf fdf1 87bf 8879 a2be
00000200: 7de1 f0be c7b1 34bf 0043 30bf 6460 a6bd
00000210: dc17 2abc 2698 b03e fe23 97bf ede3 0dbd
00000220: 5918 53bf b1e1 dabe b974 0fbf 9317 53bf
00000230: c609 6bbf a48e 0fbf d717 66bf f5a1 cabe
00000240: 794a 79bf ea29 a4bf c1c7 30bf f3d4 d23d
00000250: 3a59 65bf fc3c 323e 36d9 ddbe 7ff7 f0be
00000260: f7c3 febe 7b49 b7bc c8ec 58bf 44b4 60bf
00000270: 1cc7 25bc 8c5b 61bf c8c8 7abf fa8e 00bd
00000280: c6d9 77bd f9bc 44bf 3a37 33bf 0341 2dbe
00000290: 15b1 a2be 85ef a2bf 9644 48bc d583 6bbf
000002a0: f9e8 33bf c981 2fbf 8d51 17bf fd72 c4be
000002b0: bf4c 43bf ce39 80bf 7360 58bf cfa7 b4bd
000002c0: 24fb b3bf d10b 5fbf f89f a9bc 448c 68bf
000002d0: 5a30 f2bd e6b8 5cbf 4856 55bf 6a95 b6bf
000002e0: 9490 33bf b800 0cbf ad64 85bf b265 86bf
000002f0: 6180 96bf 2396 1d3d e381 3abf d88d 58bf
00000300: 81f3 45bf 5734 83be a329 0ebf 3c7e 12bf
00000310: bbf6 0ebf 5e63 41bf 71a3 4bbf 5ff3 d9be
00000320: 986b 63bf 78ff a2be 4cd3 31bf 2bd1 11bf
00000330: aa76 c23d 17f4 acbd b1d7 cdbd 05b7 e9be
00000340: 2bdc 36bf 9ddf a7bf febb 4dbf d18d b0bf
00000350: e2ee c3be 924f cbbe 8109 83bf 2f17 6abf
00000360: d5fb 7cbe 74e4 7cbf 9593 1cbf ddcd 43bf
00000370: 7132 6bbe 04ba 35bf 1cec 13bf c2fb 56be
00000380: fc06 14bf a1c4 20bf 5514 463f 2bdf 23bf
00000390: d980 17bd d263 86bf b476 c0bf 3864 0ebf
000003a0: 121e 763e 88a2 f2be 304f 03bf bd29 c2be
000003b0: d464 afbe d73e f2be 581d f6be 9271 dc3d
000003c0: 127f babe 720d 56bf c03c 3ebf f1d9 79bf
000003d0: 699a c33b 2298 13bf 04c3 59bf 3ad4 87bf
000003e0: 789f 40bf 6a3b 0dbf 8886 95bd 012a 19bf
000003f0: 7adb 67bf ad0a 7abf 3d39 88be f0e1 9abe
0.22306056 -0.9037941 -0.6210638 -0.5508528 -1.1158715 -0.56854707 -0.4905454 -0.85915923
-0.7271948 -0.611509 -0.83810383 -0.6650024 -0.59023416 -0.82603496 -0.5310862 -0.3695684
-0.41321468 -0.16258201 -0.78974503 -1.2586931 -0.6693174 -0.9714443 -0.6437896 -0.5499553
-0.272503 -0.82299984 -0.59288275 -0.14521042 -0.18800375 -0.8682693 -1.3888155 -0.064678006
-1.1646692 -0.88935095 -0.6398 -0.5443815 -0.8446685 0.008730772 -0.8530228 -1.0663595
-0.50221103 -0.74760634 -0.68876046 -0.6752216 -0.029695015 -0.745249 -0.61296004 -0.46617386
-1.0679669 -0.32911 -1.0375247 -0.84377503 -0.6340458 -0.97595644 -0.9513722 -0.9305996
-0.8740545 -0.40418044 -0.77525014 -0.68528175 -0.21542324 -0.5333784 -0.85643095 -0.4390435
-0.94923806 -0.567347 -0.6417397 -0.6396151 -0.31414047 -0.6240845 -0.6975005 -0.16435418
-0.038572058 -0.16001952 -0.4465741 -0.95670646 -1.2803949 -0.8526936 -0.06509988 -0.30651966
-0.96280026 -1.0772808 -0.98799634 -0.80421567 -0.31018248 0.15380391 -1.1648033 -0.8206414
-0.5288277 -0.8292631 -0.57010573 -0.554559 -0.86691564 -0.3208465 -1.0446951 -0.100243635
-0.31480056 -0.7410743 -0.45051923 -1.1787564 -0.3268288 -0.9015191 0.0037829608 -1.051053
-1.1747478 -0.85674435 -1.4030309 0.5719208 -1.3603202 -1.0259694 -0.45886487 -1.1327264
-0.086202055 -0.3399025 -0.6413883 -0.9874039 -0.12048348 -0.92697346 -1.1270782 -1.1352049
-0.8046181 -0.667786 -0.63955516 0.34525308 -0.3140696 -0.7485779 -1.0620724 -0.31733346
-0.47047034 -0.70583767 -0.68852234 -0.08123854 -0.010381665 0.3449108 -1.1807859 -0.034641195
-0.82459027 -0.42750314 -0.5603748 -0.82457846 -0.9181179 -0.5607703 -0.89880127 -0.39576688
-0.9737926 -1.2825291 -0.690548 0.10294523 -0.89589274 0.17406076 -0.4332978 -0.47063825
-0.49758884 -0.022373905 -0.847363 -0.87775064 -0.010118272 -0.88030314 -0.9796262 -0.031386353
-0.06051042 -0.7685085 -0.70006144 -0.16919331 -0.31775728 -1.2729346 -0.012223383 -0.91998035
-0.70277363 -0.6855741 -0.5910881 -0.3836898 -0.7628898 -1.001764 -0.8452217 -0.088210694
-1.4061017 -0.87127405 -0.020706162 -0.9083903 -0.118256286 -0.8621963 -0.8333478 -1.4264348
-0.70142484 -0.54688597 -1.0421349 -1.0499785 -1.1757928 0.03847326 -0.7285444 -0.84591436
-0.7732468 -0.2562587 -0.5553228 -0.5722387 -0.5584523 -0.7554225 -0.79546267 -0.4256849
-0.8883605 -0.31835532 -0.6946304 -0.5695979 0.094952896 -0.08444994 -0.100509055 -0.45647445
-0.714297 -1.3115116 -0.8036498 -1.3793279 -0.3826819 -0.39709145 -1.0237275 -0.91441625
-0.24705441 -0.9878609 -0.6116269 -0.76486 -0.2296846 -0.7098696 -0.5778215 -0.20994475
-0.5782316 -0.6280003 0.77374774 -0.640124 -0.036988113 -1.0499213 -1.5036225 -0.5562167
0.24034908 -0.47389627 -0.51292706 -0.3792247 -0.34256613 -0.47313568 -0.48069263 0.10763849
-0.36425072 -0.83614266 -0.7431145 -0.9759818 0.005969335 -0.5765401 -0.85063195 -1.0611641
-0.7524333 -0.55168784 -0.073010504 -0.5982972 -0.9056927 -0.9767254 -0.2660617 -0.30250502

bn1.running_mean f4 [256]
00000000: 5a7a bb3c 6f7f 56be 0c7b 913d 80a2 563b
00000010: 43e3 ffbd 097e 3bbd c009 d8bd 5105 a5bd
00000020: d0b1 a2bd 90af cf3c 2e3a cbbd d5ad b33d
00000030: 55e2 32be 9843 603e 9936 e5bd 5180 053e
00000040: fa14 07be a4f6 b0bd f0f9 03bd 2734 23be
00000050: 3552 c8bc 960e 68bd 8817 9abd ae7b 1dbe
00000060: 5933 623e 27ed 963d b965 81bd 3ac1 383e
00000070: 6843 9fbd 9805 6fbe f9a5 6a3d e10b 99bd
00000080: cc9d 3b3e cc43 c8bc ff18 0dbe 622e 3f3e
00000090: 98da 243c bcbc 563d d87a 7cbd 906e 0ebe
000000a0: ff12 9f3d ddf2 87bc 5af6 0ebe a97f bf3d
000000b0: 96ed 45be 403f 08be 5e92 2ebd 0075 34be
000000c0: c842 10be 6314 c9bc a5e0 27bc ace7 3a3e
000000d0: 35f8 033e 1294 653e 0703 b73d 9d9b 143d
000000e0: ee91 0ebd db8f b1bd 1f21 17be 37ed 43be
000000f0: f51e 823d 2f1b 13be a664 abbd 6d35 b53d
00000100: 9972 d2bd b64c b53d 5ed0 053c 712c 093d
00000110: 87e1 c5bd cadc 4f3e 2941 38be 218f 3bbe
00000120: 6438 253e c096 0abe d53c 653e 8663 9d3d
00000130: 94c6 903d dbea 383c b13c 453d f98c 313d
00000140: fcf5 cebd e867 313e 564e 263e 2175 923c
00000150: 4466 783d 7d9c f2bc eb34 9fbd 4ecb 22be
00000160: 46ae 5fbd f8f1 4ebe 7430 11bd 2722 ca3d
00000170: 0ed4 703e e587 21be b9d1 4fbe b94a 253e
00000180: 6367 0ebd d33d 283d 16d7 fb3d bdc0 333e
00000190: 871a 6b3d 2bf5 233d 8cb3 6d3c 66a7 8f3c
000001a0: db30 b33d 9456 3fbe 0da7 59be 78af 3c3e
000001b0: aec7 58be 7873 973d b399 073e fd63 1e3e
000001c0: 4860 423d 5479 df3c beed db3d 04f1 ee3d
000001d0: 3b5e 2d3d 2810 31be 11c3 dd3d 1abd 203d
000001e0: e97f 8d3d b95c 0abe 75e0 a0bc 1f20 18be
000001f0: 7829 403a 8592 283e f4ca 7d3d e72e 453e
00000200: 7740 3d3e bfbf 11be feb7 663e 064f c53c
00000210: f974 233e 6bdd bc3c e9e4 dbbb 48b0 303e
00000220: 5a9c 05be 2132 a83a fcd9 e33a 6d23 d5bb
00000230: 0957 30bd 611a 333e f6b3 69bc 997f a43d
00000240: 1988 d53d 50ef 153e b747 db3d 2024 2abe
00000250: b170 4abe 9659 1cbe e234 50be 38b6 2cbe
00000260: e0bf 273d 0357 473e 4dca 2cbe 817d ca3d
00000270: 8090 bcbd 24cc 033e b698 f43d dc1c bd3d
00000280: 2f50 2c3e 698b 2bbe 785b 24be bd98 b7bd
00000290: 6c4d 2b3c b4f5 1a3e a1c8 be3d bb93 113d
000002a0: f56d 79bd 4492 02be f23a 523e 343c 3bbe
000002b0: 078a 0abe effd 053e c69c 363e d77d 6c3d
000002c0: 87ae fbbc d659 913b 264f ea3c c2ff e1bd
000002d0: 9153 413e 26c8 803e 3fbd 95bd 9515 b03d
000002e0: bb1d 383b c622 f1bd 96cf a03d c6c9 c1bc
000002f0: a67c 243e 1d2a da3a 7d22 1dbc f1cd 2fbe
00000300: c51c 033e 6663 f33d f64a c73c cb80 6dbc
00000310: 2285 8ebd 5c7c 183d 360f 323e b07d e1ba
00000320: 2293 db3c 7f90 40be af15 113d d7e9 d2bd
00000330: 2d53 45bd 34af dfbd a1c9 1b3e fa9e 123e
00000340: ecb0 64bd 5139 89bd 1ab6 433d da0a 5d3d
00000350: 40f0 83bd 4219 b93d 67a6 c13c ee59 1e3e
00000360: 1d37 05be 476e ffbd 67f0 9d3d 6240 3d3b
00000370: 69ad bfbd 09c9 2d3e ca61 babb ed7a e5bd
00000380: 1801 cebc a150 dabd 4282 6bbc 0ded 04be
00000390: 94fd 283e 0e20 533e a68b 43be 85ed 013e
000003a0: ab03 563d b3aa 93bd a6bd 5cbd 15ce c93c
000003b0: 6779 4f3c 1d72 1d3e de8d 7b3e bb8e 0a3d
000003c0: 451a 6a3e 26dd b1bd 6c70 a63c 2fdf 29be
000003d0: dff1 003e 22b9 343d 0f8f e9bd cd4e 2ebe
000003e0: 2200 cbbb ad65 a5bd b243 a9bd bd4f 0fbe
000003f0: 6350 f9bd a143 423e 1d54 01be 8684 923d
0.02288549 -0.2094705 0.071035475 0.0032750666 -0.124945186 -0.045774493 -0.10548735 -0.08057655
-0.07944071 0.02535227 -0.09923206 0.0877339 -0.17469151 0.21900785 -0.11192054 0.1303723
-0.13191596 -0.08640793 -0.03222078 -0.15937863 -0.024453262 -0.056654535 -0.075240195 -0.15379211
0.220899 0.07369452 -0.0631823 0.1804246 -0.077765286 -0.23341978 0.05728719 -0.07472969
0.18321913 -0.02444639 -0.13779067 0.18670037 0.010061882 0.052426085 -0.06164059 -0.13909364
0.07767295 -0.016595298 -0.13961163 0.09350521 -0.19328913 -0.13305378 -0.042620055 -0.17622757
-0.14087975 -0.024545854 -0.0102464305 0.18252438 0.12887652 0.22419766 0.08936124 0.036281217
-0.03480714 -0.086700164 -0.14758728 -0.19133459 0.06353561 -0.14365838 -0.083688065 0.08848081
-0.10275764 0.08852522 0.008167354 0.03348965 -0.096621566 0.20299068 -0.17993607 -0.18316318
0.16134793 -0.13534069 0.22386487 0.07684998 0.07069126 0.011286463 0.048153583 0.043347333
-0.101055115 0.17324793 0.1624082 0.017878117 0.060644403 -0.029615635 -0.07773765 -0.15897867
-0.05460956 -0.20209491 -0.0354466 0.09869795 0.23518392 -0.15774496 -0.20294847 0.16141786
-0.034766566 0.041074585 0.12296884 0.17553993 0.057398345 0.040028732 0.014508139 0.017535876
0.08749553 -0.1868537 -0.21255131 0.18426311 -0.21169922 0.07395071 0.13242225 0.1546783
0.047455102 0.027279533 0.10738705 0.11667064 0.042326193 -0.1729132 0.108282216 0.03924284
0.069091626 -0.13511933 -0.01963828 -0.14856003 0.0007330398 0.16462143 0.06196113 0.19256173
0.18481623 -0.14233302 0.22531125 0.024085533 0.1596259 0.023054799 -0.006710638 0.17254746
-0.13047925 0.0012832322 0.001738369 -0.006504467 -0.043051753 0.17490532 -0.014264097 0.0803215
0.10426349 0.14642072 0.10707038 -0.16615343 -0.19769551 -0.1526855 -0.20332673 -0.16866386
0.04095447 0.19466786 -0.16874047 0.09887219 -0.09207249 0.12870842 0.1194319 0.0923402
0.16827463 -0.167524 -0.16050518 -0.089646794 0.0104554705 0.15132791 0.09315611 0.035541277
-0.06089588 -0.12751108 0.20530298 -0.18284684 -0.13529216 0.13085149 0.17833242 0.057737198
-0.03072287 0.004435758 0.028602194 -0.1103511 0.18879534 0.251527 -0.073114865 0.085978664
0.0028093893 -0.11774211 0.07852094 -0.023655783 0.16063175 0.0016644631 -0.009590742 -0.17168404
0.12803943 0.11884193 0.024327736 -0.014496039 -0.06958987 0.037227973 0.17388615 -0.0017203595
0.026803557 -0.18805121 0.03542107 -0.10298508 -0.048175026 -0.10922089 0.15213634 0.14318457
-0.05583279 -0.06700385 0.047781087 0.053965427 -0.064423084 0.09038021 0.023638917 0.15463993
-0.13009305 -0.124722056 0.07711869 0.0028877486 -0.09359247 0.1697122 -0.005687927 -0.11205087
-0.025147006 -0.1065991 -0.014374318 -0.12981053 0.16502982 0.20617697 -0.1909624 0.12688263
0.05224959 -0.07210293 -0.0538918 0.0246344 0.012663222 0.15375562 0.24565837 0.033827525
0.22861584 -0.08684759 0.020317279 -0.16589044 0.12592266 0.04412187 -0.114042394 -0.17022248
-0.006195084 -0.08076034 -0.08264865 -0.13995261 -0.12173536 0.18971111 -0.12629743 0.07154183

bn1.running_var f4 [256]
00000000: 7b8b 2141 06cc e340 71ea d73f 58fb 8140
00000010: cc1c 8540 f4d2 1e40 9ca9 5040 9805 b43f
00000020: a4b9 e340 15fa af40 75b7 0340 1c31 0b41
00000030: 3df1 a541 936a b640 40c4 3941 3415 e140
00000040: 3097 8940 ba38 0341 6757 6540 a44f ea40
00000050: 2ea8 0440 03d5 7041 8da9 e63f 757d 1b40
00000060: 9b2a 1c41 fc9a 9540 14c5 7540 a720 4640
00000070: 11eb 7840 cac3 6c41 5a04 c93f 00b0 183e
00000080: 49d1 0040 85d3 2340 59ef 8140 0fd5 c840
00000090: 880c 5b41 6647 0040 4060 b140 3074 1840
000000a0: d602 903f 3044 9f40 5067 8f41 2bab d63f
000000b0: a9a4 8f3d ecd5 c540 7d5a 7e40 bc48 2d41
000000c0: df6c cd3f 90fe 8040 e111 d240 54f3 b140
000000d0: 9847 a140 ab32 3240 41b5 f93f 642b 5441
000000e0: 3a46 0e40 86be 3140 b5d9 3240 5b36 2940
000000f0: 3e8c 2f40 e142 ad3f d8f2 a640 0569 db3f
00000100: e9de 2c41 7b9c 8a40 ab72 0140 557b 1540
00000110: 3740 273f 02c8 7741 c75b ab41 b1d0 c340
00000120: e17a dd3d a4b9 8c3f a6ce 4340 0aae 1b40
00000130: e9cc 9440 bc7e 743f d357 1c40 6e42 e540
00000140: 8d5d e43f 9e5f 5c40 ddab 7140 6ea8 d340
00000150: 5a65 143e 756e f43f 9723 0441 331a a440
00000160: 0df6 1340 3430 553f 80f6 0c40 c343 aa3f
00000170: 1ed3 ca3f fa91 f640 66d0 2a41 c635 3241
00000180: e62c b540 7c12 c93f 4e4f 823f cd74 a540
00000190: 02cd 903f b746 1840 964d a740 e6a9 8240
000001a0: fc50 9e3f 7133 c641 3aca 1440 4403 dc40
000001b0: a2e7 1540 58d4 5a41 d942 8140 51c4 b640
000001c0: ba99 8040 f48b 8d3f fc84 8d40 b641 4841
000001d0: 31f4 3c40 f72f b340 faaa 7d40 d01d f73f
000001e0: 6f28 9f40 eb55 3a41 5d41 b33f 986a be40
000001f0: e8fc ca40 328e 7641 437b a041 9669 1041
00000200: d3e7 4b40 944c 6740 c87f 7840 65a7 0540
00000210: b2f8 1542 ce84 5741 321b 9241 6265 bc3c
00000220: 5a9e b540 723e 1942 b011 7240 215d f740
00000230: 4e98 f33f 55d2 bb40 b955 1d40 1148 cd40
00000240: 29cd 5640 e3cf 0841 1168 fa3f b35b 3641
00000250: 50ce 2441 d97b 903f 1a56 dc3f 2d6e 0341
00000260: c673 1141 c498 283d f840 f73f ede7 d240
00000270: 7a1c 153f 0d3d 1040 c592 d640 9d55 033d
00000280: d840 f53f 35d6 c140 2b1c c740 c31b 6441
00000290: d549 4940 8979 9c40 649e b540 c598 0941
000002a0: ff50 d540 e35b b040 d005 6040 5bfe e440
000002b0: 0da2 ef40 073a 1541 a590 8540 ce0f 1a40
000002c0: 9650 8340 c5da 4240 e725 6b3d e78b aa40
000002d0: eb09 9940 b564 b83e 1b3f 9f40 9352 5b41
000002e0: 1caf 3d41 8561 dc40 afe6 3b40 0bcd 5440
000002f0: 2035 2440 26f0 b040 b857 9f40 81eb 3e41
00000300: e453 c63f 8f5c 3d41 1a0b da3f 594f 8c3f
00000310: 92ed 6040 e1e8 de40 8666 5240 3655 4a40
00000320: 58a5 a640 9254 8c40 05c0 b83f 228b 0f40
00000330: 9f3c f43f b8e0 263d 928c 0a40 87e9 d840
00000340: caf1 3c40 a575 5d40 7091 4640 b628 7540
00000350: 64ef e23f caf0 a53f b778 4e40 ac6d 3740
00000360: 433c 6a40 1d0e 9a40 62a9 3240 8f31 4840
00000370: 596d 4c40 5e34 2c41 a9a4 9d40 2da2 1f41
00000380: 5e4d c240 7edf b440 6345 c840 289b 3241
00000390: ac44 dd3e 9ad5 0241 8450 1040 0ec6 f740
000003a0: a98d a740 8701 e440 2c46 2c3f 2789 7b40
000003b0: dbf8 b63f 7ed4 2e40 ac80 0e41 bdb8 ad3f
000003c0: c2a1 c83f 0106 2d41 1f29 0141 50a9 9e3f
000003d0: 99d9 a640 cf1a df40 942d 8840 127e 2240
000003e0: fa96 cc3f 3ba3 9340 c19b 993d 4ab0 6f40
000003f0: 6f6e 7840 0fb6 1640 eb61 8040 7890 a940
10.096553 7.118655 1.6868421 4.0619316 4.1597652 2.4816256 3.2603521 1.4064207
7.116411 5.4992776 2.0580723 8.69949 20.742792 5.7005095 11.610413 7.0338383
4.2997055 8.201349 3.5834596 7.3222218 2.0727649 15.052005 1.8020493 2.4295323
9.760402 4.675169 3.8401537 3.095743 3.8893473 14.7978 1.5704453 0.14910889
2.0127738 2.5597851 4.0604672 6.276008 13.690559 2.0043578 5.5429993 2.3820915
1.1250865 4.9770737 17.925446 1.6770986 0.07013828 6.1823635 3.974273 10.830257
1.604885 4.0310745 6.5646825 5.560953 5.0399895 2.7843425 1.9508439 13.260593
2.2230363 2.7772536 2.7945378 2.6439426 2.7429347 1.3536035 5.217144 1.7141424
10.804421 4.3316016 2.0226238 2.3356526 0.6533236 15.48633 21.419813 6.119225
0.10814453 1.0994153 3.0594878 2.4324975 4.6500134 0.9550588 2.4428604 7.164359
1.784105 3.443336 3.7761147 6.6143103 0.14491788 1.9096209 8.258689 5.128198
2.3118927 0.8327668 2.2025452 1.3301929 1.5845678 7.7053194 10.675879 11.138128
5.661731 1.5708766 1.0180452 5.170508 1.1312563 2.379316 5.228221 4.0832396
1.2368464 24.775118 2.324843 6.8753986 2.3422627 13.676842 4.03941 5.7114644
4.0187654 1.1058335 4.4224834 12.516043 2.9524043 5.599605 3.9635606 1.9305973
4.9736857 11.645976 1.4004322 5.950512 6.3433723 15.409716 20.060186 9.025778
3.1860244 3.614049 3.8827991 2.088342 37.492867 13.469923 18.263279 0.022997562
5.67558 38.31098 3.7823296 7.7301183 1.9030855 5.8694253 2.458357 6.415047
3.356272 8.550754 1.9563009 11.3973875 10.300369 1.1287795 1.7213776 8.214398
9.090765 0.041161314 1.9316702 6.5908113 0.58246577 2.2537262 6.705416 0.03206407
1.9160414 6.0573983 6.2221885 14.256778 3.1451313 4.889836 5.675585 8.599797
6.666137 5.5112166 3.5003548 7.1560493 7.4885316 9.326667 4.173907 2.4072146
4.103587 3.0446026 0.057409193 5.329578 4.7824607 0.36014333 4.9764533 13.70766
11.855251 6.8869042 2.9359548 3.3250148 2.5657425 5.529315 4.979458 11.932496
1.5494351 11.835097 1.7034638 1.0961715 3.5145001 6.9659276 3.2875075 3.1614509
5.2076836 4.3853235 1.44336 2.242867 1.9081 0.040741652 2.1648297 6.7785068
2.9522576 3.4603055 3.1026268 3.8306098 1.7729306 1.2964108 3.2261178 2.8660688
3.659928 4.814223 2.7915883 3.1280248 3.194174 10.762785 4.92635 9.977094
6.071944 5.6522818 6.25847 11.16288 0.43216455 8.177149 2.2549143 7.7429266
5.2360425 7.1251864 0.67294574 3.930246 1.4294695 2.7317195 8.906414 1.3572003
1.5674365 10.813966 8.072539 1.239542 5.214062 6.9720225 4.2555637 2.5389447
1.5983574 4.6136756 0.07500411 3.7451348 3.8817403 2.354862 4.011953 5.2988853

fc2.weight f4 [128, 256]
00000000: 1e22 053f a046 173f 7d3e bd3d 0ad7 233e
00000010: 4e8d 8b3e d3ba 373f 1c1e a0bf 60b3 5a3f
00000020: 2e5b 423f 1e8f 883d 8278 a83f 3894 5cbe
00000030: 2d9a de3f 37bb 86bf 6977 0f3e 1e2b 063f
00000040: fe0b f73e 4e5b 703f 3bb4 593e 0b64 a5bf
00000050: 49ef 903f 101b 553f 96fd 143f 86ef 3f3f
00000060: b838 22bf e0d7 c7bd fc09 0cbf 7e8b 7b3e
00000070: ad1c e23d 798e 9bbe 4421 ff3e 84ca 2d3d
00000080: 73b6 b2be 8e21 7bbf af69 33be f208 cdbb
00000090: 178f 053f ce99 a03f 84dc 2d3f 9bb5 d83f
000000a0: df9a 323f a516 97bf 3c6a 4c3f cdf4 7d3f
000000b0: f988 b6bd 426e fb3e 80b3 36bf fa35 0dbd
000000c0: 74ac a63f c025 633e 7772 1cbe c941 7cbf
000000d0: d82f a63e 01c8 8e3f 9168 80be ca5b 27bf
000000e0: 1a05 4f3f 23b5 2dbe b7cb 493e 3991 96bf
000000f0: f319 7c3f fe0a 50bf ee8c 30bf f0e1 0bbf
00000100: 6def 75bc b571 23bf 847e f8be 7042 873f
00000110: 7aa5 af3c ebc1 35bf 4b9d 883f a30a 2a3f
00000120: 20c2 713b ecab 823d ce5d 613f c42b 0940
00000130: ec70 203e 65b6 843f d9cd 4e3e 0884 4e3f
00000140: af31 c33f d258 a33f c5df 293f c04b 22bf
00000150: add8 743b c0ec cd3e 7776 853f 67a4 abbe
00000160: 5c63 513f b54c c1bd e2e5 64bf eaa6 debd
00000170: 9f51 973d 8917 c13e bdaf f1be 17b0 473f
00000180: 877d 083f 15ee 093d 188d d33d ab6a 803f
00000190: ef58 b6be a9a5 083f b17c 1c3f 75be 4d3f
000001a0: fdb4 083f da60 183f 0d25 a3be 0220 b8be
000001b0: 4e62 b83f 5298 033e a570 bd3f 88d9 053f
000001c0: 2422 febe ee21 8b3f f468 2d3e bca2 7b3d
000001d0: 494b ac3f b1a1 3d3f 9c82 903f 0cce ff3e
000001e0: 7d40 6b3f 81a4 723f 8483 b23e fa7a 86be
000001f0: 582d 6a3f 1642 993f 0cf9 cf3f 1683 32be
00000200: 9f5f 313e 504b 363f 0880 c5be 0895 163e
00000210: 2f61 ed3f 83c2 b93f f983 1a3f c01a 65bd
00000220: bf9d 1bbf 045d c63f 6696 2e3f 9d8b 2a3f
00000230: 8f2f ed3f 4bea 843f e39a 8b3e 97ed 0c3d
00000240: 3bdb 293f af70 a23e c58d ecbe d8c9 a03f
00000250: 7b69 363f b1e8 103f 99f7 2abe 14db 3f3d
00000260: c38e a7bd 8573 f43d f2f5 44bf 3637 483f
00000270: a16e 45bd 8418 a9be e682 5e3f c97c 1c3d
00000280: c9cf 39bd b1cf acbd 391c 483f a1e4 6cbf
00000290: 3fe4 b9bf 06fb 73bf 463d 41be 395a 633f
000002a0: 9c93 1f3f b407 2cbe 2999 bf3e c31c 8e3e
000002b0: 5f6c c1be e170 bebf c80c 8dbe 9c6d 583f
000002c0: 4287 5d3f 6630 bdbd d2a9 ccbd 7ab2 443f
000002d0: 06e6 27bf 1770 2b3f 32eb d93e 5fd2 f6be
000002e0: c57f 0fbf 7b13 77bf 4780 423f 33e5 0dbe
000002f0: e598 e4be d419 ebbe feb7 a83e 9561 943f
00000300: 1933 0cbf 9d9a 273f dbc8 843c b001 06be
00000310: 5070 03bf 48a2 a33f 6361 ba3f 6d31 973f
00000320: 0b11 ee3e 0dad 98bf 961f 193e e157 d13f
00000330: 0a04 73be c7a9 fd3d ff8a a03f 6d78 98bd
00000340: 67c9 683f f20e 36be 69ed c63e ef90 debe
00000350: e305 cc3e 5dc8 a2bd ae1c 1a3f 2ad8 7cbf
00000360: ed36 df3e 1538 a3b9 7163 42bf a40a 55bf
00000370: be0a 1a3d 726a e73d 9243 d5bf 1209 853f
00000380: fd89 93bd 9640 2b3f 06b8 713f 3d3c 113f
00000390: 9599 5d3e 67e8 82be fb57 de3d f094 083f
000003a0: e6e2 5ebe 9c8c 63bf 2b8a 23bf 4d94 0a3f
000003b0: bde2 c73d f6fa d8bd 33e3 8a3e d259 d83e
000003c0: 8e39 363e 6689 9f3e 5797 c1bf 971d ba3f
000003d0: a4a4 823e 7368 583e a052 05bf cb91 673f
000003e0: 509c 503e c1df 863d 7a6e 893d 8ddf 69be
000003f0: e9fc cf3e 99bd 003f 993d c53e 9763 393f
0.52005184 0.5909214 0.09240434 0.16 0.27256244 0.71769446 -1.2509189 0.85429955
0.7592038 0.066679224 1.3161776 -0.21540916 1.7390801 -1.0525883 0.14010395 0.5240954
0.48251337 0.9388932 0.21260159 -1.2921156 1.1323024 0.8324442 0.5819944 0.7497486
-0.63367796 -0.09757972 -0.54702735 0.24564931 0.11040626 -0.30382136 0.49830067 0.042429462
-0.34904823 -0.98098075 -0.17520784 -0.00625717 0.5217146 1.2546937 0.67914605 1.6930422
0.69767565 -1.1803786 0.798496 0.9920166 -0.08912844 0.49107558 -0.71367645 -0.034475304
1.3021379 0.22182369 -0.1527804 -0.9853788 0.32458377 1.1154786 -0.25079778 -0.65374434
0.8086716 -0.1696363 0.19706617 -1.1763068 0.98477095 -0.8126677 -0.6896504 -0.5464163
-0.015010697 -0.6384538 -0.48534024 1.056715 0.02144121 -0.7099902 1.0673002 0.6642248
0.003688939 0.06380448 0.8803376 2.1432962 0.15668076 1.0368162 0.20195712 0.80670214
1.5249537 1.2761481 0.6635707 -0.63396835 0.0037360594 0.40219688 1.0426778 -0.33523867
0.81792235 -0.09438459 -0.89413273 -0.1087168 0.07388615 0.37713268 -0.4720439 0.78003067
0.5331654 0.03367432 0.10329646 1.0032552 -0.35614726 0.5337778 0.61127764 0.8036874
0.53401166 0.59522784 -0.31864205 -0.3596192 1.4405 0.12851074 1.4800001 0.5228505
-0.49635422 1.086973 0.16934568 0.061434492 1.3460475 0.74074847 1.1289859 0.4996189
0.91895276 0.94782263 0.34865963 -0.262657 0.9147544 1.1973293 1.6247878 -0.17432818
0.17321633 0.7120867 -0.38574243 0.14705288 1.8545283 1.4512485 0.60357624 -0.055933714
-0.60787576 1.5497136 0.6819824 0.6661928 1.8530139 1.0384 0.27266607 0.03440627
0.66350144 0.31726596 -0.46201912 1.2561598 0.712547 0.5660506 -0.16696014 0.04683979
-0.081815265 0.11936096 -0.7693778 0.78209245 -0.048201207 -0.33026516 0.86918485 0.038204942
-0.045364175 -0.084380515 0.78168064 -0.9253636 -1.452278 -0.95304906 -0.1887103 0.88809544
0.6233461 -0.16799814 0.3742154 0.27756318 -0.37777993 -1.4878198 -0.27548814 0.8454225
0.8653451 -0.09237747 -0.09993328 0.76834834 -0.6558536 0.6696791 0.42562252 -0.48207375
-0.56054336 -0.965141 0.75976986 -0.13856964 -0.446479 -0.45918143 0.32952875 1.159228
-0.5476547 0.65470296 0.016209057 -0.13086581 -0.5134325 1.2783899 1.456097 1.1811959
0.46497378 -1.1927811 0.14953455 1.6354944 -0.2373201 0.12385898 1.2542418 -0.074448444
0.90932316 -0.17779139 0.38853005 -0.4346995 0.3984824 -0.079483725 0.6020001 -0.9876734
0.43596593 -0.00031131567 -0.75932986 -0.8321936 0.0376079 0.112996 -1.6661246 1.0393393
-0.072040536 0.66895425 0.9442142 0.5673254 0.21640618 -0.25567934 0.10856625 0.5335226
-0.21766242 -0.8888643 -0.638827 0.5413254 0.09760044 -0.10594742 0.27126464 0.42256027
0.17795393 0.31159514 -1.512431 1.454028 0.25516236 0.21133594 -0.520792 0.9045684
0.20372128 0.065856464 0.06710525 -0.22839184 0.40622643 0.50289303 0.38523558 0.7241759

fc2.bias f4 [128]
00000000: de62 123b 41df 3bbd 82fa 883c 58fc 053d
00000010: 77c3 973c e551 083d 8561 733c a994 743d
00000020: b0a8 033c be6e 943c ed04 33bd 4512 5b3d
00000030: c594 bd3c 2e28 053c 19fa 743d dff6 cc3b
00000040: 20dd 6cbd e995 7cbd 31ab 35bc d5b3 183d
00000050: 7818 ad3c c464 f1bc e7e2 68bd 99ce 35bd
00000060: 7d3f 6b3b 3436 733c 1bd6 63bd 06f8 a93c
00000070: f279 913c dafa 2fbd 297c 5c3d 3403 80bd
00000080: 9440 5d3d f499 3cbd 6126 543d 60ee 48bd
00000090: 8138 85bc 4b5f e0bc bbd1 9dbc f9e3 6c3d
000000a0: 179b e4bc 7cf1 7ebd 9174 243d 9f3c 4f3d
000000b0: a503 ddbc 5b41 2bbd 1065 03bc 628f b83c
000000c0: 58d4 02bd bcf1 96bc 81f9 a0bc 23ec 07bd
000000d0: 1701 0fbd db8b cb3c 73b0 003d dcde 933c
000000e0: a4ea 00bd c225 96bc 1cf6 ab3c 039e d6bc
000000f0: d91e 503b 0da2 1d3c f39b 63bd 8bf1 c9bc
00000100: d60e 603d e505 923c 37a3 6cbc 4ce2 3d3b
00000110: a51f 6ebd 0f9c 193d 38f2 073d 5887 dbbc
00000120: 606d bfbc 9e3f 0bbd 17a9 d3bb 13a6 e53c
00000130: 0469 d83c 21df 413d 12c6 e73b 64eb 6d3d
00000140: 68bb 1d3d 2e97 61bd 7456 3cba 9b6b 433d
00000150: 8d88 163d c316 fc3c e802 7a3d 7a14 30ba
00000160: 84e9 f13c 9983 113d afa1 803c 58b3 2b3d
00000170: 2a5e 5f3c aba5 6cbd 17f0 673d 2d93 143c
00000180: 12cb 473d 4cec fe3c f18e 37bc ac42 63bc
00000190: edd5 aebc bec4 093d b96f 00bd c944 193d
000001a0: 3cd2 9b3b 6972 653c 96e9 723d edda f839
000001b0: b736 883c 36aa 57bd 3102 32bd c92c 37bb
000001c0: f6e8 a63c 9129 cc3c bc28 de3c 9d2b 243d
000001d0: 59fb 9cbc ba76 0bbd f50e d33c 92ad 01bd
000001e0: 22f7 343d 0871 9d3c 9521 26bc a5a4 9abc
000001f0: d0ce f3bc 597f 3e3d 1346 3e3a 305e acbc
0.0022336761 -0.04586721 0.016721014 0.032711357 0.018525822 0.033281226 0.014854793 0.059712086
0.008035824 0.018119212 -0.04370587 0.05348422 0.023142228 0.008127255 0.059808824 0.0062550153
-0.05782807 -0.061666403 -0.0110881785 0.037280876 0.021129832 -0.029466994 -0.056857016 -0.04438648
0.0035895996 0.014844466 -0.05562411 0.02074815 0.017758343 -0.04296384 0.053829346 -0.06250611
0.054016665 -0.04604526 0.051794413 -0.049055457 -0.016262295 -0.02738919 -0.019265046 0.0578346
-0.027905984 -0.062242016 0.04015023 0.050594922 -0.026979277 -0.041810375 -0.008019701 0.022529308
-0.031940788 -0.018425815 -0.019650223 -0.033184182 -0.03491315 0.024846962 0.031418275 0.018050604
-0.03147377 -0.018328551 0.020991378 -0.026198393 0.0031756668 0.009621155 -0.055568647 -0.02465131
0.05470165 0.017825076 -0.01444321 0.0028973995 -0.058135647 0.037502345 0.033189982 -0.026797935
-0.023367584 -0.033996217 -0.006459366 0.028033292 0.026417263 0.047331933 0.0070731724 0.058085814
0.038508803 -0.055075817 -0.00071845134 0.047710042 0.03675132 0.030772572 0.061037928 -0.00067169184
0.029530294 0.035525892 0.015702097 0.041919082 0.01363329 -0.05777518 0.056625452 0.009068293
0.048777647 0.031118535 -0.0112035135 -0.013870876 -0.021342242 0.033634894 -0.031356547 0.037419114
0.0047552865 0.014004328 0.059304796 0.00047465359 0.016627653 -0.05265256 -0.04345912 -0.0027950278
0.020374756 0.024922164 0.027119033 0.040080655 -0.01916282 -0.034048773 0.025763968 -0.03165967
0.044180997 0.019218937 -0.0101398425 -0.018877337 -0.029761702 0.046508167 0.00072583667 -0.021041006
