project3-collaboration/results/maddpg_actor_reacher_1_session_default.pth (torch_old, 167781 bytes, 18 tensors)

bn0.weight f4 [24]
00000000: 07d0 723c 5f3c 8d3e f712 f9bd 5aad ee3d
00000010: 32bc c53f 1698 c93f b9e8 09bc 67cc d73e
00000020: 0ca1 603d f618 b83d 051f 9cbd a3f0 e03d
00000030: 3e71 483d b931 413e 5f13 7e3d 7d52 163e
00000040: b02b 843f 866e 533f 15d4 0abd ccb8 79bd
00000050: 0d05 0b40 5120 f73f d0db 3b3e 7c61 7b3f
0.014820105 0.27585122 -0.121618204 0.11654158 1.5448058 1.5749538 -0.008417302 0.42148134
0.054841086 0.08989136 -0.07623104 0.10983398 0.04893612 0.18866624 0.062030192 0.14679904
1.0325832 0.8259052 -0.033893663 -0.06096725 2.1721833 1.9306737 0.1834557 0.98195624

bn0.bias f4 [24]
00000000: dc76 80bb 846b f1ba cfdd bdba 8bcf 2a3b
00000010: 4c88 8e3c 6c8f cd3a 1f22 053a b759 803a
00000020: ba32 0ebb 8384 c0bb e7a9 ac3b ae06 09bb
00000030: 441e 853b a44f 273a a589 9a3b f760 1abb
00000040: c562 82bc 3d85 263c 0288 dc39 2d5f 643b
00000050: 9a3d 253c e700 303b 30c0 0fb9 93f0 55ba
-0.003920419 -0.0018418883 -0.001448566 0.0026063647 0.017398976 0.0015683002 0.0005078632 0.0009792362
-0.0021697716 -0.0058751716 0.0052692774 -0.0020908522 0.004062446 0.0006382412 0.0047161155 -0.002355633
-0.015916238 0.010163602 0.00042063004 0.0034846768 0.010085488 0.0026856007 -0.00013709138 -0.00081611535

bn0.running_mean f4 [24]
00000000: 4a10 b5c0 637f 0ebf e216 1b41 0d19 1abd
00000010: 87e2 b93c 97db 8040 e216 1b41 0d19 1abd
00000020: f4f6 b5c0 16fb 0dbf 9930 1a41 b659 d6bd
00000030: 4c4b abbb 97b0 8040 9930 1a41 b659 d6bd
00000040: a841 b7c0 83b1 0ebf decc 1641 c030 49be
00000050: 5b12 fbbc dbe4 8040 decc 1641 c030 49be
-5.6582384 -0.55663127 9.693087 -0.037621547 0.022691024 4.0268054 9.693087 -0.037621547
-5.6863956 -0.5546125 9.636865 -0.1046633 -0.005227482 4.0215564 9.636865 -0.1046633
-5.7267647 -0.5573961 9.425016 -0.19647503 -0.030648401 4.0279365 9.425016 -0.19647503

bn0.running_var f4 [24]
00000000: d873 a041 dba5 8d3f 05f6 f243 2b14 7241
00000010: 42e9 da41 43b3 0640 05f6 f243 2b14 7241
00000020: 3114 9e41 9afd 8b3f 27e3 f543 7372 7c41
00000030: fdd7 dd41 71f7 0440 27e3 f543 7372 7c41
00000040: 9387 9d41 5d19 893f 01c8 f643 c6aa 8241
00000050: c10c df41 864d fd3f 01c8 f643 c6aa 8241
20.056564 1.106624 485.92203 15.129924 27.363895 2.1046913 485.92203 15.129924
19.75986 1.0936768 491.77463 15.777942 27.730463 2.0776026 491.77463 15.777942
19.691198 1.0710865 493.56253 16.333385 27.881227 1.9789283 493.56253 16.333385

fc1.weight f4 [256, 24]
00000000: b937 d0be 0e87 cc3d 8726 8c3e 3315 51bd
00000010: 4336 c2be d11a 98bf 7c86 c7be a781 8e3d
00000020: 97a3 02bf 8e47 0b3d a0f2 fc3e 2839 5ebd
00000030: 8d0b 94be 5ec3 72bf 20fd 57be 440c 50bc
00000040: a715 c43d ecd9 c63d 36cd ab38 aa9c 85bd
00000050: b631 56bf 3998 973c 2728 34bc 6fe6 e3be
00000060: 0dff 0f3f 186f 023f 2920 31bf 923c ffbe
00000070: c246 be3e 8714 88be d9b7 813d 563e 60bf
00000080: 30e6 debd 4db5 173f 744d 6ebe 5023 e83e
00000090: b414 03bc e9bf 87be 0253 473e 7591 70be
000000a0: c510 e53e 3e21 cf3e d0ee b03e bc25 123f
000000b0: 4f57 cebf 9abe d63e e8c9 9dbe accf 06be
000000c0: c252 cabe 7150 20bf 1367 313e eead 2bbe
000000d0: cbf0 443d 181a d3bd d096 c2bf 7011 0fbf
000000e0: e3dd e3be e8ac 4abf f96b b83e 0884 02bf
000000f0: a637 153f ee29 22bf d1ae dc3d ac9d c8be
00000100: 5dd1 06bf d998 c3bf be84 463f 3584 883e
00000110: ebe4 b5bf 081f ccbe f5bb 38bf bfdc cabe
00000120: 3b15 483f b3f5 0340 2e2e c83d 55ab 79bf
00000130: 28bb 4a3e e218 533f e2a2 cc3e 8330 c8bf
00000140: 4d03 ed3e e889 813f a3c0 c13d b0cc 8dbf
00000150: 67ba 8c3d 96f9 3c3e fad5 b03d cd54 f3bf
00000160: acec e53e ba7b cd3e 129b 413e 2bc0 07bf
00000170: 8aba fbbe 02c7 f4bd 08b6 a0be 4043 91bf
00000180: f133 fabe 13d8 c1be b915 0cbf 28ee 8abf
00000190: 5e33 34bf fa50 6ebf 43a1 43bf a3ec f9be
000001a0: 3f49 24bb f231 673d 9f75 e4be bb2b a53d
000001b0: 0ed3 e8be 1c53 6bbe 26a0 edbe 68a4 653e
000001c0: 0c64 4c3e 3379 7a3e d408 a7bd c432 3e3f
000001d0: ac5d 0ec0 c82f ff3e 523c 5ebe 7d03 04be
000001e0: 384c ffbf 6fbe 02bf 2ab8 8b3f 0274 6ebf
000001f0: 9ff9 73be 66b4 5cbf c651 e0bf 5d2a 593d
00000200: f9e5 cfbe 81c8 efbe 0afb 0bbf c782 f53e
00000210: 7980 303f e743 16bf 627b 233f 4a89 81bf
00000220: b6f7 78bf 0d4b 87bf 9e1f a13f bf4c c8bf
00000230: 306a e63d fe08 28be 9f13 a6bf d661 bfbf
00000240: af51 c13e 7112 983f b3f1 92bf 6db2 84be
00000250: f3b3 7bbe 342f 42be 9df3 ab3d e008 4fbe
00000260: 25ad cabd 664f 933f d669 6dbe 6f28 20be
00000270: cd96 743e c58a 8abd 61ba 413e 311c 8cbe
00000280: a9cb 7fbf 3a1e f33f 1396 30bf ba78 b43e
00000290: 98dc ed3e d42b b7bf 01a7 923f 3c66 353f
000002a0: ba44 01bf eb8e c13f 101d 94bf 15cd 16bf
000002b0: fc5a d83e d7bb d3bf dac6 5bbe 3520 403f
000002c0: 8355 80bc ea29 a63f b921 96be 4ca3 ff3e
000002d0: 247a f3bd 460b cebf 25a0 4c3f 2b55 123f
000002e0: a263 9cbf 807b e13f 84b8 d9be fd1f 94bd
000002f0: 316c a93e b7ae 8fbf b441 683f ee97 933b
00000300: 785a fb3e 4be1 223f cadb 903e cdb6 f93e
00000310: 12a7 02c0 41a1 193d 9467 b3be fb6a 48bf
00000320: 1e2d 8cbd c97f 8a3e dde6 bdbe 5b56 b1be
00000330: 9bd7 b1be 66e6 c03e 92fa 89be b5c0 14bf
00000340: 48d5 623f db74 873f b61e 723f e04e 5dbf
00000350: 4761 813f 4ded 0ebf fb2f 0bbf a9e1 2f3f
00000360: c430 5b3e 57aa eabf 3cf3 d23e ea13 13be
00000370: 244d debf 510e 84be 7958 8bbe 52a3 de3f
00000380: 7e7a 693f 94bb b1bf 26de df3e d64c 0c3e
00000390: 0e3e 3c3d a19c a6be 03fa d4bf 0645 243f
000003a0: 8e08 f43e cbec 95bf fb41 abbf b61e 62be
000003b0: 3607 dd3e 4147 8bbe 9bf5 f13e 037b 1a3f
000003c0: 8743 1ebf a0c7 c2bf b644 03bf 5284 1c3f
000003d0: 1b8a 98bd 496a 3f3e 8d60 e0bf d3f5 fd3e
000003e0: 1aba f7bf b1a5 c9bf 7de0 77be a2a7 ba3d
000003f0: 667a b5bc ea28 69bf 0112 11c0 4c5a a93e
-0.40667513 0.09986697 0.27373144 -0.051045608 -0.37932023 -1.1883184 -0.3896979 0.06958323
-0.5103087 0.034003787 0.49403858 -0.054253727 -0.28915063 -0.94829357 -0.21092653 -0.012698237
0.09574442 0.09709534 8.192139e-05 -0.06524022 -0.836696 0.018505203 -0.010995901 -0.44511744
0.5624855 0.50950766 -0.691897 -0.498509 0.3716336 -0.2657816 0.06333894 -0.8759512
-0.108837485 0.5926102 -0.23271734 0.4533944 -0.0080005415 -0.26513603 0.19465259 -0.23492987
0.44739357 0.4045505 0.345572 0.5708883 -1.6120394 0.41942292 -0.30818105 -0.13165158
-0.39516264 -0.62622744 0.17324476 -0.16765568 0.0480812 -0.10307711 -1.5202274 -0.5588598
-0.44505224 -0.79170084 0.36019877 -0.50982714 0.5828804 -0.6334523 0.10775531 -0.39182794
-0.52663213 -1.528102 0.775463 0.26663366 -1.4210485 -0.39867425 -0.721618 -0.3962154
0.78157395 2.0618713 0.09774433 -0.97527057 0.19797957 0.82459843 0.3996802 -1.5639805
0.4629158 1.0120211 0.09460571 -1.1078091 0.06871491 0.18454584 0.08634563 -1.9010254
0.4490713 0.40133458 0.18906811 -0.530276 -0.49165756 -0.1195202 -0.3138888 -1.1348648
-0.48867753 -0.37860164 -0.54720646 -1.085393 -0.7039088 -0.9309231 -0.7641794 -0.48813352
-0.0025068072 0.056444116 -0.44620988 0.080649815 -0.45473522 -0.22980922 -0.46411246 0.22425997
0.1996004 0.24460296 -0.08155981 0.7429621 -2.2244673 0.49841142 -0.21702698 -0.12891956
-1.9945135 -0.5107183 1.0915577 -0.93145764 -0.23825692 -0.86212766 -1.7524955 0.053018916
-0.40605143 -0.4683266 -0.5467993 0.47951338 0.68946034 -0.5869736 0.6386014 -1.0120022
-0.97252977 -1.0569779 1.2587774 -1.5648421 0.112507224 -0.1640968 -1.2974738 -1.4951732
0.37757632 1.1880628 -1.1480011 -0.25917378 -0.24580364 -0.18963319 0.08396075 -0.2021823
-0.09896306 1.1508605 -0.23184904 -0.15640424 0.23885651 -0.067647494 0.18918754 -0.27365258
-0.99920136 1.89936 -0.68978995 0.35248357 0.46457362 -1.431025 1.1457216 0.7085912
-0.50495493 1.512174 -1.1571369 -0.5890668 0.42256916 -1.6541699 -0.21462575 0.75049144
-0.015665775 1.2981541 -0.29322603 0.49929273 -0.11888531 -1.609719 0.7993186 0.57161206
-1.2217906 1.7615814 -0.42523587 -0.07232664 0.33090356 -1.1225194 0.90725255 0.0045041954
0.4909246 0.6362502 0.28292686 0.48772278 -2.0414472 0.0375073 -0.3503996 -0.7828824
-0.06844543 0.27050617 -0.37090197 -0.34636196 -0.34734806 0.3767578 -0.26948982 -0.5810655
0.8860669 1.0582536 0.9457811 -0.8644848 1.0107812 -0.5583084 -0.5437009 0.68703705
0.21405321 -1.8333234 0.41201198 -0.14363065 -1.7367291 -0.25792173 -0.27215937 1.7393591
0.91202533 -1.3885369 0.43724173 0.13701186 0.045957617 -0.32541373 -1.6638798 0.6416782
0.47662777 -1.1712888 -1.3379511 -0.22082028 0.43169564 -0.272028 0.47257695 0.6034395
-0.6182179 -1.5217171 -0.5127672 0.61139405 -0.074482165 0.18692888 -1.7529465 0.49601611
-1.9353669 -1.575369 -0.24206729 0.09114005 -0.02215309 -0.91078055 -2.2667239 0.33076704

fc1.bias f4 [256]
00000000: 163d 6d3c bb9e 4cbe 45a2 8a3d 610e 10b9
00000010: 09e2 09be 0634 9bbd d20c a4bd 2e48 bbbd
00000020: 2c5c 51bd ebf3 1b3d f126 f1bd 0954 523d
00000030: f259 2cbe 0fbe 443e 963e fabd a85d b23d
00000040: 3413 0fbe eeb5 0ebe 0426 fabc 9fe5 ecbd
00000050: e29d 69bd 7c65 b5bd 06e7 69bd 731b 21be
00000060: ced4 4b3e f65a ea3d 37d1 95bd a8c7 173e
00000070: 0e49 babd 8485 2abe d69b 843d a79d 8fbd
00000080: 921d 1d3e 13af 5fbd 915b 2abe 1512 303e
00000090: 5dbd 383d 24df 7b3d 800b a5bc f21f 26be
000000a0: b12d 883d 8b5f c439 4264 0abe 946d ee3d
000000b0: bfbc 43be 6471 01be 397e 41bd aa49 44be
000000c0: 0bf3 3bbe 823c 7bbd 92e6 1cbd 815c 193e
000000d0: 22a0 c23d 8a0a 433e 85eb 823d 0f99 df3c
000000e0: f519 21bd d328 b0bd 5a39 3bbe d326 3fbe
000000f0: 4b8f b13d 3212 04be 78dc abbd 4cf2 c33d
00000100: 5608 01be 8f79 9a3d 296c 38bc 8e44 2c3d
00000110: 68df bebd 3626 183e bdf5 2abe f347 43be
00000120: f8bd 223e 8235 0dbe 1ac1 483e 3da6 b93d
00000130: ef48 a13d 3268 cabc efc2 1f3d ac50 563d
00000140: d672 c8bd 7a28 1a3e 804d 003e b22f 2b3c
00000150: 7dc4 6f3d e073 c8bc 6503 97bd 4532 21be
00000160: 9898 a0bd f5c8 47be 9895 83bd b1f0 d93d
00000170: 454b 4a3e d647 3fbe e0c1 2dbe 4685 2c3e
00000180: 3d57 94bd fa54 45b7 ee25 033e f124 393e
00000190: a59e 9e3d 7450 4c3d ec97 6dbb 3bbd 9f3b
000001a0: 2330 a93d 687f 44be 01f6 4abe e31d 0d3e
000001b0: 8c6e 4cbe c8af db3d 4657 173e db63 0a3e
000001c0: aa28 7f3d 0fed ba3c 1f9a c03d abb1 f93d
000001d0: 6781 d43b c06f 16be 04c8 013e 8ff7 b33c
000001e0: c2bc fb3d 86fc 0bbe 16d2 50bd fba3 06be
000001f0: ffa9 3c3c 095c 333e 90f3 1d3d 64a5 313e
00000200: 239c 193e 73ef 0fbe 83dd 483e ed22 3f3c
00000210: df02 2f3e 0571 213d 949d 0fbd fe71 313e
00000220: 0ab5 1abe 9b3d 8e3b 291e f2bc 4b2e 053c
00000230: 9ae1 6fbd 3cf0 253e 38ee 2dbc 7c97 ad3d
00000240: a90c b43d 9c27 3e3e c311 973d ae1a 50be
00000250: 7337 2dbe 2183 45be ff86 4cbe b2e8 2dbe
00000260: a94e 3abb 68d4 453e ec47 07be bf64 af3d
00000270: a820 bfbd 0fef 213e f3ee 073e c03d c23d
00000280: 8b24 383e 8ab5 1dbe 1f61 31be 9325 d6bd
00000290: d5fb 2a3d fbec 383e c20e 0a3e 4848 833d
000002a0: 2d68 0bbd bc48 ecbd c876 503e 07c1 36be
000002b0: f963 10be c70f f63d bcbb 223e f7be 5b3d
000002c0: 3494 30bb 7342 c7bc 6f39 d83c 432d d3bd
000002d0: 6d64 4e3e 6b2b 513e 9557 a1bd 0826 113e
000002e0: f78b 47bd b785 17be 70f9 0e3d b198 1fbd
000002f0: 4fab 2d3e 5d05 653c 1825 38bd a42d 26be
00000300: 2fab 083e 928c 0b3e fc50 eb3c c47e 92bc
00000310: 2bcc 8fbd 85ca 413d fa96 483e 184a 09bd
00000320: 0055 983c 0119 47be d768 553d 864e b3bd
00000330: e394 45bd 69ac ddbd 399b 413e 8f39 0e3e
00000340: 63dd b2bd e2bf 4ebd c10e 7e3d 2c28 9c3d
00000350: 161f c4bd aa79 a83d e167 073d af79 f03d
00000360: 0ec9 e1bd c334 07be 7ff7 c13d 6fd1 08bc
00000370: 7332 b6bd 24df 233e 158e b5bc e23d 0bbe
00000380: 62bf e9bc ee29 c2bd 5430 8fbd 8e50 2cbe
00000390: fed9 263e 260a 383e ec55 30be dfd1 023e
000003a0: d689 753d 92b4 a9bd a884 77bd c418 103d
000003b0: 34da 303d 762d 313e c037 483e 6a29 403c
000003c0: 349d 443e 268e fbbd ddf8 d63a 05cc 2cbe
000003d0: 4042 c83d 9b06 283d e4fa fcbd f273 1fbe
000003e0: 0004 26bd 1f2d 9ebd 59ab aabd dfa8 34be
000003f0: e1c1 05be 4f85 2d3e c397 cdbd ad74 a93d
0.014479896 -0.19982426 0.06769232 -0.00013738267 -0.13465132 -0.07578282 -0.08010258 -0.091446266
-0.051113293 0.038074415 -0.117750056 0.051349673 -0.16831186 0.19213127 -0.122189686 0.0870927
-0.13972169 -0.13936588 -0.030535705 -0.11567234 -0.057035334 -0.08857247 -0.057105087 -0.15733127
0.19905397 0.11443131 -0.07315295 0.14822257 -0.09095965 -0.16652495 0.06475036 -0.07012492
0.15343311 -0.054610323 -0.16636492 0.17194398 0.045102466 0.0614921 -0.020147085 -0.16223124
0.0664934 0.00037455218 -0.13514808 0.11641994 -0.1911497 -0.12640911 -0.047239516 -0.19168726
-0.18354432 -0.061337 -0.038305826 0.14976694 0.09503199 0.19046989 0.06392578 0.027294664
-0.039331395 -0.086015366 -0.18283597 -0.18667154 0.08669909 -0.12897566 -0.083916605 0.09567699
-0.12600836 0.07542717 -0.011256256 0.042057566 -0.09319955 0.14858326 -0.16695304 -0.19070415
0.1589278 -0.13789943 0.19604912 0.090649106 0.07875239 -0.024707887 0.039004263 0.05232303
-0.09787528 0.15054503 0.12529564 0.010448383 0.058536995 -0.024469316 -0.07373694 -0.15741833
-0.07841605 -0.19510253 -0.06425017 0.10641611 0.19755276 -0.18679747 -0.16968489 0.16847715
-0.07243202 -1.17619e-05 0.12807438 0.18080498 0.07745103 0.049881414 -0.0036253883 0.004874853
0.082611345 -0.19189227 -0.19820406 0.13780932 -0.19964045 0.10726887 0.14779386 0.13514654
0.06229464 0.022818116 0.09404396 0.121920906 0.0064851525 -0.14691067 0.12673956 0.021968631
0.12291862 -0.13670549 -0.050981604 -0.13148491 0.01151514 0.17515577 0.038562357 0.17348248
0.15000968 -0.14056186 0.1961575 0.011666042 0.17090939 0.039414424 -0.035062388 0.17328641
-0.15108123 0.00434084 -0.029555397 0.008128713 -0.05856476 0.16204923 -0.010615878 0.08476159
0.08791477 0.18569797 0.07376435 -0.20322677 -0.16915683 -0.19288303 -0.19973372 -0.16983297
-0.0028428233 0.19319308 -0.1321103 0.08564138 -0.093324006 0.1581385 0.13274746 0.09484434
0.1798269 -0.15401283 -0.17322205 -0.104563855 0.041744072 0.18059151 0.13482192 0.06410271
-0.034034897 -0.115373105 0.20357811 -0.17847072 -0.14100637 0.12014728 0.15891927 0.053648915
-0.0026943805 -0.024323678 0.026394574 -0.10311367 0.20155497 0.20426719 -0.07878033 0.14174664
-0.048717465 -0.14797102 0.03490585 -0.038963977 0.1695988 0.0139783295 -0.04495725 -0.16228348
0.13346551 0.13627842 0.02872514 -0.017882712 -0.07021364 0.04731228 0.19588843 -0.033517927
0.018595219 -0.19443132 0.052101936 -0.087552115 -0.048237693 -0.108239 0.18906869 0.13889144
-0.087336324 -0.050475962 0.06202579 0.0762485 -0.09576242 0.082263306 0.03305805 0.11741959
-0.11024676 -0.13203721 0.09471034 -0.008350714 -0.08896341 0.1600309 -0.022162477 -0.13597825
-0.028533641 -0.09480654 -0.0699164 -0.16827604 0.16294095 0.17972621 -0.17220277 0.12775372
0.059945904 -0.08286394 -0.060429245 0.03517987 0.043176845 0.17302498 0.19552517 0.011728624
0.19200593 -0.12282972 0.0016401071 -0.16874702 0.09778261 0.041021924 -0.12352541 -0.15571573
-0.04053116 -0.0772345 -0.08333463 -0.17642544 -0.1306224 0.16945384 -0.10038712 0.08274207

bn1.weight f4 [256]
00000000: a9e4 363e f7fe b23e af28 763f c3c3 653f
00000010: f948 d93e 8b48 7c3e 556c 6a3f 7621 8c3f
00000020: fdd8 783f 4a21 393f 78af 333f 5997 de3e
00000030: 656c 0c3f 27a2 8c3f c698 533e bc0b 933f
00000040: 71d3 8f3c 902c 153e 8559 603f f5ee 993f
00000050: b993 663f 7a4a a43f ab9f 6c3f 6f63 523f
00000060: 21a9 893c be44 9a3f dd18 943c a8d4 1a3d
00000070: dc80 bf3f 5215 a43f 25d7 723f 3fdd 473e
00000080: ff58 01bd 9ea9 653f 2c09 073f 31f7 683e
00000090: 796f 853f 1bf1 c43f 4d99 b93f fb9f af3e
000000a0: fa67 8b3e f825 a63e 4909 bd3c 7e13 123e
000000b0: 843e 033d 2676 923f e49d a03e c736 ce3e
000000c0: 7071 973f 71d6 bd3d e3ec c53f c844 783f
000000d0: 0c02 103e 1040 7c3f 3a3a 703f 2aa5 1b3d
000000e0: 3214 9f3c f3a5 0c3f b1ff f43a 92b5 8d3e
000000f0: 0408 c13d ac2f c33e 316c b73e f16a 3f3f
00000100: 0e55 1b3e c2d6 b03e e3f3 733c 374b 923f
00000110: 6aad a8bf 835f 303f 5316 673f 6f1e 333e
00000120: 0a72 793f 3a44 e23d 426e 023f 60c6 473e
00000130: a6d0 033e 88d1 253f cfc8 403f a997 093e
00000140: dc1a dd3f 5992 0a40 5dfa 5f3f f85c 583f
00000150: 79e5 afbb 56db ab3f 6c76 1e3d d53a 18be
00000160: b5e6 aa3b bb41 0f3f 9f5e 673e e68f d03f
00000170: 604e 803f ddda 783f ae76 343e 4c72 fc3b
00000180: fca7 b23f 0882 213f e1fa a63d 02b8 6c3e
00000190: 8b14 ae3e 8a22 803f 117d a53e 9a6b a93f
000001a0: ada0 ce3e bf19 933e e7a4 c53e 2665 ac3e
000001b0: 1178 503f e921 e03b c430 f33b 6520 0a3f
000001c0: cccb 883e 0686 823f 1f42 523f ca66 973f
000001d0: 5db1 b93e 0361 6dbb 3c1e 093f 9226 923f
000001e0: 357b 043e 93ff 2cbc 20a7 4f3e a04b 8b3e
000001f0: 6fb7 893f d4ac b13f d94e ea3d 0036 623f
00000200: 4c72 493e b56a 533f 6198 973f beda 6b3e
00000210: 030c 673c d42d 453f fdd0 8a3c a81c fc3b
00000220: 56d6 553e 7be7 873f 9fa5 453f 2617 613f
00000230: a2a0 863d 228f 0b3c 139a 4c3f 8acc 873f
00000240: 3380 6a3d 01b4 c43f 3e95 b03e dbf8 803f
00000250: 1216 453e 38dc 3e3e 40d0 4540 3c51 703c
00000260: 0973 b63c 5b38 1ebc c46e 733c 6c3e 553f
00000270: 510b 253f 8be7 8a3e 4124 833e d235 3cbb
00000280: 510a a03c d45b fe3d 89ca ce3d 54e2 9e3e
00000290: eb62 753f a675 673f d6f2 863f 4fb0 933e
000002a0: b409 c13f 9e31 623f fd11 9a3e f524 953e
000002b0: f96b b93f ee72 983d a969 c13f de8f 713c
000002c0: f5b0 973f 1399 2d3f 5d1d 473e 9d59 373f
000002d0: d404 7c3e 5c38 303f 844c b03e 69d2 4d3f
000002e0: 5c24 3f3f 9bea a73e 080a 633e 9fd0 253f
000002f0: 434a 463e 8a4a 783f 48ed 083d fdda 363f
00000300: 0c83 0d3f ad73 7a3e 3e4b b43d d2fa 793c
00000310: 0ce2 ab3f ba2b ba3d e889 933b 6bd3 613f
00000320: 5dba d73f 19eb d63e 6ca3 393e b0a0 633e
00000330: f029 6f3f 9b13 4c3d 33e1 853d eba6 973f
00000340: a50e 693f 1186 bd3f 33bf 523f aa38 833f
00000350: 9ad3 d13f 3575 273f f880 553f fc53 723f
00000360: d8a3 423f 3821 743e 788d a73f 65bf 223f
00000370: ea77 8e3e 7635 423f a898 803f 2386 0d40
00000380: 1aec a440 16f4 603e 1821 1c3f 0c11 693f
00000390: 2db2 1a3d 5785 593f fc80 803e 2f33 5e3f
000003a0: c2d2 4940 d106 913f a9b3 423f 625a 133f
000003b0: d61f 843e 5d04 8f3f fcd7 8b3f e42f a13e
000003c0: e1b7 b83b 029f a03f d86b 223f c997 433f
000003d0: 9246 e23b afdd 583f 4756 033f 92ba 3e3e
000003e0: 4db5 16bc 54ee 913e d282 163f 9283 3d3f
000003f0: 5875 193f 392b 993f dfa6 b7bc 7264 c73f
0.17860664 0.34960148 0.9615583 0.89751834 0.42438486 0.24637048 0.9157155 1.0947711
0.972061 0.7231642 0.7018962 0.43474844 0.54852897 1.0986985 0.20663747 1.1487956
0.017556878 0.1456778 0.87636596 1.2026049 0.90069157 1.2835228 0.92431134 0.82182974
0.01680428 1.2052228 0.018078262 0.03780046 1.49612 1.2819006 0.94859535 0.19517992
-0.031579014 0.8971194 0.5274837 0.22750546 1.0424644 1.538608 1.4499909 0.34301743
0.27227765 0.32450843 0.023075717 0.14265248 0.03204204 1.1442306 0.3137046 0.40276167
1.1831493 0.09269417 1.5462917 0.9697995 0.14063281 0.9853525 0.93838847 0.03799931
0.01941881 0.5494072 0.0018691925 0.2767759 0.09425357 0.38122308 0.3582473 0.74772555
0.15169165 0.34538847 0.01488969 1.1429204 -1.3177922 0.6889574 0.9026844 0.17492078
0.97439635 0.110481694 0.5094949 0.19509268 0.12872562 0.64772844 0.7530641 0.1343676
1.7273822 2.1651824 0.874914 0.8451686 -0.0053679314 1.3426311 0.038687155 -0.14866193
0.0052154907 0.5595967 0.22594689 1.6293914 1.0023918 0.9720896 0.17623398 0.007704055
1.3957515 0.63089037 0.0815332 0.23117068 0.34000048 1.001054 0.3232198 1.3235962
0.4035696 0.2873058 0.38602373 0.3367092 0.81433207 0.00683998 0.007421585 0.5395568
0.26717985 1.0197151 0.8213214 1.1828244 0.3626813 -0.0036221154 0.5356176 1.1418021
0.12937625 -0.0105589805 0.20278597 0.27206135 1.0759104 1.3880868 0.1144082 0.8836365
0.19672507 0.82584697 1.1843377 0.23032662 0.014101985 0.77023053 0.016945357 0.007693846
0.20882544 1.0617517 0.7720584 0.87925947 0.06573607 0.008518012 0.799226 1.0609295
0.057251167 1.5367433 0.34488863 1.0075945 0.192467 0.18638694 3.0908356 0.014667805
0.02227165 -0.009656991 0.014857952 0.83298373 0.6447039 0.27129778 0.25613597 -0.0028718603
0.01953617 0.124198586 0.10097224 0.3103205 0.9585406 0.9041389 1.0542858 0.2884545
1.5081086 0.8835696 0.3009185 0.29129758 1.4486076 0.07443796 1.511037 0.014743773
1.1850878 0.678117 0.19444795 0.71621114 0.24611217 0.68836 0.34433377 0.80399185
0.74664855 0.32796177 0.22171795 0.64771456 0.19364266 0.9698874 0.033429414 0.714279
0.55278087 0.2445819 0.08803414 0.015257554 1.3428359 0.090903714 0.0045025237 0.88213223
1.6853749 0.4197624 0.18128747 0.22229266 0.93423367 0.049823385 0.06537094 1.1847814
0.9103797 1.4806539 0.82322997 1.0251667 1.6392701 0.6541322 0.83399916 0.946594
0.76031256 0.23840797 1.3090048 0.63573295 0.27825862 0.75862825 1.0046587 2.211312
5.153821 0.21968111 0.60988 0.91041636 0.037767578 0.84969085 0.25098407 0.8679685
3.1534886 1.1330205 0.7605539 0.5755979 0.2580554 1.1173207 1.0925288 0.3148185
0.0056371544 1.2548525 0.63445807 0.7640348 0.0069053853 0.8471326 0.51303524 0.18625858
-0.009198499 0.28502142 0.58793366 0.74028885 0.5994468 1.1966316 -0.022418438 1.5577528

bn1.bias f4 [256]
00000000: 5e3e 5abf ee0a 90bf 1b6a aebf 3d98 65bf
00000010: e491 a2bf b33e 8fbf 243b c2bf 337d a1bf
00000020: d673 1cbf f4e1 9dbf 1259 39bf 156f adbf
00000030: ebdc 4cbf 7104 053e 57a8 1cbf 7365 1a3f
00000040: 721f e1bd 9a84 febe 314d 57bf e2b7 7abf
00000050: 321c 91bf 9a7a 2fbf 5a12 20bf a696 21bf
00000060: 0470 8bbd 5e35 0fbf 6f7e a5bd b015 f7bd
00000070: db50 943e dc1b 84bf c79c 9dbf b393 f6be
00000080: cd40 09be 3c3d 92bf da27 9bbf 42e5 39bf
00000090: f006 4cbf 2cc9 26bf e732 cebf 3da7 71bf
000000a0: 29d9 93bf 0854 97bf c5c2 18be b064 02bf
000000b0: 971a 77be fc3c fdbe b509 68bf ccc3 89bf
000000c0: 38de 84bf 5c3d c6be 32cf b6bf 2b22 2ebf
000000d0: 25ae 35bf c75a c9be 4a04 b3bf 6931 ebbd
000000e0: b4b5 bdbd a3b5 99bf 93bd acbd 73e3 5dbf
000000f0: 3603 21bf 26ea adbf 3b32 54bf c0bb 04bf
00000100: 589f 1dbf 0ee0 36bf 4ff5 6bbd 53ec a3bf
00000110: 4add 7b3d 5021 ebbe bee5 99be 84e5 00bf
00000120: 44e0 a8be fa07 d0be f213 93bf 082e e83e
00000130: 5c28 f2be 63d4 a0bf c999 7ebf 2385 07bf
00000140: 7854 74be 475d 67bf c75e 0bbf 79d3 b2bf
00000150: 6904 c3bd b742 79bf f13e 4ebe 1402 df3e
00000160: fdaf 4fbd d2ef dcbf fbb2 9abf 5646 17bf
00000170: 5831 1abf f5a5 7cbf 0afa db3c 1220 03bd
00000180: 4090 febe ff5b 79bf 143b 9dbe 09e3 17bf
00000190: 31ef 4dbf 9edb 62bf ff81 c7bf 141e 6bbf
000001a0: 6946 e8be 29ae 3bbf b95d 99bf 251e 6ebf
000001b0: 9aad fcbe 589c b8bc d53e 1fbd 58e0 b0bf
000001c0: bc93 37bf c012 96bf 86bf 3ebf 4c49 83bf
000001d0: 1f72 81bf c7c6 11be 2bd4 f6be ad2f 9dbf
000001e0: 38f6 49bf c055 a9bd f8b1 43bf b00a 73bf
000001f0: cb99 e8be bc58 a4bf 6fac 09bf bce4 88bf
00000200: efb3 26bf 5732 06bf 25bd 1fbf 986c 46bf
00000210: e594 66bd 9089 ea3d be45 68be 655f 17bd
00000220: 02e7 69bf 03f3 6fbf edeb 8fbf cc02 2ebf
00000230: 8cf8 6dbe 2852 2fbd 302f bcbe 6ea7 42bf
00000240: 1dd5 8cbe 9a34 71be f8a6 8abf 02a3 16bf
00000250: f895 26bf 0376 6fbf 8944 07be b11b 5bbd
00000260: 16a4 cebd ba2d 9dbd b7d0 19be 0eef c1bf
00000270: 2057 5bbf e356 3cbf 51a6 5fbf dbc2 9ebc
00000280: 020d 91bd 5d18 2cbf bace 9bbe 82d1 f8be
00000290: 12e5 84bf 400a 93bf 40f0 02bf 3c40 46bf
000002a0: ca33 6d3e 6f95 acbf 574c 85bf 1e37 3ebf
000002b0: b3a1 82bf 09c6 6cbe 225d aebf 75c6 b8bd
000002c0: f552 5bbf abdd 80bf fc96 6abf ed73 55bf
000002d0: e921 a6bf 3aa3 25bf 9f1d 76bf e51d 96bf
000002e0: df8c 6dbf 886a ebbf 560e 2dbf 7666 90bf
000002f0: 94cb 93bf 8d52 4bbf e3ba 0dbe c476 5dbf
00000300: 1d39 ccbe fd5a 23bf aee2 9ebe db1b 4bbd
00000310: 36bd 7cbf 841d b0be b377 0abd 8b91 96bf
00000320: 3cc5 93bf c668 87bf 5a70 1dbf 8be3 26bf
00000330: d2b9 6fbf ba54 2fbe 6775 70be 5bdf debf
00000340: 094c c5bf 3bea eebe bfff c7be 9119 8dbf
00000350: 1ef3 9cbe 4522 cebc 6564 7cbf d21b 8ebf
00000360: f3b0 fb3e 9729 dc3d 0cb3 0ebf c62e 29bf
00000370: 0a81 48bf 8fbc 31bf b5fe a3bf eb99 17bf
00000380: 97a2 8f3f c49e 5dbf f1da ccbf 8bf3 8abf
00000390: 37d6 25be fda0 27bf 950b 84bf d388 1fbf
000003a0: c66b e53e 1af8 94bf 387a bdbe f437 57bf
000003b0: ad63 31bf 9a34 4bbf 4436 6dbf 13d4 68bf
000003c0: cc0b 6bbd 2ad2 743e 2b2e 75bf 3ede eebe
000003d0: 9fc5 0fbd 3740 78bf e587 b7bf a75d 12bf
000003e0: 6801 32bd 5806 58bf 4b0b 23bf aad3 80bf
000003f0: da51 95bf 0771 65bf d9ad c0bd e9a6 0bbf
-0.85251415 -1.1253335 -1.3626131 -0.8968542 -1.2700772 -1.1191009 -1.5174298 -1.2616333
-0.6111425 -1.233458 -0.72401536 -1.3549525 -0.80024594 0.12989976 -0.61194366 0.6031105
-0.10992326 -0.49710542 -0.8410216 -0.9793683 -1.133673 -0.6854645 -0.62528 -0.63120496
-0.06808475 -0.55940807 -0.08080756 -0.120646834 0.28967938 -1.0321002 -1.231347 -0.4815956
-0.13403626 -1.1424937 -1.2121537 -0.72615445 -0.79698086 -0.65150714 -1.6109284 -0.9439581
-1.1550647 -1.1822519 -0.14918049 -0.50934887 -0.24131237 -0.4946059 -0.9063981 -1.0762877
-1.0380316 -0.38718688 -1.4281981 -0.68020886 -0.7096885 -0.3932707 -1.3985684 -0.114840336
-0.09263173 -1.2008556 -0.08434596 -0.86675185 -0.62895525 -1.3587081 -0.82889146 -0.51848984
-0.61571264 -0.7143563 -0.05760699 -1.2806495 0.061490335 -0.45923853 -0.30058092 -0.50350213
-0.329836 -0.40631086 -1.1490462 0.4534762 -0.47296417 -1.2564815 -0.9945341 -0.52937526
-0.23860347 -0.90376705 -0.54441494 -1.3970786 -0.095223255 -0.97367424 -0.20141198 0.43556273
-0.050704945 -1.7260687 -1.208587 -0.590917 -0.6023154 -0.9869073 0.026852626 -0.032013007
-0.4971943 -0.97406 -0.30709136 -0.59330803 -0.804431 -0.8861636 -1.5586547 -0.9184277
-0.4536622 -0.7331262 -1.1981727 -0.93014747 -0.49351197 -0.022535488 -0.03887828 -1.3818464
-0.717098 -1.1724472 -0.7451099 -1.0256743 -1.0112952 -0.14235984 -0.48208746 -1.2280174
-0.78891325 -0.08268309 -0.76443434 -0.9493818 -0.45429835 -1.283958 -0.5377874 -1.0694804
-0.65118307 -0.5242056 -0.62397987 -0.7750945 -0.05629434 0.11452019 -0.22682855 -0.03695621
-0.91368115 -0.9373018 -1.1243874 -0.6797302 -0.23239344 -0.04280296 -0.3675475 -0.7603673
-0.27506343 -0.23555222 -1.0832205 -0.5884248 -0.65072584 -0.93539447 -0.13209738 -0.053493205
-0.10089891 -0.07674737 -0.15021025 -1.5151079 -0.8567982 -0.7357008 -0.87363154 -0.019380024
-0.07082559 -0.67224675 -0.30431157 -0.48597342 -1.0382407 -1.1487503 -0.5114784 -0.77441764
0.23164287 -1.3483104 -1.0413922 -0.7430285 -1.0205597 -0.2312242 -1.3622172 -0.09022228
-0.8567346 -1.0067648 -0.91636634 -0.83380014 -1.2979099 -0.6470219 -0.9613895 -1.1727873
-0.9279308 -1.8391886 -0.676 -1.1281269 -1.1546502 -0.7942284 -0.13840823 -0.86509347
-0.39887324 -0.6381071 -0.31032318 -0.049587112 -0.9872621 -0.3439752 -0.03380556 -1.1763166
-1.1544566 -1.0578849 -0.6149956 -0.65190953 -0.93642914 -0.17122164 -0.23482285 -1.7411913
-1.5413829 -0.4666308 -0.39062306 -1.1023427 -0.30654234 -0.025162825 -0.9859069 -1.110224
0.4915844 0.1075012 -0.55741954 -0.66086996 -0.783219 -0.6942834 -1.2812105 -0.59219235
1.1221493 -0.8657038 -1.6004316 -1.0855573 -0.16194998 -0.65480024 -1.0316035 -0.6231815
0.44808787 -1.1638215 -0.37007308 -0.8406975 -0.6929272 -0.7937714 -0.9266093 -0.909486
-0.057384297 0.23908296 -0.9577357 -0.46653932 -0.035100576 -0.96972984 -1.4338347 -0.5717415
-0.043458372 -0.8438468 -0.63689107 -1.0064595 -1.1665604 -0.8962559 -0.09408159 -0.5455156

bn1.running_mean f4 [256]
00000000: e9c6 93ba 2545 5fbe 15b5 763d 664c 69bc
00000010: 527a 33be 990c 8bbd 2925 66bd 6dfa 70bd
00000020: 9ad1 babd 26a7 08bc 0d04 ffbd 3de5 8b3d
00000030: 6084 18be 9774 403e b0f7 08be bc16 9d3d
00000040: 6fa2 0cbe e26c 0bbe 820d a23c 72f9 91bd
00000050: f347 10bd bbc1 f9bd f216 08bd 4246 1cbe
00000060: c5dc 3b3e afc7 833d 0fad ccbd 9bb9 043e
00000070: 7a29 65bd f393 32be f2bd d13d 8d40 80bd
00000080: 350a 103e e8a3 18bd 3221 23be f49e 2c3e
00000090: 1090 50bc 1579 363d 28dc 08bd e041 26be
000000a0: cecc 4f3d 1bcd a1bc 28b9 06be a002 d93d
000000b0: 5710 40be e38f cabd 2840 05bd 8426 3bbe
000000c0: 562a 21be 13b0 92bd b306 09bd 6777 253e
000000d0: 43db 833d 03c4 433e 2765 bb3d 61dd a23c
000000e0: 8b79 25bd 3d83 bebd 22df 51be a076 53be
000000f0: b623 b83d 40b8 11be bcbe 88bd b839 b53d
00000100: 8e92 f8bd 5721 8b3d 68c4 f4bc c9b0 aa3c
00000110: ee57 ccbd e29d 113e b927 38be 3a64 3dbe
00000120: 5ffd 523e 63b5 13be 17ee 3f3e 632f 923d
00000130: b98d 8d3d c25a 03bd 72f6 1e3c 66f8 293d
00000140: e728 e8bd 41a6 233e ba6a fc3d 719a 103d
00000150: 34c2 193d cdac 92ba 27fc 85bd cc71 1abe
00000160: 3f4e a7bd 5ba3 29be d544 a7bd 430e 263e
00000170: 1031 243e 69f4 22be a219 32be 7655 2d3e
00000180: ae20 48bd b3f0 9bbc 7029 093e 6b90 413e
00000190: 0da1 583d e5ae 813d a9e7 62bc 8991 0f3d
000001a0: 122e b43d fd81 48be fe02 4bbe 66ba 1d3e
000001b0: 228d 3cbe 45c4 da3d 91e3 0f3e 31ea fc3d
000001c0: 61d6 583d aeb9 853d 8e06 d23d fed6 003e
000001d0: 27b8 df3c d406 efbd 9a46 103e 56a1 003d
000001e0: a940 da3d 9457 1ebe 52fc 6fbd 0d07 07be
000001f0: bea2 d6bc 3eaa 383e e705 c33c 4ed3 063e
00000200: 00a2 1f3e 400b 24be b77a 4f3e 8493 89bc
00000210: b99d 1b3e f911 023c 8af6 17bd 6771 313e
00000220: ed97 02be b105 3dbd e056 61bc 141f 45bc
00000230: b62b 93bd a65e 143e eed0 cbbb f1f6 463d
00000240: 756f cc3d ce2a 3f3e 314b 593d ffbe 34be
00000250: ebbe 20be 3a48 5bbe ee0a 31be a6d1 2abe
00000260: 1ae1 26bd 1eb1 473e bbd7 07be be5c a63d
00000270: 1511 43bd 3a84 403e 4f8e 023e c6bd c43d
00000280: 98dc 353e de6e 20be 7052 39be 27e0 dabd
00000290: 5fe4 643d 48bc 003e a47b c63d 6891 813d
000002a0: 06fd 0cbd 669e f1bd ddd9 4a3e 143e 42be
000002b0: 1329 15be 60f9 003e d2b0 2a3e 4878 6f3d
000002c0: 8eec 2f3d 94eb 03bc fbbe 473d c072 cbbd
000002d0: 60a9 573e e197 543e 3992 89bd a770 fc3d
000002e0: f4df 9cbd 9003 0cbe 5632 9a3d 27b5 2ebd
000002f0: 38a4 1d3e 23cd 803d 8072 94bd f082 e1bd
00000300: 1efb 023e c211 113e b476 523c 9b58 cbbc
00000310: 024d 9abd e6f9 4e3d e12e 473e fab7 67bd
00000320: f8f9 823c 3374 4fbe 4187 7b3d 5066 cfbd
00000330: c49a c7bd 76a7 debd c12f 483e c835 3c3e
00000340: 8b21 96bd 63f3 c9bc d7ad 173d 448f c23d
00000350: ede4 b4bd a975 cf3d 5ead 6f3d 3c4c f33d
00000360: ab0c c2bd 9b00 02be cb23 093e dfd1 b1bc
00000370: 0fd4 b5bd e096 0c3e 6f21 5dbc ae80 0dbe
00000380: 9daf 823b f4f4 e2bd 7f2c 87bd d323 21be
00000390: a248 243e 7280 283e 6759 4abe a205 0a3e
000003a0: c1b6 883d df94 eabc 3cc1 92bd b544 ee3b
000003b0: 8901 c93c fd8b 2e3e 54c6 603e 47b5 873c
000003c0: d6fb 443e 0d5a e2bd 012b af3c 4454 33be
000003d0: 6d63 c73d 8f5f 513c cb30 f8bd d781 0ebe
000003e0: 2e57 1bbd 5f03 9bbd 6765 c1bd c477 26be
000003f0: 3bc7 04be b5c9 503e 2f76 bfbd c0d1 f13d
-0.001127449 -0.2180372 0.060231287 -0.014239406 -0.1752713 -0.06789512 -0.056187782 -0.058832575
-0.091220096 -0.008340633 -0.124519445 0.06830833 -0.14894247 0.18794475 -0.13375735 0.07670352
-0.13733838 -0.13615754 0.019781832 -0.07127656 -0.035224866 -0.12195154 -0.033225007 -0.15261176
0.18345936 0.06434571 -0.09993946 0.12961428 -0.05594776 -0.1743925 0.10241307 -0.06262312
0.14066394 -0.03726569 -0.15930632 0.16857511 -0.01272966 0.044549067 -0.033413082 -0.16236067
0.050732426 -0.019751122 -0.13156569 0.10596204 -0.18756233 -0.098907255 -0.032531887 -0.18276411
-0.15738806 -0.0716249 -0.033453654 0.1615883 0.06438305 0.19117741 0.09150153 0.019880952
-0.040399116 -0.093023755 -0.20495275 -0.2065072 0.08991186 -0.14230442 -0.06677005 0.088488996
-0.12137328 0.067934684 -0.02987881 0.02083625 -0.09977709 0.14220384 -0.17983903 -0.18495265
0.20604466 -0.14424662 0.18743168 0.071379445 0.06911797 -0.032068975 0.009702312 0.041496657
-0.113359265 0.1598139 0.12325044 0.035303537 0.037538722 -0.0011190415 -0.06542235 -0.15082473
-0.08169221 -0.16566221 -0.081674255 0.16216378 0.16034341 -0.15913548 -0.1739259 0.16927132
-0.04885929 -0.019035673 0.13394713 0.18902747 0.052887965 0.063321866 -0.013849177 0.035050903
0.0879785 -0.19580837 -0.1982536 0.15403137 -0.18413213 0.10681967 0.14051653 0.12349356
0.052938823 0.06529556 0.102551565 0.12582013 0.02730949 -0.11671224 0.14089432 0.031403862
0.10656864 -0.15463096 -0.05859024 -0.13186283 -0.026200648 0.18033692 0.023806525 0.13166544
0.15589142 -0.16019917 0.20261656 -0.016793974 0.15196885 0.007938855 -0.037100352 0.17328416
-0.12753268 -0.046148006 -0.013753623 -0.012031335 -0.071860716 0.1448923 -0.0062199747 0.048575345
0.09982196 0.18668672 0.053050224 -0.17650984 -0.1569783 -0.21414271 -0.17289326 -0.16681537
-0.040742017 0.19501159 -0.13265888 0.08123158 -0.047623713 0.1880044 0.12749599 0.09606509
0.17759931 -0.15667292 -0.18097854 -0.10687285 0.055881854 0.12571824 0.09691551 0.06326562
-0.03442099 -0.1179779 0.19809671 -0.18968993 -0.1456645 0.12595129 0.16669014 0.05846432
0.042950206 -0.008051772 0.048766118 -0.09933996 0.21060705 0.20761062 -0.06717343 0.12326174
-0.07659903 -0.13673234 0.07529132 -0.04265323 0.15394676 0.06289127 -0.07248402 -0.110113025
0.12791106 0.1416693 0.012845684 -0.024822524 -0.07534219 0.05053129 0.19451477 -0.056571938
0.015988335 -0.2025917 0.061408285 -0.101269364 -0.09746316 -0.108717844 0.19549467 0.18379891
-0.073306166 -0.024652189 0.03703102 0.09499982 -0.08832727 0.10129864 0.058514945 0.11879775
-0.094750725 -0.12695543 0.1339256 -0.02170652 -0.088783376 0.13729429 -0.013496741 -0.13818619
0.00398822 -0.11081877 -0.06600284 -0.15736322 0.16043332 0.16455248 -0.19760667 0.13478711
0.066754825 -0.02863544 -0.07165763 0.007271374 0.024536865 0.17045589 0.21950656 0.016565932
0.19236693 -0.11052332 0.02138281 -0.17512614 0.09735761 0.012779131 -0.121186815 -0.13916717
-0.037924938 -0.07569002 -0.09443169 -0.16256624 -0.12966625 0.20389445 -0.093487136 0.11807585

bn1.running_var f4 [256]
00000000: 615b 2641 1fc5 0541 3bb3 5441 43a3 af40
00000010: 268b 0a42 6152 1441 2476 4c41 9c14 cc41
00000020: 90aa 9740 f7ee 9540 aae9 a440 c325 3541
00000030: fa61 a141 b7a4 ad40 a58c 0840 765f e640
00000040: 3db8 9b3d 646c 6840 caae 6441 a516 7a41
00000050: 0e6d 2a41 b380 a241 d92c 9b40 69d4 9440
00000060: be26 ec3f 745a 1e41 e4b9 cb40 cdb0 6640
00000070: f594 f341 f42d 9840 5ad5 8a40 e326 0641
00000080: 552a b03f 7d15 0a41 0750 1a41 e035 4740
00000090: f74d 4d41 f16f 6440 9ff6 aa40 6fac 8940
000000a0: 7d23 8140 6b94 0f40 f9dc 363e a1f6 363f
000000b0: dd13 793f fa59 8740 4b68 da40 2faf 4241
000000c0: 4fcd 8d40 6341 3d3f 05dd 1441 b6b8 0041
000000d0: 0f64 b540 d4e8 6c40 f1f2 b340 0356 3e40
000000e0: c34b 1240 3f14 3a41 e25c 2340 33bd c240
000000f0: b756 ac40 8a54 d640 ecc7 5241 7a8c 9c40
00000100: 26cb bc3f 5c45 b041 ee27 5141 6d85 aa40
00000110: b1af 8d41 eb96 4842 d6a4 a141 cc53 5040
00000120: aa65 1f41 5ff2 0640 5907 1b41 c52f d040
00000130: 143b 3740 55f0 4941 b0a9 0f41 eb6b b23f
00000140: 6784 0a40 4857 d840 290d 2c41 e892 8e41
00000150: c36d 273f fb6c fc40 45ea d23f f7e8 6641
00000160: be27 7a3d e0b5 7e41 2c07 c940 e395 2e41
00000170: bf34 e040 89dc b041 12a5 fd3f 098a 393d
00000180: d554 fa40 0251 2b41 40d4 e43f a877 9640
00000190: 28fb ff40 bbac ba40 71ab 8b40 d6a2 5e41
000001a0: 9c9e 3441 e51f bf3f 8257 fb3f 20f5 9140
000001b0: f294 4241 8fd2 0f3d b6c9 e33f 5d36 9f40
000001c0: 3cdc 9340 f8aa 7141 de7f 2941 bd87 9640
000001d0: 4c5f 3641 9a2c ca40 c57e 5640 6b38 ed3f
000001e0: 0d5f 3a40 bd6b 0d40 c9c3 6e40 13ed 1040
000001f0: b31d 2f41 b0ed 6e40 87ae a43f 4733 1f41
00000200: 71d6 be3f a779 2941 3b28 eb40 4e72 2c40
00000210: 7d7e fc3f 3dd3 3741 034d 1840 65bc c83c
00000220: 0271 2240 0cd2 0742 f32d fc41 1aa2 0441
00000230: 5545 2a3f 551f 1040 bc1c e940 1373 c241
00000240: 5a02 433f 4857 0141 6e3a b640 d73e ac40
00000250: e6ba 0440 e8c6 6e3f 9722 1342 a561 b43d
00000260: d232 ea40 02e6 063d 757d 0b3e 7189 6241
00000270: ddb4 2241 4d90 5940 6958 8440 e597 463d
00000280: 9df8 093e 02b8 6540 5dad 2f40 dc77 6341
00000290: 33d3 9540 8986 5442 5f1d 8240 a5d7 8940
000002a0: 1d84 d240 f49a 2f41 b9d8 a940 b23f 0240
000002b0: 193e 3840 283b 6440 43aa 3241 6910 ee3d
000002c0: f404 3541 1f84 a241 af5d 2e40 f6ee 8141
000002d0: a5eb 2a40 da2b bc40 76d7 9740 acf9 3942
000002e0: 184e c240 7b29 a141 fc9b b540 bb9b ae41
000002f0: 4b32 5f40 8066 4941 54e1 2141 c621 4741
00000300: e2ed 1141 a530 5740 1a13 2a40 eded 4c3e
00000310: f1fc c140 0b43 0440 83f8 b53d ffd5 e741
00000320: d198 b541 3bc2 8540 79dd 3840 f7b6 4440
00000330: 9820 3e41 cedb 313f e6fd a240 2382 cf41
00000340: 8971 a141 0d4e 6740 6dc5 d840 ec00 a541
00000350: 3ebb 0441 daf8 b940 7d6b b041 2687 e640
00000360: 06b3 bb40 4940 f240 564a 3c42 a1d4 0d41
00000370: 2fe8 7e40 7873 1541 8dd1 8740 897e 9b40
00000380: 03e9 8941 3d60 3f40 131d c140 d6e2 3e41
00000390: 1288 fb3d 3f73 4942 0ef0 0541 b24d 0941
000003a0: dc04 a040 469b 1942 3a7c 6d40 5cce 2941
000003b0: 0a1b 6340 6b2c f640 7a54 7640 4ad9 b240
000003c0: 4f5b 833d 45c0 d13f 1461 4c41 789e ed41
000003d0: e441 5e3d 0505 9041 3cdc 2641 20fa 1f41
000003e0: ea04 223d b79d 7040 67c8 0541 785e 1941
000003f0: 1583 9740 c1f9 f240 8e05 5c40 89bc 8042
10.397309 8.360625 13.293757 5.4886794 34.635887 9.270112 12.778843 25.510063
4.7395706 4.6854205 5.1535234 11.321719 20.17284 5.426357 2.1335843 7.199153
0.076035 3.6316156 14.292673 15.630528 10.651625 20.312841 4.8492246 4.650929
1.8449323 9.897083 6.3664417 3.604541 30.447733 4.7556095 4.338544 8.384494
1.3762919 8.630246 9.644538 3.1126633 12.831534 3.5693324 5.342605 4.302299
4.035582 2.2434337 0.17857732 0.71470076 0.97295934 4.2297335 6.825231 12.167769
4.431312 0.739279 9.30396 8.045095 5.668464 3.7017107 5.623406 2.9739997
2.2858741 11.629943 2.552544 6.0855956 5.3855853 6.6978197 13.173809 4.892148
1.4749496 22.033867 13.072248 5.3287873 17.710787 50.14738 20.205486 3.2551146
9.96232 2.1085432 9.689294 6.5058312 2.8629808 12.621175 8.978928 1.3939184
2.1643312 6.7606544 10.753213 17.821732 0.6540186 7.8883033 1.6477743 14.431876
0.061073057 15.919403 6.2821255 10.911593 7.0064387 22.107683 1.9816 0.045297656
7.8228555 10.707277 1.7877274 4.7021065 7.9994087 5.8335853 4.364678 13.914755
11.288723 1.4931608 1.963608 4.5611725 12.161364 0.035112914 1.7795932 4.975386
4.620634 15.10424 10.593718 4.7040696 11.398266 6.3179445 3.3514874 1.8532842
2.9120514 2.2097008 3.7306998 2.2644699 10.944751 3.7332573 1.2865762 9.950019
1.4909192 10.5922 7.348661 2.6944766 1.9726101 11.489072 2.3797004 0.024503896
2.5381474 33.955124 31.522436 8.289576 0.6651204 2.2519124 7.2847576 24.306189
0.76175463 8.083809 5.6946325 5.382671 2.0739074 0.93272257 36.78378 0.08807687
7.3187037 0.032934196 0.13622077 14.158555 10.169156 3.3994324 4.1357923 0.0484847
0.13473745 3.589356 2.7449563 14.216763 4.682031 53.131382 4.0660853 4.307574
6.578627 10.97533 5.3077054 2.0351377 2.8787901 3.5661106 11.166568 0.11624224
11.313709 20.314512 2.724468 16.24168 2.6706326 5.880353 4.7450514 46.49382
6.072033 20.145254 5.675291 21.82604 3.4874446 12.587524 10.117512 12.445745
9.120577 3.362344 2.6574159 0.20012636 6.0621266 2.066592 0.088852905 28.97949
22.699617 4.17996 2.8885176 3.0736673 11.882957 0.6947602 5.0934935 25.938543
20.180437 3.6141388 6.7741 20.62545 8.295713 5.8116274 22.052485 7.2039976
5.8656034 7.5703473 47.072594 8.864411 3.9829214 9.340691 4.24433 4.859196
17.238775 2.990249 6.034799 11.93038 0.12281813 50.362545 8.371107 8.581469
5.000593 38.401634 3.7107072 10.612881 3.5485253 7.692922 3.848906 5.5890245
0.064139 1.6386801 12.773701 29.702377 0.054262057 18.00245 10.428768 9.998566
0.039555468 3.7596262 8.361426 9.585564 4.734751 7.5929875 3.437839 64.36823

fc2.weight f4 [128, 256]
00000000: f323 1c3f 011b b23f 3834 7fbf d066 afbe
00000010: 3032 b2be 81f2 0bbf a304 833f dac8 f33f
00000020: ed03 03bf f95d 483f d41e afbe 3496 6dbe
00000030: 6adb be3f 4924 0b40 ed9d 94bd f8b5 963f
00000040: f8ec 003d e3ea 983d b6a4 c93f f0b4 33bf
00000050: 2e4a 0540 ace7 2fbe 506f 403f 77a2 ae3f
00000060: c1c4 2fbe 6756 7ebe 47eb c33d 7ebe 06be
00000070: 079c 9c3e 7d21 97bf aac9 ea3f 25f6 963d
00000080: d477 e6bd 1db3 433d 5ad2 223f 2032 4e3f
00000090: 6799 c23f b554 2040 a1d0 c13f 1f7a a03f
000000a0: 8203 853f 2642 ea3d 3231 fc3d 5877 25bc
000000b0: bcb6 50be f36e b43f 40b9 f7bd 3ab4 f33e
000000c0: 7e07 9f3f dc0a a43d 9d82 b43e ef9b 803f
000000d0: 3a99 1a40 1261 f73e 6d26 8e3f e485 95be
000000e0: 1d78 b43b 1c60 afbf 3a22 b6bd 88d7 2d3f
000000f0: aa9e 213e a45f 9f3f e02f 22be adf0 ab3f
00000100: 8706 e53d 23b4 063f 455e e93d 463f 4740
00000110: de59 3b3f 2f9c e7bb f9f8 263f 6503 06bc
00000120: 0fc6 b3bd ddca d8be 1f8b 3e3f 7ba4 94be
00000130: 37f1 d53e 0d55 bd3f 3a17 6cbf a10b 763f
00000140: ae01 e03f e1b2 f53f 618a 0740 1205 1540
00000150: 9b34 093e 0acf 773f 5fed 653c e748 d53e
00000160: 14c7 eabd c3eb 0640 fdfa 943e 5a12 063f
00000170: d6c5 9c3e 8155 143f 4e66 473d 78d9 673d
00000180: e5aa b63f c867 fabb 7504 453d d041 2c3e
00000190: 387b 203f 8bd7 343f d6ba 3940 2885 fbbb
000001a0: d4e6 ed3e bcdd 53bd 79c5 b93f 469a 89be
000001b0: 8eb9 2c3e d4db 59bd c00f b0bd 7aff 39bf
000001c0: 503e 763c cc2e 8f3f 8b6b f3bf 55b1 4440
000001d0: a80b fd3e bb42 043f 804f 8c3e 89c7 96be
000001e0: fc99 29bd 5dda f9bd 0b5c 4cbe bf53 ef3e
000001f0: 6dd2 3c3f fbbc 28bf 1496 093f 2724 a4be
00000200: 440d 493d ab8e 32be 8ed2 c33d bdc5 88be
00000210: 3238 c2bd 56a1 3abf 98e2 67be 76e2 42bd
00000220: 7b74 3f3f 0619 b83f 5a1b a13f a10c 2c40
00000230: 4f8a fcbd 3e8c 36be 8bd0 3abe 3615 e5bd
00000240: 8e54 6b3d a8a6 923f 8913 913f f561 863f
00000250: 2a0c cc3e 59cc 24bf c9fd efbd 51c4 8dbd
00000260: 52c6 febd 3ee4 253e a56a 413d 809a 6d3f
00000270: 664e 723f fb1c 933f c462 90bd eb94 873c
00000280: 2239 bebd e7a3 ee3d b3dc 6d3e b21f 113e
00000290: 1e0d fcbd 3a4e 803f c8bd 2840 6036 a93f
000002a0: 931e 6ebf a2cd 2040 2d7a 943f db60 693e
000002b0: 0fbc aa3f c8af 8dbe 1ded 01bf 3813 de3d
000002c0: c481 803f ce5c 4ebf c323 743f 0314 3b40
000002d0: 9d92 f63f d4c9 c93e e260 0940 ae1e 10c0
000002e0: a009 b63f c83f bd3f 48d3 fdbe ec95 c8bf
000002f0: ad82 8b3f 4f3b 033f 71fd b0be 064a a13e
00000300: 225b fc3c adc8 883b e5f2 5fbe 3782 01be
00000310: 8f7c b13f 679b 593d 1ee2 cf3c d23f a5bd
00000320: 7bcd 813f 708f 323f 93b0 873e 5d45 55bd
00000330: f8d9 4940 dad5 7bbc e798 823e 6194 943f
00000340: 1d2a d33f bdb8 703f 067f 1940 2262 0ebd
00000350: b27a 01bb 75ef 9fbf 3fe6 053f c30c bc3f
00000360: 37af 9e3e 1a8f 89bf 40e0 cebf d448 a83e
00000370: 268b 903e f9f5 d7be 22bb 8d3f 5234 353f
00000380: 6115 44bf ba2a 293f bd8b 0140 0147 09c0
00000390: 33b0 97bd cf91 563f 35fb 253f 67f8 9d3f
000003a0: 7763 573f f1a3 5cc0 0f55 90bf 0c68 f53f
000003b0: 3e82 773f 9b06 81bf 8f35 22c0 cd98 85bf
000003c0: 8707 9fbd abd5 0f3f 8777 923f 7278 f93f
000003d0: 10ee e03d 1e13 923f 7c05 8a3f 41f7 e73e
000003e0: ab72 a4bd 286f d63f 6b10 b1bf 114a c63f
000003f0: 7e23 81be 3ad0 36bf f045 0b3e add1 0a3f
0.60992354 1.3914491 -0.99689054 -0.34258127 -0.34803915 -0.54666907 1.023579 1.904567
-0.51177865 0.7826839 -0.34203207 -0.23201829 1.491071 2.1740897 -0.072566845 1.1774282
0.03147599 0.07466676 1.5753391 -0.70197964 2.0826526 -0.1717822 0.7516985 1.364333
-0.171649 -0.24837647 0.0956636 -0.13158605 0.3058779 -1.1807095 1.8342793 0.07371167
-0.11253324 0.047778238 0.6360222 0.80545235 1.5203065 2.50517 1.5141793 1.2537268
1.0391695 0.11438398 0.12314071 -0.010099255 -0.20382208 1.4096359 -0.120958805 0.4759844
1.2424161 0.08009884 0.352559 1.0047587 2.4156022 0.48316246 1.1105477 -0.29203713
0.0055074827 -1.3701205 -0.08893247 0.67907 0.15783182 1.2451062 -0.15838575 1.3432823
0.111828856 0.52618617 0.113949336 3.113237 0.73184 -0.007068179 0.6522365 -0.00817952
-0.08778011 -0.42342272 0.7443103 -0.2903174 0.41785595 1.479158 -0.9222294 0.96111494
1.7500513 1.9195215 2.117821 2.3284345 0.13398974 0.9680029 0.014033644 0.41657183
-0.114637524 2.1081398 0.2909774 0.5237175 0.30619687 0.5794297 0.04868155 0.05660388
1.4270903 -0.007641766 0.048099954 0.1682198 0.62688017 0.7064139 2.9020286 -0.0076757856
0.4646517 -0.051725134 1.4513389 -0.26875514 0.16867658 -0.05318816 -0.08596754 -0.7265545
0.015029505 1.1186156 -1.9017195 3.0733235 0.49422956 0.5166432 0.27404404 -0.29449108
-0.041406617 -0.121998526 -0.19956987 0.4674358 0.73758584 -0.6591336 0.53744626 -0.32058832
0.049084917 -0.17437236 0.095616445 -0.26713362 -0.09483375 -0.7290243 -0.22645032 -0.04757925
0.7478711 1.4382637 1.2586472 2.6882708 -0.12331068 -0.17826936 -0.18243615 -0.11185686
0.057453685 1.145711 1.1334087 1.0498644 0.3985303 -0.6437431 -0.117183276 -0.0692221
-0.1244017 0.16200349 0.047220845 0.92813873 0.94650877 1.1493219 -0.07050088 0.016550502
-0.09288241 0.11652356 0.23228721 0.14172247 -0.123071894 1.0023873 2.6365833 1.3219719
-0.930154 2.5125508 1.1599785 0.22790854 1.3338641 -0.27673173 -0.5075243 0.108435094
1.0039601 -0.8061036 0.9536707 2.9230964 1.9263493 0.39411795 2.1465383 -2.2518725
1.4221687 1.478509 -0.49575257 -1.5670753 1.0899254 0.5126237 -0.3456836 0.31501788
0.030805174 0.004174313 -0.2187 -0.1264733 1.3866137 0.05312672 0.025376376 -0.080688134
1.0140833 0.6975012 0.26501903 -0.052068103 3.1539288 -0.01537081 0.2550728 1.1607782
1.6497227 0.9403189 2.398378 -0.034761555 -0.001975697 -1.2494951 0.5230445 1.4691395
0.30993053 -1.0746796 -1.6162186 0.32868063 0.28231162 -0.4217985 1.1072733 0.7078296
-0.7659512 0.6608082 2.024154 -2.1449587 -0.07406654 0.83816236 0.64836437 1.2341431
0.84136146 -3.4475062 -1.1275958 1.9172378 0.9668311 -1.0080141 -2.534519 -1.0437256
-0.077651076 0.56185406 1.1442727 1.9489882 0.10982907 1.1412084 1.0782924 0.45305827
-0.08029684 1.6752672 -1.3833135 1.5491353 -0.2522239 -0.7141148 0.13600898 0.5422619

fc2.bias f4 [128]
00000000: 93b6 2b3b d17e 3bbd b1e6 883c 4107 063d
00000010: fbff 9a3c da1b 083d 4d06 733c f1e1 733d
00000020: 5927 043c c975 923c 32cd 32bd 2120 5b3d
00000030: 6263 bd3c e756 013c 1982 763d 8da3 b63b
00000040: f7c2 6dbd d3fa 7bbd aae0 35bc 7888 153d
00000050: 0766 b03c 4768 f2bc e4ae 67bd 5b16 35bd
00000060: 2aea 553b 0fb3 713c c3b1 63bd 6b55 a83c
00000070: e1c2 8e3c 815d 2fbd c564 5e3d 42b0 7ebd
00000080: e463 5e3d 0092 3fbd 3fde 513d d08b 49bd
00000090: dde4 83bc 1972 e8bc 3bb6 a0bc c764 6f3d
000000a0: 6528 e1bc 8521 80bd 38ee 223d 85c2 4d3d
000000b0: 8bac ddbc 53fa 2cbd 3ffc 0cbc 8b86 ab3c
000000c0: 7267 02bd 98fd 98bc dce1 9dbc d39b 09bd
000000d0: 78b5 0dbd 0c67 cc3c 864b fd3c 8a77 8d3c
000000e0: 0dac 00bd c6f5 95bc e4a2 aa3c 0a1a d5bc
000000f0: 5fb4 513b 44bd 2a3c 8ec5 63bd 7358 cdbc
00000100: dc0e 623d 2e2d 913c 377a 71bc 1926 2c3b
00000110: 0ada 6ebd e9d0 183d a9f2 053d 1880 e0bc
00000120: 4efa bebc 12e6 0cbd 2fb0 e4bb d0ec e23c
00000130: 2054 d43c fde7 433d 2501 de3b cf7e 713d
00000140: 238c 1d3d a42d 63bd 8d11 9cba 072d 453d
00000150: a389 103d fa74 fd3c e041 783d b321 74b8
00000160: 5b19 f63c a65b 103d 9d7a 803c a796 2d3d
00000170: d914 533c 42bb 6cbd f6d7 673d 2dd7 053c
00000180: be00 483d e439 fd3c 54e7 27bc 0e2a 59bc
00000190: 9790 aabc fd03 083d bc7c 01bd f9d7 173d
000001a0: 84e4 a03b 72bf 613c 892b 763d 652f 63ba
000001b0: 01a4 813c 765f 56bd 76dc 31bd b28a 46bb
000001c0: 21a4 a93c 4ab1 cb3c bc13 d33c 9d5e 273d
000001d0: a310 97bc a700 0dbd d500 ca3c d863 01bd
000001e0: 54f7 323d 9bc8 9c3c 46fc 25bc 13d1 9fbc
000001f0: 01cc f3bc b218 3b3d b160 9739 a7f8 9cbc
0.0026201352 -0.04577524 0.016711565 0.03272176 0.01892089 0.033229686 0.014833045 0.059541646
0.008066022 0.01787843 -0.04365272 0.053497437 0.023118678 0.007894254 0.060182665 0.005573696
-0.05804726 -0.0615185 -0.011100927 0.0365071 0.021533025 -0.029590739 -0.056563273 -0.044210773
0.0032640793 0.014752164 -0.05558945 0.020548543 0.01742691 -0.04281378 0.05429532 -0.06217981
0.054294482 -0.046770096 0.05123734 -0.0492056 -0.016100341 -0.028374719 -0.019618144 0.05844572
-0.027485082 -0.06256393 0.039777964 0.050234336 -0.027059814 -0.042230915 -0.008605062 0.020938179
-0.031836934 -0.01867561 -0.019272737 -0.03359587 -0.03459689 0.02495148 0.030919801 0.017268915
-0.03141408 -0.01830567 0.020829625 -0.026013393 0.0031998379 0.010421101 -0.055608325 -0.02506659
0.055189952 0.017721739 -0.014738611 0.0026267825 -0.058313407 0.037308607 0.032702122 -0.02740483
-0.023312714 -0.0343991 -0.0069790105 0.027700812 0.02591902 0.047828663 0.006775039 0.058958825
0.038463723 -0.05546345 -0.0011907086 0.048138645 0.03528751 0.030939568 0.0606097 -5.8205518e-05
0.030041387 0.035243653 0.015683467 0.04238 0.012883388 -0.05779577 0.05660244 0.008168978
0.048828833 0.030911393 -0.010248024 -0.0132546555 -0.020820899 0.03320693 -0.031613097 0.037071202
0.0049100537 0.013778554 0.060100112 -0.0008666425 0.015825273 -0.052337132 -0.04342314 -0.0030295071
0.020708146 0.024864811 0.025766246 0.040861715 -0.01844055 -0.03442445 0.0246586 -0.03158936
0.0436929 0.019138625 -0.010130947 -0.019508874 -0.029760363 0.04567785 0.00028873005 -0.019161535
