project3-collaboration/results/maddpg_actor_reacher_0_session_default.pth (torch_old, 167781 bytes, 18 tensors)

bn0.weight f4 [24]
0.12932125 0.1713636 -0.13010965 0.13057552 1.8535496 1.5171669 0.011374887 0.06363575
0.031919073 0.13173558 0.13401634 -0.071593374 0.02277478 0.47566542 0.029832128 0.5488439
1.1105951 1.0565301 -0.16875647 -0.008646318 1.9142585 1.7343081 0.19620633 0.96982634
00000000: ca6c 043e f179 2f3e 773b 05be 97b5 053e
00000010: 1d41 ed3f 8632 c23f bc5d 3a3c 7653 823d
00000020: 93bd 023d b1e5 063e 943b 093e 8c9f 92bd
00000030: 2d92 ba3c 6b8a f33e 8262 f43c 0981 0c3f
00000040: fb27 8e3f 613c 873f 7fce 2cbe 49a9 0dbc
00000050: 6c06 f53f cffd dd3f 50ea 483e 8a46 783f

bn0.bias f4 [24]
0.0040705632 0.0008457626 -0.002304036 -0.0007057722 0.0018625475 0.009643578 0.0007081324 0.00027348427
-0.0017998985 -0.0035155842 0.0005697245 0.005956771 0.00017474213 0.0191283 0.003483333 -0.0011695412
0.009034962 0.00682911 0.005868061 -0.0012870092 -0.0009936008 0.004375633 0.0037886552 0.0046146396
00000000: 5c62 853b 2bb6 5d3a 4fff 16bb 9203 39ba
00000010: b920 f43a 1900 1e3c f6a1 393a 7062 8f39
00000020: 92ea ebba b765 66bb 9059 153a 0431 c33b
00000030: fc3a 3739 f4b2 9c3c a148 643b 4a4b 99ba
00000040: 6107 143c bac6 df3b dd48 c03b ddb0 a8ba
00000050: b63b 82ba 7861 8f3b 164b 783b 6736 973b

bn0.running_mean f4 [24]
-4.0272713 -0.22920305 14.438638 0.021555506 0.3367527 4.029851 14.438638 0.021555506
-4.101663 -0.22361009 14.127162 0.010787848 0.31344473 4.0258803 14.127162 0.010787848
-4.1468554 -0.22774075 14.306378 -0.06563455 0.27496228 4.027223 14.306378 -0.06563455
00000000: 68df 80c0 34b4 6abe a904 6741 2c95 b03c
00000010: da6a ac3e 8af4 8040 a904 6741 2c95 b03c
00000020: d340 83c0 0bfa 64be db08 6241 84bf 303c
00000030: d47b a03e 03d4 8040 db08 6241 84bf 303c
00000040: 0ab3 84c0 df34 69be ede6 6441 686b 86bd
00000050: dbc7 8c3e 03df 8040 ede6 6441 686b 86bd

bn0.running_var f4 [24]
18.435814 0.8153632 496.12372 17.449623 26.636114 2.0393598 496.12372 17.449623
18.601034 0.8107961 506.90503 17.695297 26.933367 2.0458913 506.90503 17.695297
18.241934 0.8251338 502.7966 17.4086 27.441442 2.0491595 502.7966 17.4086
00000000: 8c7c 9341 a5bb 503f d60f f843 d498 8b41
00000010: c316 d541 df84 0240 d60f f843 d498 8b41
00000020: ebce 9441 5590 4f3f d873 fd43 f88f 8d41
00000030: 8977 d741 e2ef 0240 d873 fd43 f88f 8d41
00000040: 7bef 9141 f83b 533f f765 fb43 d044 8b41
00000050: 1388 db41 6e25 0340 f765 fb43 d044 8b41

fc1.weight f4 [256, 24]
0.034525767 0.4737603 0.29098812 -0.98992723 0.503869 0.81521326 -0.39289302 -0.4973751
-0.29298308 0.5326306 -0.55657274 0.33330077 0.1891247 0.9727359 0.006770134 -1.013186
0.0018028052 0.095118195 0.7586371 0.21636792 -1.374886 1.3851467 -0.23450857 0.01610806
0.034282666 -0.056483094 -0.023062753 0.059914283 0.38979563 0.0037496125 -0.090503834 0.016864195
0.16839351 0.029024309 0.11619897 -0.3876971 0.22400703 0.10213051 0.19340718 -0.15852334
0.43819013 -0.016944839 -0.23303398 -0.15232073 0.37966815 0.20364703 0.11436072 -0.21083298
-0.26455393 -0.76050633 0.73366374 -0.31220642 -1.0521461 1.330768 -0.03787429 -0.573919
0.8460083 0.7878892 -0.36266777 0.8882642 -0.48807266 -0.02385254 -0.09895941 -0.17638601
0.004644567 -0.21182127 0.2827636 0.38874093 -1.305116 -0.64915085 0.09048735 0.11536628
0.19177455 -0.02719487 0.06525826 -0.32847455 -0.52286214 1.7240201 0.43347722 -0.2771071
-0.19702408 -0.041017182 0.20828134 -0.07277871 0.039976843 0.6178661 0.58944815 0.28504172
0.42461807 -0.08378353 -0.2799064 0.53200364 -1.1739479 0.15014859 -0.42619717 1.2045224
1.5628431 0.22248648 -1.0419261 -0.19558002 -1.2867895 -0.3399842 0.6111203 0.3615753
-0.7571778 1.0045772 0.36148304 0.24237236 0.75710255 0.60408 0.6648555 0.55864173
0.7545225 0.6335087 0.57716644 -0.20711897 0.39210403 1.2832807 1.0768024 0.39657348
-0.7524602 0.38021892 -0.5616553 1.5821348 -0.47269544 -0.8222447 0.93191916 0.6808265
-0.10301568 0.5817412 0.761104 0.15000802 0.89862716 -0.6391766 0.30133754 1.0297991
1.1697348 0.708091 0.34074315 -0.4702612 -0.11358213 -0.055360984 -0.4095745 -1.1450582
-0.6645395 -0.73526716 0.58529615 -0.67785144 -0.83776325 0.59501565 -0.9785887 0.92608476
-0.17874476 -0.84612525 -0.108124375 0.68648404 0.11995344 0.20269606 -0.82160485 1.2081378
-0.04802825 0.25642422 1.1863995 0.12639186 -1.4609051 0.15712525 0.7925682 0.65141886
-1.3192929 1.4287009 0.2819996 0.11241983 -0.34788686 1.3679789 1.0544921 -0.89427906
-0.64626545 1.1859682 0.5486475 -0.08434606 1.1108493 0.16653599 -1.0795188 -2.1061714
-0.08880914 -0.5261132 -0.71183467 -0.7077929 -0.40655494 -0.64641804 0.9921619 -1.2311561
-1.4607362 -1.1966445 -0.16636854 0.8820936 -0.6521805 0.7532459 0.3994089 0.58261126
-0.88098156 -1.3964927 -1.0515597 -0.17393439 -0.29661378 -0.14227334 -0.35408247 0.21407028
-0.3176256 -0.61442626 -0.01137537 -0.26346567 1.557618 -0.31836087 0.60555696 0.106851205
1.3713723 -0.58604145 0.6778812 0.54823804 -0.61372936 -0.6089607 0.419757 0.82251036
0.3993994 0.13884743 0.81245726 0.6255744 0.9696561 -0.20765485 -0.09334245 0.18729162
1.5550855 0.11981205 -0.25167665 0.25252032 -0.17798759 1.4497808 0.49096146 1.136975
-0.53830427 -1.187227 0.6733189 0.4023161 0.010509673 -0.58151376 -0.65309227 0.92012817
-0.24342069 -0.6985239 -0.67503 -1.3558074 0.39925113 -0.9939621 -0.87318444 2.8772442
00000000: e46a 0d3d b690 f23e 65fc 943e df6b 7dbf
00000010: 8ffd 003f d1b1 503f 4629 c9be f3a7 febe
00000020: e101 96be 7b5a 083f 8d7b 0ebf 66a6 aa3e
00000030: e8a9 413e 3805 793f 00d8 dd3b 14b0 81bf
00000040: 1b4c ec3a 54cd c23d 0a36 423f 8d8f 5d3e
00000050: 44fc afbf 7d4c b13f 0423 70be 0df5 833c
00000060: fb6b 0c3d d15a 67bd 19ee bcbc ae68 753d
00000070: 4b93 c73e 0fbc 753b 135a b9bd c826 8a3c
00000080: 596f 2c3e 63c4 ed3c baf9 ed3d 3c80 c6be
00000090: 1962 653e cd29 d13d 880c 463e f153 22be
000000a0: 755a e03e e7cf 8abc 76a0 6ebe f7f9 1bbe
000000b0: dd63 c23e d988 503e f435 ea3d 9ae4 57be
000000c0: 9d73 87be 8bb0 42bf 63d1 3b3f 85d9 9fbe
000000d0: b9ac 86bf 9b56 aa3f 1222 1bbd 5bec 12bf
000000e0: 0094 583f 1bb3 493f 97af b9be 4865 633f
000000f0: a9e4 f9be 6766 c3bc 3bab cabd 899e 34be
00000100: 7431 983b ade7 58be 64c6 903e 0d09 c73e
00000110: 0b0e a7bf c02e 26bf 6f51 b93d 2845 ec3d
00000120: 8c60 443e c7c7 debc 1fa6 853d d12d a8be
00000130: 4bda 05bf b1ac dc3f baf0 dd3e fbe0 8dbe
00000140: aec0 49be a201 28bd b447 553e 010d 95bd
00000150: c2be 233d 792c 1e3f 13e6 163f fdf0 913e
00000160: 8a67 d93e b396 abbd e44f 8fbe 6431 083f
00000170: ed43 96bf 8dc0 193e 8436 dabe ca2d 9a3f
00000180: 3e0b c83f 7fd3 633e d65d 85bf 2146 48be
00000190: 85b5 a4bf 6912 aebe 6172 1c3f 6620 b93e
000001a0: 68d6 41bf fc95 803f 4e14 b93e 7630 783e
000001b0: 79d1 413f fda4 1a3f f833 2a3f 2503 0f3f
000001c0: 6328 413f a02d 223f 2ec1 133f ff16 54be
000001d0: dcc1 c83e 8b42 a43f a9d4 893f ae0b cb3e
000001e0: 3ba1 40bf 0eac c23e a4c8 0fbf 6583 ca3f
000001f0: 2305 f2be a17e 52bf 4192 6e3f a54a 2e3f
00000200: e3f9 d2bd feec 143f b6d7 423f b49b 193e
00000210: 6e0c 663f 14a1 23bf ea48 9a3e 75d0 833f
00000220: dfb9 953f 7445 353f e375 ae3e 13c6 f0be
00000230: bf9d e8bd 33c2 62bd c0b3 d1be 4491 92bf
00000240: 431f 2abf 783a 3cbf f8d5 153f ac87 2dbf
00000250: a777 56bf f252 183f ca84 7abf e413 6d3f
00000260: de08 37be aa9b 58bf 5070 ddbd 6bbd 2f3f
00000270: 26aa f53d 8e8f 4f3e b254 52bf 42a4 9a3f
00000280: 45b9 44bd 094a 833e f0db 973f de6c 013e
00000290: f0fe babf 71e5 203e c0e5 4a3f 63c3 263f
000002a0: 97de a8bf acdf b63f 4062 903e 5e3c e63d
000002b0: 3a1e b2be ef19 af3f 99f9 863f 79ef 64bf
000002c0: a771 25bf cecd 973f 2a74 0c3f a1bd acbd
000002d0: 4f30 8e3f 6988 2a3e ac2d 8abf 83cb 06c0
000002e0: 91e1 b5bd 5baf 06bf cc3a 36bf ea31 35bf
000002f0: f827 d0be a77b 25bf 53fe 7d3f 8696 9dbf
00000300: 67f9 babf a62b 99bf 845c 2abe e3d0 613f
00000310: 4df5 26bf b9d4 403f 537f cc3e 0326 153f
00000320: 0288 61bf 46c0 b2bf 8299 86bf db1b 32be
00000330: c3dd 97be 1ab0 11be 4c4a b5be 3d35 5b3e
00000340: d39f a2be 0a4b 1dbf c35f 3abc f9e4 86be
00000350: 0760 c73f 3200 a3be c805 1b3f ced4 da3d
00000360: 2189 af3f d006 16bf 9f89 2d3f 5459 0c3f
00000370: 5e1d 1dbf d9e4 1bbf 64ea d63e 0a90 523f
00000380: 147e cc3e 052e 0e3e 33fd 4f3f a525 203f
00000390: 623b 783f 79a3 54be 542a bfbd 60c9 3f3e
000003a0: 0b0d c73f 0560 f53d c3db 80be 584a 813e
000003b0: 6142 36be 6b92 b93f 4d5f fb3e 6688 913f
000003c0: 4fce 09bf 0ef7 97bf a15e 2c3f 60fc cd3e
000003d0: c330 2c3c 16de 14bf 0e31 27bf 858d 6b3f
000003e0: 4643 79be 76d2 32bf c4ce 2cbf 198b adbf
000003f0: a56a cc3e 4d74 7ebf 0489 5fbf c524 3840

fc1.bias f4 [256]
0.014270859 -0.2000404 0.06734715 0.00070448447 -0.13508745 -0.076017685 -0.0812923 -0.09219293
-0.050706007 0.03770366 -0.11811153 0.052178353 -0.16739759 0.19083898 -0.12224461 0.086794585
-0.13983157 -0.13991457 -0.029917533 -0.116556555 -0.057296894 -0.08924991 -0.05709278 -0.15774742
0.19906656 0.11449097 -0.07320493 0.14822964 -0.090934366 -0.16682906 0.064877875 -0.070249766
0.1533418 -0.05503058 -0.1662136 0.17211916 0.04680952 0.061823662 -0.01890534 -0.162522
0.06518856 0.0008376836 -0.13491516 0.11626062 -0.19114503 -0.12668326 -0.047326285 -0.19017343
-0.1838866 -0.06120204 -0.037821103 0.15000385 0.0953809 0.1898417 0.06340404 0.027299998
-0.038178943 -0.086573996 -0.18446736 -0.18643087 0.0870537 -0.12999648 -0.08373763 0.09495056
-0.12644932 0.07513519 -0.010794984 0.04170433 -0.09298276 0.14877698 -0.16770512 -0.19056898
0.15926129 -0.13787624 0.19605024 0.09092101 0.07863187 -0.025374886 0.038459603 0.052330077
-0.09583176 0.15041748 0.12540583 0.012074911 0.0582467 -0.02477971 -0.073618405 -0.15697777
-0.078288525 -0.19557907 -0.06385711 0.10680675 0.19805071 -0.18694203 -0.17034492 0.16848779
-0.07168023 0.00023180016 0.12726234 0.18091877 0.07741402 0.049907688 -0.0041925977 0.0050253146
0.08213215 -0.19201173 -0.19697732 0.13783824 -0.19940922 0.10726887 0.14775193 0.13530856
0.06224582 0.022566877 0.094681345 0.1211961 0.0064663826 -0.14701867 0.12658893 0.022577867
0.12317163 -0.13674171 -0.051180545 -0.13038251 0.011204572 0.17376 0.039136708 0.1735728
0.14983831 -0.14024901 0.19564795 0.0112714935 0.1705446 0.039107535 -0.03497795 0.17319602
-0.15063414 0.0049181636 -0.028826186 0.009363385 -0.05830706 0.16190729 -0.010670539 0.08430847
0.08831197 0.18630041 0.07376989 -0.20318687 -0.16943927 -0.19292119 -0.20011261 -0.16996148
-0.0028581657 0.19324413 -0.13199909 0.08580671 -0.09308519 0.1581195 0.13255967 0.09484434
0.17982051 -0.15395732 -0.17347622 -0.104161605 0.041605886 0.18048656 0.13497886 0.06415922
-0.035948906 -0.11739221 0.20353395 -0.17866713 -0.14077798 0.11997354 0.15925185 0.05364883
-0.003398058 -0.024971804 0.026586488 -0.1041127 0.20197521 0.20325154 -0.07891697 0.14224368
-0.048840266 -0.14637245 0.035183378 -0.039407887 0.1695642 0.014179259 -0.045929573 -0.1619648
0.1334617 0.13621925 0.028723277 -0.01788263 -0.06871807 0.047366925 0.19589037 -0.033622283
0.018856816 -0.19507916 0.051758822 -0.086828895 -0.04851273 -0.10826447 0.18766508 0.13931909
-0.08857568 -0.049876403 0.061328504 0.07682096 -0.09671913 0.08272329 0.0327718 0.1169975
-0.11015225 -0.13176721 0.09541589 -0.008107153 -0.08828818 0.16029078 -0.022638801 -0.13623802
-0.029134445 -0.09461413 -0.07019636 -0.16796075 0.16294311 0.17928323 -0.17131118 0.12743314
0.06002722 -0.08272783 -0.060227145 0.034827843 0.0433265 0.17319301 0.19497721 0.011704772
0.19156817 -0.12083478 0.0014256773 -0.16800296 0.097616374 0.04022225 -0.12392021 -0.15551183
-0.04053116 -0.077068195 -0.0831832 -0.17791034 -0.13020569 0.1693577 -0.10002857 0.08316057
00000000: 52d0 693c 64d7 4cbe 4ded 893d 27ad 383a
00000010: 5d54 0abe 29af 9bbd 947c a6bd a6cf bcbd
00000020: 1ab1 4fbd 276f 1a3d 75e4 f1bd f8b8 553d
00000030: 466a 2bbe 4b6b 433e 625b fabd 5cc1 b13d
00000040: 0230 0fbe c445 0fbe 9d15 f5bc 34b5 eebd
00000050: 26b0 6abd a8c8 b6bd 1eda 69bd 8a88 21be
00000060: 1bd8 4b3e 3e7a ea3d 77ec 95bd 83c9 173e
00000070: cc3b babd 3dd5 2abe b1de 843d 1cdf 8fbd
00000080: a205 1d3e bf67 61bd e633 2abe 0140 303e
00000090: 57bb 3f3d cf3a 7d3d 5fdf 9abc 2b6c 26be
000000a0: 9481 853d ff97 5b3a 3327 0abe 0c1a ee3d
000000b0: 86bb 43be 42b9 01be 35d9 41bd d3bc 42be
000000c0: c54c 3cbe feae 7abd 4dea 1abd 9c9a 193e
000000d0: 1057 c33d dd65 423e fad9 813d 3fa4 df3c
000000e0: 8661 1cbd b54d b1bd 03e5 3cbe bce7 3ebe
000000f0: 3649 b23d cc1d 05be a27e abbd 7075 c23d
00000100: ee7b 01be 7ae0 993d 72dd 30bc 29d2 2a3d
00000110: bf6d bebd fe58 183e e4ba 2bbe 8424 43be
00000120: 6415 233e 6e2f 0dbe 65c1 483e cb34 ba3d
00000130: bf09 a13d fede cfbc d187 1d3d 1058 563d
00000140: 7143 c4bd 0a07 1a3e 636a 003e d9d5 453c
00000150: 1794 6e3d d2fe cabc 3fc5 96bd c8be 20be
00000160: bc55 a0bd e145 48be 84c7 82bd 7fbd da3d
00000170: cecd 4a3e bb6d 3fbe e66e 2ebe 1088 2c3e
00000180: 16cd 92bd 620f 7339 0f51 023e c542 393e
00000190: 3e8b 9e3d 016c 4c3d 0f62 89bb 65ab a43b
000001a0: e734 a83d b99e 44be 6cb4 49be 7825 0d3e
000001b0: ee31 4cbe c8af db3d 484c 173e 548e 0a3e
000001c0: 79f5 7e3d 2cde b83c 4be8 c13d a935 f83d
000001d0: f3e3 d33b 108c 16be 87a0 013e 38f5 b83c
000001e0: 6841 fc3d 0506 0cbe b1a2 51bd fe82 05be
000001f0: 6293 373c 24ee 313e d04d 203d 11bd 313e
00000200: 376f 193e 709d 0fbe f057 483e 12ac 383c
00000210: 3ea3 2e3e 392f 203d 0a45 0fbd 4c5a 313e
00000220: d63f 1abe 8c28 a13b e524 ecbc e268 193c
00000230: 62d3 6ebd 06cb 253e 7cd3 2ebc eba9 ac3d
00000240: e8dc b43d 89c5 3e3e ab14 973d 3810 50be
00000250: 7d81 2dbe 228d 45be 52ea 4cbe 620a 2ebe
00000260: 1050 3bbb cae1 453e c52a 07be 6ebb af3d
00000270: 73a3 bebd 14ea 213e b9bd 073e c03d c23d
00000280: de22 383e fda6 1dbe c0a3 31be ae52 d5bd
00000290: ef6a 2a3d 78d1 383e e637 0a3e e965 833d
000002a0: 293f 13bd 546b f0bd 346b 503e 84f4 36be
000002b0: 1a28 10be b0b4 f53d eb12 233e e0be 5b3d
000002c0: f4b1 5ebb ab91 ccbc e8cb d93c 0a39 d5bd
000002d0: 97d2 4e3e 2c21 503e 389f a1bd 54a8 113e
000002e0: bb0c 48bd a9e2 15be 721c 103d 2a6a 21bd
000002f0: 3da2 2d3e 1f50 683c a620 3cbd 1ada 25be
00000300: 2faa 083e 0f7d 0b3e 144d eb3c 987e 92bc
00000310: 0fbc 8cbd d203 423d 7c97 483e 85b7 09bd
00000320: 9c79 9a3c d5c2 47be 0f01 543d 59d3 b1bd
00000330: 49b5 46bd c3b9 ddbd 462b 403e aaa9 0e3e
00000340: 2b67 b5bd 334b 4cbd 9933 7b3d 4f54 9d3d
00000350: ae14 c6bd d46a a93d b93b 063d 639c ef3d
00000360: 8197 e1bd fced 06be 6869 c33d ddd3 04bc
00000370: 6fd0 b4bd 4423 243e 0275 b9bc fb81 0bbe
00000380: 5cab eebc 0ec5 c1bd 1cc3 8fbd e7fd 2bbe
00000390: 8fda 263e 0696 373e 336c 2fbe d57d 023e
000003a0: 1adf 753d 356d a9bd bdb0 76bd a4a7 0e3d
000003b0: 2177 313d 8259 313e 1ba8 473e 5fc5 3f3c
000003c0: 722a 443e 3a78 f7bd cbdd ba3a f808 2cbe
000003d0: 18eb c73d 16c0 243d e1c9 fdbd 7e3e 1fbe
000003e0: 0004 26bd eed5 9dbd f45b aabd 212e 36be
000003f0: a454 05be 1b6c 2d3e c7db ccbd 1750 aa3d

bn1.weight f4 [256]
0.42851907 0.013263995 1.0867318 1.9574597 0.8188151 0.8517803 0.8690243 0.80437577
1.0939604 1.1246752 1.1462998 0.7598043 0.6681968 1.1303283 0.8234315 0.62247336
0.5123647 0.7441339 0.014252221 0.70051885 0.64815176 1.3280319 0.0075070714 0.20530404
0.07389965 1.7417551 0.35647404 0.0007042544 -0.084504895 0.24738406 1.7035434 -0.0014538596
0.2962233 0.9214932 0.2068708 0.18548933 0.7009367 0.87873846 1.7689822 1.0824602
1.1214145 1.2260156 0.8332773 0.13538101 -0.0029155852 0.22379313 0.91035265 3.1936314
0.25528073 0.75826365 1.3817791 0.80147237 0.11150135 1.0838492 0.028315073 0.04435148
0.82341087 1.181229 2.155747 0.20005861 0.5897019 1.385051 0.04125321 0.56198496
1.1474057 1.3189985 1.1877548 0.843822 -0.028927 0.71018106 0.67666316 0.1191273
0.001439084 0.063119434 1.1984493 0.19791752 0.21393083 0.3150683 0.27866444 1.7249442
1.1930778 0.4180519 1.1024456 0.93914735 1.0076942 0.86912066 -0.013405601 1.0585749
-0.055801053 0.3284798 0.9141662 0.24768661 0.026863161 0.7583443 0.57290214 0.22393917
0.6695 0.60215706 0.77958715 1.0725385 1.3935461 0.6328822 1.5509557 0.8868373
0.17732123 -0.013772863 0.91751313 0.9902528 1.6500578 0.0045678094 0.02086094 0.5087491
1.9143234 0.23029882 1.3416486 1.1932801 1.1685506 0.8624842 0.83994526 0.000112777576
0.23868988 0.070929125 0.50699145 1.2777753 1.2886573 1.4728247 0.85834354 0.7840021
0.12839401 0.83508545 0.76668674 0.094221875 1.8872144 0.3343427 1.9520181 -0.0102998065
0.78416014 1.3003242 1.4811513 0.12996808 0.4078019 0.8484488 1.2130042 0.6214754
-0.29784364 0.6520908 0.20748419 0.2246914 0.9228655 0.11265829 -0.054334357 -0.0037401093
1.2365745 0.24238923 0.34860465 1.4563446 0.17385948 0.83790326 0.5146882 -0.0025317906
0.07057779 0.030767193 0.6543845 0.7005097 0.28677702 2.073682 1.6205728 0.206527
0.9691871 1.8165271 1.0154015 0.070842445 0.019251201 0.9225841 1.7181481 0.0097466195
0.74397135 1.0799991 0.004627723 1.3415688 0.011835493 1.7193046 2.0930305 1.4862425
1.6715535 2.0262003 0.84584284 1.6214522 0.5755021 0.7037525 1.5985206 1.5987946
0.15047787 0.19024679 0.63078934 0.016423717 0.94445544 0.9195899 0.10602483 0.12360368
0.7184629 1.1965475 0.7549472 1.4075587 0.60450655 -0.07675801 1.0884376 0.8083885
1.2897092 0.27743062 0.66194063 0.067475386 0.64657176 1.0680032 0.81432533 0.64170194
1.0254701 0.84201264 1.6197237 1.1419961 0.87717485 0.23763807 0.23884419 0.12866525
0.0046877656 0.2222041 1.5043793 0.36090195 0.07968836 0.7519179 1.3709279 1.3686109
0.7856236 0.0670623 1.294182 0.18265994 0.14496915 0.90709126 1.3497291 0.15080652
0.60320354 1.4387782 1.533367 0.8350616 1.335006 1.0770781 0.59645665 0.56979513
0.0061055645 0.18789896 0.024391687 0.8239623 0.303588 0.21452433 1.0858796 1.6524739
00000000: da66 db3e 3a51 593c 071a 8b3f 0a8e fa3f
00000010: de9d 513f 460e 5a3f 6078 5e3f 92eb 4d3f
00000020: e506 8c3f 5bf5 8f3f f4b9 923f 8982 423f
00000030: f20e 2b3f 99ae 903f 68cc 523f 6a5a 1f3f
00000040: 552a 033f 8f7f 3e3f 2682 693c 3455 333f
00000050: 46ed 253f f3fc a93f e1fd f53b 393b 523e
00000060: b358 973d d5f1 de3f c483 b63e b69d 383a
00000070: e710 adbd 3f52 7d3e b60d da3f 6f8f beba
00000080: 95aa 973e fae6 6b3f f0d5 533e eaf0 3d3e
00000090: 9670 333f 01f5 603f 026e e23f 0e8e 8a3f
000000a0: 838a 8f3f 14ee 9c3f a951 553f 52a1 0a3e
000000b0: 6713 3fbb 072a 653e df0c 693f 7564 4c40
000000c0: 28b4 823e 911d 423f 23de b03f 4b2d 4d3f
000000d0: d25a e43d 92bb 8a3f 03f5 e73c e6a9 353d
000000e0: 0ecb 523f 8332 973f c2f7 0940 2adc 4c3e
000000f0: b4f6 163f 5a49 b13f 20f9 283d 3fde 0f3f
00000100: 31de 923f f1d4 a83f 5908 983f b804 583f
00000110: 51f8 ecbc 6dce 353f cc39 2d3f 04f9 f33d
00000120: a59f bc3a c344 813d c966 993f e4aa 4a3e
00000130: af10 5b3e a250 a13e 1bad 8e3e f9ca dc3f
00000140: c6b6 983f e60a d63e f01c 8d3f f66b 703f
00000150: 20fc 803f b17e 5e3f 2aa3 5bbc 627f 873f
00000160: a58f 64bd 812e a83e cc06 6a3f 8fa1 7d3e
00000170: 2210 dc3c da22 423f b7a9 123f 4f50 653e
00000180: 5a64 2b3f f726 1a3f 0693 473f f148 893f
00000190: b85f b23f 9104 223f b785 c63f c507 633f
000001a0: b293 353e 93a7 61bc 24e2 6a3f 3581 7d3f
000001b0: 1835 d33f 90ad 953b 90e4 aa3c 623d 023f
000001c0: 8d08 f53f 74d3 6b3e 24bb ab3f 67bd 983f
000001d0: 1193 953f c4cb 5c3f a706 573f 0083 ec38
000001e0: 1f6b 743e 4a43 913d 31ca 013f 248e a33f
000001f0: b9f2 a43f 8585 bc3f 67bc 5b3f 5db4 483f
00000200: b879 033e 29c8 553f 9545 443f 66f7 c03d
00000210: 3e90 f13f f72e ab3e bbdb f93f 85c0 28bc
00000220: b8be 483f 0671 a63f 5e96 bd3f 5a16 053e
00000230: 69cb d03e f133 593f b943 9b3f 0319 1f3f
00000240: f67e 98be 6cef 263f bc76 543e 8115 663e
00000250: ea40 6c3f 64b9 e63d b48d 5ebd 9f1c 75bb
00000260: 1348 9e3f e234 783e 4f7c b23e 8069 ba3f
00000270: 3808 323e d480 563f 9bc2 033f 66ec 25bb
00000280: 178b 903d 7b0b fc3c be85 273f 9b54 333f
00000290: 70d4 923e 35b7 0440 ee6e cf3f d07b 533e
000002a0: a51c 783f f683 e83f adf8 813f d815 913d
000002b0: b2b4 9d3c 792e 6c3f 47ec db3f 49b0 1f3c
000002c0: e874 3e3f 693d 8a3f 27a4 973b 87b8 ab3f
000002d0: a8e9 413c 2c12 dc3f 36f4 0540 323d be3f
000002e0: 77f5 d53f 44ad 0140 2889 583f bf8b cf3f
000002f0: 1b54 133f 2029 343f 539c cc3f 4da5 cc3f
00000300: df16 1a3e 0ed0 423e 697b 213f 088b 863c
00000310: d5c7 713f 3e6a 6b3f 8c23 d93d ed23 fd3d
00000320: 2fed 373f 7828 993f 3844 413f e22a b43f
00000330: f1c0 1a3f 4e33 9dbd ec51 8b3f 8cf2 4e3f
00000340: 3115 a53f 630b 8e3e f174 293f 8930 8a3d
00000350: ba85 253f 54b4 883f a077 503f 9446 243f
00000360: 9b42 833f 248e 573f 1b53 cf3f ee2c 923f
00000370: 888e 603f 6557 733e 9293 743e d3c0 033e
00000380: d49b 993b 7989 633e 808f c03f 24c8 b83e
00000390: a733 a33d b17d 403f 917a af3f a42e af3f
000003a0: a11e 493f f657 893d c1a7 a53f 350b 3b3e
000003b0: cb72 143e 2237 683f ecc3 ac3f 066d 1a3e
000003c0: 8c6b 1a3f e229 b83f 5f45 c43f 99c6 553f
000003d0: 7ae1 aa3f b2dd 893f 62b1 183f 18de 113f
000003e0: 3011 c83b 9668 403e 13d1 c73c 31ef 523f
000003f0: e36f 9b3e 44ac 5b3e 1afe 8a3f 4484 d33f

bn1.bias f4 [256]
-0.14062074 -0.03884151 -1.0937026 -0.7219423 -0.92611593 -0.845711 -0.94255763 -0.21126501
-0.44840944 -0.7278664 -1.5124015 -0.9846878 -0.81882167 -0.9237003 -0.27893054 -1.6167034
-1.1428957 -0.8067164 -0.04336475 -0.6184421 -0.8021055 -0.5900245 -0.036233544 -0.59523195
-0.16303311 -1.059952 -1.3808761 -0.07288308 -0.32192522 -1.24495 -0.49325582 -0.090056606
-0.916294 -0.78901404 -0.9533911 -0.603999 -1.418894 -0.9324421 0.5388695 -0.2526891
-1.1826398 0.22025158 -0.96458095 -1.0021384 -0.0128648495 -0.6299728 -0.73646533 0.5429812
-0.91839546 -0.88801795 -1.3007975 -1.0382941 -0.38720763 -0.03209293 -0.21115004 -0.14671806
-0.8315609 0.30200723 0.1458223 -0.57325196 -0.87654537 0.23475683 -0.25867063 0.19460663
-0.8094767 -0.62300944 -0.8803577 -0.8877714 -0.09508059 -1.1147366 -1.1622332 -0.6339181
-0.08496677 -0.22647151 -0.40483597 -1.2576816 -1.4892272 -1.5649188 -0.9375972 -0.22503787
-0.4594485 -0.80034417 -0.50235903 -0.43753117 -0.1437133 -0.35097945 -0.09543817 -1.5464221
-0.28870413 -1.0185469 0.55505806 -0.69742244 -0.087724395 -0.38248155 -1.0045637 -1.1811353
-0.46663037 -1.514519 -1.0773138 -0.43471536 -0.35593623 -1.0231317 -0.5211268 -0.20061511
-0.6779313 -0.06360151 -0.14241575 -0.58799547 -0.7749106 -0.020903379 -0.11356784 -0.65416163
0.20412973 -0.9352713 -0.34372666 -1.0967407 0.44017935 -1.1579877 -0.3396175 -0.07226026
-0.8274735 -0.5110185 -1.1646256 -1.0514709 -0.47197688 -0.025686277 -0.5861704 -0.7644028
-0.3102977 -0.5078659 -0.7785472 -0.5897381 -0.3464113 -1.3898419 0.73042876 -0.08767589
-1.0257179 -0.16270316 -0.6059246 -0.39380038 -0.66758597 -0.20568667 -0.5011103 -0.8380328
-0.9918382 -1.0689379 -0.0833222 -0.8186914 -1.0365998 -0.37365445 -0.33641163 -0.19011804
-1.3230002 -0.6745303 -0.13999797 0.1714488 -1.0452442 -0.4792918 -0.59031534 -0.01364945
-0.2099249 -0.15557362 -0.96820843 -0.7495902 -1.1326301 0.5902407 -0.69192576 -0.69178236
-1.0240303 -0.75864476 1.0274892 -0.31740993 -0.21144067 -0.5992446 -0.08321326 -0.07608849
-0.67937845 -0.9027478 -0.0855376 -0.16573682 -0.036748864 0.17543316 -0.30862403 -0.13934055
-0.67048895 -0.23019372 -1.3005712 0.55202436 -0.8374873 -0.6236943 -0.99387866 -0.3753746
-0.68274677 -0.7122191 -0.49403447 -0.061673786 -0.39213517 -0.8811497 -0.3124213 -0.591435
-0.83772 -1.0004569 -0.9138245 -1.0811275 -0.56922567 -0.3125181 -0.22749105 -0.75055313
-1.0114099 -0.80962497 -0.8223702 -0.27451405 -1.2508352 -0.9821113 -1.0648564 -0.97950023
-0.29758888 -0.8603376 -0.047099486 -0.3740761 -0.34685758 -0.89560306 -0.7155553 -0.45338672
-0.11664392 -0.85107684 -0.38466147 -0.73681796 -0.406936 -0.750361 -0.3482533 -1.1542871
0.3276835 -0.23325643 -0.6865002 -0.80757326 -0.7295866 -1.1415697 -0.29844853 -0.99079543
-0.9056254 -0.073897116 -0.6166239 -1.0271169 -0.96936595 -0.87832206 -0.2997452 -1.2601564
-0.024350116 -1.2663265 -0.087498754 -1.0620396 -1.6119026 -0.8921096 -0.86374825 -0.5142487
00000000: e2fe 0fbe 4618 1fbd 72fe 8bbf 36d1 38bf
00000010: ef15 6dbf 8480 58bf 754b 71bf db55 58be
00000020: ec95 e5be 7455 3abf 5f96 c1bf 8014 7cbf
00000030: 4c9e 51bf 9f77 6cbf fccf 8ebe 23f0 cebf
00000040: 684a 92bf f784 4ebf 3c9f 31bd 3952 1ebf
00000050: c956 4dbf d80b 17bf a069 14bd 1f61 18bf
00000060: 27f2 26be 82ac 87bf 8cc0 b0bf b943 95bd
00000070: 62d3 a4be 865a 9fbf 078c fcbe 996f b8bd
00000080: 3e92 6abf d3fc 49bf 7011 74bf ae9f 1abf
00000090: 529e b5bf 87b4 6ebf 5af3 093f 7760 81be
000000a0: be60 97bf a189 613e c7ee 76bf 1246 80bf
000000b0: 17c7 52bc e645 21bf fe88 3cbf d100 0b3f
000000c0: f71b 6bbf 2555 63bf 8880 a6bf d2e6 84bf
000000d0: 1440 c6be e073 03bd b737 58be 423d 16be
000000e0: 2de1 54bf b1a0 9a3e 7152 153e a4c0 12bf
000000f0: 4765 60bf 1864 703e 7a70 84be f646 473e
00000100: dd39 4fbf 8c7d 1fbf 1f5f 61bf fd44 63bf
00000110: 9db9 c2bd b0af 8ebf 0fc4 94bf 7548 22bf
00000120: 0f03 aebd 26e8 67be a946 cfbe b6fb a0bf
00000130: ff9e bebf 424f c8bf 5f06 70bf 5470 66be
00000140: d53c ebbe 5be3 4cbf 9a9a 00bf 1604 e0be
00000150: 9429 13be 94b3 b3be 1675 c3bd 29f1 c5bf
00000160: 07d1 93be bf5f 82bf 4918 0e3f 478a 32bf
00000170: d9a8 b3bd 9fd4 c3be 8b95 80bf 712f 97bf
00000180: 2dea eebe c2db c1bf 6be5 89bf 0393 debe
00000190: 463d b6be fbf5 82bf 9168 05bf 0c6e 4dbe
000001a0: e88c 2dbf 8241 82bd 6fd5 11be df86 16bf
000001b0: 8b60 46bf 903d abbc 4196 e8bd 2377 27bf
000001c0: 6207 513e f16d 6fbf f1fc afbe 0062 8cbf
000001d0: 305f e13e f138 94bf 58e2 adbe 30fd 93bd
000001e0: 4ed5 53bf 1cd2 02bf 7412 95bf 9996 86bf
000001f0: f4a6 f1be 076c d2bc 430f 16bf e7af 43bf
00000200: 57df 9ebe 8003 02bf df4e 47bf 13f9 16bf
00000210: d25c b1be 57e6 b1bf 61fd 3a3f 6b8f b3bd
00000220: b94a 83bf a89b 26be e01d 1bbf 34a0 c9be
00000230: eae6 2abf 879f 52be c448 00bf 5189 56bf
00000240: 1ce9 7dbf f5d2 88bf d4a4 aabd c295 51bf
00000250: 4daf 84bf a34f bfbe 253e acbe 4eae 42be
00000260: 1258 a9bf 05ae 2cbf a15b 0fbe 4690 2f3e
00000270: 90ca 85bf bc65 f5be e81e 17bf f1a1 5fbc
00000280: 8ef6 56be b14e 1fbe 82dc 77bf 25e5 3fbf
00000290: 06fa 90bf 041a 173f 0c22 31bf a618 31bf
000002a0: 6d13 83bf 8b36 42bf c484 833f 8e83 a2be
000002b0: e783 58be 1868 19bf b76b aabd 48d4 9bbd
000002c0: bfeb 2dbf 7b1a 67bf 562e afbd eab6 29be
000002d0: fa85 16bd c0a4 333e f803 9ebe 4aaf 0ebe
000002e0: 2aa5 2bbf e7b7 6bbe 1e79 a6bf 7851 0d3f
000002f0: 9165 56bf 6eaa 1fbf d56e 7ebf 1931 c0be
00000300: 7ec8 2ebf fe53 36bf 16f2 fcbe a79d 7cbd
00000310: f1c5 c8be 0793 61bf aff5 9fbe 4968 17bf
00000320: d174 56bf f90e 80bf 67f0 69bf 6362 8abf
00000330: c6b8 11bf 5f02 a0be 6af3 68be 4024 40bf
00000340: e175 81bf 9543 4fbf da86 52bf 1b8d 8cbe
00000350: 5e1b a0bf a56b 7bbf 374d 88bf 87c0 7abf
00000360: 925d 98be 163f 5cbf 64eb 40bd e786 bfbe
00000370: 5197 b1be 3e46 65bf a22e 37bf 4e22 e8be
00000380: 02e3 eebd 2ce0 59bf 59f2 c4be 1aa0 3cbf
00000390: ea59 d0be a917 40bf 424e b2be aebf 93bf
000003a0: 22c6 a73e c6da 6ebe 7abe 2fbf 1fbd 4ebf
000003b0: 30c6 3abf f51e 92bf 3fce 98be c5a4 7dbf
000003c0: 11d7 67bf 5f57 97bd 10db 1dbf 9178 83bf
000003d0: 5e28 78bf b7d9 60bf 3478 99be ce4c a1bf
000003e0: e579 c7bc fd16 a2bf 8c32 b3bd eaf0 87bf
000003f0: d352 cebf 4b61 64bf 9b1e 5dbf cea5 03bf

bn1.running_mean f4 [256]
0.054849416 -0.19638628 0.07404398 0.03785716 -0.092386104 -0.08825179 -0.058541525 -0.097156666
-0.05775976 0.059676178 -0.16291133 0.056418303 -0.12121134 0.16733028 -0.14086598 0.12931132
-0.12624393 -0.13961507 -0.0136292325 -0.11798871 -0.06681943 -0.11084904 -0.057315554 -0.13533182
0.22665767 0.12627779 -0.09018176 0.14465694 -0.09744628 -0.1751787 0.053949464 -0.073486544
0.16312036 -0.04504465 -0.19466431 0.17765702 0.04640409 0.02928602 -0.021783581 -0.1518471
0.011775268 0.019818265 -0.17343211 0.13269219 -0.19193447 -0.11941117 -0.04350324 -0.17664638
-0.19029683 -0.02987461 -0.028778493 0.16906543 0.10223621 0.20403811 0.058890153 0.028002905
-0.08821191 -0.10643488 -0.20364214 -0.1700891 0.06566646 -0.10344419 -0.08479135 0.10812397
-0.17043377 0.035225265 -0.022027832 0.02148453 -0.09417428 0.13316621 -0.18682894 -0.18107189
0.15930095 -0.1412999 0.23864931 0.067659184 0.086843915 -0.068154216 0.03660523 0.043576907
-0.09368043 0.15974946 0.12504758 0.08584949 0.051374543 -0.030115534 -0.073505655 -0.2106988
-0.08526997 -0.19001415 -0.055094767 0.14084768 0.20050973 -0.19265254 -0.16317512 0.18819726
-0.06054962 0.02166206 0.0880373 0.22855625 0.086117856 0.028672874 -0.018333996 0.027757786
0.09825494 -0.18960091 -0.17979625 0.16046374 -0.19362187 0.1079573 0.15159771 0.085133195
0.07925448 0.0107065765 0.12652671 0.12544267 0.02263697 -0.19542786 0.13568953 0.017778648
0.100365564 -0.13802338 -0.018062932 -0.17631547 0.030886624 0.19101639 0.03092449 0.18870749
0.16982423 -0.14837456 0.21226029 0.00491684 0.12753555 0.050564792 -0.032784704 0.18611088
-0.11201254 0.009271539 -0.0135318935 -0.018071527 -0.051120933 0.12494964 -0.027109114 0.09657674
0.09179642 0.19878511 0.0475596 -0.1971507 -0.23024252 -0.17992602 -0.19263558 -0.17592698
0.006385929 0.21466388 -0.12830833 0.07504788 -0.11944954 0.17299429 0.11187454 0.09376379
0.1972384 -0.15523432 -0.20794816 -0.10145976 0.059526928 0.20140983 0.1315117 0.067883134
-0.06734491 -0.11220718 0.19698438 -0.17859292 -0.15328205 0.12403656 0.15542102 0.055622596
-0.011874631 -0.08940982 0.027919412 -0.0965293 0.21255392 0.19468571 -0.078233756 0.1373044
-0.04962919 -0.15369982 0.0112219425 -0.02750979 0.11684219 0.017626382 -0.07886673 -0.19485068
0.1341328 0.15395446 0.013080374 -0.018489653 -0.08109989 0.03560362 0.19896153 -0.035057683
0.012519137 -0.20828198 0.06603636 -0.13703582 -0.09549117 -0.110652044 0.19167387 0.04702512
-0.07235268 -0.052681066 0.068026185 0.08859135 -0.12646002 0.08770735 0.031636823 0.09272537
-0.09791185 -0.16867764 0.08405786 -0.025783945 -0.09425541 0.16252255 -0.012650115 -0.13899043
-0.02675351 -0.09348548 -0.07246321 -0.14858441 0.16857052 0.19180025 -0.07610542 0.0824252
0.06720394 -0.06545091 -0.039321166 0.025882043 0.019352911 0.10665174 0.15347897 -0.0022141736
0.1606401 -0.112001136 0.00047464477 -0.16282398 0.041791424 0.049254462 -0.141634 -0.16359076
-0.04074074 -0.07979662 -0.08450748 -0.24883187 -0.116849594 0.1643788 -0.15827395 0.0709616
00000000: c8a9 603d 7c19 49be 5fa4 973d 1c10 1b3d
00000010: ed34 bdbd 5bbd b4bd 3dc9 6fbd 13fa c6bd
00000020: 8095 6cbd 026f 743d 3ad2 26be e116 673d
00000030: a73d f8bd a158 2b3e 2c3f 10be 306a 043e
00000040: 1746 01be 41f7 0ebe 254d 5fbc 11a4 f1bd
00000050: a0d8 88bd d204 e3bd b7c3 6abd 6d94 0abe
00000060: f318 683e f74e 013e 37b1 b8bd f320 143e
00000070: ea91 c7bd 0c62 33be 1dfa 5c3d 1d80 96bd
00000080: 0609 273e bd80 38bd 1556 47be b9eb 353e
00000090: 3712 3e3d 3ce9 ef3c 7b73 b2bc ce7d 1bbe
000000a0: 0eed 403c ea59 a23c 3098 31be 76e0 073e
000000b0: 788a 44be d88d f4bd 7430 32bd cae2 34be
000000c0: 2cdd 42be 99bb f4bc e0c0 ebbc 7d1f 2d3e
000000d0: 3861 d13d 5eef 503e cd36 713d 5966 e53c
000000e0: 72a8 b4bd 88fa d9bd 9187 50be d62b 2ebe
000000f0: 237c 863d 8cda d3bd 16a7 adbd 1a70 dd3d
00000100: 3186 2ebe 5e48 103d b673 b4bc 5300 b03c
00000110: 72de c0bd b95c 083e 1650 3fbe e96a 39be
00000120: ca1f 233e ecb0 10be 7c60 743e e690 8a3d
00000130: 39db b13d 7094 8bbd 5eef 153d b37d 323d
00000140: 86db bfbd 5d95 233e 790c 003e dbd1 af3d
00000150: 1d6e 523d dab4 f6bc 228a 96bd 6dc1 57be
00000160: 06a2 aebd 1293 42be 0dab 61bd 603a 103e
00000170: 6c52 4d3e b546 45be 6117 27be c8b6 403e
00000180: e102 78bd a274 b13c e64c b43d a60a 6a3e
00000190: 8f5e b03d 60e3 ea3c 2d31 96bc 4c64 e33c
000001a0: e339 c93d be26 42be 821c 38be 9b50 243e
000001b0: d044 46be b818 dd3d 6e3c 1b3e 505a ae3d
000001c0: 2c50 a23d a36a 2f3c 3890 013e 0b74 003e
000001d0: 2b71 b93c 3e1e 48be 32f2 0a3e 87a4 913c
000001e0: 768c cd3d 0056 0dbe b7f8 93bc 0b8c 34be
000001f0: f205 fd3c cd99 433e 5b55 fd3c 893c 413e
00000200: 67e6 2d3e 80ef 17be c35a 593e 711d a13b
00000210: ae98 023e 071d 4f3d 4149 06bd da93 3e3e
00000220: d566 e5bd a7e7 173c e0b4 5dbc bd0a 94bc
00000230: 2f64 51bd 99e5 ff3d ef13 debc 07ca c53d
00000240: c3ff bb3d 538e 4b3e dbcd 423d e0e1 49be
00000250: b2c4 6bbe 873e 38be 4342 45be 3426 34be
00000260: 0e41 d13b d9d0 5b3e 4263 03be b4b2 993d
00000270: f6a1 f4bd 6a25 313e 7b1e e53d 3b07 c03d
00000280: ddf8 493e bff5 1ebe 5df0 54be 22ca cfbd
00000290: 82d2 733d 613e 4e3e 01ab 063e 5006 8b3d
000002a0: 21ec 89bd e1cc e5bd 46b6 493e 10e1 36be
000002b0: f8f5 1cbe e106 fe3d b026 1f3e 85d4 633d
000002c0: d08d 42bc 7f1c b7bd 40b7 e43c 27b1 c5bd
000002d0: bca7 593e b15b 473e 0539 a0bd 8699 0c3e
000002e0: fa47 4bbd 7c63 1dbe 3ddc 373c 365c e1bc
000002f0: f54a ef3d 3465 903c e184 a1bd f086 47be
00000300: 1c5a 093e 3da6 1d3e 114f 563c 9d77 97bc
00000310: b317 a6bd 1ad5 113d 92bc 4b3e a598 0fbd
00000320: 111d 4d3c df47 55be 123e 873d 1e53 0cbe
00000330: e090 c3bd 8a9d e2bd 2846 443e 6a9d 403d
00000340: a42d 94bd 1ac8 57bd 5051 8b3d 626f b53d
00000350: bc7e 01be e99f b33d 9d95 013d cce6 bd3d
00000360: 0286 c8bd d5b9 2cbe 8726 ac3d da38 d3bc
00000370: fb08 c1bd 506c 263e 6e42 4fbc 8253 0ebe
00000380: 2d2a dbbc 5175 bfbd 9767 94bd 8326 18be
00000390: c09d 2c3e 4967 443e 29dd 9bbd 8bce a83d
000003a0: 38a2 893d 200b 86bd 3b0f 21bd 9406 d43c
000003b0: ff89 9e3c 3a6c da3d 9729 1d3e ab1b 11bb
000003c0: d77e 243e da60 e5bd bed9 f839 54bb 26be
000003d0: 7c2d 2b3d 0cbf 493d 8108 11be 5684 27be
000003e0: c3df 26bd 696c a3bd 4212 adbd c8cd 7ebe
000003f0: d74e efbd eb52 283e 9112 22be 5154 913d

bn1.running_var f4 [256]
19.82297 3.350048 22.386927 20.125391 10.071271 4.614114 22.648697 11.660139
4.3524427 9.8850975 4.4868846 14.580456 4.3355894 11.711966 9.017254 22.07469
1.8730766 10.026033 4.866838 7.235203 7.202316 11.764617 2.006968 10.768452
5.0635204 6.9284954 12.197477 0.22709875 1.1781572 5.024793 6.7377253 0.41106212
4.450047 18.004608 6.275483 4.8379874 2.362554 32.508846 1.3584492 10.833314
15.095248 37.97242 8.134879 3.9752913 0.09165285 1.1997688 40.722786 8.688126
5.4808464 16.861595 16.884747 4.1585784 4.4977503 9.909884 0.3521836 0.14038496
22.152653 11.314507 5.480301 2.1794868 5.504294 14.053388 0.67561305 7.6855397
22.387245 3.7830942 5.42278 6.118309 0.094304 5.8639736 6.701291 5.043563
0.14301363 4.2742634 13.900479 2.3910031 8.999808 3.0413537 5.7028008 16.799572
10.184214 11.548851 8.76697 58.001163 19.023867 18.121332 1.9083737 11.170491
1.1610432 1.8678203 16.759485 9.465218 0.21177147 8.910536 4.837419 1.1051178
4.516477 2.281335 23.630424 14.973685 8.043075 12.331645 2.27274 12.955997
5.253593 0.20718418 17.069641 20.738089 9.507204 0.045153778 0.3038892 18.577457
21.991646 2.3169727 8.8718405 21.045055 13.1546335 13.474995 4.208911 6.4282293
37.695175 3.6040587 25.573065 6.5241942 11.229162 4.2289925 6.0679836 10.630681
4.7728615 7.674638 6.9308844 3.164147 13.527864 2.7210264 21.452484 3.4199872
19.06437 3.473752 12.302229 9.269938 7.124148 8.566947 8.19078 7.0610695
2.1611395 5.421009 16.896555 2.2668662 18.57348 7.6154494 0.37130207 1.4731276
6.482807 14.544243 9.885008 15.081459 12.780152 6.893826 2.7844071 0.036772724
4.3583484 0.50634176 3.1145415 10.969351 6.462652 13.389368 12.505373 5.318488
15.761537 5.6940756 27.193106 0.5732921 2.8369555 3.171182 18.128223 0.021372266
2.937343 25.812542 0.10156004 3.242695 5.3595757 15.665681 7.4896007 22.608751
11.442722 3.0666227 14.251214 65.54358 19.331806 4.7646213 26.551235 5.2903876
1.2544204 5.1410613 9.880498 0.039508596 3.4938674 13.897215 2.0002053 2.1333992
26.733566 4.2258387 16.04415 26.506956 5.64019 0.30686012 5.3156586 32.62898
14.625047 10.126754 2.8146813 2.7143185 10.0882635 21.023634 13.602808 10.3030405
6.343161 29.59315 20.933678 10.164432 7.908321 3.871185 4.779033 3.601698
0.07436367 8.589965 9.63071 6.09705 0.26309812 11.990113 42.200855 25.468142
12.31552 7.950787 9.217875 3.1747284 6.3341703 15.796782 12.177856 3.1074038
14.352691 12.708826 7.168725 4.2727046 42.55847 5.3079524 16.053675 1.7759172
0.01708784 3.8413846 0.03473164 13.331226 3.9835255 6.2875533 24.073488 5.9151835
00000000: 7195 9e41 3067 5640 6d18 b341 cd00 a141
00000010: ed23 2141 d2a6 9340 8830 b541 ee8f 3a41
00000020: 3647 8b40 5c29 1e41 8f94 8f40 8c49 6941
00000030: 26bd 8a40 3664 3b41 ac46 1041 f798 b041
00000040: f9c0 ef3f a26a 2041 23bd 9b40 c886 e740
00000050: 5f79 e640 df3b 3c41 2a72 0040 944b 2c41
00000060: 5c08 a240 3cb6 dd40 de28 4341 938c 683e
00000070: dbcd 963f 1bcb a040 729b d740 bc76 d23e
00000080: c966 8e40 7009 9041 c2d0 c840 cbd0 9a40
00000090: 1634 1740 0f09 0242 aae1 ad3f 4155 2d41
000000a0: 2386 7141 c2e3 1742 7728 0241 2c6b 7e40
000000b0: 7db4 bb3d 0692 993f 22e4 2242 9002 0b41
000000c0: 1863 af40 8ce4 8641 f613 8741 1313 8540
000000d0: 92ed 8f40 e38e 1e41 6951 b43e 13c1 0f3e
000000e0: a238 b141 3808 3541 a05e af40 b67c 0b40
000000f0: 2d23 b040 adda 6041 faf4 2c3f f1ef f540
00000100: 1419 b341 371e 7240 6a87 ad40 30c9 c340
00000110: 7522 c13d aca5 bb40 fa70 d640 de64 a140
00000120: 2a72 123e c4c6 8840 5d68 5e41 3206 1940
00000130: 37ff 0f41 8aa5 4240 587d b640 8665 8641
00000140: 8af2 2241 18c8 3841 8245 0c41 3101 6842
00000150: e130 9841 7df8 9041 9745 f43f 55ba 3241
00000160: 109d 943f bc14 ef3f 6d13 8641 8871 1741
00000170: 9fda 583e 8e91 0e41 23cc 9a40 8074 8d3f
00000180: fb86 9040 6501 1240 1c0b bd41 3794 6f41
00000190: 6fb0 0041 6b4e 4541 9274 1140 c44b 4f41
000001a0: 6f1d a840 1728 543e a08e 8841 9be7 a541
000001b0: 821d 1841 2bf3 383d 5d97 9b3e a29e 9441
000001c0: e4ee af41 4849 1440 0ff3 0d41 465c a841
000001d0: 6179 5241 9499 5741 66af 8640 0eb4 cd40
000001e0: dcc7 1642 e6a8 6640 a395 cc41 33c6 d040
000001f0: a6aa 3341 e853 8740 ec2c c240 4517 2a41
00000200: 48bb 9840 a296 f540 cec9 dd40 6281 4a40
00000210: 2272 5841 4c25 2e40 b09e ab41 12e1 5a40
00000220: d483 9841 f451 5e40 eed5 4441 ab51 1441
00000230: 05f9 e340 3712 0941 6f0d 0341 48f4 e140
00000240: 1c50 0a40 e878 ad40 252c 8741 5614 1140
00000250: 7d96 9441 c3b1 f340 4e1b be3e 728f bc3f
00000260: 2873 cf40 38b5 6841 fe28 1e41 a84d 7141
00000270: 817b 4c41 399a dc40 ba33 3240 ff9e 163d
00000280: 9777 8b40 9d9f 013f a654 4740 7682 2f41
00000290: 0cce ce40 da3a 5641 0216 4841 0e31 aa40
000002a0: 412f 7c41 de35 b640 7b8b d941 45c3 123f
000002b0: ae90 3540 a5f4 4a40 9a06 9141 e414 af3c
000002c0: 6dfd 3b40 1680 ce41 b6fe cf3d 5188 4f40
000002d0: a581 ab40 a1a6 7a41 cfaa ef40 b9de b441
000002e0: 6415 3741 8c43 4440 f904 6441 5016 8342
000002f0: 8aa7 9a41 c777 9840 ee68 d441 db4a a940
00000300: d990 a03f 9383 a440 8516 1e41 c4d3 213d
00000310: 869b 5f40 fe5a 5e41 5d03 0040 9d89 0840
00000320: 58de d541 123a 8740 6b5a 8041 3f0e d441
00000330: 707c b440 c51c 9d3e e019 aa40 1384 0242
00000340: 3100 6a41 2f07 2241 bd23 3440 65b7 2d40
00000350: 8769 2141 6730 a841 1aa5 5941 41d9 2441
00000360: 2dfb ca40 c5be ec41 2c78 a741 83a1 2241
00000370: f710 fd40 7fc1 7740 d7ed 9840 3882 6640
00000380: fb4b 983d 7f70 0941 6317 1a41 091b c340
00000390: ccb4 863e 81d7 3f41 adcd 2842 c1be cb41
000003a0: 5f0c 4541 d96c fe40 6a7c 1341 c02e 4b40
000003b0: 86b1 ca40 9ebf 7c41 80d8 4241 b4df 4640
000003c0: 9fa4 6541 5a57 4b41 3266 e540 ffb9 8840
000003d0: e03b 2a42 bfda a940 ed6d 8041 4151 e33f
000003e0: ccfb 8b3c 3fd9 7540 c442 0e3d b44c 5541
000003f0: 15f2 7e40 a333 c940 8196 c041 2f49 bd40

fc2.weight f4 [128, 256]
-0.32536024 0.06382916 1.0351815 -0.02610239 -1.2139069 -0.43319073 -1.4310871 -0.4165314
0.45318535 -1.5899343 1.4150553 -1.6456386 0.43359676 -0.29147577 1.5301749 0.31059998
1.4656327 -0.0047209943 0.09880451 -0.4721914 -0.22370794 0.17772505 0.319392 0.20819272
-0.22638854 -1.7371687 0.3956793 -0.062031463 0.34046975 0.41956982 1.1827842 -0.0370062
-0.072293624 0.014454034 0.39947516 -0.65535706 1.2071007 1.0165071 0.6426589 -1.1266407
1.1374272 0.1395144 0.5237832 -0.83244973 -0.09721947 0.08407595 0.5452072 -1.0900105
-0.12034307 -2.5388675 0.58440036 -0.23498124 -0.08020025 -0.8697361 -0.1644021 0.07131521
0.47239366 -0.0828996 0.6646466 -0.17876177 -0.35971382 -1.9369916 -0.032381907 0.090549536
0.92560595 0.4572954 0.024862012 0.014254221 0.07561043 0.25367925 0.06371038 0.4433023
0.04424751 -0.09217409 -2.183397 0.032263555 -0.026399774 1.258832 0.038401876 -0.6844116
1.0091138 0.37970978 0.18826889 -0.37462202 -0.81843996 -0.13581634 -0.45141453 0.54249924
0.08201229 -0.063030235 -0.38732126 -0.64073664 0.041466113 -2.978737 0.0885574 2.0347123
0.8509976 1.9777889 1.5106269 0.5063024 -2.977437 -0.12855984 1.7218505 -0.5527875
0.077022746 -0.039279256 -0.44550577 -0.99026036 0.8386419 -0.04795359 0.05232832 -0.10106822
-0.6552121 0.4104393 -0.095831 0.8421986 0.711516 0.5798443 0.5851128 -0.34208533
-0.07898432 0.18821009 -0.3907873 -0.9556052 -2.3938737 -2.2173054 -0.20072009 0.01652189
-0.119091004 -1.0054483 1.7458998 0.25828326 0.62067384 1.0177886 0.64328957 -0.43876815
-1.444169 -1.3035109 -1.4643489 1.5695891 -0.6735886 -1.2587692 0.39162213 1.1849303
0.11727311 2.0475476 0.4645406 -0.09409316 -0.34004858 -0.24424112 -0.11420439 -0.3206726
-0.81413364 -0.20146912 1.4734927 0.035833742 0.57789594 -0.33092862 -0.1557345 0.02903364
0.13214007 0.04537023 1.1029696 1.3569341 0.49626052 1.0441716 0.0020240317 0.27757114
0.14571826 0.28789368 -0.3763606 0.022115314 0.14747356 0.30732632 0.2717387 0.07626461
2.0858543 0.2567229 -0.10408542 -0.37577006 0.59402233 -0.8128877 -0.8787359 -0.04046425
0.00022956361 -1.3840865 0.50069 -0.58062977 0.059033334 0.6983662 0.56765246 1.0189339
-0.18121804 0.61046314 -0.059656892 -0.10435356 -0.16900596 0.024377912 -0.11393735 0.11159767
1.9872345 -0.44461635 -1.324103 -0.02286648 0.27821448 0.17364623 0.9348158 0.47714323
-1.265262 -0.94218993 1.1755873 0.0012360729 1.7958218 0.17543095 -0.49908635 0.7149818
-0.06498328 -1.2664226 -0.7302616 -0.48421663 1.3744824 0.2908115 -0.13921939 -0.06648399
-0.011330032 -0.26998803 0.1395169 0.08631309 -0.008432854 -0.56698495 0.53373384 0.91957587
-0.02847032 -0.5457593 -1.7347091 1.0515369 0.07726033 1.50899 -0.6458551 1.059404
0.2382661 -0.12637654 -1.1669246 -0.5908339 -0.63395894 -1.4857782 -0.88975793 0.4126505
-0.10847733 1.2460358 0.0541496 1.0617598 -0.37359804 1.0952923 1.5203685 -1.2436401
00000000: 9e95 a6be ddb8 823d d480 843f aed4 d5bc
00000010: 4d61 9bbf 2dcb ddbe dd2d b7bf 9b43 d5be
00000020: e907 e83e f882 cbbf 8820 b53f 49a4 d2bf
00000030: 6500 de3e 503c 95be c5dc c33f f606 9f3e
00000040: da99 bb3f 92b2 9abb 055a ca3d 12c3 f1be
00000050: b213 65be 8efd 353e 5987 a33e 7930 553e
00000060: 66d2 67be 8b5b debf 7a96 ca3e b414 7ebd
00000070: 0d52 ae3e dbd1 d63e 7965 973f d093 17bd
00000080: ae0e 94bd 9dd0 6c3c 0288 cc3e 7bc5 27bf
00000090: 4782 9a3f e81c 823f 4b85 243f c335 90bf
000000a0: 3797 913f dddc 0e3e a816 063f 6d1b 55bf
000000b0: 001b c7bd 0330 ac3d b392 0b3f 7785 8bbf
000000c0: 6d76 f6bd ce7c 22c0 439b 153f ec9e 70be
000000d0: 0740 a4bd 06a7 5ebf 0659 28be b50d 923d
000000e0: 95dd f13e 44c7 a9bd 4826 2a3f 530d 37be
000000f0: 692c b8be 57ef f7bf e4a2 04bd 0972 b93d
00000100: 83f4 6c3f 9f22 ea3e 6bab cb3c 898a 693c
00000110: a4d9 9a3d 3fe2 813e 967a 823d 85f8 e23e
00000120: e13c 353d c5c5 bcbd c7bc 0bc0 ca26 043d
00000130: 5744 d8bc 6821 a13f 494b 1d3d 9935 2fbf
00000140: a42a 813f 5269 c23e 8fc9 403e 75ce bfbe
00000150: 4885 51bf 7013 0bbe ce1f e7be 3be1 0a3f
00000160: 0ff6 a73d ff15 81bd f94e c6be 5107 24bf
00000170: 5fd8 293d a1a3 3ec0 955d b53d ba38 0240
00000180: fbda 593f 3028 fd3f 395c c13f 099d 013f
00000190: 548e 3ec0 31a5 03be 9965 dc3f 7b83 0dbf
000001a0: 1abe 9d3d 49e3 20bd 5519 e4be b481 7dbf
000001b0: 3cb1 563f fc6a 44bd 3856 563d dbfc cebd
000001c0: fbbb 27bf 1a25 d23e 0b43 c4bd 549a 573f
000001d0: ea25 363f ad70 143f f4c9 153f cf25 afbe
000001e0: 88c2 a1bd 25ba 403e 4615 c8be 8ba2 74bf
000001f0: 3a35 19c0 55e8 0dc0 9189 4dbe ea58 873c
00000200: fce5 f3bd 88b2 80bf a579 df3f b43d 843e
00000210: 7be4 1e3f e646 823f a0ae 243f 38a6 e0be
00000220: 88da b8bf 72d9 a6bf c96f bbbf 4ce8 c83f
00000230: 4d70 2cbf 591f a1bf b282 c83e ccab 973f
00000240: e22c f03d 050b 0340 44d8 ed3e eab3 c0bd
00000250: d91a aebe 581a 7abe fee3 e9bd 332f a4be
00000260: 106b 50bf ec4d 4ebe 699b bc3f 67c6 123d
00000270: fdf0 133f 7a6f a9be dd78 1fbe f5d7 ed3c
00000280: ba4f 073e 22d6 393d 1c2e 8d3f 04b0 ad3f
00000290: dc15 fe3e 6aa7 853f 9ea5 043b ce1d 8e3e
000002a0: 2b37 153e cd66 933e 56b2 c0be 2d2b b53c
000002b0: 4f03 173e e059 9d3e 5621 8b3e 9f30 9c3d
000002c0: a37e 0540 2f71 833e bd2a d5bd ef64 c0be
000002d0: d911 183f 6919 50bf d6f4 60bf d7bd 25bd
000002e0: 03b7 7039 bf29 b1bf 382d 003f 27a4 14bf
000002f0: f0cc 713d 21c8 323f ac51 113f 6d6c 823f
00000300: 3991 39be 5047 1c3f c95a 74bd 52b7 d5bd
00000310: e60f 2dbe 30b4 c73c fc57 e9bd 528d e43d
00000320: b35d fe3f c1a4 e3be 357c a9bf 7c52 bbbc
00000330: 2172 8e3e 51d0 313e 1750 6f3f 1e4c f43e
00000340: 1bf4 a1bf 5c33 71bf a579 963f b903 a23a
00000350: 7ddd e53f 2ca4 333e 3f88 ffbe 0c09 373f
00000360: f415 85bd 231a a2bf 6df2 3abf 3eeb f7be
00000370: 0aef af3f 3fe5 943e 878f 0ebe c228 88bd
00000380: 99a1 39bc df3b 8abe 85dd 0e3e ebc4 b03d
00000390: f429 0abc ed25 11bf c8a2 083f 5369 6b3f
000003a0: 973a e9bc e2b6 0bbf f30a debf c398 863f
000003b0: aa3a 9e3d 9626 c13f c356 25bf 8d9a 873f
000003c0: 07fc 733e da68 01be c95d 95bf e440 17bf
000003d0: 224b 22bf fb2d bebf 2dc7 63bf ed46 d33e
000003e0: 5d29 debd 1a7e 9f3f f9cb 5d3d bfe7 873f
000003f0: 3e48 bfbe 8a32 8c3f 6f9b c23f 992f 9fbf

fc2.bias f4 [128]
0.0020652562 -0.04589603 0.01684721 0.03255265 0.018518837 0.03301659 0.01465891 0.05956252
0.0081043625 0.017878873 -0.04361799 0.053664956 0.022724774 0.008087216 0.0604543 0.006167172
-0.05745838 -0.06161322 -0.011960085 0.037345964 0.021299317 -0.02949086 -0.056411576 -0.04379075
0.0029402557 0.014133203 -0.055992488 0.020673819 0.017644994 -0.043164607 0.054126807 -0.062369846
0.053949647 -0.046578996 0.051607035 -0.04953306 -0.016135404 -0.02849865 -0.019742304 0.058190808
-0.027384121 -0.061987616 0.040024314 0.049908463 -0.026699161 -0.041938577 -0.0079455 0.02094991
-0.03154586 -0.01864269 -0.019221907 -0.033146564 -0.034348216 0.025025176 0.031083653 0.017317865
-0.031393677 -0.018276727 0.020929547 -0.026255341 0.0030580722 0.010494681 -0.055820253 -0.025193555
0.055176824 0.017992115 -0.014304586 0.0028213107 -0.058223806 0.037770692 0.032762554 -0.027227141
-0.022862 -0.03458617 -0.0066692205 0.02811414 0.026668131 0.047991708 0.007034873 0.058696564
0.038561143 -0.05556316 -0.0009323835 0.04843035 0.03532813 0.031087803 0.060285687 -0.00026448665
0.029715637 0.03588768 0.015833827 0.042376414 0.012983581 -0.057864472 0.056946125 0.008595089
0.04886611 0.030995818 -0.010417343 -0.013267738 -0.02118697 0.03311603 -0.031503994 0.0373334
0.0049091317 0.013985177 0.060262553 5.0113118e-05 0.016113963 -0.052646242 -0.04341031 -0.0026873685
0.02091993 0.024364024 0.025971893 0.040897932 -0.018598085 -0.03414315 0.025201665 -0.031142302
0.043502744 0.019022066 -0.0099668 -0.018721456 -0.030031994 0.045636993 0.0005432123 -0.020454248
00000000: 4059 073b 7afd 3bbd 2903 8a3c ed55 053d
00000010: d1b4 973c 673c 073d ed2b 703c d4f7 733d
00000020: 29c8 043c b776 923c c7a8 32bd c9cf 5b3d
00000030: 4e29 ba3c 3e80 043c ee9e 773d fd15 ca3b
00000040: 7a59 6bbd 255e 7cbd 3bf4 43bc 15f8 183d
00000050: e87b ae3c d196 f1bc d30f 67bd ee5d 33bd
00000060: 4eb1 403b f38e 673c 6158 65bd 245c a93c
00000070: 3c8c 903c 5fcd 30bd 12b4 5d3d 8677 7fbd
00000080: 4efa 5c3d 9ec9 3ebd e661 533d 2ee3 4abd
00000090: 652e 84bc 0076 e9bc 9dba a1bc 7c59 6e3d
000000a0: aa54 e0bc bae6 7dbd 89f0 233d d16c 4c3d
000000b0: 33b8 dabc c9c7 2bbd d82d 02bc 259f ab3c
000000c0: 3b36 01bd 8eb8 98bc 4377 9dbc b1c4 07bd
000000d0: b7b0 0cbd 9901 cd3c 25a3 fe3c 32de 8d3c
000000e0: a896 00bd 13b9 95bc 7174 ab3c 7115 d7bc
000000f0: f069 483b e2f1 2b3c c7a3 64bd b762 cebc
00000100: 1801 623d 3364 933c c85d 6abc bde5 383b
00000110: 167c 6ebd 71b5 1a3d 0732 063d 740b dfbc
00000120: 1749 bbbc 3aaa 0dbd 7a89 dabb a04f e63c
00000130: 2077 da3c f492 443d cb84 e63b cf6b 703d
00000140: 4af2 1d3d 3296 63bd 336b 74ba e75e 463d
00000150: 3bb4 103d d9ab fe3c 20ee 763d ccaa 8ab9
00000160: 356e f33c f6fe 123d f1b5 813c e492 2d3d
00000170: 16b9 543c 4c03 6dbd 5740 693d 6bd2 0c3c
00000180: d527 483d f1ea fd3c 81ad 2abc ed60 59bc
00000190: 4c90 adbc ada4 073d 550a 01bd e8ea 183d
000001a0: c8dc a03b 1522 653c ded5 763d 8d30 5238
000001b0: 6e01 843c 96a3 57bd 02cf 31bd 901e 30bb
000001c0: 4660 ab3c 1097 c73c 02c3 d43c 9784 273d
000001d0: 035b 98bc b0d9 0bbd b973 ce3c 241e ffbc
000001e0: ef2f 323d 2ad4 9b3c ca4b 23bc bd5d 99bc
000001f0: a805 f6bc dbed 3a3d 5c66 0e3a ab8f a7bc
