project3-collaboration/results/maddpg_critic_reacher_0_session_default.pth (torch_old, 96211 bytes, 9 tensors)

bn0.weight f4 [48]
000000 14 8d ce 3d 74 57 08 3e 0a e4 4f 3c 67 d2 81 bc
       0.10085502 0.1331461 0.012688646 -0.015847398
000010 08 2e 44 3f da 5b ec 3e b9 78 aa 3d b6 31 83 3d
       0.7663274 0.46163827 0.08323807 0.06405966
000020 8f 99 de 3c 7e 45 a6 bb 90 18 b3 3d 08 f5 0d 3e
       0.027172832 -0.005074202 0.08744919 0.13863003
000030 7c f5 c6 3e e0 90 c8 ba 03 85 28 3b 37 7f a1 39
       0.38859165 -0.0015301965 0.0025714047 0.00030803095
000040 1e d8 53 3f 7b 87 c5 3e cf f5 bd 3a 81 e6 30 bc
       0.82751644 0.38579926 0.0014492812 -0.010797144
000050 f5 5d 9f 3f 57 38 41 3f 3b 40 0d 3e 53 f6 94 3e
       1.2450548 0.7547659 0.13794033 0.2909418
000060 9a 14 91 3d 6c 83 33 3e 04 3d 52 3d 70 57 0a 3c
       0.070840076 0.17530602 0.05132772 0.008443698
000070 e0 20 f0 3e 1e 02 f8 3a c7 80 e4 bb 49 49 b7 3d
       0.46900082 0.0018921529 -0.0069733593 0.08949525
000080 21 cb 7f bc c4 d7 da 3b ca 73 70 bc cf 4e 23 3c
       -0.015612395 0.0066785533 -0.014676044 0.00996752
000090 67 54 45 3e 6b 2f c4 3e 08 8b 54 3d 09 cf 78 3d
       0.19270478 0.38317427 0.051890403 0.06074432
0000a0 1a 09 ff 3e bd e0 ce 3e 82 16 7d bb 63 a2 8e bb
       0.4981163 0.40405837 -0.0038618152 -0.004352854
0000b0 fe df f2 3e 1e 17 98 bb 15 e6 bb 3d c4 38 84 3e
       0.47436517 -0.0046414277 0.09174744 0.2582456

bn0.bias f4 [48]
000000 17 26 70 3d ce af 36 bb 3a 36 c0 bb cb 6e 17 3c
       0.058630075 -0.0027875784 -0.0058658393 0.009242724
000010 fd 82 c1 3d 60 3d bf 3e a9 33 b6 3c 20 7c f7 bc
       0.09448812 0.37351513 0.02224143 -0.030210555
000020 fe 98 40 bb 46 d7 e9 ba 4b ea 00 3d 94 4c 54 bd
       -0.0029388065 -0.0017840646 0.03147344 -0.051830843
000030 c1 01 12 3f 46 81 12 3b 25 39 81 3b d6 44 29 3c
       0.57033926 0.0022354885 0.0039435797 0.010331353
000040 17 89 2a be 7f da b2 be 57 5f 2f 3c 4c 5a 0b 3b
       -0.16653858 -0.34932324 0.010703883 0.0021263538
000050 f3 00 0d 3e 8a a7 5c 3f fe 84 f5 3a 30 15 da bd
       0.13769893 0.86193144 0.0018731651 -0.106485724
000060 30 ca 6a 3d 2f 77 b7 bd a5 91 86 3c db 0d e9 bb
       0.057321727 -0.08958279 0.01642687 -0.0071122474
000070 f7 6b bf bd 49 cc b5 3a bf 49 55 ba bf 10 e5 bb
       -0.093467645 0.0013870086 -0.0008136294 -0.0069905217
000080 73 43 ee 3a c7 18 2f bc 5d 3e de 3b 47 ca 9d 3b
       0.001817806 -0.01068706 0.0067823366 0.004815373
000090 c9 b2 6c be 14 1d b0 3e 0c 37 2c 3d fd f8 50 bc
       -0.23115076 0.34397185 0.042044684 -0.012754676
0000a0 e5 da 76 be 7f af a1 3d 38 ee 82 bb fa 64 91 3b
       -0.24106939 0.07894801 -0.003995683 0.004437086
0000b0 9e ef 07 bf 82 a6 3f ba 5d c5 5f 3d a7 2e 1d bd
       -0.531 -0.00073108834 0.05463158 -0.03837457

bn0.running_mean f4 [48]
000000 ff 77 85 c0 44 f8 80 be 57 be 6e 41 ec 25 6c 3c
       -4.170898 -0.25189412 14.92147 0.014413338
000010 87 e2 b9 bc 97 db 80 40 57 be 6e 41 ec 25 6c 3c
       -0.022691024 4.0268054 14.92147 0.014413338
000020 08 8a 85 c0 e6 a8 82 be 45 f1 6a 41 55 b2 f6 bd
       -4.1730995 -0.25519484 14.683904 -0.12045733
000030 4c 4b ab 3b 97 b0 80 40 45 f1 6a 41 55 b2 f6 bd
       0.005227482 4.0215564 14.683904 -0.12045733
000040 0c a5 85 c0 a7 08 8a be e2 71 69 41 71 41 43 be
       -4.1763973 -0.26959726 14.590303 -0.19067933
000050 5b 12 fb 3c db e4 80 40 e2 71 69 41 71 41 43 be
       0.030648401 4.0279365 14.590303 -0.19067933
000060 4a 10 b5 c0 63 7f 0e bf e2 16 1b 41 0d 19 1a bd
       -5.6582384 -0.55663127 9.693087 -0.037621547
000070 87 e2 b9 3c 97 db 80 40 e2 16 1b 41 0d 19 1a bd
       0.022691024 4.0268054 9.693087 -0.037621547
000080 f4 f6 b5 c0 16 fb 0d bf 99 30 1a 41 b6 59 d6 bd
       -5.6863956 -0.5546125 9.636865 -0.1046633
000090 4c 4b ab bb 97 b0 80 40 99 30 1a 41 b6 59 d6 bd
       -0.005227482 4.0215564 9.636865 -0.1046633
0000a0 a8 41 b7 c0 83 b1 0e bf de cc 16 41 c0 30 49 be
       -5.7267647 -0.5573961 9.425016 -0.19647503
0000b0 5b 12 fb bc db e4 80 40 de cc 16 41 c0 30 49 be
       -0.030648401 4.0279365 9.425016 -0.19647503

bn0.running_var f4 [48]
000000 af 61 98 41 c3 44 58 3f f4 bd ed 43 d9 a4 8d 41
       19.047697 0.8447992 475.484 17.705492
000010 42 e9 da 41 43 b3 06 40 f4 bd ed 43 d9 a4 8d 41
       27.363895 2.1046913 475.484 17.705492
000020 8d 2d 97 41 e8 e0 55 3f 12 61 f0 43 9b 28 8e 41
       18.897242 0.83546305 480.75836 17.769827
000030 fd d7 dd 41 71 f7 04 40 12 61 f0 43 9b 28 8e 41
       27.730463 2.0776026 480.75836 17.769827
000040 43 02 98 41 3d 07 57 3f b4 8a f0 43 2d 33 90 41
       19.001104 0.8399542 481.08362 18.024988
000050 c1 0c df 41 86 4d fd 3f b4 8a f0 43 2d 33 90 41
       27.881227 1.9789283 481.08362 18.024988
000060 d8 73 a0 41 db a5 8d 3f 05 f6 f2 43 2b 14 72 41
       20.056564 1.106624 485.92203 15.129924
000070 42 e9 da 41 43 b3 06 40 05 f6 f2 43 2b 14 72 41
       27.363895 2.1046913 485.92203 15.129924
000080 31 14 9e 41 9a fd 8b 3f 27 e3 f5 43 73 72 7c 41
       19.75986 1.0936768 491.77463 15.777942
000090 fd d7 dd 41 71 f7 04 40 27 e3 f5 43 73 72 7c 41
       27.730463 2.0776026 491.77463 15.777942
0000a0 93 87 9d 41 5d 19 89 3f 01 c8 f6 43 c6 aa 82 41
       19.691198 1.0710865 493.56253 16.333385
0000b0 c1 0c df 41 86 4d fd 3f 01 c8 f6 43 c6 aa 82 41
       27.881227 1.9789283 493.56253 16.333385

fc1.weight f4 [128, 48]
000000 15 7a 1d bf ea 75 02 3e 98 0c 65 be f6 82 2d be
       -0.6151441 0.12740293 -0.22368085 -0.16944489
000010 3a bb 9f 3e ab f4 98 3e bf ec 2a 3f a3 77 1c 3e
       0.3119753 0.29874167 0.66767496 0.15280013
000020 38 c9 e1 bd e1 12 2b 3e 07 c6 85 be 14 7e 62 3c
       -0.110247076 0.1670642 -0.26127645 0.013824005
000030 bb 48 c4 3d 7e 08 da 3d 10 fb b2 bd 80 62 50 bc
       0.09584185 0.10646151 -0.087392926 -0.012718797
000040 96 dc 18 3f 4c eb a0 bd 16 b6 76 3e af 88 83 bd
       0.5971159 -0.07857379 0.24092898 -0.06422555
000050 1a 4a d3 be 25 f5 99 bf d2 62 7a bf 7b fa 9f 3c
       -0.41267473 -1.2027937 -0.9780704 0.019528618
000060 5e 84 a2 3e f1 c8 7c be 81 72 7e 3d 3e f8 ef bd
       0.31741613 -0.24686028 0.06212092 -0.1171727
000070 91 96 58 be be ad 32 bc 7c a8 04 3e 33 b4 30 bd
       -0.21151187 -0.010905681 0.12954897 -0.0431406
000080 d5 5d 08 bc 6d 67 f7 3d 68 b1 8d be 74 5d 54 3e
       -0.008323153 0.12080274 -0.27674413 0.20738775
000090 38 f6 88 bd e9 b1 e7 3e 96 0f 70 3d 7e 6f 91 bd
       -0.066875875 0.45252922 0.058608614 -0.071013436
0000a0 07 12 2d 3e ca 88 c6 bb 64 1e a7 bc c3 58 e3 3d
       0.16901408 -0.006058787 -0.020400234 0.11100914
0000b0 fa 7d 90 3e ed 94 32 3d c1 98 04 bf cf c3 5e be
       0.28221112 0.043599058 -0.51795584 -0.21754383
0000c0 99 1f b6 3d b9 1c b5 be f5 2f 3d 3d 26 d6 0d 3c
       0.088927455 -0.35373476 0.046188314 0.008657014
0000d0 29 00 26 3e 81 46 bb 3e 38 16 b8 be 92 ec 86 3d
       0.16210999 0.36577228 -0.35954452 0.06588091
0000e0 b0 68 56 3c 28 4d be 3c d4 50 29 bf c3 ec da bd
       0.013086483 0.02323015 -0.6613896 -0.1068969
0000f0 ad 7a 29 bc 8e fb be bd 98 5e c3 ba 89 5e a1 bb
       -0.01034419 -0.09325324 -0.001490551 -0.0049245995
000100 05 c2 2c 3f 06 26 26 bf 51 01 48 3d b3 6c 16 3c
       0.6748355 -0.6490177 0.04882938 0.009181189
000110 63 d4 dd be 6f 75 f0 bd da 85 cf be 72 5e 8b bd
       -0.433261 -0.11741149 -0.40531808 -0.068051234
000120 6f 0a f3 be 72 b0 c7 3e 87 ad 85 3e 4d 8f af bd
       -0.47468898 0.39001805 0.26108953 -0.08572254
000130 3e 1b a7 be ab 78 0f bd 68 f7 89 bd f2 02 48 3e
       -0.32637972 -0.035027187 -0.06736642 0.19532374
000140 cb 07 9a 3d fa 99 df 3c e8 29 b7 3d 3d 6a 8e bd
       0.07521018 0.027295101 0.0894354 -0.06953857
000150 e8 ad 44 be 7f a3 06 3f 66 f4 bb 3e 04 8f 0e bd
       -0.19206965 0.52593225 0.367099 -0.03480436
000160 f1 7b 11 bd 64 a9 e3 bd f8 c9 ae 3c b3 2d ff bc
       -0.03551859 -0.11116293 0.02133654 -0.03114972
000170 2e f0 a8 3e d1 c7 af bc 33 d4 12 bf cb d5 16 3e
       0.32995743 -0.021457585 -0.5735504 0.14729993
000180 bf 6e 23 3f a4 1d 15 be 57 89 8f 3d b6 52 66 bd
       0.6384086 -0.14562088 0.07008617 -0.056231223
000190 db 7a 8b be db 4e ae 3f 3e 8f 06 3e 53 17 8c bd
       -0.2724217 1.3617815 0.1314058 -0.06840386
0001a0 9a 3b cb 3d a1 80 39 3d c0 75 19 3f 78 3c 26 be
       0.099234775 0.045288686 0.599453 -0.16234004
0001b0 0f 21 0f bf 47 e2 76 3b 16 a4 0c be fc 20 25 3d
       -0.5590982 0.0037671493 -0.13734469 0.04031466
0001c0 86 e7 ca bd 0e 31 87 3d 09 8b 89 bd 67 1b 49 bd
       -0.09907441 0.06601153 -0.06715972 -0.0490984
0001d0 ce d3 83 3f 81 aa d9 be 90 4e f8 3d bf 64 0f 3d
       1.0299013 -0.42512897 0.121243596 0.03500819
0001e0 46 27 52 bf 65 87 b5 3f 1d d4 5c be 04 ed 00 be
       -0.82091177 1.4181944 -0.2156529 -0.12590414
0001f0 0d 27 e3 3e e0 05 75 3d f1 e6 4b 3d 08 55 09 3c
       0.4436573 0.059820056 0.04978079 0.008382089
000200 ae a2 d4 3d 98 14 49 bd 99 37 4c 3d 60 4e 44 3e
       0.10382591 -0.049091905 0.04985771 0.19170523
000210 3e 6e ac 3e a8 93 05 3f 99 d2 7a bf 5f 30 6d be
       0.33677858 0.5217843 -0.97977597 -0.23162983
000220 38 6f 3a 3d 29 65 b8 3b 9c f2 f6 3c 7e 5d 66 3c
       0.045516223 0.0056272936 0.030144982 0.014060376
000230 4d 8b 77 be 71 33 af bd 07 ef cd 3e 21 d8 ac 3e
       -0.24174233 -0.085547335 0.40221426 0.33758643
000240 2e d1 c7 be 22 9e 42 be 0c 65 a9 3d 02 d2 39 bd
       -0.3902678 -0.19005635 0.08271226 -0.045366295
000250 33 2c 13 3d c7 65 09 3f 80 ff 0f 3d 4f 25 21 3e
       0.035930824 0.53670925 0.035155773 0.15736888
000260 ef c2 2e 3e ab 80 1d 3e 2b a3 0f bf 65 aa 23 bf
       0.17066549 0.15381114 -0.5610835 -0.63931876
000270 de 40 70 bf 54 11 45 be 27 dd 93 3e 39 6e de 3c
       -0.9384898 -0.19244891 0.28879663 0.027152168
000280 e4 f7 db 3c 78 8c 88 bf eb 5f c9 3d a4 cf bc 3d
       0.026851602 -1.0667868 0.09832748 0.09219292
000290 db 8f 97 3d ac 1b 96 be 57 c6 13 be 12 85 cc bf
       0.07400485 -0.29317987 -0.1443113 -1.597811
0002a0 3a 83 8f 3f 1d 40 35 3f 4b 82 61 be f9 21 b2 3e
       1.1211922 0.70800954 -0.22022359 0.34791544
0002b0 c9 d6 fd bc 76 64 f7 bd f2 37 2e bd 5d 27 86 3f
       -0.030986207 -0.12079708 -0.042533822 1.0480763
0002c0 69 f4 c0 bd 16 d3 af 3c 5e 13 74 bd 01 8d 35 3d
       -0.094216175 0.021462958 -0.059588782 0.044323925
0002d0 e8 e6 f5 3e ed 8c 73 3e 2b 8b 5e bf c0 7a 19 be
       0.4802773 0.23784228 -0.86931103 -0.14988232
0002e0 9f b2 aa 3d 32 b5 b0 3e 95 c8 32 3d a7 91 fc 3c
       0.083348505 0.3451324 0.04364832 0.030831171
0002f0 92 60 e1 3e 68 23 cf bc e9 67 14 bf 13 3a ed be
       0.4401899 -0.025285438 -0.57971054 -0.4633337
000300 cf 63 cb 3f 10 0f 30 40 ef 96 03 3c 5c 20 cb 3c
       1.5889834 2.7509193 0.008031591 0.024795704
000310 aa 63 ec be 8b 01 b6 bf b2 3d 63 be ad f0 dc 3f
       -0.46169788 -1.4219221 -0.22191504 1.7260948
000320 70 38 01 be 07 9c 38 bd 13 4a 75 bd 6f e2 b9 3f
       -0.12619185 -0.045070674 -0.059885096 1.4522227
000330 3b 8f 27 bf d4 15 1c 3c 0d 3f 4b 3d a8 c6 66 bd
       -0.6545293 0.009526689 0.049620677 -0.056341797
000340 80 34 5a be 21 e5 80 bf dd 3d 21 3d d7 6d 0f 3c
       -0.2130909 -1.0069925 0.039365638 0.008754215
000350 de 79 43 3f 7b 84 e4 3f e5 51 36 3f cf 90 f5 3e
       0.7635783 1.785293 0.7121871 0.47962043
000360 d6 b7 20 40 96 8e 6e 40 97 91 1d bf c8 e5 6c be
       2.5112205 3.7274528 -0.6155028 -0.2313453
000370 45 e1 ef 3e bb 3d 1b bc 96 80 c5 bc 85 c8 a0 3f
       0.46851555 -0.009475167 -0.024109166 1.2561194
000380 8c 2c 68 3d 11 a8 64 3d a5 9d 6d bc 3a f0 90 3d
       0.05668311 0.055824343 -0.014502917 0.070770696
000390 34 94 86 3e 81 d0 c8 bf 03 ef f8 3e 78 0b 14 40
       0.26284945 -1.568863 0.4861985 2.3132
0003a0 d8 c6 3b bf b1 8f d2 bf 5c 1f 2a 3d d8 51 98 bc
       -0.73350286 -1.6450101 0.041533813 -0.018593714
0003b0 19 0f 6d 3e b1 74 60 3d 3a ee 44 be 28 34 69 3f
       0.2315029 0.054798786 -0.19231501 0.9109521
0003c0 7b a7 ef 3e 0b 68 0e 3f df b7 f7 3d cb fb a4 3d
       0.46807465 0.55627507 0.120956175 0.08055838
0003d0 82 75 53 3f 1b f9 5d be 50 f0 9a 3c 22 ea 28 3e
       0.8260118 -0.21677057 0.018913418 0.16495565
0003e0 af 25 17 3d 07 39 01 be 1e 92 81 3e d5 4b cb 3e
       0.036901172 -0.1261941 0.2530679 0.39706293
0003f0 e1 b8 80 bd a4 d3 a7 bd 82 eb 14 be d1 26 82 39
       -0.06285263 -0.08194664 -0.14542964 0.00024824453

fc1.bias f4 [128]
000000 3e 2d 92 bc fd b7 e9 bb 1b 42 ba bf f6 d3 67 bf
       -0.017843839 -0.007132529 -1.4551424 -0.905578
000010 53 b5 f0 bf 93 b3 15 bf ec 26 9f 3e b0 ea c4 be
       -1.8805336 -0.58477134 0.31084383 -0.38460302
000020 cd 30 07 bf d2 88 e6 be 48 6d 08 bf 94 2a 06 3e
       -0.5280884 -0.4502626 -0.5329175 0.1310218
000030 f0 c1 f5 bf 4a 06 92 be 19 4e ea bf b9 36 64 bf
       -1.919981 -0.28520423 -1.8305084 -0.89146
000040 0a c5 2e bf dd 2c da be a8 b6 87 bf 00 d7 1b be
       -0.6826941 -0.42612353 -1.0602617 -0.15218735
000050 9d fa eb be 71 b4 e9 bf d3 31 61 bf 3f e9 6b bf
       -0.4608964 -1.8258191 -0.8796665 -0.9215278
000060 cd 75 63 bf d9 37 32 bf d1 87 8b bf 48 f0 10 bf
       -0.88851625 -0.69616467 -1.0900823 -0.5661664
000070 95 4f de bc 02 b8 4a bf ba ac 17 bf ec c7 93 bf
       -0.027137557 -0.79187024 -0.59247935 -1.1545386
000080 94 5f 72 be 46 aa 08 3e f0 00 7a bf c4 08 b9 bf
       -0.23669273 0.13346204 -0.9765768 -1.44558
000090 bf cb dd be 30 0b 06 c0 7d 96 0c bf 51 5c e1 be
       -0.43319508 -2.0944328 -0.54917127 -0.44015744
0000a0 c3 bb f7 be de c9 17 bf fa 1a 67 bf 3c 53 9e bf
       -0.48385438 -0.592924 -0.9027554 -1.2369151
0000b0 54 d7 b7 be 80 ac 03 bf 0e e1 46 bf 2f f7 bf be
       -0.3590647 -0.5143509 -0.77687156 -0.37493274
0000c0 4e aa 74 bf 16 ac df be 54 65 a1 bf 73 00 16 bf
       -0.95572364 -0.4368598 -1.2609048 -0.58594435
0000d0 22 fc 16 bf 12 6b 94 bf b8 22 8f 3e 29 be 26 bf
       -0.58978474 -1.1595175 0.27956176 -0.6513391
0000e0 82 ab a9 bf bb 20 08 be bc 44 16 bf 88 38 36 bf
       -1.3255465 -0.13293736 -0.5869863 -0.7118001
0000f0 fe d3 3b bf 9e db 6e bf 1e 60 cd bf a1 cb 8a bf
       -0.7337035 -0.9330386 -1.6044958 -1.0843393
000100 cf c6 82 bf 1a e2 84 bf dd 02 3d bf 7b 42 33 bf
       -1.0216922 -1.0381501 -0.73832494 -0.70023316
000110 da c6 f9 be f2 08 12 bf fc ea 78 bf 7f 4c 12 bf
       -0.48784524 -0.570449 -0.9723356 -0.57147974
000120 c6 95 83 bf e1 66 39 bf 47 5f 4d bf ca c7 61 be
       -1.0280082 -0.72422606 -0.80223507 -0.2204887
000130 0e 66 54 bf ee 3b a2 bf 2c c9 6e bd 9d 09 1b bf
       -0.82968223 -1.2674539 -0.05829732 -0.60561544
000140 92 32 50 bf 79 4f 6a bf a7 40 03 c0 98 f0 1f be
       -0.81327164 -0.91527516 -2.050821 -0.15619123
000150 63 eb 4c bf c7 ca 84 bf 13 48 e5 be 6b 78 1b bf
       -0.8004667 -1.0374383 -0.4478155 -0.6073062
000160 13 5b 36 bf fe 61 da be 49 46 ed bf fa b3 75 bf
       -0.7123272 -0.42652887 -1.8537074 -0.9597775
000170 3f b7 df be f8 d8 9b bf 6a 75 d6 be 84 e4 93 bf
       -0.43694493 -1.2175589 -0.41886455 -1.1554112
000180 53 12 a3 bf c8 c1 d1 bf 6f e4 31 bf e8 61 4d bd
       -1.2739967 -1.6387262 -0.69489187 -0.0501422
000190 fe 4e c0 be 25 c2 43 be e8 d2 90 bf 46 47 f8 be
       -0.37560266 -0.19117029 -1.1314363 -0.48491877
0001a0 a9 4f 22 be 9b 62 83 bf 45 e5 c6 3e 70 b3 30 bf
       -0.158507 -1.0264467 0.38846794 -0.690238
0001b0 9f ba 94 bf c9 e2 99 be 60 55 ac be 8a d2 71 bf
       -1.1619452 -0.30055836 -0.33658886 -0.9446188
0001c0 e6 17 0c be f4 b1 71 bf 2d 23 82 bf 8c 01 fe be
       -0.13680992 -0.9441216 -1.0166985 -0.49610555
0001d0 89 fc e1 bf 6b 74 38 3e 0a 11 01 bf 18 de b4 bf
       -1.7655193 0.1801316 -0.50416625 -1.4130278
0001e0 a4 fa 05 bf 42 c8 a6 bf 6a 1a 23 bf 71 7f 89 bf
       -0.5233557 -1.3029864 -0.6371218 -1.0742017
0001f0 f5 44 63 bb f5 c6 0a bf 87 37 a2 bf 6d 26 5e bf
       -0.0034678553 -0.54209834 -1.2673196 -0.86777383

fc2.weight f4 [128, 132]
000000 ca a8 29 bf 2f 83 f5 be a9 e1 be bf e3 c2 8d 3f
       -0.66273177 -0.47951648 -1.4912616 1.10751
000010 5b 1e 18 bf 97 33 cf bf 0d 30 d7 bf 23 f1 19 3f
       -0.5942132 -1.6187619 -1.6811539 0.6013357
000020 97 c2 cf 3d 84 16 20 be 01 e6 32 bf 98 4f af bf
       0.10144537 -0.15633589 -0.6988221 -1.3696165
000030 e2 a8 bb be 3c 33 17 3d 68 2e 94 bd b2 2d 2b be
       -0.36652285 0.036914095 -0.07235414 -0.1671665
000040 18 c0 b9 be 98 9c 33 3f 43 39 24 c0 6b 85 a7 be
       -0.36279368 0.7016082 -2.565995 -0.32718977
000050 24 82 ca bf 64 63 92 be c8 1c 9f bf a0 81 02 bf
       -1.5820966 -0.28591454 -1.2430658 -0.5097904
000060 b7 10 a7 be 17 d2 ae bc 48 3b 5f be 73 09 27 3e
       -0.3262994 -0.021340413 -0.21799958 0.16312198
000070 7d 6c c8 bc cd 11 08 3e b2 6c 5d bf 3c 9a c7 3e
       -0.024465794 0.1328804 -0.8649398 0.3898486
000080 77 cc 4f bf 5f 3c 40 be b4 cd 83 be c5 1c 14 bf
       -0.81171364 -0.1877303 -0.25742877 -0.578564
000090 1d ca 0b bf ac 13 0e be 12 3c 78 bf d0 fd e4 3d
       -0.54605275 -0.13874692 -0.9696666 0.111812234
0000a0 64 36 54 bf 2e 2d 08 bf e9 dd f1 3d 3c 0b b6 3e
       -0.82895494 -0.5319394 0.11809904 0.35555446
0000b0 6f 5c 9d bf fe 27 7e bc 01 0d 99 be d3 0c bb be
       -1.2293833 -0.015512465 -0.29892734 -0.36533222
0000c0 ce 85 8b be 2c 91 fa bf e6 78 11 bf 59 f2 b9 be
       -0.27250522 -1.9575553 -0.568251 -0.3631771
0000d0 f8 84 52 3d bc 0d bf 3c 8a c6 08 bf 99 98 0b bf
       0.05139634 0.023321979 -0.53427947 -0.5452972
0000e0 cc d4 82 bf 04 6a c4 3e 88 69 1e bf 60 f7 80 3f
       -1.022119 0.38362134 -0.6187978 1.0075493
0000f0 b2 2f 0b bf 9c 58 60 3f 63 3e 80 3f bf 66 12 bf
       -0.5436965 0.8763521 1.0019039 -0.5718803
000100 79 3f 16 3f f4 e8 4d be 17 eb a7 bf 55 d3 09 bf
       0.586906 -0.20108396 -1.3118619 -0.5383809
000110 7a f8 09 bf 3d 95 a3 be 9c d4 01 3f e4 81 6e be
       -0.5389477 -0.31949797 0.5071504 -0.23291737
000120 b4 0a 0d bd 4a 61 93 bf 96 46 a7 bf 1b 6a fe 3c
       -0.034434035 -1.1514065 -1.3068416 0.031056454
000130 16 b3 63 3f 43 94 11 bf a6 bb cc be ae fd 25 3f
       0.8894514 -0.56866854 -0.39986914 0.6484021
000140 0d 2f a7 bf df ad e3 be 47 44 5e be 44 d7 07 bf
       -1.3061234 -0.4446859 -0.21705733 -0.53062844
000150 97 6a 0e bd 0b 19 a0 bd 9c 43 89 3d 91 e2 68 bf
       -0.03476962 -0.078172766 0.067023486 -0.9097071
000160 84 fc 3d be 46 fe 77 bf b8 df af be 6d ca 53 bf
       -0.18553358 -0.96872365 -0.3435037 -0.8273075
000170 5a 81 02 3e cf 39 2a 3f 1c 7d 50 bf 81 eb 83 3e
       0.12744656 0.6649446 -0.814409 0.25765613
000180 f7 f2 9a be b3 e4 f0 be 5e eb 22 3f 8c 2d 4e bf
       -0.30263492 -0.47049484 0.6364039 -0.8053825
000190 bd 0f a8 bf 64 a0 07 bf 00 7e 86 be 95 34 87 3f
       -1.3129803 -0.5297911 -0.26268005 1.0562922
0001a0 5f c3 92 bf 8f d2 a6 bf 51 0e 56 3d 8e 1d 5d 3a
       -1.1465873 -1.3033007 0.052259747 0.0008434885
0001b0 54 6e 3b be a1 95 36 bf 59 04 49 bf 29 59 50 bf
       -0.18303806 -0.71322066 -0.7852226 -0.8138605
0001c0 2b 2e e3 be c4 6d 1a bf 02 1a 18 bf 07 84 8b 3e
       -0.4437116 -0.6032374 -0.59414685 0.27249166
0001d0 f3 93 cf 3e 82 20 11 bf 05 e0 73 be 29 e5 15 bf
       0.40542564 -0.5669023 -0.23815925 -0.58552796
0001e0 c8 ca 84 bf cb bf 60 be 87 a6 76 bf 1b 88 a1 be
       -1.0374384 -0.21948163 -0.9634785 -0.31549153
0001f0 c5 44 0b 3f 27 5c 93 3d 8f 16 1d 3f 46 4f 05 bf
       0.5440181 0.07195311 0.61362547 -0.52074087
000200 7d 5c 4f be 89 ea 8d 3e cb 9d 19 bf 21 c6 9c be
       -0.20250125 0.27718 -0.600064 -0.3061991
000210 e5 00 12 3e f9 67 9a bf 78 52 e2 bf ac 78 d9 3d
       0.14258154 -1.206298 -1.7681417 0.106187195
000220 16 5c 83 3c 9f e1 5a c0 64 b7 4a be b4 58 43 bf
       0.016035121 -3.4200208 -0.1979652 -0.76307225
000230 89 e6 c5 3c 5c 55 7e bf a0 1b 59 bf 08 10 b1 bf
       0.02415778 -0.99349 -0.8480778 -1.3833017
000240 e0 70 28 3f 37 30 fe 3e c4 02 85 bf 49 b7 50 3e
       0.65797234 0.4964616 -1.0391469 0.20382418
000250 1b 9d 17 c0 56 fb da 3d c5 e1 16 c0 e6 43 14 3e
       -2.368964 0.1069247 -2.3575299 0.14479026
000260 0b 9e 0a c0 c2 e2 10 3f 45 21 81 bf 72 d1 21 bf
       -2.1658962 0.56596005 -1.0088278 -0.63210213
000270 66 00 3c bc 25 5f 69 bf 79 f6 9e bf 3e 20 9e bf
       -0.011474704 -0.91160804 -1.2418967 -1.235359
000280 c8 dd fc 3e d4 e8 8d bf 84 5e df bd 25 53 58 bd
       0.49387956 -1.1086679 -0.10906699 -0.052813668
000290 f7 86 87 bf df b0 25 bf f9 ac 97 bf c1 c4 11 3f
       -1.0588063 -0.6472301 -1.1849662 0.5694085
0002a0 a4 a8 53 bf 49 35 81 bf fb 6d a0 3e d7 6f e0 be
       -0.826792 -1.0094386 0.31333908 -0.43835327
0002b0 4f 8b aa 3e 43 c9 21 bf 5b f8 bc 3e 3c 4b 9c bf
       0.3330941 -0.63197726 0.3690823 -1.221046
0002c0 30 0b 69 bf 6d a2 6b bf db 27 9b 3e ec eb 9b be
       -0.91032696 -0.9204472 0.30303845 -0.30453432
0002d0 02 ab 95 3f ef 53 09 bf 56 d2 f4 bf 9e 31 63 bf
       1.1692812 -0.536437 -1.912669 -0.88747585
0002e0 f9 a4 6d bf a6 9d 31 bf 3d fc 12 bf 59 b2 1f c0
       -0.92829853 -0.6938118 -0.57416135 -2.4952605
0002f0 59 de 16 3f cb 05 84 3e 8c e8 bc bf c4 bb dc 3e
       0.58933026 0.2578567 -1.4758468 0.43112004
000300 67 a4 ca 3e 3e 37 20 3e 0f 23 09 bf 9d b1 02 3f
       0.39578554 0.15646073 -0.5356912 0.51052266
000310 23 f1 7b 3f 76 b3 5a 3d c9 2d 8b bd 8f ed 8b bf
       0.9841482 0.053393804 -0.06795842 -1.0931872
000320 da 27 b4 be b6 0a a8 3c d2 a5 0f 3f 65 41 e2 bf
       -0.35186654 0.02051292 0.56112397 -1.7676207
000330 0f 3d e3 be 87 01 0b be 82 fb 17 bf 10 c9 1f bf
       -0.44382522 -0.13574801 -0.59368145 -0.6241617
000340 bd b9 91 3e c5 99 62 be 15 72 38 bf 48 1c 52 3f
       0.2846202 -0.22128971 -0.72049075 0.82074404
000350 cf 26 bb bf f8 bd 2c 3e 76 77 67 be 13 85 45 be
       -1.4621218 0.16869342 -0.22604164 -0.19289045
000360 d7 4e 20 bf 53 e1 48 3c db 57 b9 be c6 d5 d9 be
       -0.626203 0.012260753 -0.3619984 -0.4254591
000370 11 1d f5 bd 4f 79 36 3f e7 59 25 be 74 13 bc 3e
       -0.119684346 0.7127885 -0.16147576 0.36733592
000380 4d 91 32 bf f3 b1 88 bf dc 61 d0 bd 7e 38 06 bf
       -0.6975296 -1.0679306 -0.10174915 -0.5242995
000390 6e a1 d9 bd af 50 f3 3e 0a 55 49 be ab 11 d8 bf
       -0.106264934 0.47522494 -0.19661346 -1.6880392
0003a0 90 4b 10 3d 51 14 59 3f 7c 21 53 bf 54 7e 85 3e
       0.035228312 0.84796625 -0.8247297 0.26072943
0003b0 42 bd 08 bf 22 c4 42 bf b1 c9 bc be bf db 37 bf
       -0.53413785 -0.76080525 -0.36872628 -0.7181968
0003c0 7a ba b6 bf a9 d5 16 3e 5b 1f 15 bf 06 de 23 bf
       -1.4275658 0.14729942 -0.5825097 -0.64010656
0003d0 2d a2 05 c0 25 9e 06 3e f6 00 6c 3f 5a 8b a4 be
       -2.0880234 0.13146265 0.92188966 -0.32137567
0003e0 c4 44 f0 bf cb a5 40 3e 3c 5e d0 bf ea 24 8f bf
       -1.8770986 0.18813245 -1.6278758 -1.118314
0003f0 6c d3 c1 bf be e6 b0 3e 2f ac 13 bf 6a 0a 1c bf
       -1.5142646 0.34551042 -0.57684606 -0.6095339

fc2.bias f4 [128]
000000 60 81 15 bf 71 a4 5c bf 6c 01 3b be a0 f5 1e be
       -0.58400536 -0.8618842 -0.18262261 -0.15523386
000010 85 73 27 bd c3 9e 64 3d e9 94 bc be e3 30 03 3f
       -0.040881652 0.05581547 -0.3683236 0.5124647
000020 10 1e 15 be 5d 51 f0 be 33 39 d7 bd ce b6 c8 be
       -0.14562249 -0.46937075 -0.10508957 -0.3920197
000030 a0 fd 31 bf 39 bf ee be 37 43 05 3e ca 6d 92 3e
       -0.69527626 -0.46630266 0.13013922 0.28599387
000040 75 86 cb bd 55 fc 7c bd ce 88 1d be d5 8d ab 3e
       -0.09937755 -0.06176408 -0.15384218 0.33506647
000050 4c ab f1 be 73 ff 76 be b6 2a 81 be 0c 63 56 bf
       -0.47201002 -0.24120884 -0.25227898 -0.83744884
000060 c2 e8 fd bc 2a 7c c0 3f 90 9d 81 be b5 9d cc be
       -0.030994777 1.5037892 -0.25315523 -0.3996407
000070 6e 72 be 3e 21 b9 f8 bf c0 95 bd bd dd 70 04 c0
       0.37196678 -1.9431497 -0.09257078 -2.0693886
000080 21 76 f8 3e 37 dd 04 be c1 d0 c9 be 5a 25 b4 be
       0.48527625 -0.12975012 -0.3941708 -0.35184747
000090 ee 29 fc be c6 0c ed bd 8c 65 14 bf 0f f3 9c be
       -0.4925074 -0.11574702 -0.5796745 -0.3065419
0000a0 1d 1a 39 3d 8f ae 35 bf 53 39 61 be 1f 06 47 be
       0.04519092 -0.7096948 -0.21994524 -0.19435929
0000b0 61 2a 8b 3e 19 95 71 be f5 63 47 3f 59 06 4b be
       0.2718077 -0.23592032 0.778869 -0.1982664
0000c0 e3 dc ce bf 37 7b 38 be 99 da d6 be b6 6f 9b bd
       -1.6161159 -0.18015753 -0.41963652 -0.075896665
0000d0 13 3a 9d be d3 1c 32 be 73 f0 92 bd d8 9b 33 bf
       -0.3070837 -0.17393808 -0.07174768 -0.70159674
0000e0 80 17 2c bf 0a a2 99 be 70 29 4e 3f 69 a5 ab bd
       -0.6722336 -0.30006438 0.8053198 -0.08381159
0000f0 4a 40 12 bd 71 1e c3 be 23 7e b9 be f2 37 f9 be
       -0.035705842 -0.38109162 -0.36229047 -0.48675495
000100 65 e3 0b 3f f9 12 5b be a8 38 4f bf 7c e9 9b 3c
       0.5464385 -0.21393956 -0.80945826 0.019032232
000110 1c 46 69 be ca 20 34 be fb 50 23 bf 98 e8 da bd
       -0.22780651 -0.17590633 -0.6379544 -0.10688895
000120 b7 89 ab bf d1 57 46 bf d2 26 1d be 98 6d 1a be
       -1.3401402 -0.7747775 -0.1534684 -0.15080869
000130 8e 88 6f 3f c1 e1 5b bd f8 71 2d bf 0a 13 9d bf
       0.9356774 -0.053682093 -0.6775203 -1.2271435
000140 a7 8e 49 bf 91 7d 9a be f5 18 59 be 9d a2 4b bf
       -0.78733295 -0.30173925 -0.21200927 -0.79545003
000150 73 d6 37 bf 02 12 74 be dd 1a 3e bf 87 fe e5 be
       -0.718116 -0.23834994 -0.7425974 -0.4492075
000160 b7 e5 10 bf a9 bf 2f 3e e8 fc bc be 7a a1 17 bf
       -0.5660052 0.17162956 -0.36911702 -0.5923077
000170 ec 85 fe be 0e c7 02 3e f2 d1 3c bf b3 11 7f be
       -0.4971155 0.12771246 -0.7375785 -0.24909095
000180 ae 29 4e be 4a 5a 78 bd 60 f9 a6 bf 08 4f 1b be
       -0.20133087 -0.06063298 -1.3044853 -0.15166867
000190 0d 0b 04 bf 2d 00 8e 3f 3e 1e c0 bd dd 05 b3 bd
       -0.5157936 1.1093804 -0.09380768 -0.08741353
0001a0 f0 ea 12 bf b5 48 cf be 60 59 2c bf f3 3d 15 bf
       -0.57389736 -0.4048516 -0.67323875 -0.5829765
0001b0 94 9b 23 bf 77 1f a1 be fb 4f bc 3e 4e 1f 1d be
       -0.6390927 -0.31469318 0.3677977 -0.15343973
0001c0 63 0b 0e 3f ba bc 7b be ed b1 06 bf 49 0f 97 be
       0.55486125 -0.24583712 -0.52615243 -0.2950385
0001d0 44 7e 49 bf 54 e1 0b be 37 90 33 bf 70 95 64 bf
       -0.7870829 -0.13660175 -0.7014193 -0.89290524
0001e0 df eb 18 be 2b 85 f8 be 69 94 1c 3f d2 e9 4a bf
       -0.14933728 -0.485391 0.61163956 -0.7926303
0001f0 7d 57 01 bf da 85 4a bf fe 01 de bd 4e 7b 15 be
       -0.5052412 -0.7911049 -0.10840224 -0.14597818

fc3.weight f4 [1, 128]
000000 1c 17 2d 39 1f 4c 24 3b bd 0e a6 38 b6 ad d4 bc
       0.00016507175 0.0025069786 7.918242e-05 -0.025961738
000010 2c a1 84 3d 67 74 46 bd a1 6b 82 3d 56 9b a0 bc
       0.064760536 -0.048450854 0.06368185 -0.01960532
000020 f4 59 a5 bc ac 20 e9 bb d5 6c 1a 3d 57 f9 9c bc
       -0.020184495 -0.0071144905 0.037701447 -0.019161863
000030 78 ac 8a bd d2 96 08 3d d2 5b 9c 3c 0c f7 cb 3d
       -0.06771177 0.03334696 0.019086752 0.0995923
000040 de 83 25 bd 9a e7 d9 bb 86 53 e9 3d bf f5 82 3d
       -0.04040896 -0.0066499235 0.11392884 0.063945286
000050 c3 81 2f 3d f9 14 13 3c 2e b6 e7 bc 6b a1 41 3d
       0.04284836 0.008977168 -0.028285112 0.04727308
000060 99 7d 60 3d e3 9f 60 3d 34 b3 08 3e ce 71 c2 3b
       0.05480728 0.05483998 0.1334961 0.0059339767
000070 49 e3 0a 3d 05 09 bd 3d 6a 44 c1 bc 19 2f 55 bd
       0.033908162 0.09230236 -0.023592193 -0.05204687
000080 39 83 d1 3c 0f 44 76 bc b0 2a 07 3e ad 25 8b bd
       0.025575267 -0.015030875 0.13199878 -0.067942955
000090 e6 3b c2 3c 67 40 ba 3b 4c 7e b1 3d bf d1 60 bc
       0.023710202 0.005683947 0.08666667 -0.013721882
0000a0 fe 21 16 bd 96 06 e7 bc 4e 82 54 3c 14 36 69 3c
       -0.03665351 -0.028201383 0.01297052 0.014234085
0000b0 78 96 83 3d 12 14 cd bc 9a c3 d8 3c 21 d2 9a 3c
       0.06425184 -0.025033984 0.026460458 0.018899025
0000c0 d1 e6 3f bd 13 9f 27 bd 38 9e eb bc 3f 04 87 3b
       -0.046850983 -0.04092319 -0.028761968 0.004120379
0000d0 60 c3 24 3e 3d 4e 25 bb 21 a0 b6 3b 86 f0 37 3d
       0.16090155 -0.0025223636 0.005573288 0.044907115
0000e0 74 07 6c 3c 9e 50 b9 bc 76 40 87 bd 0c 5a c3 3c
       0.014406074 -0.02262145 -0.06604092 0.023846649
0000f0 fa 7c 1e 3d e1 ca 2b 3d 76 f8 80 bd 18 58 be bd
       0.038693406 0.041941527 -0.0629739 -0.09294146
000100 56 43 9b bc c1 e6 f2 bd d4 4d 8f 3d 0a 7d 4d bd
       -0.018953007 -0.11860419 0.069972664 -0.050168075
000110 27 d2 b4 3c 75 4c 00 3c 90 53 18 bc a9 61 93 3c
       0.022072865 0.007830729 -0.009297267 0.017990904
000120 69 ac 65 bd 73 8a 9c bd f8 ba cd 3c 59 a1 d2 3b
       -0.056072626 -0.076435946 0.025113568 0.0064279255
000130 a3 eb 52 bd 45 d7 13 bc e9 1e 35 bd a7 65 f2 bd
       -0.051494252 -0.009023492 -0.04421893 -0.11835795
000140 46 7e b1 3d 5f d8 8c bc d9 f0 e9 bc f7 85 91 3d
       0.08666663 -0.017193018 -0.028557228 0.0710563
000150 62 56 8f 3c 39 93 a3 3c ed d2 e3 bc 8a 19 a5 ba
       0.017497245 0.019967662 -0.027810538 -0.0012596112
000160 d2 f6 b3 3d 86 d4 48 bd 6b ec 5d bd 5a 09 21 bd
       0.087873116 -0.049030803 -0.054180544 -0.03931556
000170 35 30 d9 bc e9 94 fe bc 74 f5 0b bd 9d 01 8e 3c
       -0.026512245 -0.031076865 -0.03416963 0.017334754
000180 af c0 59 3d d9 9b e7 3a 31 fa 17 3d a9 81 6a bc
       0.053162273 0.0017670348 0.037103835 -0.01431314
000190 04 f5 8b bd a1 72 a5 bd 5c a3 66 3d d4 b6 af 3c
       -0.068338424 -0.08078504 0.056308135 0.021449484
0001a0 94 25 e0 bc 6c 33 cd 3c a9 da c9 3c 0d 17 b0 bd
       -0.027361669 0.025048934 0.024640398 -0.085981466
0001b0 e4 88 c0 bc 59 97 7c bd a0 c6 35 3c c1 11 8e 3c
       -0.023502775 -0.061667774 0.011094719 0.01734245
0001c0 e4 76 2e bd ec f9 c9 3c cb 18 99 3b ef 5b b8 bd
       -0.04259385 0.024655305 0.004672145 -0.0900191
0001d0 1a 85 93 bc 72 30 6b 3d 2c 56 b7 3c 86 09 5b 3d
       -0.018007804 0.057419248 0.022379957 0.05347588
0001e0 1c c6 58 3d 85 6c 5f bb b9 8c 30 bd 11 b1 16 bd
       0.052923307 -0.0034091782 -0.043102954 -0.036789957
0001f0 d5 b9 97 3b d8 5f 51 3c 13 02 af 3d 40 d3 fd 3b
       0.004630307 0.012779199 0.085453175 0.00774613
