project3-collaboration/results/maddpg_critic_reacher_0_session_default.pth (torch_old, 96211 bytes, 9 tensors)

bn0.weight f4 [48]
000000 fe f6 fd 3d 53 4b 1a 3e 57 d3 d2 3b 41 a6 66 3c
       0.12400626 0.15067796 0.006433885 0.014077724
000010 49 eb 41 3f b9 9c ea 3e d8 13 a3 3d 11 2b 58 3d
       0.7574964 0.45822695 0.07962769 0.052775446
000020 cc 4d fb 3b 79 36 26 bb 2d 7a be 3d 52 09 ef 3d
       0.007669186 -0.0025362058 0.09300647 0.116716996
000030 4d 14 c7 3e d8 ac 59 bb d6 2b ea ba 17 c1 1d 3c
       0.38882676 -0.0033214595 -0.0017865847 0.009628556
000040 9b e8 50 3f 3a 5f be 3e ed 03 d2 3c 18 de fc 3b
       0.8160493 0.37182027 0.025636638 0.0077169053
000050 75 1a a0 3f 88 ff 3e 3f 76 27 0b 3e 63 43 8d 3e
       1.2508074 0.7460866 0.13589272 0.27590474
000060 a4 8c c2 3d 17 53 29 3e 0a 60 38 3d f3 31 63 3c
       0.09499481 0.16535603 0.045013465 0.013866889
000070 2f cc f1 3e 1d de 51 bc 43 17 be bb 36 ac a9 3d
       0.47226092 -0.012809304 -0.005801113 0.082848
000080 c4 ec e5 3a 54 5e 3d 3b cd e9 3f bb 9e aa 9e 3c
       0.0017541875 0.0028895335 -0.0029283643 0.019368466
000090 aa fe 5a 3e aa 1e c6 3e 30 60 b3 3d 1a 7e 83 3d
       0.21386209 0.3869527 0.08758581 0.06420536
0000a0 94 17 f3 3e 58 7f c6 3e c5 7e 61 bb 84 1b 24 bb
       0.47478926 0.3876903 -0.0034407836 -0.0025040815
0000b0 2d 09 f9 3e e9 25 1c 3c 90 38 a8 3d 94 c2 83 3e
       0.48639813 0.009530523 0.082139134 0.2573439

bn0.bias f4 [48]
000000 f7 1c 85 3d 42 50 d7 bc 41 2d af 3b 9f 3c c2 ba
       0.06499665 -0.026283387 0.005345971 -0.0014819092
000010 29 2c c8 3d ab 2d c6 3e 62 6e 18 3d 23 35 19 bc
       0.09774048 0.38706717 0.037214644 -0.009351048
000020 58 13 ad 39 08 a2 12 3a b2 7e 25 3d 1f 12 18 bd
       0.00033011544 0.00055936025 0.04040403 -0.037126657
000030 07 83 11 3f eb 1b f3 3a 1c 51 43 bb 6c 8d 28 bb
       0.56840557 0.0018547749 -0.0029802984 -0.002571906
000040 60 fa 10 be 32 6b b4 be 70 55 ce 39 21 bd 34 3a
       -0.1415801 -0.35238034 0.00039355038 0.00068946375
000050 61 75 21 3e 09 2f 63 3f f9 5e b5 3c 2c cd ad bd
       0.15767433 0.88743645 0.022140013 -0.08486399
000060 10 9e 5b 3d 7b 86 e1 bd 09 5c 95 3b fd f9 da bb
       0.053617537 -0.11011978 0.0045580906 -0.006682633
000070 5e c8 c1 bd 2a 8f e6 3b 15 bb 79 bc c6 6d b1 3a
       -0.09462045 0.0070361095 -0.015242358 0.0013536743
000080 93 0c 54 bb de a2 fe 3b 36 95 04 bb 01 34 10 3c
       -0.0032356128 0.00777088 -0.0020230538 0.008801461
000090 66 8d 7b be 71 a2 b7 3e 16 2e 30 3d df a1 89 bc
       -0.24565658 0.3586612 0.0430127 -0.016800819
0000a0 64 63 61 be 47 a4 78 3d db 5d 30 bc 66 3a e5 3a
       -0.22010571 0.060703542 -0.010764564 0.0017488718
0000b0 ad e4 0a bf a2 11 d4 bb 64 b4 6d 3d 85 bb 50 bd
       -0.5425518 -0.0064718286 0.058033362 -0.050960083

bn0.running_mean f4 [48]
000000 68 df 80 c0 34 b4 6a be a9 04 67 41 2c 95 b0 3c
       -4.0272713 -0.22920305 14.438638 0.021555506
000010 da 6a ac 3e 8a f4 80 40 a9 04 67 41 2c 95 b0 3c
       0.3367527 4.029851 14.438638 0.021555506
000020 d3 40 83 c0 0b fa 64 be db 08 62 41 84 bf 30 3c
       -4.101663 -0.22361009 14.127162 0.010787848
000030 d4 7b a0 3e 03 d4 80 40 db 08 62 41 84 bf 30 3c
       0.31344473 4.0258803 14.127162 0.010787848
000040 0a b3 84 c0 df 34 69 be ed e6 64 41 68 6b 86 bd
       -4.1468554 -0.22774075 14.306378 -0.06563455
000050 db c7 8c 3e 03 df 80 40 ed e6 64 41 68 6b 86 bd
       0.27496228 4.027223 14.306378 -0.06563455
000060 af fe b6 c0 81 45 14 bf b3 dd 1b 41 71 ce c1 bd
       -5.7185893 -0.57918555 9.741626 -0.09463204
000070 da 6a ac be 8a f4 80 40 b3 dd 1b 41 71 ce c1 bd
       -0.3367527 4.029851 9.741626 -0.09463204
000080 a4 90 b7 c0 ae ff 12 bf 63 ac 16 41 bc 4d 60 bd
       -5.7364063 -0.57421386 9.417087 -0.054761633
000090 d4 7b a0 be 03 d4 80 40 63 ac 16 41 bc 4d 60 bd
       -0.31344473 4.0258803 9.417087 -0.054761633
0000a0 7d 57 b8 c0 b0 cf 13 bf c0 31 16 41 14 cc 03 be
       -5.7606797 -0.5773878 9.387146 -0.12870818
0000b0 db c7 8c be 03 df 80 40 c0 31 16 41 14 cc 03 be
       -0.27496228 4.027223 9.387146 -0.12870818

bn0.running_var f4 [48]
000000 8c 7c 93 41 a5 bb 50 3f d6 0f f8 43 d4 98 8b 41
       18.435814 0.8153632 496.12372 17.449623
000010 c3 16 d5 41 df 84 02 40 d6 0f f8 43 d4 98 8b 41
       26.636114 2.0393598 496.12372 17.449623
000020 eb ce 94 41 55 90 4f 3f d8 73 fd 43 f8 8f 8d 41
       18.601034 0.8107961 506.90503 17.695297
000030 89 77 d7 41 e2 ef 02 40 d8 73 fd 43 f8 8f 8d 41
       26.933367 2.0458913 506.90503 17.695297
000040 7b ef 91 41 f8 3b 53 3f f7 65 fb 43 d0 44 8b 41
       18.241934 0.8251338 502.7966 17.4086
000050 13 88 db 41 6e 25 03 40 f7 65 fb 43 d0 44 8b 41
       27.441442 2.0491595 502.7966 17.4086
000060 12 b2 9e 41 59 ff 8a 3f 63 17 f1 43 4a 97 7f 41
       19.836948 1.0859176 482.1827 15.974436
000070 c3 16 d5 41 df 84 02 40 63 17 f1 43 4a 97 7f 41
       26.636114 2.0393598 482.1827 15.974436
000080 52 e1 9e 41 73 f6 8a 3f 24 40 f5 43 5e ee 78 41
       19.86002 1.085646 490.5011 15.558195
000090 89 77 d7 41 e2 ef 02 40 24 40 f5 43 5e ee 78 41
       26.933367 2.0458913 490.5011 15.558195
0000a0 bf 15 9d 41 43 23 8b 3f a1 be f4 43 a6 59 7d 41
       19.635618 1.0870136 489.4893 15.834387
0000b0 13 88 db 41 6e 25 03 40 a1 be f4 43 a6 59 7d 41
       27.441442 2.0491595 489.4893 15.834387

fc1.weight f4 [128, 48]
000000 ea 97 32 bf e1 db e4 3d d5 4d ae bd b7 ed b6 bc
       -0.6976305 0.11174751 -0.08510939 -0.022330148
000010 85 3c 96 3e 79 3b b2 3e ff f7 ec 3e 00 11 52 3d
       0.29343048 0.34811 0.46282956 0.051285744
000020 e4 04 88 bd 16 c8 26 3e 4f 55 f1 be 4b b6 49 bd
       -0.06641558 0.16287264 -0.47135398 -0.049246114
000030 2a f8 c2 3d 8d b0 2b bd 4c 7a 1d bd 21 23 ad 3c
       0.0951999 -0.04191642 -0.03844671 0.021134915
000040 ec 3a 19 3f 69 83 a1 bd 23 b7 b3 3d 56 4d 27 be
       0.5985553 -0.078863926 0.08775165 -0.16338095
000050 60 8d be be a2 98 98 bf 96 c1 59 bf b3 7e 01 3d
       -0.37217236 -1.192158 -0.85061014 0.03161497
000060 85 ec b9 3e 2e 52 7c be de 26 3d 3e 67 96 22 be
       0.36313263 -0.24640724 0.18471858 -0.15877686
000070 34 be 42 be 5b 67 d6 3d 4c ca f1 3d 80 f9 37 be
       -0.19017869 0.10468932 0.11806163 -0.1796627
000080 70 ca 27 3d 8b b8 49 3e 0b c0 23 be 2e 52 54 3c
       0.040964544 0.19699304 -0.15991227 0.012959046
000090 fa 38 65 bd e2 b9 ca 3e af da 40 3e 25 16 47 3d
       -0.05596254 0.39594942 0.18833421 0.048605103
0000a0 18 8e 23 3e 15 ea b8 bc 19 11 10 be 40 85 cd 3b
       0.15972173 -0.022572557 -0.14069022 0.006271988
0000b0 52 4e 80 3e 56 7b e3 3a d4 9a 2e bf ce 6a 99 be
       0.25059754 0.0017355483 -0.68205 -0.29964298
0000c0 28 4a 47 3c 17 a4 6d be 7d 9f 5b bd 64 9f 63 bc
       0.012163676 -0.23207127 -0.053618897 -0.013892982
0000d0 9c 8f cd 3d c2 bc 70 3e 81 9a f8 be 95 6c 32 3e
       0.10037157 0.23509505 -0.48555377 0.17424233
0000e0 70 d2 94 bc 35 0a 6e 3d 91 1c 0d bf 65 d2 42 be
       -0.01816675 0.058115203 -0.55121714 -0.19025572
0000f0 78 ea 1a bd e0 ac 52 3d 89 2c a5 bb 64 17 7a 3d
       -0.037821263 0.051434398 -0.0050407094 0.061057463
000100 82 8a 2b 3f 50 ff 15 bf f7 85 8d bd 2f 49 79 be
       0.6700822 -0.585927 -0.069103174 -0.24344324
000110 3f 5d de be 80 42 a1 bd 47 70 da be 16 2f 4b 3d
       -0.43430516 -0.07874012 -0.42663786 0.04960545
000120 1a 8a ed be 40 fb db 3e 7c 29 46 3e 3c 44 11 be
       -0.46394426 0.42965126 0.19351763 -0.14186186
000130 d6 0f 86 be 9b ad 26 3a 46 81 21 3c 88 d4 48 3e
       -0.26183957 0.00063582667 0.009857481 0.19612324
000140 2d 35 95 bd f6 a6 94 bc 94 e6 1b 3e f9 c5 0c bd
       -0.07285533 -0.01814602 0.15224677 -0.03436849
000150 0b 0a 1a be e1 2a f7 3e bf 76 9c 3e 21 42 1c be
       -0.15042894 0.48274902 0.30559346 -0.15259601
000160 76 70 30 bd 48 ac 0a bc 10 37 49 bd a5 85 c2 3d
       -0.043076 -0.008463927 -0.049124777 0.09498147
000170 b3 73 b1 3e e3 81 fc 3b d7 68 01 bf c8 fb 0d 3e
       0.34658584 0.0077059134 -0.505506 0.13865578
000180 8c bb 29 3f 3c 86 68 be 3f ca b0 3c 99 56 22 3c
       0.663018 -0.22707456 0.021580813 0.009908342
000190 68 32 93 be 37 0f ab 3f dc 5d 59 3c 98 66 35 3d
       -0.28749394 1.3364018 0.013267007 0.044287294
0001a0 c4 28 05 be 57 3c f0 3d ba 06 4a 3f 59 0e 3c bc
       -0.13003832 0.11730259 0.78916514 -0.01147803
0001b0 cc c5 02 bf e9 bf d0 3d 19 17 0f be 06 f5 40 3b
       -0.51083064 0.10192854 -0.13973655 0.002944292
0001c0 36 09 ed bd 94 29 d5 3d 7b 9c 87 bc 4c 77 3c be
       -0.115740225 0.10408321 -0.016554108 -0.18404883
0001d0 a7 b0 80 3f 30 32 d2 be 5d 1a b9 3e c6 6d a7 3d
       1.005391 -0.41053915 0.36152926 0.081752345
0001e0 48 c0 4d bf c2 47 94 3f 74 2d a4 be a4 6c 07 be
       -0.8037152 1.1584399 -0.32065928 -0.13225037
0001f0 54 36 e9 3e 70 53 4b 3c 54 50 c0 3d 1a 4c bb bb
       0.45549262 0.01241003 0.093903214 -0.005715859
000200 eb 37 72 3d ec 63 c7 bd c8 1a 61 bc 16 1a 6f 3d
       0.05913536 -0.097358555 -0.013739295 0.058374487
000210 bc 54 9b 3e 16 d7 03 3f f1 8b 40 bf f6 55 a3 bd
       0.30338085 0.5150007 -0.75213534 -0.0797538
000220 38 b3 7b 3d 69 e1 dd bc 6b 9f 24 3e 54 7b e6 bd
       0.061450213 -0.027085023 0.16076438 -0.11253992
000230 a0 87 8b be 10 e1 92 bd 19 b5 38 3f ba 3e e0 3e
       -0.2725191 -0.071718335 0.72151333 0.43797857
000240 67 a5 15 bf 82 1a 75 be 91 35 2b be c5 39 2b 3d
       -0.5845551 -0.23935893 -0.16719653 0.04180314
000250 50 54 a1 3d 7d 16 da 3e 7d 98 df 3d ed 6d 25 3e
       0.078774095 0.42595282 0.10917757 0.16155215
000260 1f 23 59 bd 5a 53 9c bd 46 8d 28 bf 82 0b 27 bf
       -0.05301201 -0.076330855 -0.65840566 -0.65251935
000270 97 68 72 bf 9e df 3c be 0b 0d 61 3e 5f ca e7 3d
       -0.9469084 -0.18444678 0.21977632 0.11317896
000280 6b 6f b2 3b d1 c3 91 bf 00 32 51 3e 7e 7d 9f 3d
       0.005445411 -1.1387883 0.2042923 0.077876076
000290 f9 68 92 3d b6 52 87 be 5d 81 12 3d 40 ab ce bf
       0.07148928 -0.2643029 0.0357679 -1.6146011
0002a0 bf c9 7c 3f f3 2f 17 3f de 4c df bd b6 9a 4e 3e
       0.9874534 0.5905754 -0.10903333 0.20176205
0002b0 8f 61 92 bd 16 5f c8 bd 2e 35 c0 3c 88 d7 80 3f
       -0.07147514 -0.09783761 0.023462858 1.0065775
0002c0 10 f8 10 be 6c e2 57 be 01 e2 1e 3e f4 79 0b be
       -0.14157128 -0.21082467 0.15515901 -0.1362074
0002d0 ed b2 f6 3e e9 ff 5a 3e 68 eb fc be 31 58 7c be
       0.48183385 0.21386684 -0.4939835 -0.24643017
0002e0 f5 21 6f 3d 39 32 e4 3d a7 d7 08 3d 2c 70 d6 3d
       0.058381993 0.11142392 0.033408787 0.10470614
0002f0 47 f2 e4 3e 0f 1e ed bd 2e 84 0d bf 64 35 fe be
       0.44716093 -0.11577999 -0.55279815 -0.4965011
000300 09 0a c5 3f 2b c3 36 40 28 9c 96 3d a6 c9 13 bd
       1.5393687 2.855662 0.07354003 -0.03608098
000310 b7 7d ef be 87 9b ae bf 42 bf aa be 46 f9 de 3f
       -0.467756 -1.3641213 -0.33349043 1.7419822
000320 a4 cf 84 bd e3 2c 7f 3e 17 46 37 3d 16 bc b5 3f
       -0.06484917 0.24919467 0.044744577 1.4198024
000330 74 18 1d bf 26 b2 c4 bc 88 36 76 3c 96 67 19 bd
       -0.6136544 -0.024010729 0.01502765 -0.037452303
000340 30 a1 54 be 57 64 77 bf 58 8a 11 3e 5a 61 97 bd
       -0.20764613 -0.9663748 0.1421293 -0.07391615
000350 f2 c9 3b 3f 77 4c e7 3f 95 ab 2c 3f 96 45 1b 3f
       0.7335502 1.807021 0.67449313 0.60653055
000360 f1 18 21 40 2e 2a 71 40 fb f9 2f bf 69 51 6d be
       2.5171473 3.7681994 -0.68740815 -0.23175587
000370 ab 79 ed 3e e4 2f 73 3c 2f 6e f9 bd b9 dc aa 3f
       0.46381888 0.014842961 -0.12179219 1.3348609
000380 c2 ea 59 bd f4 29 55 3d d1 c3 47 bd 77 8a df 3d
       -0.053202398 0.052041963 -0.04877073 0.10915082
000390 6d 25 5d 3e 07 ca be bf 33 53 fb 3e 48 4d 15 40
       0.21596308 -1.4905404 0.49086913 2.3328419
0003a0 ae e7 35 bf c4 39 d4 bf a9 1a b8 3d 44 31 bc bc
       -0.7105664 -1.6580129 0.0898946 -0.02297271
0003b0 5e 3d 83 3e 0b ac 08 3e 39 3a 89 be d4 e9 49 3f
       0.25632757 0.13346879 -0.26802233 0.7887242
0003c0 ce 66 df 3e 95 7c 16 3f c1 25 2f 3d 1f 4f d8 3c
       0.4363312 0.5878385 0.042760614 0.026404915
0003d0 98 c4 44 3f 1b 61 28 be db 1a bd 3d e1 a1 68 3e
       0.7686248 -0.16443293 0.09233638 0.22718002
0003e0 52 a9 ed 3d 99 fe 77 bd 91 80 a5 3e a7 65 93 3e
       0.11604561 -0.060545538 0.3232465 0.28788492
0003f0 21 9b 25 bd 18 4a bc bc 9d 41 64 bd 10 96 b6 bd
       -0.040431146 -0.02298455 -0.055726636 -0.08915341

fc1.bias f4 [128]
000000 6e 18 eb bc 4b f1 84 3c 74 88 a9 bf 8b b1 6b bf
       -0.028698172 0.016228339 -1.3244767 -0.92067784
000010 1a 05 f1 bf 79 25 0e bf 86 c4 a6 3e 1e fd ca be
       -1.8829682 -0.5552593 0.3257181 -0.39646238
000020 43 ef 10 bf 0a 63 e3 be e0 3b 08 bf a9 f3 39 3e
       -0.56615084 -0.44411498 -0.5321636 0.18159355
000030 33 5e e6 bf a8 a8 9c be d6 40 e7 bf 77 6b 5f bf
       -1.7997497 -0.30597425 -1.8066661 -0.87273353
000040 ef f3 38 bf 1e be c2 be 74 d5 83 bf 2e aa 15 be
       -0.72247213 -0.38035673 -1.0299516 -0.146157
000050 da a4 e7 be f5 03 e7 bf 9e 66 54 bf 0e 74 6d bf
       -0.4524296 -1.8048083 -0.8296908 -0.9275521
000060 86 9c 67 bf 0e 4f 28 bf 40 6b 88 bf 78 51 14 bf
       -0.9047321 -0.6574563 -1.065773 -0.5793681
000070 29 1d fd bc 65 45 34 bf 0d 97 13 bf 88 5f 95 bf
       -0.030897694 -0.7041839 -0.5765236 -1.1669779
000080 28 9c 5e be 70 a8 01 3e e9 ca 79 bf ee 19 b1 bf
       -0.21739256 0.1266191 -0.9757524 -1.3836038
000090 a5 0d eb be c2 fb 02 c0 d2 c2 0d bf 08 65 da be
       -0.45908847 -2.046616 -0.553754 -0.42655206
0000a0 35 95 eb be c7 8d 1a bf 29 08 5a bf 88 52 a0 bf
       -0.46012273 -0.60372585 -0.851687 -1.2525187
0000b0 00 0b bd be 3a f7 e3 be 44 25 41 bf ef 17 c1 be
       -0.36922455 -0.44524556 -0.7544749 -0.37713572
0000c0 36 57 67 bf 13 4a d0 be d2 0e a2 bf db db 1c bf
       -0.9036745 -0.40681514 -1.2660773 -0.6127297
0000d0 9e 25 18 bf 0a 20 94 bf f8 32 87 3e 71 6e 1f bf
       -0.594324 -1.1572278 0.26406074 -0.62277895
0000e0 f6 a4 ab bf 7d c7 79 bd af ab 0a bf ed 23 38 bf
       -1.3409717 -0.060981262 -0.5416822 -0.7192982
0000f0 fe 2b 31 bf 04 22 6c bf 7c 82 c6 bf df 61 80 bf
       -0.6920775 -0.92239404 -1.5508571 -1.0029868
000100 64 52 80 bf f5 c1 68 bf 56 38 3f bf a1 58 33 bf
       -1.0025144 -0.90920955 -0.74695337 -0.7005711
000110 ef 6c f6 be fc 5c 12 bf b4 36 75 bf 02 57 13 bf
       -0.48129985 -0.5717313 -0.95786595 -0.5755464
000120 d4 7a 7f bf 6b 6f 3b bf e5 ef 4d bf 81 04 68 be
       -0.99796796 -0.73216885 -0.80444175 -0.22657968
000130 73 76 4a bf ff 5f 9b bf ba 09 83 bd 28 38 13 bf
       -0.7908699 -1.2138671 -0.063983396 -0.5750756
000140 90 96 36 bf 23 f4 6c bf 24 b5 fc bf 9c 3e 17 be
       -0.7132349 -0.92560023 -1.974278 -0.14769977
000150 24 60 4a bf 31 7f 72 bf 30 4d c5 be 7d e3 14 bf
       -0.7905295 -0.9472533 -0.38535452 -0.5815962
000160 89 d7 23 bf 2f 22 cf be cd 62 e5 bf a7 58 65 bf
       -0.64000756 -0.40455768 -1.7920777 -0.895884
000170 f9 7e ea be e0 44 96 bf a0 9a b7 be e7 e1 90 bf
       -0.45799997 -1.1739769 -0.35860157 -1.131894
000180 dd 8b 9e bf c9 19 cb bf 2d 9b 2f bf dd 91 9c bd
       -1.2386433 -1.5867244 -0.68596154 -0.07645009
000190 b6 2c d2 be 29 b0 71 be a5 79 96 bf 22 f3 d7 be
       -0.41049737 -0.23602356 -1.1755873 -0.42177683
0001a0 72 ca 08 be 30 bb 71 bf 94 a1 e2 3e cd 1b 39 bf
       -0.13358477 -0.9442625 0.442639 -0.72308046
0001b0 04 2e 87 bf 0d 8b 89 be 3c cd 86 be 3d ca 71 bf
       -1.0560918 -0.268639 -0.26328456 -0.94449216
0001c0 d0 b6 ca bd d5 a0 63 bf 23 39 72 bf f8 8e 06 bf
       -0.0989815 -0.88917285 -0.94618434 -0.52561903
0001d0 30 db dc bf a5 61 22 3e 18 22 f4 be df 36 ab bf
       -1.7254391 0.15857561 -0.4768226 -1.337612
0001e0 f6 56 f2 be 49 09 9b bf f3 84 1f bf 37 21 87 bf
       -0.4733197 -1.2112209 -0.6231224 -1.0557011
0001f0 d0 60 c0 bc 38 38 03 bf 15 b3 9f bf 89 d6 46 bf
       -0.023483664 -0.5125766 -1.2476526 -0.77671105

fc2.weight f4 [128, 132]
000000 ca a8 29 bf 2f 83 f5 be a9 e1 be bf e3 c2 8d 3f
       -0.66273177 -0.47951648 -1.4912616 1.10751
000010 5b 1e 18 bf 97 33 cf bf 0d 30 d7 bf 23 f1 19 3f
       -0.5942132 -1.6187619 -1.6811539 0.6013357
000020 97 c2 cf 3d 84 16 20 be 01 e6 32 bf 98 4f af bf
       0.10144537 -0.15633589 -0.6988221 -1.3696165
000030 e2 a8 bb be 3c 33 17 3d 68 2e 94 bd b2 2d 2b be
       -0.36652285 0.036914095 -0.07235414 -0.1671665
000040 18 c0 b9 be 98 9c 33 3f 43 39 24 c0 6b 85 a7 be
       -0.36279368 0.7016082 -2.565995 -0.32718977
000050 24 82 ca bf 64 63 92 be c8 1c 9f bf a0 81 02 bf
       -1.5820966 -0.28591454 -1.2430658 -0.5097904
000060 b7 10 a7 be 17 d2 ae bc 48 3b 5f be 73 09 27 3e
       -0.3262994 -0.021340413 -0.21799958 0.16312198
000070 7d 6c c8 bc cd 11 08 3e b2 6c 5d bf 3c 9a c7 3e
       -0.024465794 0.1328804 -0.8649398 0.3898486
000080 77 cc 4f bf 5f 3c 40 be b4 cd 83 be c5 1c 14 bf
       -0.81171364 -0.1877303 -0.25742877 -0.578564
000090 1d ca 0b bf ac 13 0e be 12 3c 78 bf d0 fd e4 3d
       -0.54605275 -0.13874692 -0.9696666 0.111812234
0000a0 64 36 54 bf 2e 2d 08 bf e9 dd f1 3d 3c 0b b6 3e
       -0.82895494 -0.5319394 0.11809904 0.35555446
0000b0 6f 5c 9d bf fe 27 7e bc 01 0d 99 be d3 0c bb be
       -1.2293833 -0.015512465 -0.29892734 -0.36533222
0000c0 ce 85 8b be 2c 91 fa bf e6 78 11 bf 59 f2 b9 be
       -0.27250522 -1.9575553 -0.568251 -0.3631771
0000d0 f8 84 52 3d bc 0d bf 3c 8a c6 08 bf 99 98 0b bf
       0.05139634 0.023321979 -0.53427947 -0.5452972
0000e0 cc d4 82 bf 04 6a c4 3e 88 69 1e bf 60 f7 80 3f
       -1.022119 0.38362134 -0.6187978 1.0075493
0000f0 b2 2f 0b bf 9c 58 60 3f 63 3e 80 3f bf 66 12 bf
       -0.5436965 0.8763521 1.0019039 -0.5718803
000100 79 3f 16 3f f4 e8 4d be 17 eb a7 bf 55 d3 09 bf
       0.586906 -0.20108396 -1.3118619 -0.5383809
000110 7a f8 09 bf 3d 95 a3 be 9c d4 01 3f e4 81 6e be
       -0.5389477 -0.31949797 0.5071504 -0.23291737
000120 b4 0a 0d bd 4a 61 93 bf 96 46 a7 bf 1b 6a fe 3c
       -0.034434035 -1.1514065 -1.3068416 0.031056454
000130 16 b3 63 3f 43 94 11 bf a6 bb cc be ae fd 25 3f
       0.8894514 -0.56866854 -0.39986914 0.6484021
000140 0d 2f a7 bf df ad e3 be 47 44 5e be 44 d7 07 bf
       -1.3061234 -0.4446859 -0.21705733 -0.53062844
000150 97 6a 0e bd 0b 19 a0 bd 9c 43 89 3d 91 e2 68 bf
       -0.03476962 -0.078172766 0.067023486 -0.9097071
000160 84 fc 3d be 46 fe 77 bf b8 df af be 6d ca 53 bf
       -0.18553358 -0.96872365 -0.3435037 -0.8273075
000170 5a 81 02 3e cf 39 2a 3f 1c 7d 50 bf 81 eb 83 3e
       0.12744656 0.6649446 -0.814409 0.25765613
000180 f7 f2 9a be b3 e4 f0 be 5e eb 22 3f 8c 2d 4e bf
       -0.30263492 -0.47049484 0.6364039 -0.8053825
000190 bd 0f a8 bf 64 a0 07 bf 00 7e 86 be 95 34 87 3f
       -1.3129803 -0.5297911 -0.26268005 1.0562922
0001a0 5f c3 92 bf 8f d2 a6 bf 51 0e 56 3d 8e 1d 5d 3a
       -1.1465873 -1.3033007 0.052259747 0.0008434885
0001b0 54 6e 3b be a1 95 36 bf 59 04 49 bf 29 59 50 bf
       -0.18303806 -0.71322066 -0.7852226 -0.8138605
0001c0 2b 2e e3 be c4 6d 1a bf 02 1a 18 bf 07 84 8b 3e
       -0.4437116 -0.6032374 -0.59414685 0.27249166
0001d0 f3 93 cf 3e 82 20 11 bf 05 e0 73 be 29 e5 15 bf
       0.40542564 -0.5669023 -0.23815925 -0.58552796
0001e0 c8 ca 84 bf cb bf 60 be 87 a6 76 bf 1b 88 a1 be
       -1.0374384 -0.21948163 -0.9634785 -0.31549153
0001f0 c5 44 0b 3f 27 5c 93 3d 8f 16 1d 3f 46 4f 05 bf
       0.5440181 0.07195311 0.61362547 -0.52074087
000200 7d 5c 4f be 89 ea 8d 3e cb 9d 19 bf 21 c6 9c be
       -0.20250125 0.27718 -0.600064 -0.3061991
000210 e5 00 12 3e f9 67 9a bf 78 52 e2 bf ac 78 d9 3d
       0.14258154 -1.206298 -1.7681417 0.106187195
000220 16 5c 83 3c 9f e1 5a c0 64 b7 4a be b4 58 43 bf
       0.016035121 -3.4200208 -0.1979652 -0.76307225
000230 89 e6 c5 3c 5c 55 7e bf a0 1b 59 bf 08 10 b1 bf
       0.02415778 -0.99349 -0.8480778 -1.3833017
000240 e0 70 28 3f 37 30 fe 3e c4 02 85 bf 49 b7 50 3e
       0.65797234 0.4964616 -1.0391469 0.20382418
000250 1b 9d 17 c0 56 fb da 3d c5 e1 16 c0 e6 43 14 3e
       -2.368964 0.1069247 -2.3575299 0.14479026
000260 0b 9e 0a c0 c2 e2 10 3f 45 21 81 bf 72 d1 21 bf
       -2.1658962 0.56596005 -1.0088278 -0.63210213
000270 66 00 3c bc 25 5f 69 bf 79 f6 9e bf 3e 20 9e bf
       -0.011474704 -0.91160804 -1.2418967 -1.235359
000280 c8 dd fc 3e d4 e8 8d bf 84 5e df bd 25 53 58 bd
       0.49387956 -1.1086679 -0.10906699 -0.052813668
000290 f7 86 87 bf df b0 25 bf f9 ac 97 bf c1 c4 11 3f
       -1.0588063 -0.6472301 -1.1849662 0.5694085
0002a0 a4 a8 53 bf 49 35 81 bf fb 6d a0 3e d7 6f e0 be
       -0.826792 -1.0094386 0.31333908 -0.43835327
0002b0 4f 8b aa 3e 43 c9 21 bf 5b f8 bc 3e 3c 4b 9c bf
       0.3330941 -0.63197726 0.3690823 -1.221046
0002c0 30 0b 69 bf 6d a2 6b bf db 27 9b 3e ec eb 9b be
       -0.91032696 -0.9204472 0.30303845 -0.30453432
0002d0 02 ab 95 3f ef 53 09 bf 56 d2 f4 bf 9e 31 63 bf
       1.1692812 -0.536437 -1.912669 -0.88747585
0002e0 f9 a4 6d bf a6 9d 31 bf 3d fc 12 bf 59 b2 1f c0
       -0.92829853 -0.6938118 -0.57416135 -2.4952605
0002f0 59 de 16 3f cb 05 84 3e 8c e8 bc bf c4 bb dc 3e
       0.58933026 0.2578567 -1.4758468 0.43112004
000300 67 a4 ca 3e 3e 37 20 3e 0f 23 09 bf 9d b1 02 3f
       0.39578554 0.15646073 -0.5356912 0.51052266
000310 23 f1 7b 3f 76 b3 5a 3d c9 2d 8b bd 8f ed 8b bf
       0.9841482 0.053393804 -0.06795842 -1.0931872
000320 da 27 b4 be b6 0a a8 3c d2 a5 0f 3f 65 41 e2 bf
       -0.35186654 0.02051292 0.56112397 -1.7676207
000330 0f 3d e3 be 87 01 0b be 82 fb 17 bf 10 c9 1f bf
       -0.44382522 -0.13574801 -0.59368145 -0.6241617
000340 bd b9 91 3e c5 99 62 be 15 72 38 bf 48 1c 52 3f
       0.2846202 -0.22128971 -0.72049075 0.82074404
000350 cf 26 bb bf f8 bd 2c 3e 76 77 67 be 13 85 45 be
       -1.4621218 0.16869342 -0.22604164 -0.19289045
000360 d7 4e 20 bf 53 e1 48 3c db 57 b9 be c6 d5 d9 be
       -0.626203 0.012260753 -0.3619984 -0.4254591
000370 11 1d f5 bd 4f 79 36 3f e7 59 25 be 74 13 bc 3e
       -0.119684346 0.7127885 -0.16147576 0.36733592
000380 4d 91 32 bf f3 b1 88 bf dc 61 d0 bd 7e 38 06 bf
       -0.6975296 -1.0679306 -0.10174915 -0.5242995
000390 6e a1 d9 bd af 50 f3 3e 0a 55 49 be ab 11 d8 bf
       -0.106264934 0.47522494 -0.19661346 -1.6880392
0003a0 90 4b 10 3d 51 14 59 3f 7c 21 53 bf 54 7e 85 3e
       0.035228312 0.84796625 -0.8247297 0.26072943
0003b0 42 bd 08 bf 22 c4 42 bf b1 c9 bc be bf db 37 bf
       -0.53413785 -0.76080525 -0.36872628 -0.7181968
0003c0 7a ba b6 bf a9 d5 16 3e 5b 1f 15 bf 06 de 23 bf
       -1.4275658 0.14729942 -0.5825097 -0.64010656
0003d0 2d a2 05 c0 25 9e 06 3e f6 00 6c 3f 5a 8b a4 be
       -2.0880234 0.13146265 0.92188966 -0.32137567
0003e0 c4 44 f0 bf cb a5 40 3e 3c 5e d0 bf ea 24 8f bf
       -1.8770986 0.18813245 -1.6278758 -1.118314
0003f0 6c d3 c1 bf be e6 b0 3e 2f ac 13 bf 6a 0a 1c bf
       -1.5142646 0.34551042 -0.57684606 -0.6095339

fc2.bias f4 [128]
000000 60 81 15 bf 71 a4 5c bf 6c 01 3b be a0 f5 1e be
       -0.58400536 -0.8618842 -0.18262261 -0.15523386
000010 85 73 27 bd 08 cb a9 3c e9 94 bc be ea 21 ea 3e
       -0.040881652 0.020726696 -0.3683236 0.45729
000020 10 1e 15 be 5d 51 f0 be f8 f1 96 bd ce b6 c8 be
       -0.14562249 -0.46937075 -0.073703706 -0.3920197
000030 7d 81 2c bf d4 61 05 bf ae 8d 79 3d bb df 8b 3e
       -0.67385083 -0.521024 0.060926132 0.2731913
000040 a6 71 03 be 55 fc 7c bd 67 a7 ea bd bc 27 bb 3e
       -0.12836322 -0.06176408 -0.11457711 0.36553752
000050 c2 e6 fa be 73 ff 76 be 14 20 82 be f0 47 5f bf
       -0.4900418 -0.24120884 -0.254151 -0.8721914
000060 49 a3 81 bd 96 a1 ba 3f 90 9d 81 be d9 53 c1 be
       -0.06329972 1.4580562 -0.25315523 -0.37759283
000070 52 bc dd 3e 0a 94 f1 bf c0 95 bd bd 20 64 01 c0
       0.4330774 -1.8873303 -0.09257078 -2.0217361
000080 e3 76 07 3f 37 dd 04 be c1 d0 c9 be 2f cc c8 be
       0.5291578 -0.12975012 -0.3941708 -0.3921828
000090 ee 29 fc be ae fa d7 bd 8c 65 14 bf 48 47 ac be
       -0.4925074 -0.1054586 -0.5796745 -0.33648133
0000a0 da fd 4e 3d d9 6f 3f bf 29 bf 41 be 1f 06 47 be
       0.05053506 -0.7478004 -0.18920578 -0.19435929
0000b0 45 74 a7 3e 19 95 71 be 81 53 41 3f 71 ae 17 be
       0.32705894 -0.23592032 0.7551804 -0.14812638
0000c0 05 3f c6 bf 37 7b 38 be ed 32 cc be b6 6f 9b bd
       -1.5487982 -0.18015753 -0.39882603 -0.075896665
0000d0 94 55 8d be d3 1c 32 be 73 f0 92 bd 13 99 34 bf
       -0.27604353 -0.17393808 -0.07174768 -0.7054607
0000e0 12 f8 24 bf 0a a2 99 be 5a b1 41 3f 69 a5 ab bd
       -0.64441025 -0.30006438 0.7566124 -0.08381159
0000f0 75 72 c4 bc 6d d5 9e be 9d ec d4 be 37 c5 fe be
       -0.023980359 -0.31022206 -0.41586772 -0.49759838
000100 da a4 0d 3f f9 12 5b be 1a 44 51 bf b9 7d 12 3d
       0.5532967 -0.21393956 -0.8174454 0.03576443
000110 1c 46 69 be ca 20 34 be fb 50 23 bf 98 e8 da bd
       -0.22780651 -0.17590633 -0.6379544 -0.10688895
000120 6f 35 a4 bf d1 57 46 bf d2 26 1d be 98 6d 1a be
       -1.2828807 -0.7747775 -0.1534684 -0.15080869
000130 ad 2b 58 3f 0f 63 2d 3d 16 0c 0b bf ca 6d a1 bf
       0.84441644 0.042330798 -0.54315317 -1.261163
000140 bb 40 43 bf 10 91 9e be 95 8c 39 be 9d a2 4b bf
       -0.76270646 -0.3097005 -0.18120034 -0.79545003
000150 6c 76 32 bf b3 37 7c be 7b 23 3a bf 87 fe e5 be
       -0.6971195 -0.24630623 -0.7271039 -0.4492075
000160 ba 18 09 bf a3 b1 2c 3d 6c 16 aa be 00 c9 0f bf
       -0.53553355 0.042161595 -0.33220232 -0.56166077
000170 5c 63 e6 be 7e 4f b6 3d e2 bf 3d bf b3 11 7f be
       -0.4499768 0.08901881 -0.74120915 -0.24909095
000180 ae 29 4e be 4a 5a 78 bd f5 5c a5 bf 08 4f 1b be
       -0.20133087 -0.06063298 -1.2918993 -0.15166867
000190 0e e5 f6 be ec a4 81 3f eb cb f0 bd dd 05 b3 bd
       -0.4822163 1.0128455 -0.11757644 -0.08741353
0001a0 03 03 0f bf 24 df be be af 62 25 bf 0d 5a 0c bf
       -0.5586397 -0.37279618 -0.64603704 -0.54824907
0001b0 6c 9d 23 bf f8 47 80 be d5 16 ac 3e 4e 1f 1d be
       -0.6391208 -0.25054908 0.3361117 -0.15343973
0001c0 4d d8 01 3f ba bc 7b be 6b 45 d8 be 49 0f 97 be
       0.50720674 -0.24583712 -0.42240462 -0.2950385
0001d0 54 11 47 bf 2a c8 03 be ca 4d 2f bf 71 5b 50 bf
       -0.77760816 -0.12869325 -0.6847807 -0.8138953
0001e0 9c 95 1d be 2b 85 f8 be 3c 60 23 3f 0b 02 42 bf
       -0.15389103 -0.485391 0.63818717 -0.7578437
0001f0 7d 57 01 bf da 85 4a bf fe 01 de bd 4e 7b 15 be
       -0.5052412 -0.7911049 -0.10840224 -0.14597818

fc3.weight f4 [1, 128]
000000 1c 17 2d 39 1f 4c 24 3b bd 0e a6 38 b6 ad d4 bc
       0.00016507175 0.0025069786 7.918242e-05 -0.025961738
000010 2c a1 84 3d f0 61 96 bc a1 6b 82 3d 9d 24 a8 bc
       0.064760536 -0.018357247 0.06368185 -0.020525271
000020 f4 59 a5 bc ac 20 e9 bb 02 8d 33 3d 57 f9 9c bc
       -0.020184495 -0.0071144905 0.043835647 -0.019161863
000030 7a 07 7b bd 5d 1e d6 3c a5 20 12 3c 11 25 59 3e
       -0.061286427 0.026137525 0.008918916 0.21205546
000040 48 ca 49 bd 9a e7 d9 bb 71 b2 05 3e fe a0 02 3d
       -0.049265176 -0.0066499235 0.13056351 0.031891815
000050 23 fb 57 3d f9 14 13 3c 5a 55 8e bb 97 cb 64 3c
       0.052729737 0.008977168 -0.004343671 0.013964555
000060 4b e9 0f 3d 0e 1b 6a 3d 34 b3 08 3e e4 15 a7 3b
       0.035134595 0.057154708 0.1334961 0.005099045
000070 7c c7 ef 3c b2 53 bc 3d 6a 44 c1 bc fd 0d 5e bd
       0.029269926 0.09195651 -0.023592193 -0.05421256
000080 ca 26 b3 3c 0f 44 76 bc b0 2a 07 3e 0e 64 9a bd
       0.021869082 -0.015030875 0.13199878 -0.07538615
000090 e6 3b c2 3c 0c 09 8d 3b 4c 7e b1 3d 5b da c4 bc
       0.023710202 0.004304057 0.08666667 -0.024029901
0000a0 a7 bf 1a bd ec dc 19 bd 52 a5 54 3c 14 36 69 3c
       -0.03778043 -0.037564203 0.012978869 0.014234085
0000b0 6e 8f 94 3d 12 14 cd bc c4 38 d6 3c 43 04 38 3d
       0.072539195 -0.025033984 0.026150115 0.04492594
0000c0 a8 6f 6f bd 13 9f 27 bd 07 18 a1 bd 3f 04 87 3b
       -0.058456093 -0.04092319 -0.07865911 0.004120379
0000d0 4c 55 41 3e 3d 4e 25 bb 21 a0 b6 3b 78 79 d9 3b
       0.18880194 -0.0025223636 0.005573288 0.0066367947
0000e0 95 d7 2b 3d 9e 50 b9 bc a2 e2 96 bd 0c 5a c3 3c
       0.041953642 -0.02262145 -0.073674455 0.023846649
0000f0 13 8f 4b 3d aa d5 0c 3d 9f b2 96 bd 84 4a 70 bd
       0.049696993 0.034383453 -0.07358288 -0.058664814
000100 aa 82 b1 bc c1 e6 f2 bd fa 5b 61 3d 71 1e 5c bd
       -0.02166875 -0.11860419 0.055019356 -0.05373997
000110 27 d2 b4 3c 75 4c 00 3c 90 53 18 bc a9 61 93 3c
       0.022072865 0.007830729 -0.009297267 0.017990904
000120 64 82 21 bd 73 8a 9c bd f8 ba cd 3c 59 a1 d2 3b
       -0.03943099 -0.076435946 0.025113568 0.0064279255
000130 cc 79 5b bd 35 17 14 3d 2d da 57 bd dd 29 3e bc
       -0.05358295 0.036154944 -0.052698303 -0.011606661
000140 5c 73 cf 3d 35 be a4 bc 43 bc e1 bc f7 85 91 3d
       0.10129425 -0.020110229 -0.02755559 0.0710563
000150 c9 1e 44 bc 61 ae bd 3c 40 37 85 bc 8a 19 a5 ba
       -0.01197023 0.02315444 -0.016261697 -0.0012596112
000160 0e 74 fe 3d cc 10 51 bd a4 08 25 bc cc cc 27 bd
       0.124244794 -0.05104141 -0.010072861 -0.040966794
000170 bc 7b ff bc 38 7d 2a bd 6e 27 28 bd 9d 01 8e 3c
       -0.03118693 -0.041623324 -0.041053228 0.017334754
000180 af c0 59 3d d9 9b e7 3a 7b 04 8a bc a9 81 6a bc
       0.053162273 0.0017670348 -0.01684784 -0.01431314
000190 d5 d1 7f bd e1 00 aa bd ed 23 5f 3d d4 b6 af 3c
       -0.06245597 -0.08300949 0.05447762 0.021449484
0001a0 dd 2e bc bc 40 4e 11 3d 85 5f d5 bc 63 cf b1 bd
       -0.022971565 0.035475016 -0.026046524 -0.08682134
0001b0 88 70 b5 bc 74 24 b6 bd c0 d1 9e 3c c1 11 8e 3c
       -0.022148386 -0.08893672 0.019387126 0.01734245
0001c0 59 69 d0 bc ec f9 c9 3c 6e fa ee 3d ef 5b b8 bd
       -0.025440859 0.024655305 0.116688594 -0.0900191
0001d0 8a d5 fe bc 06 26 83 3d 50 62 ff bb 59 43 2f 3d
       -0.031107683 0.06403737 -0.007793702 0.042788837
0001e0 80 3b d2 bc 85 6c 5f bb 8c 85 26 bd 63 a8 80 bc
       -0.025663137 -0.0034091782 -0.040654704 -0.015705293
0001f0 d5 b9 97 3b d8 5f 51 3c 13 02 af 3d 40 d3 fd 3b
       0.004630307 0.012779199 0.085453175 0.00774613
