project3-collaboration/results/maddpg_critic_reacher_1_session_default.pth (torch_old, 96211 bytes, 9 tensors)

bn0.weight f4 [48]
0.099597506 0.10600382 -0.00416571 -0.0016539224 0.7389859 0.4040615 0.049291193 0.044793133
-0.012213304 -0.009934262 0.006229205 0.012331218 0.35924208 0.004664921 0.06742342 0.0784765
0.60428596 0.2010069 0.005840077 0.0047408007 1.2380941 0.6212089 0.11657096 0.18666965
0.06801303 0.15954359 0.057150926 -0.008245902 0.6204339 0.005800312 0.0010650156 0.08842851
-0.0019115128 -0.0215124 0.004904653 -0.012664106 -0.007797337 0.29185808 0.074112885 0.0948347
0.61126685 0.33591965 -0.00892972 0.00093621534 0.44049394 0.009896673 0.114541024 0.26702732
00000000: c7f9 cb3d 8818 d93d 8280 88bb 6dc8 d8ba
00000010: 2e2e 3d3f 26e1 ce3e 90e5 493d 0179 373d
00000020: 4f1a 48bc 51c3 22bc 5c1e cc3b e108 4a3c
00000030: 94ee b73e 32dc 983b 4a15 8a3d 4ab8 a03d
00000040: 7cb2 1a3f c1d4 4d3e 1e5e bf3b b858 9b3b
00000050: de79 9e3f 8c07 1f3f c1bc ee3d 5426 3f3e
00000060: 6a4a 8b3d 655f 233e 1717 6a3d d219 07bc
00000070: c2d4 1e3f 8b10 be3b fe97 8b3a 021a b53d
00000080: ba8b faba c63a b0bc 36b7 a03b 1c7d 4fbc
00000090: ce80 ffbb 6c6e 953e 7fc8 973d b238 c23d
000000a0: fc7b 1c3f a9fd ab3e f64d 12bc 596c 753a
000000b0: 6c88 e13e a825 223c 7c94 ea3d ceb7 883e

bn0.bias f4 [48]
0.07226597 -0.031584818 -0.0063954582 -0.00048350467 -0.169293 0.27494937 0.0225882 -0.015103932
-0.0014802931 0.0034605963 -0.009970009 0.00072834204 -0.41938186 -0.009059129 0.036813784 0.0033201736
-0.4075614 -0.08968724 -0.008909232 0.0127775315 -0.2571261 0.59100854 0.05550071 0.012457778
0.015227535 -0.14403509 0.019704005 -0.0055620167 0.21876492 -0.008906453 -0.004565105 -0.045035522
-0.00031944338 0.003244981 0.01054763 1.4109075e-05 0.0016211766 0.32873687 -0.00045000404 -0.0393082
-0.21816032 -0.25722298 -0.0011954214 -0.006847553 0.45966572 -0.0011158948 0.028518917 -0.109904245
00000000: 2e00 943d 155f 01bd fe90 d1bb e67e fdb9
00000010: 255b 2dbe 2ac6 8c3e e40a b93c 7b76 77bc
00000020: 6506 c2ba 2ccb 623b 4059 23bc 35ee 3e3a
00000030: 38b9 d6be be6c 14bc 0dca 163d 4597 593b
00000040: e3ab d0be f2ad b7bd 07f8 11bc da58 513c
00000050: 08a6 83be 564c 173f b654 633d b51b 4c3c
00000060: e97c 793c ef7d 13be 4b6a a13c 9441 b6bb
00000070: e903 603e 5fec 11bc e096 95bb 2b77 38bd
00000080: f77a a7b9 bfa9 543b f7cf 2c3c 04b6 6c37
00000090: a97d d43a 3350 a83e 85ee ebb9 a301 21bd
000000a0: 6b65 5fbe bbb2 83be b0af 9cba 7061 e0bb
000000b0: 4e59 eb3e 3743 92ba 81a0 e93c 7a15 e1bd

bn0.running_mean f4 [48]
-4.170898 -0.25189412 14.92147 0.014413338 -0.022691024 4.0268054 14.92147 0.014413338
-4.1730995 -0.25519484 14.683904 -0.12045733 0.005227482 4.0215564 14.683904 -0.12045733
-4.1763973 -0.26959726 14.590303 -0.19067933 0.030648401 4.0279365 14.590303 -0.19067933
-5.6582384 -0.55663127 9.693087 -0.037621547 0.022691024 4.0268054 9.693087 -0.037621547
-5.6863956 -0.5546125 9.636865 -0.1046633 -0.005227482 4.0215564 9.636865 -0.1046633
-5.7267647 -0.5573961 9.425016 -0.19647503 -0.030648401 4.0279365 9.425016 -0.19647503
00000000: ff77 85c0 44f8 80be 57be 6e41 ec25 6c3c
00000010: 87e2 b9bc 97db 8040 57be 6e41 ec25 6c3c
00000020: 088a 85c0 e6a8 82be 45f1 6a41 55b2 f6bd
00000030: 4c4b ab3b 97b0 8040 45f1 6a41 55b2 f6bd
00000040: 0ca5 85c0 a708 8abe e271 6941 7141 43be
00000050: 5b12 fb3c dbe4 8040 e271 6941 7141 43be
00000060: 4a10 b5c0 637f 0ebf e216 1b41 0d19 1abd
00000070: 87e2 b93c 97db 8040 e216 1b41 0d19 1abd
00000080: f4f6 b5c0 16fb 0dbf 9930 1a41 b659 d6bd
00000090: 4c4b abbb 97b0 8040 9930 1a41 b659 d6bd
000000a0: a841 b7c0 83b1 0ebf decc 1641 c030 49be
000000b0: 5b12 fbbc dbe4 8040 decc 1641 c030 49be

bn0.running_var f4 [48]
19.047697 0.8447992 475.484 17.705492 27.363895 2.1046913 475.484 17.705492
18.897242 0.83546305 480.75836 17.769827 27.730463 2.0776026 480.75836 17.769827
19.001104 0.8399542 481.08362 18.024988 27.881227 1.9789283 481.08362 18.024988
20.056564 1.106624 485.92203 15.129924 27.363895 2.1046913 485.92203 15.129924
19.75986 1.0936768 491.77463 15.777942 27.730463 2.0776026 491.77463 15.777942
19.691198 1.0710865 493.56253 16.333385 27.881227 1.9789283 493.56253 16.333385
00000000: af61 9841 c344 583f f4bd ed43 d9a4 8d41
00000010: 42e9 da41 43b3 0640 f4bd ed43 d9a4 8d41
00000020: 8d2d 9741 e8e0 553f 1261 f043 9b28 8e41
00000030: fdd7 dd41 71f7 0440 1261 f043 9b28 8e41
00000040: 4302 9841 3d07 573f b48a f043 2d33 9041
00000050: c10c df41 864d fd3f b48a f043 2d33 9041
00000060: d873 a041 dba5 8d3f 05f6 f243 2b14 7241
00000070: 42e9 da41 43b3 0640 05f6 f243 2b14 7241
00000080: 3114 9e41 9afd 8b3f 27e3 f543 7372 7c41
00000090: fdd7 dd41 71f7 0440 27e3 f543 7372 7c41
000000a0: 9387 9d41 5d19 893f 01c8 f643 c6aa 8241
000000b0: c10c df41 864d fd3f 01c8 f643 c6aa 8241

fc1.weight f4 [128, 48]
0.060181625 0.073994346 0.07378818 0.051955137 1.2943673 -0.059552647 0.10452595 0.23893596
0.01499173 -0.08930397 0.048790995 -0.035146065 0.18972173 0.017222222 -0.0049219253 0.19499205
0.004106597 0.013833825 0.046417516 0.0232859 -1.2799017 0.16226928 -0.07919236 0.05145686
-0.08992275 0.058266126 -0.0457381 -0.013454394 -1.2297401 -0.06723807 0.004788603 -0.17587371
-0.06129037 0.0865323 -0.0016601438 -0.009403686 0.011321108 0.068713136 -0.046154868 -0.1010574
0.038982373 0.050897684 0.012148548 -0.055706892 1.0446328 -0.031528644 -0.06573055 0.0060972827
0.14722848 0.10756688 0.040421452 0.33399662 -0.0611813 0.31845722 0.45368057 -0.8557341
0.42585355 -0.4517579 -0.44164902 0.0018068036 0.019342463 -0.049241107 -1.3290889 -0.53618425
0.4756272 -0.14737701 0.017033601 -0.07179994 -0.20245047 0.2544985 -1.7433919 0.23374477
-1.3133612 -0.025227651 -1.9309517 0.009269259 -0.23140687 0.13802186 -0.14290752 1.0613822
-0.0644448 -0.06778796 -0.167167 0.104884446 -0.14208679 -0.34936267 -1.2250731 0.68479335
0.77954686 0.17911412 -0.13640714 0.00433176 0.06664428 -0.19437402 -1.1431189 0.7326774
-1.1480108 1.0301133 -0.047841396 0.073757 0.49689552 0.44799903 -0.6462295 0.0077887466
0.042146996 -0.093917385 -0.03411028 0.04744434 0.09967043 -0.0014537022 -1.2670608 0.9866723
-0.2176314 2.7319133 -0.00438772 0.016368449 -0.5984424 -1.1002873 1.348989 -0.24649018
0.22219045 -0.18955564 -0.18650007 0.0021079176 -0.3959671 -0.024235278 0.018345933 -0.664958
0.003623024 0.008655499 0.12669231 -0.052941263 -0.055240333 -2.209793 -0.6855736 -0.23925632
0.04506991 0.18783328 -0.0342161 -0.02074085 0.33964452 0.021242132 -0.45004684 0.16402636
0.06712937 0.0022523752 0.0007073435 0.048318036 -0.8642285 -0.37460783 0.14930892 0.10679513
-0.17887734 0.14740151 -0.019886913 0.046583124 -0.70252067 0.019947588 0.12706345 0.14109825
-0.022044506 0.080348805 -0.111190975 -0.0035183334 1.01784 0.37858933 -0.0062336363 0.6733984
0.122507274 -0.015778048 -0.27488872 -0.07807643 0.90796447 -0.07009292 -0.10668477 0.010921129
0.0075265993 -0.089268126 -0.005536336 0.022474982 0.072921485 0.7918486 -0.066134654 0.0034652306
0.015830947 0.009135324 -0.072267465 -0.09242533 -1.0843966 -0.07414956 -0.037158117 0.09629537
0.05280287 0.045181166 0.020192428 -0.05486187 -0.8261948 -1.5016685 0.012785372 -0.0009856253
0.0038888226 -0.053873006 -0.025288664 0.014394836 -0.18109868 -0.029467635 -0.028665777 -0.0021262313
0.013579948 -0.14889976 0.06037134 -0.044628512 1.0134262 1.5152894 0.0045057395 -0.018224375
-0.023073705 -0.1623992 -0.0605465 0.03853172 0.6206873 0.038543366 0.0127608385 0.05212914
-0.0007658006 -0.007183822 -0.041771118 0.042716205 0.0120986635 -0.88448006 -0.045969393 -0.08053011
0.021394124 0.10651539 -0.049286667 -0.00373363 -0.91465294 -0.014751943 -0.057624597 0.04765664
-0.33328137 0.2877023 0.054028552 -0.001992558 -0.25985876 0.44220835 0.270053 0.05458087
-0.009739583 0.0058096466 0.08940648 -0.031170202 0.06810898 -0.12096609 -0.50768566 0.06712718
00000000: 0281 763d 598a 973d 421e 973d e9ce 543d
00000010: d4ad a53f 7aed 73bd b411 d63d a1ab 743e
00000020: e09f 753c 00e5 b6bd 11d9 473d 52f5 0fbd
00000030: 6a46 423e 9e15 8d3c 1a48 a1bb ffab 473e
00000040: a290 863b 44a7 623c 4b20 3e3d 12c2 be3c
00000050: d2d3 a3bf eb29 263e 9b2f a2bd 6ec4 523d
00000060: 6b29 b8bd 76a8 6e3d e057 3bbd d26f 5cbc
00000070: 2068 9dbf 1db4 89bd b7e9 9c3b 3d18 34be
00000080: 9c0b 7bbd d937 b13d 2f99 d9ba eb11 1abc
00000090: 2b7c 393c 79b9 8c3d e30c 3dbd 2ff7 cebd
000000a0: fbab 1f3d 177a 503d b40a 473c e92c 64bd
000000b0: 87b6 853f 2e24 01bd bd9d 86bd b7cb c73b
000000c0: 10c3 163e 064c dc3d f790 253d 9b01 ab3e
000000d0: 3e99 7abd d30c a33e d248 e83e 6411 5bbf
000000e0: 7a09 da3e d04c e7be d21f e2be 45d2 ec3a
000000f0: 1674 9e3c 0bb1 49bd 961f aabf 5f43 09bf
00000100: 6985 f33e 00ea 16be 0d8a 8b3c d90b 93bd
00000110: 2d4f 4fbe a14d 823e 7727 dfbf ca5a 6f3e
00000120: 381c a8bf 38aa cebc 6d29 f7bf 17de 173c
00000130: ecf5 6cbe 9a55 0d3e 5956 12be 5fdb 873f
00000140: a3fb 83bd 6ad4 8abd d32d 2bbe a8cd d63d
00000150: 337f 11be aadf b2be 32cf 9cbf 9e4e 2f3f
00000160: 6290 473f b169 373e 50ae 0bbe 70f1 8d3b
00000170: cc7c 883d fc09 47be b851 92bf bf90 3b3f
00000180: 05f2 92bf c1da 833f 57f5 43bd e90d 973d
00000190: 1769 fe3e 2160 e53e 4c6f 25bf be38 ff3b
000001a0: 54a2 2c3d c257 c0bd 39b7 0bbd ff54 423d
000001b0: 0320 cc3d 278a beba 0c2f a2bf 8e96 7c3f
000001c0: c4da 5ebe abd7 2e40 ddc6 8fbb 2017 863c
000001d0: 8533 19bf 37d6 8cbf acab ac3f ec67 7cbe
000001e0: e585 633e e01a 42be e0f9 3ebe fd24 0a3b
000001f0: 33bc cabe 1089 c6bc 364a 963c b03a 2abf
00000200: 4270 6d3b cbcf 0d3c a1bb 013e f0d8 58bd
00000210: b043 62bd 406d 0dc0 c081 2fbf 9cff 74be
00000220: 3a9b 383d 5e57 403e 2e26 0cbd b7e8 a9bc
00000230: e3e5 ad3e fb03 ae3c 8a6c e6be 87f6 273e
00000240: 207b 893d 969c 133b 056d 393a 22e9 453d
00000250: 143e 5dbf 99cc bfbe 70e4 183e 68b7 da3d
00000260: 9f2b 37be 6cf0 163e e1e9 a2bc f2cd 3e3d
00000270: 65d8 33bf 2069 a33c ec1c 023e 0f7c 103e
00000280: ae96 b4bc ea8d a43d 18b8 e3bd d793 66bb
00000290: 9548 823f 76d6 c13e 8843 ccbb d663 2c3f
000002a0: 18e5 fa3d f740 81bc 37be 8cbe 89e6 9fbd
000002b0: 5c70 683f e08c 8fbd 8b7d dabd 89ee 323c
000002c0: b1a1 f63b 35d2 b6bd 276a b5bb 741d b83c
000002d0: dc57 953d 97b6 4a3f 9b71 87bd ec18 633b
000002e0: e7af 813c 53ac 153c f700 94bd 7e49 bdbd
000002f0: 82cd 8abf b9db 97bd 1c33 18bd 8236 c53d
00000300: d247 583d e30f 393d 976a a53c d7b6 60bd
00000310: 8181 53bf ac36 c0bf bd79 513c 1930 81ba
00000320: 9edb 7e3b f1a9 5cbd 2c2a cfbc 51d8 6b3c
00000330: ef71 39be 1c66 f1bc 7ed4 eabc 3e58 0bbb
00000340: 6e7e 5e3c 2e79 18be f047 773d 63cc 36bd
00000350: f3b7 813f 01f5 c13f e2a4 933b 494b 95bc
00000360: 1105 bdbc fa4b 26be 9bff 77bd 70d3 1d3d
00000370: 5de5 1e3f a6df 1d3d d612 513c 5d85 553d
00000380: 02c0 48ba 4466 ebbb 3118 2bbd 30f7 2e3d
00000390: 7939 463c 496d 62bf 674a 3cbd f8ec a4bd
000003a0: bb42 af3c be24 da3d d1e0 49bd ebaf 74bb
000003b0: b226 6abf 22b2 71bc c507 6cbd 9c33 433d
000003c0: dba3 aabe b74d 933e 0b4d 5d3d 9395 02bb
000003d0: 350c 85be 2269 e23e 6344 8a3e 3190 5f3d
000003e0: c692 1fbc d95e be3b bf1a b73d a758 ffbc
000003f0: b97c 8b3d 12bd f7bd b0f7 01bf fa79 893d

fc1.bias f4 [128]
-0.10266686 -0.5228925 -1.5832912 -0.25425667 -0.6508068 -0.46523172 -0.25589108 -0.9851964
0.06707638 -0.9398112 -0.8922885 -0.63169575 -1.3250154 -0.53991467 -1.1650304 -1.1459973
-0.36943546 -1.751672 -1.1700166 -0.44540048 -1.4610689 -0.33176136 -0.9015405 -1.0305401
-0.8554077 -1.523041 -1.4088775 -0.19263688 -0.81587744 -0.711423 -0.46390834 -0.41483232
-1.3265582 -1.2956862 -0.76354903 -0.553357 -1.32074 -0.55243146 -0.42533427 -0.7298476
-0.8037869 -0.62823737 -0.70824075 -1.3207746 -0.24342299 -0.7997982 -0.56707096 -1.5104177
-0.9667523 -1.3362076 -0.66206783 -0.25667843 -1.0587436 -1.1263324 -0.7094688 -0.45883092
-1.0174326 -0.6198522 -1.1959279 -1.4985943 -0.4859891 -0.590588 -1.6502573 -0.3739572
-0.57125795 -1.6860454 -1.1406398 -0.37472913 -0.841962 -0.5916572 -1.0008225 0.026002666
-0.40052855 -0.32005626 -0.8698187 -0.16767675 -1.3479532 -0.31453457 -0.9059102 -1.0320259
-0.56017125 -0.98952425 -1.2870437 -0.74211955 -0.22704533 0.5422136 -0.93705565 -0.7495958
-0.3411167 -0.23629822 0.19541305 -0.8858361 -0.3941849 -0.20344055 -0.49886912 -0.904035
-0.2866334 -0.65050405 -0.8058914 -0.71390015 -0.44557542 -0.8072468 -0.9401648 -0.7475944
-0.6672395 -1.3607862 -0.7800825 -0.9838402 -0.034883007 -0.35096055 -0.73754257 -0.293527
-0.7829966 -0.77062607 -0.3753191 -0.57585424 -1.0558832 0.28941724 -1.0290924 -0.5051632
-0.98609203 -1.5830346 -2.310178 -1.3017068 -0.103467785 -0.3163702 -0.72583854 -1.1235558
00000000: 0143 d2bd 48dc 05bf 49a9 cabf ee2d 82be
00000010: 469b 26bf da32 eebe 2804 83be d535 7cbf
00000020: 575f 893d 7897 70bf 056d 64bf d0b6 21bf
00000030: 1b9a a9bf d937 0abf b71f 95bf 0ab0 92bf
00000040: a526 bdbe ca36 e0bf 1bc3 95bf 880b e4be
00000050: 4e04 bbbf a0dc a9be 5ccb 66bf bde8 83bf
00000060: 00fc 5abf 02f3 c2bf 1956 b4bf 9a42 45be
00000070: 58dd 50bf d11f 36bf 6585 edbe e764 d4be
00000080: a9cc a9bf 0cd9 a5bf f377 43bf cea8 0dbf
00000090: 020e a9bf 266c 0dbf 6ac5 d9be 4bd7 3abf
000000a0: fac4 4dbf 2ad4 20bf 444f 35bf 240f a9bf
000000b0: e043 79be 93bf 4cbf 902b 11bf 5e55 c1bf
000000c0: 147d 77bf da08 abbf 477d 29bf 5b6b 83be
000000d0: e984 87bf a92b 90bf bf9f 35bf e3eb eabe
000000e0: 3b3b 82bf a2ae 1ebf 2a14 99bf f0d1 bfbf
000000f0: 90d3 f8be c630 17bf a23b d3bf 5177 bfbe
00000100: f63d 12bf 56d0 d7bf 7c00 92bf 7fdc bfbe
00000110: d28a 57bf d976 17bf f41a 80bf 8b03 d53c
00000120: 1412 cdbe 6ade a3be 70ac 5ebf 74b3 2bbe
00000130: bb89 acbf ad0a a1be bbe9 67bf 6d19 84bf
00000140: 6267 0fbf 7651 7dbf d9bd a4bf 8cfb 3dbf
00000150: 927e 68be 83ce 0a3f e1e2 6fbf 83e5 3fbf
00000160: d9a6 aebe 29f8 71be 5c1a 483e 28c6 62bf
00000170: 9ad2 c9be b852 50be c66b ffbe d66e 67bf
00000180: 9dc1 92be 6f87 26bf e64e 4ebf 29c2 36bf
00000190: 7622 e4be baa7 4ebf a4ae 70bf 5962 3fbf
000001a0: 35d0 2abf 3e2e aebf 7db3 47bf f4dc 7bbf
000001b0: 7ce1 0ebd 1ab1 b3be 97cf 3cbf 2c49 96be
000001c0: 7772 48bf c047 45bf d329 c0be 2f6b 13bf
000001d0: 2e27 87bf 7f2e 943e 4db9 83bf 6052 01bf
000001e0: 8770 7cbf e1a0 cabf f5d9 13c0 549e a6bf
000001f0: ebe6 d3bd 46fb a1be 8ed0 39bf add0 8fbf

fc2.weight f4 [128, 132]
0.33332542 -0.8730701 -0.105582215 -0.87312627 -1.4829589 0.37897965 -0.28739607 -0.78454363
-0.7953165 -0.26234168 0.60757154 -0.44964477 -0.27141017 -0.3993988 -1.2529457 -0.022668252
-0.1190782 -0.6023469 -0.091713995 -1.0293094 0.3139861 -0.015428612 -0.6695952 -0.36715162
-1.0716928 0.29972476 -0.83958316 -1.4174702 0.0051174364 -1.3018273 -1.2237396 -1.6471505
-0.086492695 -0.14265521 -0.74971807 -0.5863945 -0.39289773 0.7978869 -0.7583139 0.0787252
-0.5598646 -0.68042165 -0.04367756 -0.0149059845 0.3943786 -0.7594309 -0.35429278 -0.32888603
-0.18645659 -0.5663479 -0.24039246 -0.6687234 -0.2530011 -0.6645743 0.36008927 0.086835496
0.8993086 -2.1172256 -0.26374465 -0.21862577 -1.2015685 -0.6691584 -0.81070364 -0.02270935
-0.4941351 -0.4095174 -1.1472119 -0.23131676 -0.42384833 0.122556515 0.689126 -0.14631124
-1.6114353 -0.18693207 -1.1499283 -0.32237518 -0.36766374 -0.7880935 0.09854539 -0.12518966
-1.4169284 -0.84244823 -0.023333803 0.3381336 -0.36903664 -0.4672419 -0.015206159 0.2522704
0.05074273 -1.1384746 -1.0710822 -0.5356451 -1.492225 -0.03814602 0.7302928 -0.6460456
1.0002439 -1.8464952 -0.045142155 -1.2724384 -1.1675333 -0.03403941 0.4232774 -0.07668971
-0.7036807 -0.11445479 0.0030340042 0.13719058 -2.3591478 0.5550128 0.08821815 -0.8494102
-0.17861496 -0.5611424 0.071183026 0.46093515 -0.3977936 -1.016708 -0.107746795 -0.7343
-0.23751591 0.22287178 -0.28065082 0.09185208 -1.1150538 -0.11877265 -0.63578016 -0.0030874242
0.6288006 -0.1933592 -0.2344577 0.50911003 -0.15208492 -0.15216175 -0.18385158 -0.23412736
0.09359603 -0.07209414 0.009105724 -0.119992755 -0.1798897 -0.13549554 -0.1955013 -0.111781545
-0.19269499 -0.015793946 0.02740661 0.12221942 -0.21729216 -0.13042277 0.06375998 -0.114088394
-0.060066108 -0.2111595 -0.014037243 -0.063056305 -0.08441374 -0.060502715 -0.11445636 0.03254979
0.06662967 0.030601371 -0.037141506 -0.06516433 -0.16760401 -0.15241979 0.03520343 -0.16574427
0.039271656 0.14450039 -0.03495808 -0.1422021 -0.108621664 -0.09338434 -0.07405561 -0.07069686
-0.005783726 -0.15175535 0.067237146 0.09819668 -0.13651606 -0.07167212 -0.12499825 -0.009280456
-0.03460182 -0.027308138 -0.21657658 0.12857956 0.089919806 -0.15910453 -0.15065694 0.042503845
-0.16714847 -0.19791807 -0.10077872 -0.14544888 -0.010168305 -0.08929437 -0.023632176 -0.04565655
0.032929707 -0.18760222 0.0363744 -0.14060028 -0.07862846 -0.13966529 0.0056944573 -0.062617354
-0.038436815 0.006896929 -0.08170733 -0.22903158 -0.13804153 -0.0165961 0.05424664 -0.25184
-0.20106657 -0.007340174 0.050138544 -0.101787545 -0.061201937 -0.012734709 -0.09065594 -0.055329412
-0.15954512 -0.04787973 -0.0036298402 -0.046910595 -0.052679066 -0.13118382 -0.099628225 0.03648989
0.019172654 0.03924658 -0.15362948 -0.1335379 -0.036421474 -0.09913529 -0.004894878 -0.04337386
-0.036672488 -0.15850659 0.060765892 -0.048087895 -0.12915307 -0.14904368 -0.022219336 -0.034164324
-0.0059755184 -0.10140069 -0.059065443 -0.029507622 -0.17196399 -0.0036214595 -0.11745195 0.035483453
00000000: a1a9 aa3e 8681 5fbf 7d3b d8bd 3485 5fbf
00000010: 99d1 bdbf 9f09 c23e 9425 93be dad7 48bf
00000020: dd99 4bbf a651 86be cf89 1b3f d737 e6be
00000030: 46f6 8abe 007e ccbe 8660 a0bf c5b2 b9bc
00000040: 45df f3bd 6833 1abf 8cd4 bbbd 69c0 83bf
00000050: c9c2 a03e 4ac8 7cbc 976a 2bbf 4cfb bbbe
00000060: 3b2d 89bf 8675 993e ecee 56bf aa6f b5bf
00000070: 2bb0 a73b 47a2 a6bf 80a3 9cbf d4d5 d2bf
00000080: 1523 b1bd 3514 12be 86ed 3fbf f31d 16bf
00000090: e429 c9be 5142 4c3f dc20 42bf ad3a a13d
000000a0: 4953 0fbf 1d30 2ebf 3ee7 32bd 3b38 74bc
000000b0: feeb c93e 106a 42bf dd65 b5be c063 a8be
000000c0: 7aee 3ebe 2dfc 10bf 7129 76be 7531 2bbf
000000d0: 5c89 81be 8b21 2abf 9f5d b83e cfd6 b13d
000000e0: 1739 663f a080 07c0 8a09 87be 6fdf 5fbe
000000f0: ffcc 99bf f74d 2bbf 468a 4fbf f508 babc
00000100: 47ff fcbe 44ac d1be d7d7 92bf 4dde 6cbe
00000110: a602 d9be e9fe fa3d 906a 303f 9dd2 15be
00000120: 8343 cebf 1f6b 3fbe da30 93bf 5c0e a5be
00000130: 6c3e bcbe 7fc0 49bf 2ad2 c93d b831 00be
00000140: e95d b5bf b0aa 57bf 8826 bfbc d91f ad3e
00000150: 5ff2 bcbe 553a efbe 4123 79bc 9629 813e
00000160: 9cd7 4f3d 89b9 91bf 3919 89bf 0a20 09bf
00000170: 3b01 bfbf 003f 1cbd 78f4 3a3f 3f63 25bf
00000180: fe07 803f f459 ecbf fbe6 38bd 43df a2bf
00000190: bb71 95bf e96c 0bbd d1b7 d83e 7f0f 9dbd
000001a0: 6b24 34bf 4667 eabd 25d6 463b b07b 0c3e
000001b0: 47fc 16c0 5215 0e3f b8ab b43d f272 59bf
000001c0: d7e6 36be 07a7 0fbf 68c8 913d b1ff eb3e
000001d0: 9aab cbbe 7d23 82bf 5aaa dcbd 16fb 3bbf
000001e0: 5f37 73be 8038 643e 77b1 8fbe f11c bc3d
000001f0: 15ba 8ebf 133f f3bd 7dc2 22bf 6256 4abb
00000200: 13f9 203f f4ff 45be ae15 70be 0955 023f
00000210: 26bc 1bbe 4ad0 1bbe 9743 3cbe 15bf 6fbe
00000220: 46af bf3d 18a6 93bd 2d30 153c c3be f5bd
00000230: 0135 38be 58bf 0abe 7e31 48be b9ed e4bd
00000240: d651 45be 4e62 81bc d483 e03c 2d4e fa3d
00000250: d681 5ebe 8c8d 05be 9894 823d 2da7 e9bd
00000260: e107 76bd 323a 58be 77fc 65bc aa23 81bd
00000270: 1ce1 acbd b2d1 77bd 1968 eabd ee52 053d
00000280: 2375 883d baaf fa3c b121 18bd e074 85bd
00000290: 63a0 2bbe ef13 1cbe 7931 103d deb8 29be
000002a0: 51db 203d e9f7 133e 3430 0fbd 6d9d 11be
000002b0: 0975 debd 4a40 bfbd 78aa 97bd 84c9 90bd
000002c0: 6985 bdbb c165 1bbe a1b3 893d 571b c93d
000002d0: deca 0bbe d5c8 92bd 15ff ffbd 0e0d 18bc
000002e0: a3ba 0dbd 51b5 dfbc 40c6 5dbe 5caa 033e
000002f0: e027 b83d 4cec 22be d045 1abe 8318 2e3d
00000300: f828 2bbe 09ab 4abe 1365 cebd 8df0 14be
00000310: f698 26bc f7df b6bd 4498 c1bc 5d02 3bbd
00000320: 4de1 063d cc1a 40be 53fd 143d 85f9 0fbe
00000330: f507 a1bd 6b04 0fbe 9298 ba3b 873d 80bd
00000340: ec6f 1dbd a2ff e13b 2c56 a7bd 4187 6abe
00000350: c25a 0dbe 8bf4 87bc ba31 5e3d 2cf1 80be
00000360: 65e4 4dbe d885 f0bb 135e 4d3d fd75 d0bd
00000370: e2ae 7abd 3ea5 50bc d2a9 b9bd 18a1 62bd
00000380: cc5f 23be 891d 44bd 9de2 6dbb 5325 40bd
00000390: 01c6 57bd 0d55 06be e209 ccbd 6c76 153d
000003a0: f80f 9d3c 06c1 203d 0c51 1dbe 29be 08be
000003b0: af2e 15bd 7107 cbbd 3665 a0bb caa8 31bd
000003c0: e435 16bd 8d4f 22be a8e5 783d d0f7 44bd
000003d0: b440 04be e89e 18be 5305 b6bc e4ef 0bbd
000003e0: 48ce c3bb 2aab cfbd 9bee 71bd f8b9 f1bc
000003f0: 5417 30be 0256 6dbb a68a f0bd 1957 113d

fc2.bias f4 [128]
-0.8267763 -0.18217605 -0.087305844 -0.106417984 -0.5992981 -0.41039467 -0.15817499 1.3774704
-0.55951816 -0.7899195 -0.38041833 -0.21755368 -0.2980778 -0.18738107 -0.37334833 -0.13006625
-0.21619181 -0.03595205 -0.19145343 1.0283122 -0.1663994 -0.19055986 -0.88651836 0.21249513
-0.31274828 -0.94684607 -1.2360864 0.9385223 0.4273335 -0.46566978 -0.5620953 0.9599909
-0.12676767 -0.5187956 -1.3174415 -0.8582229 -1.0187358 -0.73385984 -0.11802857 -0.5194238
-1.3363839 0.5889381 -0.2917408 -0.3849689 0.8169117 -0.5995312 1.3356702 -0.6891709
-0.63147795 -0.5569861 0.6700342 -0.8179962 -0.18456489 -0.18736883 -0.040643197 -0.30226794
-0.29087973 -0.97563016 -0.31896517 -1.408306 -0.80520886 -0.39580905 -0.7495337 0.099592306
-1.053455 -0.71893007 -0.06787457 -0.4170348 -0.2779698 -0.9049688 -1.4385465 -0.7200238
-0.090522766 -0.7460752 1.0773683 -0.2013384 -0.2491362 -0.14032663 -0.16814263 0.77836764
-0.16338561 -0.914811 -0.28794277 -1.345783 -0.22743566 -0.0035785313 -0.12066151 -0.5095681
-1.053207 -0.6423035 -0.5691234 -0.2610799 -0.7083518 1.3640363 0.36898226 -0.27465415
-0.6942316 -0.45080873 -0.022260126 -0.44406748 -0.5296563 -0.586762 0.8454347 -0.5522146
-0.7274504 -0.5319724 -0.14120835 -0.5002238 -0.08063161 -0.5782299 -0.14306124 -0.6304379
-0.49049783 0.81364876 -0.5428681 -0.95183975 -0.76883435 -0.6658017 -0.37815607 0.011321049
-0.4246975 -0.1620067 -0.7542315 -0.92114496 -0.56206554 -0.24470434 -0.5037724 -1.0746313
00000000: 9da7 53bf 5c8c 3abe 68cd b2bd acf1 d9bd
00000010: 9a6b 19bf 401f d2be a0f8 21be f350 b03f
00000020: 953c 0fbf 2a38 4abf 31c6 c2be 64c6 5ebe
00000030: a79d 98be d3e0 3fbe 8327 bfbe 1630 05be
00000040: 6361 5dbe 7542 13bd 5e0c 44be bc9f 833f
00000050: 9b64 2abe 2022 43be def2 62bf 5398 593e
00000060: 8b20 a0be 8164 72bf 1438 9ebf ff42 703f
00000070: 75cb da3e 456c eebe 7ae5 0fbf f7c1 753f
00000080: 62cf 01be cacf 04bf eca1 a8bf 7fb4 5bbf
00000090: ef65 82bf 3dde 3bbf f7b8 f1bd f5f8 04bf
000000a0: a10e abbf a6c4 163f 0d5f 95be a51a c5be
000000b0: 2021 513f e07a 19bf 3ef7 aa3f 816d 30bf
000000c0: 8aa8 21bf a496 0ebf 5d87 2b3f 3368 51bf
000000d0: 94fe 3cbe 9ddd 3fbe 7b79 26bd ddc2 9abe
000000e0: 30ee 94be e6c2 79bf 674f a3be 5f43 b4bf
000000f0: 2b22 4ebf 7ca7 cabe 71e1 3fbf 0df7 cb3d
00000100: 9dd7 86bf cd0b 38bf d301 8bbd 9685 d5be
00000110: 0f52 8ebe 09ac 67bf 4b22 b8bf 7b53 38bf
00000120: 0064 b9bd c9fe 3ebf 34e7 893f a72b 4ebe
00000130: 8f1d 7fbe c9b1 0fbe 952d 2cbe 1a43 473f
00000140: 8f4e 27be 0e31 6abf 3c6d 93be 9e42 acbf
00000150: e5e4 68be cb85 6abb 621d f7bd 0e73 02bf
00000160: 7dcf 86bf 016e 24bf 12b2 11bf 44ac 85be
00000170: 8b56 35bf be98 ae3f 3eeb bc3e 789f 8cbe
00000180: 2ab9 31bf 67d0 e6be de5a b6bc d05c e3be
00000190: 8e97 07bf 0936 16bf 696e 583f f05d 0dbf
000001a0: 303a 3abf 582f 08bf ec98 10be ab0e 00bf
000001b0: 2f22 a5bd e006 14bf a57e 12be 6164 21bf
000001c0: 8822 fbbe 494b 503f 67f9 0abf c5ab 73bf
000001d0: 54d2 44bf fb71 2abf ac9d c1be ec7b 393c
000001e0: f371 d9be 16e5 25be 5115 41bf 28d0 6bbf
000001f0: 87e3 0fbf c693 7abe 3af7 00bf 858d 89bf

fc3.weight f4 [1, 128]
-0.18401098 0.015576461 -0.0026696231 -0.008429016 0.14602388 0.016964743 0.00924829 0.07659624
0.06380064 0.08120438 -0.037300818 -0.014620384 0.022055335 -0.018711586 -0.099038474 0.028024033
-0.04934215 -0.05558927 -0.021871341 -0.02356324 0.011807046 -0.068102874 0.07599838 0.048527557
0.026056755 -0.0048792385 0.021940226 0.023149097 0.06597788 -0.02360206 0.0019464332 0.04984974
0.030560685 -0.053933144 -0.02218792 -0.04127375 0.05563608 -0.04486978 0.051761895 0.10997517
-0.053515658 0.0122790905 -0.0017494047 -0.032993197 0.03423786 0.056861125 0.05080611 -0.019296732
0.015854033 0.0073931045 -0.047424845 0.030340798 -0.0077343523 0.00017490964 0.0152438395 0.031828556
0.0034364439 -0.034858387 0.1385855 -0.035601318 -0.035388444 0.12091712 -0.007119818 -0.06343958
-0.022116045 0.031470697 0.035469644 -0.055527236 0.035858646 0.018075895 -0.0032795656 0.027283475
0.029325476 -0.006220775 -0.086938865 -0.022597183 0.0075232615 0.026304392 -0.0063501014 -0.06927967
-0.0005005184 -0.051585205 0.08689338 -0.060078204 -0.014373669 0.01985303 -0.010288972 0.040467214
-0.027808018 -0.051220667 -0.010060937 -0.015244492 0.010455828 0.054043513 -0.031436276 0.003312907
-0.0081812795 -0.031308 0.029537544 0.014012621 -0.06116256 -0.08965048 0.055332903 0.05358657
-0.076424636 0.02147802 -0.0016365929 0.032322165 -0.031049993 -0.07486334 0.008653062 -0.038850877
-0.23559487 0.060519315 0.0139703285 -0.054234944 0.03998628 0.055444915 0.0384834 0.122701935
-0.05209992 0.033616032 -0.1541667 -0.049668875 0.010627219 -0.02203575 0.067921296 0.06334467
00000000: 606d 3cbe 6a34 7f3c d8f4 2ebb db19 0abc
00000010: 4987 153e a5f9 8a3c 2486 173c 7dde 9c3d
00000020: e9a9 823d 7b4e a63d bec8 18bd 568a 6fbc
00000030: 64ad b43c 0a49 99bc afd4 cabd a892 e53c
00000040: ff1a 4abd 93b1 63bd 872b b3bc b207 c1bc
00000050: 5772 413c 8579 8bbd 0aa5 9b3d d5c4 463d
00000060: fa74 d53c 05e2 9fbb fdbb b33c 2da3 bd3c
00000070: 691f 873d 1b59 c1bc 761f ff3a 3e2f 4c3d
00000080: 675a fa3c 00e9 5cbd 71c3 b5bc aa0e 29bd
00000090: a9e2 633d 60c9 37bd 4804 543d a93a e13d
000000a0: 3c33 5bbd 3d2e 493c 484c e5ba e023 07bd
000000b0: 003d 0c3d 36e7 683d 111a 503d 2e14 9ebc
000000c0: 51e0 813c db41 f23b 8e40 42bd 448d f83c
000000d0: 7370 fdbb f367 3739 4cc1 793c a95e 023d
000000e0: f635 613b abc7 0ebd 5be9 0d3e b0d2 11bd
000000f0: 79f3 10bd 65a3 f73d 5d4d e9bb 9cec 81bd
00000100: b52c b5bc 6be7 003d 9e48 113d 8770 63bd
00000110: 84e0 123d e613 943c fbed 56bb 9881 df3c
00000120: fb3b f03c a5d7 cbbb 010d b2bd ba1d b9bc
00000130: b185 f63b 4f7c d73c 8314 d0bb 80e2 8dbd
00000140: 3935 03ba 024b 53bd 28f5 b13d 9014 76bd
00000150: 8a7f 6bbc d2a2 a23c 1493 28bc f3c0 253d
00000160: a4cd e3bc c3cc 51bd a1d6 24bc 09c4 79bc
00000170: ec4e 2b3c bb5c 5d3d 53c3 00bd 5b1d 593b
00000180: c60a 06bc d13c 00bd b8f8 f13c 3195 653c
00000190: 9885 7abd ac9a b7bd c1a4 623d 977d 5b3d
000001a0: 8584 9cbd acf2 af3c f282 d6ba 3f64 043d
000001b0: 8e5c febc f351 99bd 93c5 0d3c 1922 1fbd
000001c0: c83f 71be 1ae3 773d cee3 643c 7625 5ebd
000001d0: a7c8 233d 351a 633d c5a0 1d3d 274b fb3d
000001e0: ba66 55bd f7b0 093d e0dd 1dbe 9771 4bbd
000001f0: ca1d 2e3c 5184 b4bc 521a 8b3d daba 813d
