project3-collaboration/results/maddpg_actor_reacher_1_session_default.pth (torch_old, 167781 bytes, 18 tensors)

bn0.weight f4 [24]
0	0x3d9d0950	0.07667792
1	0x3e83643c	0.2566241
2	0xbd35f25f	-0.044420596
3	0x3e144195	0.14478143
4	0x3fcfc498	1.6231871
5	0x3fc67b2f	1.5506343
6	0xbc42e878	-0.011896245
7	0x3efc133f	0.49233434
8	0x3d68a493	0.056797575
9	0x3dca345e	0.098732695
10	0xbe1424e5	-0.14467199
11	0x3dffcd36	0.12490313
12	0xbca4a215	-0.020096818
13	0x3e5f840a	0.21827713
14	0x3dc2c385	0.09509949
15	0x3d54e175	0.051972825
16	0x3f84a4f5	1.0362841
17	0x3f59dba2	0.8510076
18	0xbdb2624f	-0.08710157
19	0x3d4e7f82	0.05041457
20	0x4007373c	2.1127462
21	0x3ff5d5f4	1.9205918
22	0x3e3106d3	0.1728776
23	0x3f7662c9	0.96244484

bn0.bias f4 [24]
0	0xbb8265a0	-0.0039794
1	0xba9be382	-0.0011893364
2	0xbad19ad4	-0.0015991577
3	0x3b2a9f4e	0.0026034894
4	0x3c916321	0.017747464
5	0x3acced69	0.0015634719
6	0x3a675c32	0.0008825689
7	0xb9d1aaea	-0.00039990927
8	0xbb0bf92f	-0.0021358242
9	0xbbaa1d6e	-0.0051914966
10	0x3bccc282	0.006248773
11	0xbb152606	-0.002275826
12	0x3b939981	0.004504383
13	0x3a8e6a74	0.0010865466
14	0x3ba42e19	0.005010378
15	0xbac09041	-0.0014691429
16	0xbc84bc4b	-0.016203066
17	0x3c19d57a	0.009389276
18	0x39c0f94e	0.0003680684
19	0x3b5b1ccf	0.003343392
20	0x3c22ab6e	0.009928567
21	0x3b462e79	0.0030240102
22	0xba42a9cd	-0.0007425815
23	0xba161abe	-0.0005726031

bn0.running_mean f4 [24]
0	0xc0b6feaf	-5.7185893
1	0xbf144581	-0.57918555
2	0x411bddb3	9.741626
3	0xbdc1ce71	-0.09463204
4	0xbeac6ada	-0.3367527
5	0x4080f48a	4.029851
6	0x411bddb3	9.741626
7	0xbdc1ce71	-0.09463204
8	0xc0b790a4	-5.7364063
9	0xbf12ffae	-0.57421386
10	0x4116ac63	9.417087
11	0xbd604dbc	-0.054761633
12	0xbea07bd4	-0.31344473
13	0x4080d403	4.0258803
14	0x4116ac63	9.417087
15	0xbd604dbc	-0.054761633
16	0xc0b8577d	-5.7606797
17	0xbf13cfb0	-0.5773878
18	0x411631c0	9.387146
19	0xbe03cc14	-0.12870818
20	0xbe8cc7db	-0.27496228
21	0x4080df03	4.027223
22	0x411631c0	9.387146
23	0xbe03cc14	-0.12870818

bn0.running_var f4 [24]
0	0x419eb212	19.836948
1	0x3f8aff59	1.0859176
2	0x43f11763	482.1827
3	0x417f974a	15.974436
4	0x41d516c3	26.636114
5	0x400284df	2.0393598
6	0x43f11763	482.1827
7	0x417f974a	15.974436
8	0x419ee152	19.86002
9	0x3f8af673	1.085646
10	0x43f54024	490.5011
11	0x4178ee5e	15.558195
12	0x41d77789	26.933367
13	0x4002efe2	2.0458913
14	0x43f54024	490.5011
15	0x4178ee5e	15.558195
16	0x419d15bf	19.635618
17	0x3f8b2343	1.0870136
18	0x43f4bea1	489.4893
19	0x417d59a6	15.834387
20	0x41db8813	27.441442
21	0x4003256e	2.0491595
22	0x43f4bea1	489.4893
23	0x417d59a6	15.834387

fc1.weight f4 [256, 24]
0	0xbed037b9	-0.40667513
1	0x3dcc870e	0.09986697
2	0x3e8c2687	0.27373144
3	0xbd511533	-0.051045608
4	0xbec23643	-0.37932023
5	0xbf981ad1	-1.1883184
6	0xbec7867c	-0.3896979
7	0x3d8e81a7	0.06958323
8	0xbf02a397	-0.5103087
9	0x3d0b478e	0.034003787
10	0x3efcf2a0	0.49403858
11	0xbd5e3928	-0.054253727
12	0xbe940b8d	-0.28915063
13	0xbf72c35e	-0.94829357
14	0xbe57fd20	-0.21092653
15	0xbc500c44	-0.012698237
16	0x3dc415a7	0.09574442
17	0x3dc6d9ec	0.09709534
18	0x38abcd36	8.192139e-05
19	0xbd859caa	-0.06524022
20	0xbf5631b6	-0.836696
21	0x3c979839	0.018505203
22	0xbc342827	-0.010995901
23	0xbee3e66f	-0.44511744
24	0x3f0fff0d	0.5624855
25	0x3f026f18	0.50950766
26	0xbf312029	-0.691897
27	0xbeff3c92	-0.498509
28	0x3ebe46c2	0.3716336
29	0xbe881487	-0.2657816
30	0x3d81b7d9	0.06333894
31	0xbf603e56	-0.8759512
32	0xbddee630	-0.108837485
33	0x3f17b54d	0.5926102
34	0xbe6e4d74	-0.23271734
35	0x3ee82350	0.4533944
36	0xbc0314b4	-0.0080005415
37	0xbe87bfe9	-0.26513603
38	0x3e475302	0.19465259
39	0xbe709175	-0.23492987
40	0x3ee510c5	0.44739357
41	0x3ecf213e	0.4045505
42	0x3eb0eed0	0.345572
43	0x3f1225bc	0.5708883
44	0xbfce574f	-1.6120394
45	0x3ed6be9a	0.41942292
46	0xbe9dc9e8	-0.30818105
47	0xbe06cfac	-0.13165158
48	0xbf1e19ee	-0.61758316
49	0xbf34f4e4	-0.70686173
50	0x3f2c8479	0.6738964
51	0x3da3fdb6	0.08007376
52	0x3dfd376f	0.12364089
53	0xbda12205	-0.07867817
54	0xbfb55edc	-1.4169574
55	0xbe910393	-0.2832304
56	0xbef3055d	-0.4746503
57	0xbf4ea3c6	-0.8071865
58	0xbc4c63f2	-0.012475001
59	0xbe89ebff	-0.26937863
60	0x3f1f79ec	0.62295413
61	0xbf0d0c78	-0.5509715
62	0x3eedf08c	0.46472585
63	0xbe4c9bc8	-0.19981301
64	0xbf1890a4	-0.59595704
65	0xbfc1eefc	-1.5151057
66	0x3f41c78e	0.7569512
67	0x3e72028f	0.23633789
68	0xbfb024fc	-1.3761287
69	0xbedcf1d0	-0.43153238
70	0xbf3c2093	-0.73487204
71	0xbed331e0	-0.4124899
72	0x3f4a8796	0.7911314
73	0x40010828	2.0161228
74	0xbdc57c7d	-0.09642885
75	0xbf4e0206	-0.8047184
76	0x3e695ba2	0.22788861
77	0x3f738a8d	0.95133287
78	0x3d6d1981	0.05788565
79	0xbfad9229	-1.356023
80	0x3f29ae89	0.66281945
81	0x3f879499	1.0592223
82	0x3e2654bf	0.16243266
83	0xbf67f0e8	-0.9060197
84	0xbdfd44fa	-0.12366672
85	0x3e991fa4	0.29906952
86	0xbb1ed0ac	-0.0024233265
87	0xbfd57c68	-1.6678591
88	0x3f08fc9c	0.5351045
89	0x3efc4af2	0.4927593
90	0x3e9b96ec	0.30388582
91	0xbf4017e3	-0.7503645
92	0xbef5cb1f	-0.48006532
93	0xbd13157d	-0.035909165
94	0xbee33b8b	-0.44381365
95	0xbf536394	-0.8257382
96	0xbefa33f1	-0.48867753
97	0xbec1d813	-0.37860164
98	0xbf0c15b9	-0.54720646
99	0xbf8aee28	-1.085393
100	0xbf34335e	-0.7039088
101	0xbf6e50fa	-0.9309231
102	0xbf43a143	-0.7641794
103	0xbef9eca3	-0.48813352
104	0xbb24493f	-0.0025068072
105	0x3d6731f2	0.056444116
106	0xbee4759f	-0.44620988
107	0x3da52bbb	0.080649815
108	0xbee8d30e	-0.45473522
109	0xbe6b531c	-0.22980922
110	0xbeeda026	-0.46411246
111	0x3e65a468	0.22425997
112	0x3e4c640c	0.1996004
113	0x3e7a7933	0.24460296
114	0xbda708d4	-0.08155981
115	0x3f3e32c4	0.7429621
116	0xc00e5dac	-2.2244673
117	0x3eff2fc8	0.49841142
118	0xbe5e3c52	-0.21702698
119	0xbe04037d	-0.12891956
120	0xbfff4c38	-1.9945135
121	0xbf02be6f	-0.5107183
122	0x3f8bb82a	1.0915577
123	0xbf6e7402	-0.93145764
124	0xbe73f99f	-0.23825692
125	0xbf5cb466	-0.86212766
126	0xbfe051c6	-1.7524955
127	0x3d592a5d	0.053018916
128	0xbecfe5f9	-0.40605143
129	0xbeefc881	-0.4683266
130	0xbf0bfb0a	-0.5467993
131	0x3ef582c7	0.47951338
132	0x3f308079	0.68946034
133	0xbf1643e7	-0.5869736
134	0x3f237b62	0.6386014
135	0xbf81894a	-1.0120022
136	0xbf78f7b6	-0.97252977
137	0xbf874b0d	-1.0569779
138	0x3fa11f9e	1.2587774
139	0xbfc84cbf	-1.5648421
140	0x3de66a30	0.112507224
141	0xbe2808fe	-0.1640968
142	0xbfa6139f	-1.2974738
143	0xbfbf61d6	-1.4951732
144	0x3ed10304	0.40822613
145	0x3f9b6130	1.2139034
146	0xbf5da43c	-0.86578727
147	0xbdee543c	-0.1163716
148	0xbe7a5b99	-0.24449004
149	0xbd557c32	-0.052120395
150	0x3e0a8326	0.13526592
151	0xbd84dbff	-0.064872734
152	0xbdb4c6fc	-0.08827016
153	0x3f9dfaa0	1.234211
154	0xbe851a06	-0.25996417
155	0xbd47610d	-0.04867654
156	0x3f09e4cc	0.5386474
157	0x3dd81aa2	0.10551955
158	0x3e6dc515	0.23219712
159	0xbde1641e	-0.11005424
160	0xbf900e20	-1.1254311
161	0x3ffe5ea8	1.9872637
162	0xbefea335	-0.49733892
163	0x3ee1ee43	0.44127092
164	0x3ee3f7c9	0.44524983
165	0xbfa4d416	-1.2877223
166	0x3f65f703	0.89830035
167	0x3f5c6a65	0.86099845
168	0xbf1384b8	-0.5762439
169	0x3fa8c99a	1.3186524
170	0xbf7b2ddc	-0.9811685
171	0xbeff47db	-0.4985951
172	0x3ecdb2de	0.40175527
173	0xbfd4000d	-1.6562515
174	0xbe4eae41	-0.2018366
175	0x3f5fbd71	0.8739844
176	0xbd470f46	-0.04859855
177	0x3f95d8f9	1.170684
178	0xbe65518f	-0.22394393
179	0x3f11befe	0.56932056
180	0x3b950f67	0.0045489552
181	0xbfbf1bcb	-1.4930357
182	0x3f3fd216	0.7492994
183	0x3f27b40c	0.65509105
184	0xbfac0040	-1.3437576
185	0x3fd36c5f	1.6517447
186	0xbe8de415	-0.27713075
187	0x3cbe587c	0.023235552
188	0x3ea5aa37	0.32356426
189	0xbf8a789e	-1.081806
190	0x3f3798c5	0.7171748
191	0x3c43f234	0.011959601
192	0x3ed3fa17	0.4140174
193	0x3ef015af	0.46891543
194	0x3ecb90e2	0.39758974
195	0x3ecabbab	0.39596304
196	0xc00ae440	-2.1701813
197	0x3bd683e0	0.0065464824
198	0xbe5356f9	-0.20638646
199	0xbf6865c6	-0.90780294
200	0xbe4b143b	-0.19831936
201	0x3e181b25	0.14854105
202	0xbe932cb7	-0.28745052
203	0xbe892f77	-0.26794025
204	0xbe754f3d	-0.23956008
205	0x3eb06877	0.344547
206	0xbeb0c562	-0.3452559
207	0xbef1484a	-0.47125465
208	0x3f3998b4	0.7249863
209	0x3f649964	0.89296556
210	0x3f69b059	0.9128471
211	0xbf62d91e	-0.88612545
212	0x3f669bd0	0.900815
213	0xbf12f4d6	-0.5740484
214	0xbf0d7ee1	-0.55271727
215	0x3f3d2b41	0.73894125
216	0x3dd123ce	0.10211907
217	0xbfde03dd	-1.7344929
218	0x3eb5ca39	0.35505846
219	0xbdd49ced	-0.10381494
220	0xbfed33d6	-1.8531444
221	0xbde5ac1e	-0.112144694
222	0xbeccd61f	-0.4000711
223	0x3fe5058f	1.7892321
224	0x3f3d3c91	0.7392054
225	0xbfa152b0	-1.2603359
226	0x3e82fc1c	0.2558297
227	0x3e0dd176	0.13849434
228	0xbe57e56f	-0.21083616
229	0xbe4fba81	-0.2028599
230	0xbfbdfb1b	-1.4842256
231	0x3f24b2a1	0.64335066
232	0x3ec065cd	0.37577668
233	0xbf8d823f	-1.1055373
234	0xbf9c6c61	-1.2220575
235	0xbc4d4fbd	-0.012531218
236	0x3e9c23a3	0.3049594
237	0xbe34e12a	-0.17664018
238	0x3eb512e6	0.3536598
239	0x3ee1515a	0.4400738
240	0xbf2a4ae1	-0.66520506
241	0xbfaff111	-1.3745443
242	0xbed383be	-0.4131145
243	0x3f4427ef	0.76623434
244	0xbdf0f384	-0.11765197
245	0x3e9d9c85	0.30783477
246	0xbfd753d1	-1.6822454
247	0x3f256c51	0.646184
248	0xbfea2e5b	-1.8295397
249	0xbfb32c62	-1.399792
250	0xbeaa81c0	-0.33302116
251	0x3e019661	0.12655021
252	0xbe96c02c	-0.2944349
253	0xbf4999a6	-0.78750074
254	0xc00c1266	-2.188623
255	0x3eb99ca5	0.36252323

fc1.bias f4 [256]
0	0x3c6d3d16	0.014479896
1	0xbe4c9ebb	-0.19982426
2	0x3d8a8b12	0.06764807
3	0xb90d8a5c	-0.00013498351
4	0xbe09e209	-0.13465132
5	0xbd9b3406	-0.07578282
6	0xbda463fe	-0.080268845
7	0xbdbb16c7	-0.09135204
8	0xbd511114	-0.051041678
9	0x3d1bd7cb	0.038047593
10	0xbdf139e8	-0.11778623
11	0x3d525409	0.051349673
12	0xbe2c59ce	-0.16831133
13	0x3e44cd94	0.19219047
14	0xbdfa3e96	-0.122189686
15	0x3db2305a	0.087006286
16	0xbe0f1334	-0.13972169
17	0xbe0eb5ee	-0.13936588
18	0xbcfa1f2d	-0.030532444
19	0xbdece52d	-0.11567149
20	0xbd69cccb	-0.05708007
21	0xbdb5e5e2	-0.08881737
22	0xbd69e7d4	-0.057105854
23	0xbe211a9f	-0.15732811
24	0x3e4bd4ce	0.19905397
25	0x3dea66a8	0.114453614
26	0xbd95d137	-0.07315295
27	0x3e17c7a8	0.14822257
28	0xbdba495f	-0.09096026
29	0xbe2a7b75	-0.16648658
30	0x3d848dda	0.064723685
31	0xbd8f9da7	-0.07012492
32	0x3e1d1d92	0.15343311
33	0xbd5f694d	-0.054543782
34	0xbe2a5dd3	-0.16637354
35	0x3e301215	0.17194398
36	0x3d388b56	0.045054756
37	0x3d7be70a	0.061499633
38	0xbca5a72c	-0.020221315
39	0xbe261ff2	-0.16223124
40	0x3d882db1	0.0664934
41	0x39c45f8b	0.00037455218
42	0xbe0a6442	-0.13514808
43	0x3dee6d94	0.11641994
44	0xbe43bcbf	-0.1911497
45	0xbe016cf9	-0.12639226
46	0xbd417e39	-0.047239516
47	0xbe4449aa	-0.19168726
48	0xbe3bf053	-0.18353395
49	0xbd7b3c82	-0.061337
50	0xbd1ce4a3	-0.038303982
51	0x3e19668c	0.14980525
52	0x3dc2a022	0.09503199
53	0x3e431d65	0.19054182
54	0x3d82e8f5	0.06392089
55	0x3cdf990f	0.027294664
56	0xbd2119f5	-0.039331395
57	0xbdb02fc4	-0.086028606
58	0xbe3b395a	-0.18283597
59	0xbe3f26d3	-0.18667154
60	0x3db18f4b	0.08669909
61	0xbe041232	-0.12897566
62	0xbdabe16d	-0.08392606
63	0x3dc3f36f	0.09567916
64	0xbe010856	-0.12600836
65	0x3d9a798f	0.07542717
66	0xbc386c29	-0.011256256
67	0x3d2c32e5	0.042040724
68	0xbdbedf16	-0.09319894
69	0x3e1825c4	0.14858156
70	0xbe2af2a5	-0.16694124
71	0xbe4347f3	-0.19070415
72	0x3e22bb01	0.15891649
73	0xbe0d3582	-0.13789943
74	0x3e48b4a1	0.19600154
75	0x3db9a930	0.09065473
76	0x3da148ef	0.07875239
77	0xbcca7d87	-0.02471806
78	0x3d1fc34e	0.039004616
79	0x3d5650ac	0.05232303
80	0xbdc85064	-0.09780958
81	0x3e1a0675	0.15041526
82	0x3e00503c	0.12530607
83	0x3c2b3190	0.010448828
84	0x3d6fc47d	0.058536995
85	0xbcc8cda4	-0.02451212
86	0xbd970365	-0.07373694
87	0xbe213287	-0.15741931
88	0xbda09898	-0.07841605
89	0xbe47cb9b	-0.19511263
90	0xbd839598	-0.06425017
91	0x3dda1fb1	0.10650576
92	0x3e4a447e	0.1975269
93	0xbe3f4902	-0.18680194
94	0xbe2dc135	-0.16968234
95	0x3e2c8546	0.16847715
96	0xbd9451b2	-0.07242145
97	0x355477b7	7.915036e-07
98	0x3e0325ee	0.12807438
99	0x3e3924f1	0.18080498
100	0x3d9e9c91	0.077447064
101	0x3d4c6656	0.049902283
102	0xbb6d97ec	-0.0036253883
103	0x3b9f04d1	0.004852869
104	0x3da93101	0.082613
105	0xbe447f68	-0.19189227
106	0xbe4af601	-0.19820406
107	0x3e0d1de3	0.13780932
108	0xbe4c6d02	-0.19963458
109	0x3ddbafc8	0.10726887
110	0x3e175746	0.14779386
111	0x3e0a63db	0.13514654
112	0x3d7f28aa	0.06229464
113	0x3cbbd97b	0.022930851
114	0x3dc099f3	0.094043635
115	0x3df9be6f	0.121945255
116	0x3bd48167	0.0064851525
117	0xbe166fc0	-0.14691067
118	0x3e01cace	0.1267502
119	0x3cb33226	0.021874499
120	0x3dfbbcc2	0.12291862
121	0xbe0bfc86	-0.13670549
122	0xbd50d216	-0.050981604
123	0xbe06a3fb	-0.13148491
124	0x3c3c318c	0.011486422
125	0x3e3366b2	0.17519644
126	0x3d1df390	0.038562357
127	0x3e31b22e	0.17353126
128	0x3e199c23	0.15000968
129	0xbe0ff339	-0.14057626
130	0x3e48d9c5	0.19614322
131	0x3c3f22ed	0.011666042
132	0x3e2f02df	0.17090939
133	0x3d217b84	0.039424434
134	0xbd0f9d94	-0.035062388
135	0x3e3171fe	0.17328641
136	0xbe1ab50a	-0.15108123
137	0x3b8f08a4	0.0043650437
138	0xbcf22199	-0.029557036
139	0x3c06d8cb	0.008230398
140	0xbd6fe19a	-0.05856476
141	0x3e25f03c	0.16204923
142	0xbc2d8c44	-0.010592524
143	0x3dadb5ed	0.08481965
144	0x3db40ca9	0.08791477
145	0x3e3e2cff	0.18571852
146	0x3d9711c3	0.07376435
147	0xbe501450	-0.20320249
148	0xbe2d3773	-0.16915683
149	0xbe458321	-0.19288303
150	0xbe4c8a3e	-0.1997461
151	0xbe2de8b2	-0.16983297
152	0xbb3a4ea9	-0.0028428233
153	0x3e45d468	0.19319308
154	0xbe0747ec	-0.1321103
155	0x3daf7170	0.08566558
156	0xbdbf20a0	-0.093323946
157	0x3e21ef0f	0.1581385
158	0x3e07eef3	0.13274746
159	0x3dc23dc0	0.09484434
160	0x3e38248b	0.1798269
161	0xbe1db58a	-0.15401283
162	0xbe31611f	-0.17322205
163	0xbdd62542	-0.10456325
164	0x3d2aef14	0.04173191
165	0x3e38efbc	0.18060201
166	0x3e0a039f	0.13477944
167	0x3d834848	0.06410271
168	0xbd0b23d7	-0.033969726
169	0xbdec3a49	-0.115345545
170	0x3e5076c8	0.20357811
171	0xbe36c107	-0.17847072
172	0xbe106f1d	-0.14104886
173	0x3df60fc7	0.12014728
174	0x3e22bf38	0.15893257
175	0x3d5bbef7	0.053648915
176	0xbb2c68e0	-0.0026307628
177	0xbcc75d6a	-0.024336535
178	0x3cd8396f	0.026394574
179	0xbdd33bd2	-0.10314144
180	0x3e4e646d	0.20155497
181	0x3e513487	0.20430194
182	0xbda162f0	-0.07880199
183	0x3e112ae1	0.14176513
184	0xbd4748fa	-0.04865358
185	0xbe1785b7	-0.14797102
186	0x3d0ef970	0.03490585
187	0xbd1f9ea9	-0.03896967
188	0x3e2dab4f	0.1695988
189	0x3c65c2e9	0.014023521
190	0xbd382518	-0.04495725
191	0xbe262e45	-0.16228588
192	0x3e08abe2	0.13346818
193	0x3e0b8c92	0.13627842
194	0x3ceb50fc	0.02872514
195	0xbc927ec4	-0.017882712
196	0xbd8fe05b	-0.07025214
197	0x3d41ca85	0.04731228
198	0x3e4896fa	0.19588843
199	0xbd095444	-0.033527628
200	0x3c9823fa	0.018571842
201	0xbe471901	-0.19443132
202	0x3d5568d7	0.052101936
203	0xbdb34e86	-0.087552115
204	0xbd45b08c	-0.04826407
205	0xbdddac69	-0.108239
206	0x3e419b39	0.18906869
207	0x3e0e3749	0.13888277
208	0xbdb2f340	-0.087378025
209	0xbd4e92bf	-0.050432917
210	0x3d7e1267	0.06202927
211	0x3d9c3268	0.07626802
212	0xbdc41ba9	-0.09575588
213	0x3da869c4	0.08223298
214	0x3d0760c1	0.033051256
215	0x3df06cce	0.11739503
216	0xbde1d5a4	-0.11027077
217	0xbe073551	-0.13203932
218	0x3dc1fb85	0.09471802
219	0xbc08e767	-0.008355952
220	0xbdb63273	-0.08896341
221	0x3e23de8a	0.1600286
222	0xbcb57a63	-0.022153085
223	0xbe0b4747	-0.13601409
224	0xbcea0f7f	-0.028571842
225	0xbdc229ee	-0.09480654
226	0xbd8f05db	-0.06983539
227	0xbe2c4fa4	-0.16827255
228	0x3e26d9fe	0.16294095
229	0x3e3804b5	0.17970546
230	0xbe3055ec	-0.17220277
231	0x3e02de8b	0.12780206
232	0x3d760235	0.0600607
233	0xbda9b0c2	-0.08285667
234	0xbd7786f5	-0.06043144
235	0x3d101c6d	0.03518336
236	0x3d30da34	0.043176845
237	0x3e312e5b	0.1730284
238	0x3e48383d	0.19552703
239	0x3c4036ab	0.011731784
240	0x3e449d34	0.19200593
241	0xbdfb1cf1	-0.122613795
242	0x3ad9e581	0.0016624184
243	0xbe2ccc00	-0.16874695
244	0x3dc84240	0.09778261
245	0x3d28115d	0.041032184
246	0xbdfcf968	-0.12352258
247	0xbe1f73f2	-0.15571573
248	0xbd260400	-0.04053116
249	0xbd9e2d1f	-0.0772345
250	0xbdaaa7aa	-0.08332761
251	0xbe34a066	-0.17639312
252	0xbe05be4d	-0.13060875
253	0x3e2d71ba	0.16937914
254	0xbdcd97c3	-0.10038712
255	0x3da96d69	0.082728215

bn1.weight f4 [256]
0	0x3e36e4a9	0.17860664
1	0x3eb2fef7	0.34960148
2	0x3f861004	1.0473638
3	0x3f3f6b84	0.7477343
4	0x3ed948f9	0.42438486
5	0x3e7c488b	0.24637048
6	0x3f771689	0.9651876
7	0x3f89bc97	1.0760678
8	0x3f6e4e95	0.93088657
9	0x3f30560a	0.68881285
10	0x3f36a532	0.7134582
11	0x3ede9759	0.43474844
12	0x3f5a84d8	0.85358953
13	0x3f85b3f3	1.0445541
14	0x3e5398c6	0.20663747
15	0x3f8c04e8	1.0938997
16	0x3c8fd371	0.017556878
17	0x3e152c90	0.1456778
18	0x3f785268	0.9700074
19	0x3f985a06	1.1902473
20	0x3f60e2cc	0.87846065
21	0x3f9f1f9b	1.243152
22	0x3f3b7ae7	0.7323441
23	0x3f5fb7b7	0.873897
24	0x3c89a921	0.01680428
25	0x3f914af6	1.1351001
26	0x3c9418dd	0.018078262
27	0x3d1ad4a8	0.03780046
28	0x3fa16f84	1.2612157
29	0x3f9ab6d5	1.2087046
30	0x3f6baec8	0.9206357
31	0x3e47dd3f	0.19517992
32	0xbd0158ff	-0.031579014
33	0x3f771d10	0.9652872
34	0x3f145f1b	0.5795762
35	0x3e68f731	0.22750546
36	0x3f7cd951	0.987691
37	0x3fa73136	1.3061893
38	0x3fc7fe8a	1.5624554
39	0x3eaf9ffb	0.34301743
40	0x3e8b67fa	0.27227765
41	0x3ea625f8	0.32450843
42	0x3cbd0949	0.023075717
43	0x3e12137e	0.14265248
44	0x3d033e84	0.03204204
45	0x3f8a8c6b	1.0824102
46	0x3ea09de4	0.3137046
47	0x3ece36c7	0.40276167
48	0x3f9b6dfc	1.214294
49	0x3dbdd671	0.09269417
50	0x3fcb6f48	1.5893335
51	0x3f6fc599	0.93660885
52	0x3e10020c	0.14063281
53	0x3f867e28	1.050725
54	0x3f64d3c3	0.8938562
55	0x3d1ba52a	0.03799931
56	0x3c9f1432	0.01941881
57	0x3f2b8653	0.6700184
58	0x3af4ffb1	0.0018691925
59	0x3e8db592	0.2767759
60	0x3dc10804	0.09425357
61	0x3ec32fac	0.38122308
62	0x3ef90513	0.48636684
63	0x3f508c33	0.8146393
64	0x3e1b550e	0.15169165
65	0x3eb0d6c2	0.34538847
66	0x3c73f3e3	0.01488969
67	0x3f9b9c36	1.2157047
68	0xbfb8dddf	-1.444271
69	0x3f1f7729	0.622912
70	0x3f8297ef	1.0202616
71	0x3e331e6f	0.17492078
72	0x3f7c2ccf	0.9850587
73	0x3de2443a	0.110481694
74	0x3efc7649	0.49308994
75	0x3e3fc1e4	0.18726307
76	0x3e03d0a6	0.12872562
77	0x3f289185	0.65847045
78	0x3f42a72d	0.7603634
79	0x3e0997a9	0.1343676
80	0x3fc5d203	1.5454715
81	0x40081f67	2.1269166
82	0x3f2cf616	0.67563
83	0x3f554cfc	0.83320594
84	0xbbafe579	-0.0053679314
85	0x3faf5438	1.3697577
86	0x3d1e766c	0.038687155
87	0xbd1eddf9	-0.03878591
88	0x3baae6b5	0.0052154907
89	0x3f5ffcd7	0.8749518
90	0x3e675e9f	0.22594689
91	0x3fe14fb6	1.7602451
92	0x3f63e932	0.890277
93	0x3f680f30	0.90648174
94	0x3d4bcd6d	0.049756456
95	0x3bfc724c	0.007704055
96	0x3fa02980	1.2512665
97	0x3f0e8f1d	0.55687124
98	0x3da6fae1	0.0815332
99	0x3e6cb802	0.23117068
100	0x3eb1194e	0.34589618
101	0x3f884d8a	1.0648663
102	0x3ea57d11	0.3232198
103	0x3fb411c6	1.4067924
104	0x3f079d81	0.52974707
105	0x3e9319bf	0.2873058
106	0x3ec5a4e7	0.38602373
107	0x3eac6526	0.3367092
108	0x3f51afb4	0.81908727
109	0x3be021e9	0.00683998
110	0x3bf330c4	0.007421585
111	0x3f0a2065	0.5395568
112	0x3e88cbcc	0.26717985
113	0x3f854d62	1.041424
114	0x3f4020f4	0.7505028
115	0x3f7de5f0	0.9917898
116	0x3ebeff38	0.3730409
117	0xbb6d6103	-0.0036221154
118	0x3f25ca03	0.6476137
119	0x3fa0fb1f	1.2576636
120	0x3e047b35	0.12937625
121	0xbc2cff93	-0.0105589805
122	0x3e4fa720	0.20278597
123	0x3e8b4ba0	0.27206135
124	0x3f6e5dba	0.93111765
125	0x3fc187ce	1.5119569
126	0x3dea4ed9	0.1144082
127	0x3f4c1ec6	0.79734457
128	0x3e49724c	0.19672507
129	0x3f463988	0.77431536
130	0x3fa5d4b2	1.2955534
131	0x3e6bdabe	0.23032662
132	0x3c670c03	0.014101985
133	0x3f484d88	0.78243303
134	0x3c8ad0fd	0.016945357
135	0x3bfc1ca8	0.007693846
136	0x3e55d656	0.20882544
137	0x3f85fb44	1.0467305
138	0x3f43c1ca	0.76467574
139	0x3f5338a5	0.8250831
140	0x3d86a0a2	0.06573607
141	0x3c0b8f22	0.008518012
142	0x3f3ddaf5	0.74162227
143	0x3f86bd72	1.0526564
144	0x3d6a8033	0.057251167
145	0x3fb5006e	1.4140756
146	0x3eb0953e	0.34488863
147	0x3f7194cc	0.9436767
148	0x3e451612	0.192467
149	0x3e3edc38	0.18638694
150	0x40444b0e	3.067081
151	0x3c70513c	0.014667805
152	0x3cb67309	0.02227165
153	0xbc1e385b	-0.009656991
154	0x3c736ec4	0.014857952
155	0x3f5535a4	0.83284974
156	0x3f0eeca9	0.55829865
157	0x3e8ae78b	0.27129778
158	0x3e832441	0.25613597
159	0xbb3c35d2	-0.0028718603
160	0x3ca00a51	0.01953617
161	0x3dfe5bd4	0.124198586
162	0x3dceca89	0.10097224
163	0x3e707e97	0.2348579
164	0x3f49f6e7	0.7889237
165	0x3f38f7a0	0.72252846
166	0x3f6a942c	0.9163234
167	0x3e997875	0.29974714
168	0x3fc74ced	1.5570351
169	0x3f4be64c	0.7964828
170	0x3e9a11fd	0.3009185
171	0x3e9524f5	0.29129758
172	0x3fb90642	1.4455035
173	0x3d9872ee	0.07443796
174	0x3fd5cb62	1.6702693
175	0x3c718fde	0.014743773
176	0x3f9e1372	1.2349684
177	0x3f142cb5	0.5788072
178	0x3e471d5d	0.19444795
179	0x3f2a2ca3	0.6647436
180	0x3e7c04d4	0.24611217
181	0x3f3b50db	0.7317025
182	0x3f113b51	0.56731135
183	0x3f355521	0.7083302
184	0x3f34b3c9	0.7058683
185	0x3ea992e0	0.3311987
186	0x3e630a08	0.22171795
187	0x3f162292	0.586465
188	0x3e464a43	0.19364266
189	0x3f7d935c	0.9905298
190	0x3d08ed48	0.033429414
191	0x3f3b756b	0.7322604
192	0x3f04e25d	0.519079
193	0x3e7a73ad	0.2445819
194	0x3db44b3e	0.08803414
195	0x3c79fad2	0.015257554
196	0x3fa29c58	1.2703962
197	0x3dba2bba	0.090903714
198	0x3b9389e8	0.0045025237
199	0x3f5736b1	0.8406783
200	0x3fe90a14	1.8206201
201	0x3ed6eb19	0.4197624
202	0x3e39a36c	0.18128747
203	0x3e63a0b0	0.22229266
204	0x3f8072b6	1.0035007
205	0x3d4c139b	0.049823385
206	0x3d85e133	0.06537094
207	0x3f98325e	1.1890371
208	0x3f63e53b	0.8902165
209	0x3fae1983	1.3601536
210	0x3f29bc7f	0.6630325
211	0x3f80b724	1.005589
212	0x3fef6ac9	1.8704463
213	0x3f2e5cab	0.6811015
214	0x3f6d8198	0.9277587
215	0x3f85d879	1.0456687
216	0x3f367095	0.71265537
217	0x3e957520	0.29190922
218	0x3fa23ce7	1.2674836
219	0x3f3211d4	0.69558454
220	0x3e8e77ea	0.27825862
221	0x3f2e0933	0.67982787
222	0x3f672e7e	0.90305316
223	0x400cae96	2.1981559
224	0x409b476d	4.852469
225	0x3e608ba5	0.2192827
226	0x3f4d21f1	0.80129915
227	0x3f452cac	0.7702129
228	0x3d1ab22d	0.037767578
229	0x3f4795ac	0.77962756
230	0x3e8080fc	0.25098407
231	0x3f4a89aa	0.7911631
232	0x404087de	3.0082927
233	0x3f95d050	1.1704197
234	0x3f48f3b0	0.7849684
235	0x3ee67dad	0.45017758
236	0x3e841fd6	0.2580554
237	0x3f7f706d	0.99780923
238	0x3f834ccb	1.025781
239	0x3e836899	0.2566574
240	0x3bb8b7e1	0.0056371544
241	0x3fa27631	1.2692319
242	0x3f257421	0.64630324
243	0x3f36b4cd	0.7136963
244	0x3be24692	0.0069053853
245	0x3f721a8a	0.94571745
246	0x3f17a982	0.59243023
247	0x3e3eba92	0.18625858
248	0xbc16b54d	-0.009198499
249	0x3e91ee54	0.28502142
250	0x3f25aafe	0.6471404
251	0x3f155202	0.5832826
252	0x3f1b70d3	0.6071903
253	0x3f9ac935	1.2092654
254	0xbcb7a6df	-0.022418438
255	0x3fd2c3aa	1.6465962

bn1.bias f4 [256]
0	0xbf5a3e5e	-0.85251415
1	0xbf900aee	-1.1253335
2	0xbfa36400	-1.2764893
3	0xbf856605	-1.0421759
4	0xbfa291e4	-1.2700772
5	0xbf8f3eb3	-1.1191009
6	0xbfb56902	-1.4172671
7	0xbfa19dfc	-1.2626338
8	0xbf2bf0ff	-0.67164606
9	0xbfa0635b	-1.2530321
10	0xbf2a4f19	-0.66526943
11	0xbfad6f15	-1.3549525
12	0xbee02f26	-0.4378597
13	0x3dd9bd00	0.10631752
14	0xbf1ca857	-0.61194366
15	0x3f47501e	0.77856624
16	0xbde11f72	-0.10992326
17	0xbefe849a	-0.49710542
18	0xbf41cb7b	-0.7570111
19	0xbf716c3b	-0.9430577
20	0xbf99a3a1	-1.200306
21	0xbf3dd0f1	-0.74146944
22	0xbf3313a1	-0.69951826
23	0xbf066fdd	-0.5251444
24	0xbd8b7004	-0.06808475
25	0xbf1e4669	-0.6182619
26	0xbda57e6f	-0.08080756
27	0xbdf715b0	-0.120646834
28	0xbab83382	-0.0014053436
29	0xbf830363	-1.0235409
30	0xbfa3ab99	-1.2786742
31	0xbef693b3	-0.4815956
32	0xbe0940cd	-0.13403626
33	0xbf849b95	-1.035998
34	0xbf92e379	-1.1475669
35	0xbf39e542	-0.72615445
36	0xbf597cc7	-0.8495602
37	0xbf710aff	-0.94157404
38	0xbfbdb554	-1.4820962
39	0xbf71a73d	-0.9439581
40	0xbf93d929	-1.1550647
41	0xbf975408	-1.1822519
42	0xbe18c2c5	-0.14918049
43	0xbf0264b0	-0.50934887
44	0xbe771a97	-0.24131237
45	0xbeee9655	-0.4659907
46	0xbf6809b5	-0.9063981
47	0xbf89c3cc	-1.0762877
48	0xbf530b80	-0.8243942
49	0xbec63d5c	-0.38718688
50	0xbfacb40c	-1.3492446
51	0xbf2739fe	-0.65322864
52	0xbf35ae25	-0.7096885
53	0xbec52fbf	-0.3851299
54	0xbfb2fd43	-1.3983539
55	0xbdeb3169	-0.114840336
56	0xbdbdb5b4	-0.09263173
57	0xbf89507f	-1.072769
58	0xbdacbd93	-0.08434596
59	0xbf5de373	-0.86675185
60	0xbf210336	-0.62895525
61	0xbfadea26	-1.3587081
62	0xbf29ed72	-0.6637794
63	0xbeeac776	-0.45855302
64	0xbf1d9f58	-0.61571264
65	0xbf36e00e	-0.7143563
66	0xbd6bf54f	-0.05760699
67	0xbf92560f	-1.1432513
68	0x3dcfd6ce	0.101483926
69	0xbef31e4c	-0.47484052
70	0xbea3837a	-0.31936246
71	0xbf00e584	-0.50350213
72	0xbea1d1d8	-0.3160541
73	0xbed007fa	-0.40631086
74	0xbf8ecf92	-1.1157095
75	0x3f20557d	0.62630445
76	0xbef2285c	-0.47296417
77	0xbf9b63b0	-1.2139797
78	0xbf6ff5e5	-0.9373458
79	0xbf078523	-0.52937526
80	0xbecc1828	-0.3986218
81	0xbf5a13f3	-0.8518669
82	0xbf3c0487	-0.7344441
83	0xbfb05076	-1.3774555
84	0xbdc30469	-0.095223255
85	0xbf6076bd	-0.8768118
86	0xbe4e3ef1	-0.20141198
87	0x3edb195a	0.4279278
88	0xbd4faffd	-0.050704945
89	0xbfb5263e	-1.4152296
90	0xbf9ab2fb	-1.208587
91	0xbf007ff2	-0.5019523
92	0xbf311566	-0.69173276
93	0xbf716c81	-0.9430619
94	0xbe079cc7	-0.132434
95	0xbd032012	-0.032013007
96	0xbf261834	-0.6488068
97	0xbf869d4d	-1.0516754
98	0xbe9d3b14	-0.30709136
99	0xbf17e309	-0.59330803
100	0xbf417174	-0.7556374
101	0xbf547338	-0.8298831
102	0xbfc781ff	-1.5586547
103	0xbf3f1a95	-0.74649936
104	0xbea6e6ad	-0.32597867
105	0xbf3bae29	-0.7331262
106	0xbf995db9	-1.1981727
107	0xbf6e1e25	-0.93014747
108	0xbed7a37a	-0.4211691
109	0xbcb89c58	-0.022535488
110	0xbd1f3ed5	-0.03887828
111	0xbfb0e058	-1.3818464
112	0xbf3793bc	-0.717098
113	0xbf8ddf9d	-1.1083866
114	0xbf639524	-0.88899446
115	0xbf979fcc	-1.1845641
116	0xbf7f07e7	-0.99621433
117	0xbe11c6c7	-0.14235984
118	0xbe969fdf	-0.29418847
119	0xbf90d51a	-1.1315033
120	0xbf49f638	-0.78891325
121	0xbda955c0	-0.08268309
122	0xbf43b1f8	-0.76443434
123	0xbf730ab0	-0.9493818
124	0xbf13fd55	-0.5780843
125	0xbf90d384	-1.131455
126	0xbf09ac6f	-0.5377874
127	0xbf8d7fda	-1.1054642
128	0xbf26b3ef	-0.65118307
129	0xbf09c04a	-0.53809035
130	0xbefc9493	-0.49332103
131	0xbf466c98	-0.7750945
132	0xbd6694e5	-0.05629434
133	0x3e50f566	0.20406112
134	0xbe6845be	-0.22682855
135	0xbd175f65	-0.03695621
136	0xbf69e702	-0.91368115
137	0xbf5fbe01	-0.873993
138	0xbf9285ba	-1.144706
139	0xbf5c4c94	-0.8605435
140	0xbe6df88c	-0.23239344
141	0xbd2f5228	-0.04280296
142	0xbed27d97	-0.41111442
143	0xbf47fe53	-0.7812244
144	0xbe8cd51d	-0.27506343
145	0xbe6919dc	-0.22763771
146	0xbf8aa6f8	-1.0832205
147	0xbf1b7f50	-0.6074114
148	0xbf2695f8	-0.65072584
149	0xbf6f7603	-0.93539447
150	0xbd3e0de3	-0.046399962
151	0xbd5b1bb1	-0.053493205
152	0xbdcea416	-0.10089891
153	0xbd9d2dba	-0.07674737
154	0xbe19d0b7	-0.15021025
155	0xbfb8f52a	-1.4449818
156	0xbf68ed1a	-0.9098679
157	0xbf3c56e3	-0.7357008
158	0xbf5fa651	-0.87363154
159	0xbc9ec2db	-0.019380024
160	0xbd910d02	-0.07082559
161	0xbf2c185d	-0.67224675
162	0xbe9bceba	-0.30431157
163	0xbf0bdc91	-0.5463343
164	0xbf9e9cfe	-1.239166
165	0xbfa5f3ea	-1.2965062
166	0xbf1e3a4f	-0.6180772
167	0xbf44d358	-0.76884985
168	0x3debe119	0.11517543
169	0xbfae631e	-1.3623998
170	0xbf854c57	-1.0413922
171	0xbf3e371e	-0.7430285
172	0xbf8bd3f1	-1.0924054
173	0xbe6cc609	-0.2312242
174	0xbf9117dc	-1.1335406
175	0xbdb8c675	-0.09022228
176	0xbf504c47	-0.8136639
177	0xbf893790	-1.0720081
178	0xbf6a96fc	-0.91636634
179	0xbf4c4396	-0.7979063
180	0xbfa621e9	-1.2979099
181	0xbf2c1f21	-0.67235
182	0xbf3a9f26	-0.7289909
183	0xbf9ce019	-1.2255889
184	0xbf704e14	-0.9386914
185	0xbfec52b2	-1.8462737
186	0xbf2d0e56	-0.676
187	0xbf94b9aa	-1.161916
188	0xbf93cb94	-1.1546502
189	0xbf3dec1f	-0.7418842
190	0xbe0dbae3	-0.13840823
191	0xbf57fa3a	-0.8436619
192	0xbecfba4c	-0.4057182
193	0xbf235afd	-0.6381071
194	0xbe9ee2ae	-0.31032318
195	0xbd4b1bdb	-0.049587112
196	0xbf83047e	-1.0235746
197	0xbeb01d84	-0.3439752
198	0xbd0a77b3	-0.03380556
199	0xbf9464b4	-1.1593232
200	0xbf81b1db	-1.0132402
201	0xbf8768c6	-1.0578849
202	0xbf1d705a	-0.6149956
203	0xbf26e38b	-0.65190953
204	0xbf5be687	-0.8589863
205	0xbe2f54ba	-0.17122164
206	0xbe707567	-0.23482285
207	0xbfe146dd	-1.7599751
208	0xbfc10e6e	-1.5082529
209	0xbeda4534	-0.42630923
210	0xbf2470e0	-0.64234734
211	0xbf8aa293	-1.0830864
212	0xbe7d8093	-0.24756078
213	0xbe612f87	-0.21990786
214	0xbf61f26b	-0.88260525
215	0xbf7c58d2	-0.9857303
216	0x3f3e18d5	0.7425664
217	0x3e611ffe	0.2198486
218	0xbef860d7	-0.48511383
219	0xbf0c46e0	-0.54795647
220	0xbf48810a	-0.783219
221	0xbf3f794f	-0.7479448
222	0xbfab0e0d	-1.3363663
223	0xbefb4e02	-0.49082953
224	0x3f88b940	1.0681534
225	0xbf5d1413	-0.86358756
226	0xbfb25f36	-1.3935306
227	0xbf9ccfa9	-1.2250873
228	0xbe25d637	-0.16194998
229	0xbf37ee8e	-0.7184838
230	0xbf840b95	-1.0316035
231	0xbf2642d6	-0.64945734
232	0x3eeab3a6	0.45840186
233	0xbf91b76d	-1.1384102
234	0xbed95deb	-0.42454466
235	0xbf8603e1	-1.0469934
236	0xbf3163ad	-0.6929272
237	0xbf69d673	-0.9134285
238	0xbf773291	-0.96561533
239	0xbf6bd362	-0.9211942
240	0xbd6b0bcc	-0.057384297
241	0x3e8a9e7f	0.27074048
242	0xbf6ea176	-0.9321512
243	0xbeda24cd	-0.42606202
244	0xbd0fc59f	-0.035100576
245	0xbf6569a6	-0.8961433
246	0xbfa6c896	-1.3029964
247	0xbf125da7	-0.5717415
248	0xbd320168	-0.043458372
249	0xbf580658	-0.8438468
250	0xbefd630c	-0.4948963
251	0xbf9549f0	-1.1663189
252	0xbf92be1b	-1.1464266
253	0xbf5c4e96	-0.8605741
254	0xbdc0add9	-0.09408159
255	0xbeaa7a99	-0.3329666

bn1.running_mean f4 [256]
0	0xbad76f9b	-0.0016436459
1	0xbe5da7ad	-0.21645994
2	0x3d82dc6f	0.063897006
3	0xbc60caf3	-0.013720262
4	0xbe33e3b7	-0.17567335
5	0xbd8d7bb9	-0.06908364
6	0xbd588266	-0.052858733
7	0xbd6a3c86	-0.057186626
8	0xbdbeedce	-0.093227014
9	0xbc5db9fd	-0.013533113
10	0xbe045535	-0.12923129
11	0x3d907827	0.07054167
12	0xbe1cffda	-0.15331975
13	0x3e415b92	0.18882588
14	0xbe08d8af	-0.13363908
15	0x3d8ecc3d	0.06972549
16	0xbe0c9bc1	-0.1373129
17	0xbe0c42b2	-0.13697317
18	0x3c5b0ce2	0.013369771
19	0xbd96ac5e	-0.07357095
20	0xbd1f4af3	-0.038889837
21	0xbdf04351	-0.117315896
22	0xbcf54802	-0.029941563
23	0xbe1cc058	-0.15307748
24	0x3e3c0c93	0.18364172
25	0x3d849b27	0.064749055
26	0xbdce671d	-0.10078261
27	0x3e043861	0.12912132
28	0xbd8225ce	-0.06354867
29	0xbe2cd31b	-0.16877405
30	0x3dc49d2f	0.09600293
31	0xbd7e6c3d	-0.062114943
32	0x3e0fe937	0.14053808
33	0xbd0b6059	-0.03402743
34	0xbe2adfa4	-0.16686875
35	0x3e2c16c9	0.16805567
36	0xbc3ec621	-0.011643917
37	0x3d0b4bea	0.034007944
38	0xbd0fd0ef	-0.035111364
39	0xbe25ab30	-0.16178584
40	0x3d4b5ace	0.049647145
41	0xbca7fc37	-0.020506008
42	0xbe06a90b	-0.13150422
43	0x3dd95946	0.10612731
44	0xbe3ff0a5	-0.18744142
45	0xbdcc04c3	-0.09961846
46	0xbd053586	-0.032521747
47	0xbe3a8b23	-0.18217139
48	0xbe2abeed	-0.16674395
49	0xbd9396f2	-0.07206525
50	0xbd1ab352	-0.03776867
51	0x3e231036	0.15924153
52	0x3d80455a	0.06263228
53	0x3e44be7c	0.19213289
54	0x3db6311f	0.08896088
55	0x3c9e1fc6	0.01930226
56	0xbd24d54f	-0.04024249
57	0xbdb947a0	-0.090468645
58	0xbe51d419	-0.20491065
59	0xbe52cbf3	-0.20585613
60	0x3db60b6d	0.08888898
61	0xbe10e49d	-0.14149709
62	0xbd841644	-0.06449559
63	0x3daba07c	0.08380219
64	0xbdf4afae	-0.11947571
65	0x3d8e3e3c	0.06945464
66	0xbceacc15	-0.028661767
67	0x3ca9c1d2	0.020722304
68	0xbdbc2b8c	-0.091879934
69	0x3e0d14ed	0.13777514
70	0xbe2bf651	-0.16793181
71	0xbe3b9675	-0.18319114
72	0x3e52c1c1	0.20581724
73	0xbe1387e6	-0.1440731
74	0x3e41868d	0.18898983
75	0x3d9bd3fd	0.07608793
76	0x3d8fb2ce	0.07016526
77	0xbcf4566c	-0.029826365
78	0x3c1a8f8a	0.009433636
79	0x3d283088	0.041061908
80	0xbde82079	-0.11334319
81	0x3e227164	0.15863568
82	0x3e00a839	0.12564172
83	0x3d1b0734	0.037848666
84	0x3d1719f9	0.036890004
85	0xbbe09e90	-0.0068548396
86	0xbd869206	-0.065708205
87	0xbe176429	-0.14784302
88	0xbda75728	-0.081709206
89	0xbe2c64ed	-0.16835375
90	0xbda8f5b0	-0.08249986
91	0x3e243c98	0.1603874
92	0x3e224ed5	0.15850385
93	0xbe2be8e5	-0.16788061
94	0xbe26c49a	-0.16285935
95	0x3e2d5ce4	0.16929966
96	0xbd506aa7	-0.05088296
97	0xbc8a158e	-0.016855981
98	0x3e08b3c4	0.13349825
99	0x3e41aa47	0.18912612
100	0x3d824177	0.06360143
101	0x3d75c985	0.060006637
102	0xbc4605e2	-0.0120863635
103	0x3d054e37	0.032545295
104	0x3db1e345	0.08685926
105	0xbe4741d2	-0.19458702
106	0xbe4c8da2	-0.19975904
107	0x3e1d611c	0.15369076
108	0xbe47d2a9	-0.19513954
109	0x3ddaf913	0.106920384
110	0x3e111115	0.14166673
111	0x3dfc418c	0.123171896
112	0x3d5bf6c0	0.053702116
113	0x3d7722f4	0.06033607
114	0x3dccc100	0.09997749
115	0x3df81d69	0.121149845
116	0x3ce49fc8	0.02790822
117	0xbdf35efc	-0.11883351
118	0x3e119aca	0.14219204
119	0x3d135e30	0.035978496
120	0x3ddb5310	0.10709202
121	0xbe1e6e6b	-0.15471809
122	0xbd66b5e9	-0.056325827
123	0xbe0820e4	-0.13293797
124	0xbcca876d	-0.02472278
125	0x3e47cff1	0.19512917
126	0x3cc6fd4a	0.0242907
127	0x3e035458	0.12825143
128	0x3e204892	0.15652683
129	0xbe242049	-0.16027941
130	0x3e547a92	0.20749882
131	0xbc8ff5ab	-0.017573198
132	0x3e1c0904	0.15237814
133	0x3bc61c76	0.0060458733
134	0xbd12d22c	-0.035844967
135	0x3e3188fd	0.17337413
136	0xbe045925	-0.12924631
137	0xbd41c4f3	-0.047306966
138	0xbc67bc1e	-0.014143972
139	0xbc6c4bbf	-0.014422356
140	0xbd94e29a	-0.07269783
141	0x3e1482ec	0.14503068
142	0xbb9bbfa5	-0.0047530704
143	0x3d45372c	0.04814832
144	0x3dcc868c	0.099866
145	0x3e3ea89c	0.18619007
146	0x3d5cde00	0.053922653
147	0xbe382407	-0.17982493
148	0xbe21241b	-0.1573643
149	0xbe5c70ed	-0.21527453
150	0xbe37b9ce	-0.17941973
151	0xbe2a83d0	-0.16651845
152	0xbd27e53e	-0.040990107
153	0x3e47eab3	0.19523124
154	0xbe07db13	-0.13267164
155	0x3dac0229	0.083988495
156	0xbd36eb25	-0.044657845
157	0x3e4079a4	0.18796402
158	0x3e01a5c7	0.12660895
159	0x3dc51040	0.0962224
160	0x3e35b650	0.17745328
161	0xbe21f334	-0.15815431
162	0xbe39fd91	-0.18163134
163	0xbdcd7047	-0.10031181
164	0x3d7b29f7	0.061319318
165	0x3e04a8aa	0.12954965
166	0x3dd5085b	0.10401984
167	0x3d824e5a	0.063626006
168	0xbcd5a7bf	-0.026080964
169	0xbdec18a5	-0.11528138
170	0x3e4ba630	0.19887614
171	0xbe440753	-0.19143419
172	0xbe15a21c	-0.14612621
173	0x3e015c2c	0.12632817
174	0x3e231ee1	0.15929748
175	0x3d70929a	0.05873356
176	0x3d333caa	0.043759026
177	0xba848c43	-0.0010112602
178	0x3d4c03c7	0.04980829
179	0xbdd3b5b2	-0.1033739
180	0x3e585ec9	0.21129908
181	0x3e501cc1	0.20323469
182	0xbd91050b	-0.0708104
183	0x3dfe01e0	0.124027014
184	0xbda32d78	-0.07967657
185	0xbe0cdf06	-0.13756952
186	0x3d9c14a0	0.076211214
187	0xbd25d7a5	-0.040488858
188	0x3e1dec1a	0.15422097
189	0x3d68f306	0.05687239
190	0xbd930694	-0.07178989
191	0xbde4540a	-0.11148842
192	0x3e02efa8	0.12786734
193	0x3e10a289	0.14124502
194	0x3c4dd63b	0.012563284
195	0xbccc18dc	-0.024914198
196	0xbd9f143d	-0.07767532
197	0x3d4eef98	0.050521463
198	0x3e47646e	0.19471905
199	0xbd4a72c5	-0.04942586
200	0x3c55d79b	0.013051893
201	0xbe5073b6	-0.2035664
202	0x3d7f5299	0.06233463
203	0xbdcec883	-0.10096838
204	0xbdbe3987	-0.09288316
205	0xbddf5415	-0.10904709
206	0x3e48f9c2	0.19626525
207	0x3e38352e	0.17989036
208	0xbd92b10b	-0.071626745
209	0xbccaf39f	-0.02477437
210	0x3d043ca6	0.0322844
211	0x3dc2cda2	0.095118776
212	0xbda37aec	-0.0798243
213	0x3dd3e463	0.10346296
214	0x3d4abe05	0.049497623
215	0x3de570f9	0.112031884
216	0xbdcd0cbe	-0.10012196
217	0xbe07ed61	-0.13274147
218	0x3e0d2c08	0.13786328
219	0xbcc76da9	-0.024344282
220	0xbdb5fcfb	-0.08886143
221	0x3e0b76a3	0.13619475
222	0xbc2dc58d	-0.010606182
223	0xbe0f640f	-0.14003013
224	0xb9608931	-0.00021413412
225	0xbde0c2e6	-0.10974674
226	0xbd9325bb	-0.07184931
227	0xbe231c12	-0.15928677
228	0x3e246106	0.16052637
229	0x3e3035dd	0.17208047
230	0xbe487ee6	-0.19579658
231	0x3e05d96d	0.13071223
232	0x3d8a87b3	0.06764164
233	0xbd137c4b	-0.036007207
234	0xbda7ea6f	-0.081990115
235	0x3ba10ec3	0.00491509
236	0x3cc56730	0.024097055
237	0x3e2f188f	0.17099212
238	0x3e61d1f3	0.22052746
239	0x3c48a782	0.012246968
240	0x3e4523ab	0.19251888
241	0xbdd6e1ab	-0.104922615
242	0x3c9bcb3b	0.019017806
243	0xbe30de07	-0.17272197
244	0x3dc75e29	0.097347565
245	0x3c717c79	0.014739149
246	0xbdf2a2e4	-0.11847475
247	0xbe0f4ef7	-0.13994966
248	0xbd1b6b90	-0.037944376
249	0xbd956687	-0.07294946
250	0xbdbb801d	-0.09155295
251	0xbe24e844	-0.16104227
252	0xbe0ef9d3	-0.13962488
253	0x3e508303	0.20362477
254	0xbdbd69d3	-0.092487
255	0x3df2dfb4	0.11859074

bn1.running_var f4 [256]
0	0x41281953	10.506183
1	0x40f5d018	7.681652
2	0x4140eaf7	12.057364
3	0x40942e51	4.630654
4	0x4207ebfa	33.980446
5	0x411cf696	9.810202
6	0x413c149b	11.755031
7	0x41c40011	24.500032
8	0x40c006b3	6.000818
9	0x40c72739	6.223538
10	0x40a26914	5.075327
11	0x4133ad8c	11.22987
12	0x41802b19	16.021044
13	0x40b70ca2	5.720292
14	0x3ffca359	1.973735
15	0x40d3b28a	6.6155443
16	0x3d977ab0	0.07396448
17	0x40617f78	3.523405
18	0x41840d3c	16.506462
19	0x4178673b	15.525203
20	0x40d7f14c	6.748205
21	0x41920b4d	18.255518
22	0x4047efd4	3.124013
23	0x40973f63	4.7264876
24	0x3fe7d987	1.8113259
25	0x4113f39c	9.246975
26	0x40bea981	5.9581914
27	0x4061c0c8	3.5273914
28	0x41bf9f47	23.952772
29	0x40986e99	4.7635007
30	0x4064da07	3.5758073
31	0x410661d7	8.398887
32	0x3fa65da9	1.2997333
33	0x4109beed	8.609113
34	0x40c3cbb6	6.118617
35	0x40551a9b	3.3297489
36	0x41538844	13.220768
37	0x408fd7a6	4.4950743
38	0x40b75a1c	5.7297497
39	0x4085f46a	4.1860857
40	0x408becd2	4.3726587
41	0x40163cc6	2.3474593
42	0x3e27fec8	0.16405785
43	0x3f34b276	0.7058481
44	0x3f6a97c1	0.9163781
45	0x408c5203	4.385011
46	0x40dd9021	6.923844
47	0x41427004	12.152348
48	0x40bf06f8	5.9696007
49	0x3f441b3c	0.76604056
50	0x4100362a	8.013224
51	0x40d2c02d	6.585959
52	0x40cc5d66	6.386401
53	0x4054a772	3.32272
54	0x408fde33	4.495874
55	0x403cb119	2.9483092
56	0x401132c1	2.2687228
57	0x4136cac0	11.4244995
58	0x401f8727	2.492624
59	0x40c2dfab	6.089803
60	0x40b187ac	5.5478115
61	0x40f102bf	7.531585
62	0x41357264	11.340427
63	0x40d7b3d9	6.740704
64	0x3fc382fc	1.5274348
65	0x41acc23d	21.594843
66	0x4141946b	12.098735
67	0x40d942d2	6.789407
68	0x41849234	16.571388
69	0x422687db	41.63267
70	0x41bf6579	23.924547
71	0x4040cfcb	3.0126827
72	0x41904246	18.03236
73	0x4001b575	2.0267003
74	0x4128cf14	10.550556
75	0x40e0769a	7.0144777
76	0x40366529	2.8499243
77	0x414f6e54	12.964436
78	0x4102875f	8.15805
79	0x3fbd69d4	1.4797921
80	0x40153f39	2.3319838
81	0x40e36e1c	7.107191
82	0x41324e47	11.144111
83	0x418a8fdf	17.32025
84	0x3f2dbc3e	0.6786536
85	0x41004151	8.015946
86	0x3fccbfc5	1.5996023
87	0x41691566	14.567724
88	0x3d7e426a	0.062075056
89	0x41944d25	18.537668
90	0x40c52ef9	6.161984
91	0x413ee96e	11.93199
92	0x40c29f67	6.0819583
93	0x41a50d8f	20.63162
94	0x400c0ae9	2.188166
95	0x3d3e8177	0.046510186
96	0x40f52a19	7.661389
97	0x41256d66	10.339209
98	0x3fe1e2e0	1.7647362
99	0x4095ef81	4.6854863
100	0x40db70a0	6.857498
101	0x40d7bab2	6.74154
102	0x4093c78e	4.6181097
103	0x414d7b46	12.842596
104	0x413047a6	11.017492
105	0x3fbef172	1.4917433
106	0x3ffd3898	1.9782896
107	0x408d4be3	4.4155135
108	0x4145e735	12.368947
109	0x3d1628a0	0.036659837
110	0x3fdbf788	1.7184916
111	0x40a84761	5.2587132
112	0x4097b1f4	4.740473
113	0x417cc497	15.797996
114	0x40ef717d	7.4826035
115	0x410ca159	8.7893915
116	0x4132b7ed	11.169904
117	0x40c6bbb7	6.2104144
118	0x408db232	4.4280024
119	0x3f97ea55	1.1868387
120	0x40397c26	2.8982024
121	0x400491ab	2.0713909
122	0x4087a2e7	4.2386355
123	0x40153b78	2.3317547
124	0x4131ea9f	11.119781
125	0x40524da8	3.2859898
126	0x3fcb6fcc	1.5893493
127	0x41219da4	10.1009865
128	0x3fc667fc	1.5500484
129	0x413330df	11.199431
130	0x40e4d90c	7.151495
131	0x40331f4c	2.7987852
132	0x3ff217bc	1.8913493
133	0x41281e53	10.507403
134	0x4018b12e	2.3858142
135	0x3cb84a5c	0.022496395
136	0x40214f60	2.5204697
137	0x420791f8	33.892548
138	0x41eaf5f7	29.3701
139	0x41268a60	10.408783
140	0x3f370712	0.71495163
141	0x400fd5d4	2.247426
142	0x409fda88	4.995426
143	0x41d89ecc	27.077538
144	0x3f42613b	0.7592961
145	0x40f3e502	7.621705
146	0x40af9750	5.487221
147	0x4080dc5c	4.0268993
148	0x401c3fca	2.4413934
149	0x3f820dc3	1.016045
150	0x42014624	32.318497
151	0x3db2a8e5	0.0872362
152	0x40ed332b	7.412496
153	0x3d1273c6	0.03575494
154	0x3e072f10	0.13201547
155	0x4181c2a9	16.220049
156	0x41686b3a	14.526178
157	0x4073985f	3.806175
158	0x408c7647	4.389438
159	0x3d530ea1	0.051527623
160	0x3e0bc592	0.13649586
161	0x404eda26	3.2320647
162	0x403080dc	2.757865
163	0x4188062f	17.00302
164	0x40874fe9	4.2285047
165	0x423b1ede	46.780144
166	0x408cf37d	4.4047227
167	0x408bf9b9	4.3742337
168	0x403c0dd9	2.9383452
169	0x41185baf	9.522384
170	0x40b74225	5.7268243
171	0x4004ee8b	2.0770595
172	0x40129820	2.290535
173	0x4060abe7	3.510492
174	0x41076f79	8.464715
175	0x3dd0f8f6	0.102037355
176	0x413345dc	11.2045555
177	0x41a23eab	20.2806
178	0x4044d7ec	3.0756788
179	0x417ebec7	15.9215765
180	0x403a9f1d	2.9159615
181	0x402761a1	2.6153338
182	0x4097f56c	4.7487087
183	0x42112f43	36.296154
184	0x40e54611	7.164803
185	0x41a3a078	20.453354
186	0x40c738d3	6.2256866
187	0x418d198b	17.637472
188	0x40644ce8	3.567194
189	0x4148d026	12.5508175
190	0x411a7d99	9.6556635
191	0x41430d9f	12.190825
192	0x410667ec	8.400372
193	0x4062d492	3.5442243
194	0x40383e5c	2.878806
195	0x3e541c57	0.20713936
196	0x40e15d92	7.042672
197	0x40015fe5	2.021478
198	0x3db3d09e	0.08780025
199	0x41c7e078	24.984604
200	0x418f1887	17.886976
201	0x408df1ee	4.4357824
202	0x403f492c	2.988841
203	0x4038a504	2.8850718
204	0x4145d001	12.363282
205	0x3f2a6cf0	0.66572475
206	0x40a0ce93	5.0252166
207	0x41b0e721	22.112856
208	0x419e1a4c	19.76284
209	0x4054a45e	3.3225322
210	0x4124d8c7	10.302924
211	0x4189a946	17.207653
212	0x411d63ce	9.836866
213	0x409fd0f3	4.9942565
214	0x4193f85a	18.496265
215	0x40e8c37a	7.273862
216	0x4083eeec	4.1229153
217	0x40f2d0f0	7.588005
218	0x4235c936	45.446495
219	0x4109a07b	8.60168
220	0x40774a62	3.863915
221	0x4119c777	9.611197
222	0x40a81cc9	5.253514
223	0x40a0f156	5.02946
224	0x413f107c	11.9415245
225	0x404d5ab1	3.2086604
226	0x4118de56	9.554281
227	0x415952d7	13.582725
228	0x3e01e066	0.12683257
229	0x422c88fd	43.133778
230	0x41134ad9	9.205773
231	0x4113ae96	9.2301235
232	0x409399a5	4.6125054
233	0x42138b45	36.886005
234	0x405cbcdd	3.4490273
235	0x41118bea	9.096659
236	0x4061f058	3.5302944
237	0x40e43a41	7.132111
238	0x40ac1174	5.3771305
239	0x408c6429	4.3872266
240	0x3d7da5e7	0.061925795
241	0x3fe07863	1.7536739
242	0x414fc6c2	12.986025
243	0x41dddcd0	27.732819
244	0x3d563ba0	0.052302957
245	0x414f1de7	12.9448
246	0x4102b765	8.169774
247	0x4125c125	10.359654
248	0x3d268a89	0.04065946
249	0x4067f72a	3.6244607
250	0x40e728f0	7.2237473
251	0x40e12e66	7.036914
252	0x40a93d06	5.288699
253	0x40f984ca	7.7974596
254	0x4061559c	3.5208502
255	0x4279cf0d	62.452198

fc2.weight f4 [128, 256]
0	0x3f1c23f3	0.60992354
1	0x3fb21b01	1.3914491
2	0xbf61ce7c	-0.88205695
3	0xbe5469ab	-0.20743434
4	0xbeb23230	-0.34803915
5	0xbf0bf281	-0.54666907
6	0x3f8ab969	1.0837833
7	0x3fd9d650	1.7018528
8	0xbf07847c	-0.5293653
9	0x3f4170ba	0.7556263
10	0xbe4d7b70	-0.20066619
11	0xbe6d9634	-0.23201829
12	0x3fbcef5d	1.4760548
13	0x3ff5193c	1.9148326
14	0xbd949ded	-0.072566845
15	0x3fc23fb6	1.5175693
16	0x3d00ecf8	0.03147599
17	0x3d98eae3	0.07466676
18	0x3fbd8329	1.4805652
19	0xbf5d9550	-0.8655596
20	0x3ffcb393	1.9742302
21	0xbe828d25	-0.2549831
22	0x3f1d0453	0.61334723
23	0x3f8f5715	1.119845
24	0xbe2fc4c1	-0.171649
25	0xbe8c21a1	-0.27369407
26	0x3dc3eb47	0.0956636
27	0xbe06be7e	-0.13158605
28	0x3f17e97b	0.5934064
29	0xbfba5cec	-1.4559608
30	0x3fc991bd	1.5747601
31	0x3d96f625	0.07371167
32	0xbde677d4	-0.11253324
33	0x3c05e202	0.00817156
34	0x3f25cc3c	0.6476476
35	0x3f4e3220	0.80545235
36	0x3fd0407f	1.6269683
37	0x40157566	2.3352904
38	0x3fbef377	1.491805
39	0x3fa07a1f	1.2537268
40	0x3f850382	1.0391695
41	0x3dea4226	0.11438398
42	0x3dfc3132	0.12314071
43	0xbc257758	-0.010099255
44	0xbe50b6bc	-0.20382208
45	0x3fa284c5	1.2696768
46	0xbdf7b940	-0.120958805
47	0x3ef3b43a	0.4759844
48	0x3f6d478d	0.926873
49	0x3da40adc	0.08009884
50	0x3eb073a9	0.34463242
51	0x3f4e0b74	0.80486226
52	0x401a993a	2.4156022
53	0x3f01032c	0.50395465
54	0x3f787500	0.9705353
55	0xbe9585e4	-0.29203713
56	0x3bb4781d	0.0055074827
57	0xbfb1d2c0	-1.3892441
58	0xbdb6223a	-0.08893247
59	0x3f2dd788	0.67907
60	0x3e219eaa	0.15783182
61	0x3f9f5fa4	1.2451062
62	0xbe8d5a50	-0.27607965
63	0x3f8ebe7a	1.1151879
64	0x3de50687	0.111828856
65	0x3f06b423	0.52618617
66	0x3de95e45	0.113949336
67	0x40414bdc	3.020255
68	0x3f853e00	1.0409546
69	0x3cf369a7	0.029713465
70	0x3f47b485	0.78009826
71	0xbc060365	-0.00817952
72	0xbe44ade5	-0.1920696
73	0xbed8cadd	-0.42342272
74	0x3f218ecd	0.6310852
75	0xbedc4d2a	-0.43027622
76	0x3ed5f137	0.41785595
77	0x3fb829ba	1.4387734
78	0xbf9475d9	-1.1598464
79	0x3f760ba1	0.96111494
80	0x3fb8dfe0	1.4443321
81	0x3ff545ab	1.9161886
82	0x3fbeca14	1.4905419
83	0x40082b80	2.127655
84	0x3e09349b	0.13398974
85	0x3f670329	0.90239197
86	0x3c65ed5f	0.014033644
87	0x3f15c622	0.5850545
88	0xbdeac714	-0.114637524
89	0x400caccc	2.1980467
90	0x3e94fafd	0.2909774
91	0x3edf63dc	0.43630874
92	0x3ec5d91f	0.38642213
93	0x3eef775e	0.46770757
94	0x3b07730d	0.002066794
95	0x3d67d978	0.05660388
96	0x3fa06b7d	1.2532803
97	0x3cc897c1	0.024486424
98	0x3d450475	0.048099954
99	0x3e2c41d0	0.1682198
100	0x3edccd60	0.4312544
101	0x3f0067c0	0.5015831
102	0x4039bad6	2.9020286
103	0xbc40b94e	-0.01176293
104	0x3ec0a017	0.3762214
105	0xbd53ddbc	-0.051725134
106	0x3fb9c579	1.4513389
107	0xbe899a46	-0.26875514
108	0xbdb2162a	-0.08695634
109	0xbd59dbd4	-0.05318816
110	0xbdb00fc0	-0.08596754
111	0xbf39ff7a	-0.7265545
112	0x3c763e50	0.015029505
113	0x3f81bfe4	1.0136685
114	0xbff98e8f	-1.949663
115	0x4022d65b	2.5443332
116	0x3efd0b02	0.4942246
117	0x3f0442bb	0.5166432
118	0x3ea3383b	0.31878838
119	0xbcc569f0	-0.024098366
120	0xbd2999fc	-0.041406617
121	0xbdf9da5d	-0.121998526
122	0xbe4c5c0b	-0.19956987
123	0x3eef53bf	0.4674358
124	0x3f349d81	0.7055283
125	0xbf58f86d	-0.8475407
126	0x3f099614	0.53744626
127	0xbe74f6ff	-0.23922347
128	0x3d490d44	0.049084917
129	0x3dd20d54	0.102564484
130	0xbe0a6f44	-0.13519007
131	0xbe88c5bd	-0.26713362
132	0xbdc23832	-0.09483375
133	0xbf06e33d	-0.5269049
134	0xbe67e298	-0.22645032
135	0xbd42e276	-0.04757925
136	0x3f3f747b	0.7478711
137	0x3fc49544	1.5358052
138	0x3f8d61bf	1.1045455
139	0x4028da7d	2.6383355
140	0xbdfc8a4f	-0.12331068
141	0xbe368c3e	-0.17826936
142	0xbed6c835	-0.4194962
143	0xbe055391	-0.1302016
144	0x3d6b548e	0.057453685
145	0x3facae64	1.349072
146	0x3f911389	1.1334087
147	0x3f58aceb	0.8463885
148	0x3ecc0c2a	0.3985303
149	0xbf24cc59	-0.6437431
150	0xbd5d5283	-0.054033767
151	0xbd8dc451	-0.0692221
152	0xbdfec652	-0.1244017
153	0x3e25e43e	0.16200349
154	0x3d416aa5	0.047220845
155	0x3f3ad035	0.7297395
156	0x3f6e426d	0.9307011
157	0x3f931cfb	1.1493219
158	0xbd9062c4	-0.07050088
159	0x3c8794eb	0.016550502
160	0xbdbe3922	-0.09288241
161	0x3deea3e7	0.11652356
162	0x3e6ddcb3	0.23228721
163	0x3e7671b7	0.24066816
164	0xbf0cf648	-0.55063295
165	0x3f857423	1.0426067
166	0x400f3147	2.2373827
167	0x3fa936b6	1.3219821
168	0xbf59b9d0	-0.8504915
169	0x4012bf01	2.292908
170	0x3f947a2d	1.1599785
171	0x3e6960db	0.22790854
172	0x3f8eb7bb	1.114982
173	0xbe8dafc8	-0.27673173
174	0xbf063974	-0.52431417
175	0x3dde1338	0.108435094
176	0x3f892488	1.0714273
177	0xbf88a7fc	-1.0676265
178	0x3f7423c3	0.9536707
179	0x403c3346	2.9406295
180	0x3ff6929d	1.9263493
181	0x3e429338	0.19001472
182	0x4004132a	2.0636697
183	0xc00a353b	-2.159499
184	0x3f9b44f7	1.2130421
185	0x3fbd33ed	1.4781471
186	0xbefdd348	-0.49575257
187	0xbfd3fd8d	-1.6561753
188	0x3f8b82ad	1.0899254
189	0x3eac32a0	0.33632374
190	0xbeb0fd71	-0.3456836
191	0x3e0b7e3e	0.13622376
192	0x3e9b16ff	0.30290982
193	0x3b88c8ad	0.004174313
194	0xbe5ff2e5	-0.2187
195	0xbe018237	-0.1264733
196	0x3fa6076d	1.2971016
197	0x3d599b67	0.05312672
198	0x3ccfe21e	0.025376376
199	0xbdb0c9dd	-0.08632252
200	0x3f776b9d	0.9664858
201	0x3f328f70	0.6975012
202	0x3e87b093	0.26501903
203	0xbd55455d	-0.052068103
204	0x40415fa6	3.021463
205	0xbc7bd5da	-0.01537081
206	0x3e8298e7	0.2550728
207	0x3f6199fb	0.8812558
208	0x3fc9c1b7	1.5762242
209	0x3f39962d	0.72494775
210	0x4010bfde	2.2617106
211	0xbdfa7431	-0.12229193
212	0x3e8215ab	0.25407156
213	0xbf93036d	-1.148542
214	0x3ee0bb30	0.43892813
215	0x3fc02f9b	1.5014528
216	0x3e8b8bcb	0.2725509
217	0xbf8d20fc	-1.1025691
218	0xbfcca04f	-1.5986422
219	0x3eb5d3cc	0.3551315
220	0x3e908b26	0.28231162
221	0xbeefd1c2	-0.4683972
222	0x3f8010ef	1.0005168
223	0x3f19740f	0.59942716
224	0xbf4745b3	-0.7784073
225	0x3f2925ae	0.6607312
226	0x3ffc412c	1.9707389
227	0xbff313ba	-1.8990395
228	0xbd97b033	-0.07406654
229	0x3f436777	0.7632975
230	0x3f25fb35	0.64836437
231	0x3fba4605	1.4552618
232	0x3f5fd1a0	0.8742924
233	0xc0609bb2	-3.509503
234	0xbf825b47	-1.0184106
235	0x3fea40e1	1.830105
236	0x3f77823e	0.9668311
237	0xbf5dee1a	-0.8669144
238	0xc0338d5f	-2.8055036
239	0xbf47119c	-0.77761245
240	0xbd9f0787	-0.077651076
241	0x3f1bdb5d	0.60881597
242	0x3eb40fc7	0.35168287
243	0x4008ffc8	2.1406116
244	0x3de0ee10	0.10982907
245	0x3fa4e8dc	1.2883563
246	0x3f6d1e90	0.9262476
247	0x3ee7f741	0.45305827
248	0xbda472ab	-0.08029684
249	0x3fd66f28	1.6752672
250	0xbfa74904	-1.3069158
251	0x3fb9acd7	1.4505872
252	0xbdd29b90	-0.102835774
253	0xbf50da2b	-0.815829
254	0x3e0b45f0	0.13600898
255	0x3f288db3	0.65841216
