project3-collaboration/results/maddpg_critic_reacher_1_session_default.pth (torch_old, 96211 bytes, 9 tensors)

bn0.weight f4 [48]
0	0x3de91b65	0.11382178
1	0x3df33196	0.11874692
2	0x3c302386	0.010750657
3	0x3ba3fc62	0.0050044516
4	0x3f3a9033	0.7287628
5	0x3ed952fc	0.42446125
6	0x3d7c2505	0.061558742
7	0x3d43ff6d	0.047851015
8	0x3beb17b4	0.0071744565
9	0xbb83e23e	-0.004024773
10	0x3b5be83a	0.0033555166
11	0x3c1f8fea	0.009738902
12	0x3eb0df7a	0.345455
13	0xba87c7ba	-0.0010359206
14	0x3da19a8f	0.07890808
15	0x3d997d62	0.07494618
16	0x3f184908	0.59486437
17	0x3e430ada	0.19047108
18	0x3c963a0d	0.018338228
19	0x3c4ef62c	0.012631934
20	0x3f9e8d41	1.2386857
21	0x3f229e48	0.6352277
22	0x3de3ad23	0.111170076
23	0x3e4f5392	0.20246723
24	0x3dab83c7	0.08374744
25	0x3e1bfe5b	0.15233748
26	0x3d39cee5	0.045363326
27	0xbbf4284c	-0.007451093
28	0x3f1cc060	0.6123104
29	0xbb6a7325	-0.0035774198
30	0xbc24ca82	-0.010058047
31	0x3dc8206a	0.097718075
32	0xbaa0d2b8	-0.001226983
33	0xbb278779	-0.0025562926
34	0xbc0de7d2	-0.008661227
35	0xbc0e84fe	-0.0086987
36	0xba144ea5	-0.0005657471
37	0x3e911a3c	0.28340328
38	0x3d74379f	0.059623357
39	0x3dd99138	0.106234014
40	0x3f1f7017	0.6228041
41	0x3eabc5c8	0.33549333
42	0xbc6751af	-0.014118596
43	0x3b86f68b	0.0041187457
44	0x3ee4e405	0.44705215
45	0xbbaf33a8	-0.005346734
46	0x3de9c71d	0.11414931
47	0x3e9293c6	0.28628367

bn0.bias f4 [48]
0	0x3d9e3377	0.0772466
1	0xbcf18579	-0.02948259
2	0xbb174b39	-0.0023085608
3	0x3c60260e	0.013680948
4	0xbe2b284c	-0.16714591
5	0x3e8f094e	0.27936786
6	0x3c947c33	0.018125629
7	0x3c21d547	0.009877509
8	0x3b6cfe1e	0.0036162208
9	0x3b3fa8d7	0.0029244923
10	0x3aa94a4a	0.0012915817
11	0x3b89d7a7	0.004206616
12	0xbed37db1	-0.41306832
13	0xbb7e74e5	-0.0038826999
14	0x3d25d0d0	0.040482342
15	0xbbde0bed	-0.006776324
16	0xbed6acb9	-0.41928652
17	0xbd8d2757	-0.06892269
18	0x3b89a70d	0.004200822
19	0xbbd3a670	-0.00645905
20	0xbe83c2b6	-0.2573449
21	0x3f1a0740	0.6016731
22	0x3d5aa5d7	0.053380813
23	0x3c427f66	0.0118711945
24	0x3ca7335f	0.020410238
25	0xbe094cd9	-0.13408221
26	0x3b876a36	0.0041325344
27	0xbb7306be	-0.0037082876
28	0x3e5b47a6	0.2141405
29	0xba197ec9	-0.0005855379
30	0x3b704509	0.0036662242
31	0xbcef32ce	-0.02919903
32	0x3ae4921f	0.0017438567
33	0x3be5c657	0.0070121693
34	0x3c297c2d	0.010344547
35	0x3c073cb4	0.008254219
36	0xb96e72bd	-0.00022740192
37	0x3eaf98c0	0.34296227
38	0x3c2cee41	0.010554851
39	0xbd59b782	-0.053153522
40	0xbe4d2928	-0.20035231
41	0xbe8b9c61	-0.27267745
42	0x3b8c9499	0.004290175
43	0x3b970bf3	0.0046095788
44	0x3ee88270	0.45412016
45	0xbbe5d998	-0.0070144646
46	0x3d051af5	0.03249641
47	0xbdd8a879	-0.105790086

bn0.running_mean f4 [48]
0	0xc080df68	-4.0272713
1	0xbe6ab434	-0.22920305
2	0x416704a9	14.438638
3	0x3cb0952c	0.021555506
4	0x3eac6ada	0.3367527
5	0x4080f48a	4.029851
6	0x416704a9	14.438638
7	0x3cb0952c	0.021555506
8	0xc08340d3	-4.101663
9	0xbe64fa0b	-0.22361009
10	0x416208db	14.127162
11	0x3c30bf84	0.010787848
12	0x3ea07bd4	0.31344473
13	0x4080d403	4.0258803
14	0x416208db	14.127162
15	0x3c30bf84	0.010787848
16	0xc084b30a	-4.1468554
17	0xbe6934df	-0.22774075
18	0x4164e6ed	14.306378
19	0xbd866b68	-0.06563455
20	0x3e8cc7db	0.27496228
21	0x4080df03	4.027223
22	0x4164e6ed	14.306378
23	0xbd866b68	-0.06563455
24	0xc0b6feaf	-5.7185893
25	0xbf144581	-0.57918555
26	0x411bddb3	9.741626
27	0xbdc1ce71	-0.09463204
28	0xbeac6ada	-0.3367527
29	0x4080f48a	4.029851
30	0x411bddb3	9.741626
31	0xbdc1ce71	-0.09463204
32	0xc0b790a4	-5.7364063
33	0xbf12ffae	-0.57421386
34	0x4116ac63	9.417087
35	0xbd604dbc	-0.054761633
36	0xbea07bd4	-0.31344473
37	0x4080d403	4.0258803
38	0x4116ac63	9.417087
39	0xbd604dbc	-0.054761633
40	0xc0b8577d	-5.7606797
41	0xbf13cfb0	-0.5773878
42	0x411631c0	9.387146
43	0xbe03cc14	-0.12870818
44	0xbe8cc7db	-0.27496228
45	0x4080df03	4.027223
46	0x411631c0	9.387146
47	0xbe03cc14	-0.12870818

bn0.running_var f4 [48]
0	0x41937c8c	18.435814
1	0x3f50bba5	0.8153632
2	0x43f80fd6	496.12372
3	0x418b98d4	17.449623
4	0x41d516c3	26.636114
5	0x400284df	2.0393598
6	0x43f80fd6	496.12372
7	0x418b98d4	17.449623
8	0x4194ceeb	18.601034
9	0x3f4f9055	0.8107961
10	0x43fd73d8	506.90503
11	0x418d8ff8	17.695297
12	0x41d77789	26.933367
13	0x4002efe2	2.0458913
14	0x43fd73d8	506.90503
15	0x418d8ff8	17.695297
16	0x4191ef7b	18.241934
17	0x3f533bf8	0.8251338
18	0x43fb65f7	502.7966
19	0x418b44d0	17.4086
20	0x41db8813	27.441442
21	0x4003256e	2.0491595
22	0x43fb65f7	502.7966
23	0x418b44d0	17.4086
24	0x419eb212	19.836948
25	0x3f8aff59	1.0859176
26	0x43f11763	482.1827
27	0x417f974a	15.974436
28	0x41d516c3	26.636114
29	0x400284df	2.0393598
30	0x43f11763	482.1827
31	0x417f974a	15.974436
32	0x419ee152	19.86002
33	0x3f8af673	1.085646
34	0x43f54024	490.5011
35	0x4178ee5e	15.558195
36	0x41d77789	26.933367
37	0x4002efe2	2.0458913
38	0x43f54024	490.5011
39	0x4178ee5e	15.558195
40	0x419d15bf	19.635618
41	0x3f8b2343	1.0870136
42	0x43f4bea1	489.4893
43	0x417d59a6	15.834387
44	0x41db8813	27.441442
45	0x4003256e	2.0491595
46	0x43f4bea1	489.4893
47	0x417d59a6	15.834387

fc1.weight f4 [128, 48]
0	0x3d8c18df	0.06840681
1	0x3e3c4db2	0.18389013
2	0x3d74bb9f	0.059749242
3	0xbc83b39a	-0.016076852
4	0x3fa244f7	1.2677296
5	0xbdf960db	-0.12176677
6	0x3d122394	0.03567846
7	0x3e2103b9	0.15724076
8	0xbd815d18	-0.06316584
9	0xbe09ed1b	-0.13469355
10	0x3de215bf	0.11039304
11	0xbd15b643	-0.03655077
12	0x3e316d70	0.17326903
13	0x3d16f0ac	0.036850616
14	0x3ca10bc7	0.019658936
15	0x3e178fef	0.14801
16	0xbbb886c0	-0.005631298
17	0xbc9c6775	-0.0190923
18	0xbc5cf253	-0.013485509
19	0xbaefffa8	-0.0018310444
20	0xbfa0b8e8	-1.2556429
21	0x3e48240b	0.19545
22	0xbddb080a	-0.10694893
23	0xbbeabf59	-0.0071639237
24	0xbdd42443	-0.10358479
25	0x3df8333b	0.121191464
26	0xbd617735	-0.055045325
27	0xbc200b29	-0.009768286
28	0xbf99f0b8	-1.2026587
29	0x3cd8260d	0.026385332
30	0xbd4f96f7	-0.05068108
31	0xbe0ac7de	-0.13552806
32	0xbc8530f1	-0.016258689
33	0xbd4173b8	-0.0472295
34	0xba9cbb43	-0.0011957664
35	0xbd85fe5e	-0.06542657
36	0xbd3baddf	-0.045820113
37	0x3d6db0ed	0.058030058
38	0xbdc1fc60	-0.09471965
39	0xbd5c6e9c	-0.053816423
40	0x3d33d3bd	0.0439031
41	0x3d7e676f	0.06211036
42	0xbd01ae3c	-0.031660303
43	0xbc4f8ea5	-0.012668286
44	0x3f83b5d2	1.0289862
45	0xbd0e4c2e	-0.03474062
46	0xbd95dff6	-0.07318108
47	0x3d0e8cf6	0.0348024
48	0x3cc25774	0.023723342
49	0x3dff5b54	0.12468591
50	0x3e38628f	0.18006347
51	0x3e6da1d5	0.23206265
52	0xbb36640b	-0.0027830626
53	0x3ea919d7	0.33027527
54	0x3e5ea0af	0.21740983
55	0xbf55a9a5	-0.8346198
56	0x3ea56f01	0.32311252
57	0xbe7302f9	-0.23731603
58	0xbeee4482	-0.46536642
59	0x3cc4b913	0.024014032
60	0x3c437144	0.01192886
61	0x3d8b09ca	0.067889765
62	0xbfb35d15	-1.4012781
63	0xbf120a00	-0.5704651
64	0x3eaa17c5	0.3322126
65	0xbdce1f07	-0.10064512
66	0xbce62172	-0.02809212
67	0xbe2f0b9f	-0.17094277
68	0xbe44a3f9	-0.19203176
69	0x3e906d18	0.28208232
70	0xbfdd8d6d	-1.7308785
71	0x3ec0a784	0.37627804
72	0xbfa857ae	-1.3151758
73	0xbe1b152b	-0.15144794
74	0xbfc8797a	-1.5662072
75	0x3d4f3c71	0.05059475
76	0xbe8ad6be	-0.2711696
77	0x3e031d6e	0.12804195
78	0x3de000da	0.109376624
79	0x3f3f203b	0.74658555
80	0x3e0c8465	0.1372238
81	0x3c96eb44	0.01842273
82	0x3d00e177	0.03146502
83	0x3e67f37a	0.22651473
84	0xbd37d1f1	-0.04487795
85	0xbea85ce7	-0.3288338
86	0xbf8f91bf	-1.1216353
87	0x3f305fe0	0.68896294
88	0x3f1c4538	0.6104312
89	0xbd3297bb	-0.043601733
90	0x3e112da3	0.14177565
91	0xbd6fcf46	-0.05854728
92	0x3d9cb18e	0.07651053
93	0xbe714a60	-0.23563528
94	0xbfa15047	-1.2602624
95	0x3f691b04	0.9105685
96	0xbfa33962	-1.2751887
97	0x3f68cd64	0.909384
98	0xbd6fb01a	-0.058517553
99	0x3d89674c	0.067091554
100	0x3f015aa6	0.50528944
101	0x3eeffc65	0.4687225
102	0xbf36057c	-0.7110212
103	0xbcd94caa	-0.026525814
104	0xbd9cc9f1	-0.07655705
105	0x3d590183	0.052979957
106	0x3cc1f88d	0.023678089
107	0x3da6a112	0.081361905
108	0x3dd9ab6e	0.10628401
109	0x3c31cbf5	0.01085185
110	0xbf90a99c	-1.1301761
111	0x3f667a93	0.90030783
112	0xbe76033e	-0.24024674
113	0x401e5198	2.47373
114	0x3cf45a19	0.029828118
115	0x3de8ac53	0.11360993
116	0xbf1181b9	-0.56838566
117	0xbf8111b3	-1.0083526
118	0x3f9846e4	1.1896634
119	0xbed69f2f	-0.41918322
120	0x3e83c9db	0.2573994
121	0xbe33d7f5	-0.1756285
122	0xbd88efee	-0.06686388
123	0x3d9a0344	0.07520154
124	0xbecd0524	-0.40042984
125	0x3beaf22b	0.007169982
126	0xbd12b241	-0.035814527
127	0xbf18a774	-0.59630513
128	0xbd22a272	-0.0397057
129	0x3d969129	0.07351906
130	0x3dfd5fb6	0.12371771
131	0x3dc0b430	0.09409368
132	0xbd136563	-0.03598536
133	0xc00e7218	-2.2257137
134	0xbf38e2e5	-0.72221214
135	0xbe8ae72f	-0.27129504
136	0x3cc8d106	0.024513733
137	0x3e661e8a	0.22472587
138	0x3cad5ddc	0.02116292
139	0xbdf0d8f0	-0.117601275
140	0x3ea7af63	0.32750997
141	0xbd2272b7	-0.03966018
142	0xbeb44a4a	-0.35212928
143	0x3dca39b8	0.0987429
144	0x3c0f3d1c	0.008742597
145	0x3d956612	0.07294859
146	0xbdaa1c8a	-0.08306225
147	0x3ce3b98d	0.027798438
148	0xbf5e811a	-0.86915743
149	0xbea16045	-0.3151876
150	0x3e10a7e6	0.14126548
151	0x3dfc8219	0.12329502
152	0xbd779a45	-0.060449857
153	0xbd3667e0	-0.044532657
154	0x3d89591e	0.06706451
155	0xbd29e344	-0.041476503
156	0xbf3026df	-0.6880931
157	0xbcabf04d	-0.020988608
158	0x3d0d33e9	0.034473334
159	0x3d597fd2	0.053100415
160	0xbc9884e1	-0.01861805
161	0x3db80019	0.089843936
162	0xbd1752d2	-0.036944218
163	0x3e08c8f0	0.13357902
164	0x3f7f6726	0.9976677
165	0x3ec17707	0.37786123
166	0xbd4906f6	-0.049078904
167	0x3f208f69	0.62718827
168	0x3de5734d	0.112036325
169	0x3c100517	0.008790276
170	0xbe2e8160	-0.1704154
171	0xbd94607e	-0.07244967
172	0x3f6ac412	0.9170543
173	0x3cac8db0	0.021063656
174	0xbd57c2b5	-0.05267592
175	0x3dd56431	0.104195006
176	0xbca7b356	-0.020471256
177	0x3b5b7ec0	0.0033492297
178	0xbb630547	-0.0034640597
179	0x3d1a8247	0.0377219
180	0x3c4cac3d	0.012492237
181	0x3f3b0c6c	0.7306583
182	0x3ba0c1b8	0.0049059056
183	0x3ae2e77a	0.0017311417
184	0x3cbb8494	0.022890367
185	0x3c805c49	0.015669005
186	0x3e71da56	0.23618445
187	0xbdba26ed	-0.09089456
188	0xbf88a44c	-1.067514
189	0x3c834352	0.016023312
190	0xbde107fc	-0.10987851
191	0x3dce72ef	0.100805156
192	0x3d4326d6	0.04764446
193	0x3c1b929f	0.009495406
194	0xbd3f74ff	-0.046742436
195	0x3c2853a8	0.010273851
196	0xbf469646	-0.7757305
197	0xbfbcf523	-1.476231
198	0xbdb0c608	-0.086315215
199	0xbd66c2cb	-0.056338113
200	0x3c8bd572	0.017069552
201	0x3c5d8661	0.013520808
202	0x3d0306bf	0.031988855
203	0x3d035ae6	0.03206911
204	0xbe0df7e2	-0.13864091
205	0x3c746d5f	0.014918654
206	0xbd3d3119	-0.0461894
207	0xbdbca5a0	-0.09211278
208	0xba719c45	-0.00092167064
209	0xbe3a41e7	-0.18189202
210	0xbc1f1b70	-0.009711131
211	0x3d55919c	0.052140817
212	0x3f7cdb4e	0.9877213
213	0x3fbf589a	1.4948914
214	0xbaa8ae0f	-0.0012869256
215	0x3c98840c	0.018617652
216	0x3c574586	0.013139134
217	0xbe1ff67a	-0.15621367
218	0xbc2a6a3a	-0.010401303
219	0x3cc3ed32	0.023916814
220	0x3f125e0b	0.5717475
221	0x3bc6a61a	0.0060622813
222	0x3c7f28fd	0.015573737
223	0x3cbdb9fa	0.02315997
224	0xbb427e70	-0.0029677413
225	0xbd13582a	-0.03597275
226	0xbcc784bb	-0.024355283
227	0x3c0090bc	0.007847007
228	0x3bff7bcf	0.0077967416
229	0xbf580cb9	-0.84394413
230	0xbb3331d4	-0.0027342932
231	0xbd8c512f	-0.06851422
232	0x3b283336	0.002566529
233	0x3de50ef7	0.11184495
234	0xbce1a42d	-0.027544105
235	0xbbc4755b	-0.005995435
236	0xbf6ac1f3	-0.91702193
237	0xbce1b7ca	-0.027553458
238	0xbd309b02	-0.043116577
239	0x3c6ff19d	0.014645007
240	0xbe96260d	-0.29325905
241	0x3e858c38	0.2608354
242	0xbb89d1c9	-0.0042059165
243	0x3c2ccf74	0.010547508
244	0xbe790d14	-0.24321395
245	0x3eb348c7	0.35016462
246	0x3ec075d3	0.37589893
247	0x3df49836	0.119430944
248	0xbd177850	-0.036979973
249	0xbd526672	-0.05136723
250	0x3da50c2d	0.08058963
251	0x3d0814e9	0.033223066
252	0x3d37cb6e	0.04487174
253	0xbe04b797	-0.12960659
254	0xbec8f16e	-0.39246696
255	0xbd51cd5e	-0.051221244

fc1.bias f4 [128]
0	0xbdcf9992	-0.10136713
1	0xbf01ae14	-0.5065625
2	0xbfc5ff7c	-1.5468593
3	0xbe729d00	-0.23692703
4	0xbf225382	-0.6340867
5	0xbeeeb837	-0.4662492
6	0xbe72f45a	-0.23726025
7	0xbf7c505c	-0.9856012
8	0x3d0eb031	0.034835998
9	0xbf5cf54a	-0.8631178
10	0xbf4d3734	-0.8016236
11	0xbf28207a	-0.65674555
12	0xbfa62abb	-1.298179
13	0xbf021d29	-0.50825745
14	0xbf907076	-1.128432
15	0xbf8a9dc0	-1.0829391
16	0xbeb48465	-0.3525726
17	0xbfe04154	-1.7519937
18	0xbf8d0ac0	-1.1018906
19	0xbee7114e	-0.4513039
20	0xbfba5eff	-1.456024
21	0xbea3fbfa	-0.3202818
22	0xbf4e06f8	-0.80479383
23	0xbf83dab9	-1.0301124
24	0xbf4deb96	-0.804376
25	0xbfba313d	-1.4546276
26	0xbfae3cb5	-1.3612276
27	0xbe309ec8	-0.1724807
28	0xbf527c6f	-0.8222112
29	0xbf368f7c	-0.7131269
30	0xbee6371f	-0.4496393
31	0xbee3467f	-0.44389722
32	0xbf9f49e6	-1.2444427
33	0xbf9ea240	-1.2393265
34	0xbf3e3335	-0.74296886
35	0xbf077900	-0.52919006
36	0xbfa408ee	-1.2815225
37	0xbf03ca84	-0.5148089
38	0xbee1c0b2	-0.44092327
39	0xbf38a5a8	-0.7212777
40	0xbf4577c7	-0.7713589
41	0xbf12cd92	-0.57344925
42	0xbf2ad0d9	-0.66724926
43	0xbfa8331e	-1.31406
44	0xbe4cae51	-0.19988371
45	0xbf456f53	-0.7712299
46	0xbf0a4bb6	-0.54021776
47	0xbfb75659	-1.4323226
48	0xbf61e259	-0.88236004
49	0xbfa80d7c	-1.3129115
50	0xbf254f9d	-0.64574605
51	0xbe888c0f	-0.26669356
52	0xbf842fef	-1.0327128
53	0xbf83a0db	-1.0283464
54	0xbf1be0c1	-0.6088982
55	0xbef35ca3	-0.47531614
56	0xbf763261	-0.9617062
57	0xbf1dd929	-0.61659485
58	0xbf89c0d6	-1.0761974
59	0xbfbfa6a1	-1.4972726
60	0xbef2853e	-0.4736728
61	0xbf166082	-0.5874101
62	0xbfc8eea0	-1.5697823
63	0xbeb9309d	-0.36169901
64	0xbf1313f3	-0.57452315
65	0xbfc79edd	-1.5595356
66	0xbf8709d7	-1.0549878
67	0xbecd90ae	-0.40149444
68	0xbf541d99	-0.8285766
69	0xbf0eba4b	-0.5575301
70	0xbf764e1d	-0.9621294
71	0x3da3ba6a	0.0799454
72	0xbeb1d6f1	-0.347343
73	0xbea541ee	-0.32276863
74	0xbf4f1980	-0.80898285
75	0xbe0d592d	-0.13803549
76	0xbfac89bb	-1.3479532
77	0xbe8f82fb	-0.28029618
78	0xbf6560ef	-0.89601034
79	0xbf83f8ab	-1.0310262
80	0xbf0226e4	-0.5084059
81	0xbf7caa7d	-0.98697644
82	0xbfa21c16	-1.2664821
83	0xbf3c9605	-0.7366641
84	0xbe6ade0d	-0.22936268
85	0x3f04344c	0.516423
86	0xbf6da3be	-0.92827976
87	0xbf1b76bd	-0.60728055
88	0xbeae45ba	-0.34037572
89	0xbe750f55	-0.2393163
90	0x3e3cd8c6	0.18442068
91	0xbf5ee2de	-0.8706492
92	0xbed90687	-0.42387792
93	0xbe37568e	-0.17904112
94	0xbf0034a5	-0.5008033
95	0xbf669a49	-0.9007917
96	0xbe7eb980	-0.2487545
97	0xbf268dcd	-0.6506012
98	0xbf4d351c	-0.80159163
99	0xbf2f6cc6	-0.6852535
100	0xbee5933f	-0.44838902
101	0xbf48ebe5	-0.78484946
102	0xbf651123	-0.89479274
103	0xbf215219	-0.63015896
104	0xbf266298	-0.6499419
105	0xbfaaa88b	-1.3332685
106	0xbf354c85	-0.70819885
107	0xbf5f24eb	-0.8716571
108	0xbded7fdf	-0.11596655
109	0xbe9b6a32	-0.30354458
110	0xbf1faa73	-0.6236946
111	0xbe8788eb	-0.26471648
112	0xbf4f45bc	-0.8096578
113	0xbf3e5f2b	-0.74363965
114	0xbeaf0ea2	-0.3419085
115	0xbf130e1a	-0.5744339
116	0xbf838c6a	-1.0277226
117	0x3eaa4b26	0.3326046
118	0xbf830c0a	-1.0238049
119	0xbeea657a	-0.45780545
120	0xbf7851f0	-0.97000027
121	0xbfc69399	-1.5513793
122	0xc01194e0	-2.2747116
123	0xbfa3dfaa	-1.2802632
124	0xbdffc0b9	-0.12487931
125	0xbe9ee5b4	-0.31034625
126	0xbf2b2ca1	-0.66864973
127	0xbf8c3a5f	-1.0955313

fc2.weight f4 [128, 132]
0	0x3ebb6276	0.36598557
1	0xbf5f8186	-0.8730701
2	0xbc893320	-0.016748011
3	0xbf5f8534	-0.87312627
4	0xbfbdd199	-1.4829589
5	0x3ec2099f	0.37897965
6	0xbe932594	-0.28739607
7	0xbf48d7da	-0.78454363
8	0xbf52bd2e	-0.82319915
9	0xbe8651a6	-0.26234168
10	0x3f22dbc2	0.63616574
11	0xbef4d7b9	-0.47820833
12	0xbe8af646	-0.27141017
13	0xbebcb976	-0.36860245
14	0xbf9c5d81	-1.2216035
15	0xbcb9b2c5	-0.022668252
16	0xbdf3df45	-0.1190782
17	0xbf1a3368	-0.6023469
18	0xbd93e1ab	-0.07220777
19	0xbf78b56f	-0.97151846
20	0x3ea0c2c9	0.3139861
21	0xbd11c77c	-0.035590634
22	0xbf2b6a97	-0.6695952
23	0xbebbfb4c	-0.36715162
24	0xbf892d3b	-1.0716928
25	0x3e997586	0.29972476
26	0xbf4719dd	-0.7777384
27	0xbfb5057b	-1.4142298
28	0xbd63936b	-0.05556051
29	0xbfa6a247	-1.3018273
30	0xbf9c999a	-1.2234375
31	0xbfd2d5d4	-1.6471505
32	0xbdb12315	-0.086492695
33	0xbe121435	-0.14265521
34	0xbf3fed86	-0.74971807
35	0xbf0e70c4	-0.55640817
36	0xbec929e4	-0.39289773
37	0x3f48ea0b	0.7848212
38	0xbf4e3061	-0.8054257
39	0x3da13aad	0.0787252
40	0xbf0f5349	-0.5598646
41	0xbf29dda3	-0.66353816
42	0xbd5de461	-0.054172877
43	0xbc74383b	-0.0149059845
44	0x3ed46c4a	0.41488868
45	0xbf426a10	-0.7594309
46	0xbec35e53	-0.381579
47	0xbea863c0	-0.32888603
48	0xbe3eee7a	-0.18645659
49	0xbf10fc2d	-0.5663479
50	0xbe7ccc26	-0.24687251
51	0xbf2b3175	-0.6687234
52	0xbe81895c	-0.2530011
53	0xbf2a218b	-0.6645743
54	0x3eb85d9f	0.36008927
55	0x3df70b73	0.12062731
56	0x3f637108	0.88844347
57	0xc003ef5b	-2.061484
58	0xbe87098a	-0.26374465
59	0xbe5fdf6f	-0.21862577
60	0xbf9b9312	-1.2154257
61	0xbf2b4df7	-0.6691584
62	0xbf4f8a46	-0.81070364
63	0xbcba08f5	-0.02270935
64	0xbefcff47	-0.4941351
65	0xbed1ac44	-0.4095174
66	0xbf92d7d7	-1.1472119
67	0xbe6cde4d	-0.23131676
68	0xbed902a6	-0.42384833
69	0x3dfafee9	0.122556515
70	0x3f2dd26d	0.6789921
71	0xbdefa8af	-0.11702096
72	0xbfc6f497	-1.5543393
73	0xbe3f6b1f	-0.18693207
74	0xbf9330da	-1.1499283
75	0xbea50e5c	-0.32237518
76	0xbebc3e6c	-0.36766374
77	0xbf49c07f	-0.7880935
78	0x3dc9d22a	0.09854539
79	0xbe0031b8	-0.12518966
80	0xbfb55de9	-1.4169284
81	0xbf57aab0	-0.84244823
82	0xbcbf2688	-0.023333803
83	0x3ebc89c1	0.36823848
84	0xbebcf25f	-0.36903664
85	0xbed71995	-0.42011705
86	0xbc792341	-0.015206159
87	0x3e812996	0.2522704
88	0x3e23120f	0.15924858
89	0xbf91b989	-1.1384746
90	0xbf891939	-1.0710822
91	0xbf09200a	-0.5356451
92	0xbfbf013b	-1.492225
93	0xbda06c76	-0.07833187
94	0x3f38962b	0.7210414
95	0xbf25633f	-0.6460456
96	0x3f8007fe	1.0002439
97	0xbfe86638	-1.8156195
98	0xbd38e6fb	-0.045142155
99	0xbfa2df43	-1.2724384
100	0xbf9571bb	-1.1675333
101	0xbd0b6ce9	-0.03403941
102	0x3ee7af94	0.45251143
103	0xbd9d0f7f	-0.07668971
104	0xbf34246b	-0.7036807
105	0xbdea6746	-0.11445479
106	0x3b46d625	0.0030340042
107	0x3e0c7bb0	0.13719058
108	0xc0191a2b	-2.3922222
109	0x3f136df6	0.5758966
110	0x3d9dc54b	0.07703646
111	0xbf57aa48	-0.84244204
112	0xbe36e6d7	-0.17861496
113	0xbf0fa707	-0.5611424
114	0x3dfa02b1	0.122075446
115	0x3eebffb1	0.46093515
116	0xbecbab9a	-0.3977936
117	0xbf860ad4	-1.0472054
118	0xbe0619eb	-0.13095824
119	0xbf3bfb16	-0.7343
120	0xbe73375f	-0.23751591
121	0x3e643880	0.22287178
122	0xbe8fb177	-0.28065082
123	0x3dbc1cf1	0.09185208
124	0xbf91eafd	-1.1399838
125	0xbdf33f13	-0.11877265
126	0xbf069026	-0.52563703
127	0xbb4a5662	-0.0030874242
128	0x3f2a559e	0.6653689
129	0xbe24aae0	-0.16080809
130	0xbe88ba0c	-0.26704443
131	0x3f02e1c2	0.5112573
132	0xbe1bbc26	-0.15208492
133	0xbe1bd04a	-0.15216175
134	0xbe3c4397	-0.18385158
135	0xbe6fbf15	-0.23412736
136	0x3dbfaf46	0.09359603
137	0xbd93a618	-0.07209414
138	0x3c15302d	0.009105724
139	0xbdf5bec3	-0.119992755
140	0xbe383501	-0.1798897
141	0xbe0abf58	-0.13549554
142	0xbe48317e	-0.1955013
143	0xbde4edb9	-0.111781545
144	0xbe4551d6	-0.19269499
145	0xbc81624e	-0.015793946
146	0x3ce083d4	0.02740661
147	0x3dfa4e2d	0.12221942
148	0xbe5e81d6	-0.21729216
149	0xbe058d8c	-0.13042277
150	0x3d829498	0.06375998
151	0xbde9a72d	-0.114088394
152	0xbd7607e1	-0.060066108
153	0xbe583a32	-0.2111595
154	0xbc65fc77	-0.014037243
155	0xbd8123aa	-0.063056305
156	0xbdace11c	-0.08441374
157	0xbd77d1b2	-0.060502715
158	0xbdea6819	-0.11445636
159	0x3d0552ee	0.03254979
160	0x3d887523	0.06662967
161	0x3cfaafba	0.030601371
162	0xbd1821b1	-0.037141506
163	0xbd8574e0	-0.06516433
164	0xbe2ba063	-0.16760401
165	0xbe1c13ef	-0.15241979
166	0x3d103179	0.03520343
167	0xbe29b8de	-0.16574427
168	0x3d20db51	0.039271656
169	0x3e13f7e9	0.14450039
170	0xbd0f3034	-0.03495808
171	0xbe119d6d	-0.1422021
172	0xbdde7509	-0.108621664
173	0xbdbf404a	-0.09338434
174	0xbd97aa78	-0.07405561
175	0xbd90c984	-0.07069686
176	0xbbbd8569	-0.005783726
177	0xbe1b65c1	-0.15175535
178	0x3d89b3a1	0.067237146
179	0x3dc91b57	0.09819668
180	0xbe0bcade	-0.13651606
181	0xbd92c8d5	-0.07167212
182	0xbdffff15	-0.12499825
183	0xbc180d0e	-0.009280456
184	0xbd0dbaa3	-0.03460182
185	0xbcdfb551	-0.027308138
186	0xbe5dc640	-0.21657658
187	0x3e03aa5c	0.12857956
188	0x3db827e0	0.089919806
189	0xbe22ec4c	-0.15910453
190	0xbe1a45d0	-0.15065694
191	0x3d2e1883	0.042503845
192	0xbe2b28f8	-0.16714847
193	0xbe4aab09	-0.19791807
194	0xbdce6513	-0.10077872
195	0xbe14f08d	-0.14544888
196	0xbc2698f6	-0.010168305
197	0xbdb6dff7	-0.08929437
198	0xbcc19844	-0.023632176
199	0xbd3b025d	-0.04565655
200	0x3d06e14d	0.032929707
201	0xbe401acc	-0.18760222
202	0x3d14fd53	0.0363744
203	0xbe0ff985	-0.14060028
204	0xbda107f5	-0.07862846
205	0xbe0f046b	-0.13966529
206	0x3bba9892	0.0056944573
207	0xbd803d87	-0.062617354
208	0xbd1d6fec	-0.038436815
209	0x3be1ffa2	0.006896929
210	0xbda7562c	-0.08170733
211	0xbe6a8741	-0.22903158
212	0xbe0d5ac2	-0.13804153
213	0xbc87f48b	-0.0165961
214	0x3d5e31ba	0.05424664
215	0xbe80f12c	-0.25184
216	0xbe4de465	-0.20106657
217	0xbbf085d8	-0.007340174
218	0x3d4d5e13	0.050138544
219	0xbdd075fd	-0.101787545
220	0xbd7aaee2	-0.061201937
221	0xbc50a53e	-0.012734709
222	0xbdb9a9d2	-0.09065594
223	0xbd62a118	-0.055329412
224	0xbe235fcc	-0.15954512
225	0xbd441d89	-0.04787973
226	0xbb6de29d	-0.0036298402
227	0xbd402553	-0.046910595
228	0xbd57c601	-0.052679066
229	0xbe06550d	-0.13118382
230	0xbdcc09e2	-0.099628225
231	0x3d15766c	0.03648989
232	0x3c9d0ff8	0.019172654
233	0x3d20c106	0.03924658
234	0xbe1d510c	-0.15362948
235	0xbe08be29	-0.1335379
236	0xbd152eaf	-0.036421474
237	0xbdcb0771	-0.09913529
238	0xbba06536	-0.004894878
239	0xbd31a8ca	-0.04337386
240	0xbd1635e4	-0.036672488
241	0xbe224f8d	-0.15850659
242	0x3d78e5a8	0.060765892
243	0xbd44f7d0	-0.048087895
244	0xbe0440b4	-0.12915307
245	0xbe189ee8	-0.14904368
246	0xbcb60553	-0.022219336
247	0xbd0befe4	-0.034164324
248	0xbbc3ce48	-0.0059755184
249	0xbdcfab2a	-0.10140069
250	0xbd71ee9b	-0.059065443
251	0xbcf1b9f8	-0.029507622
252	0xbe301754	-0.17196399
253	0xbb6d5602	-0.0036214595
254	0xbdf08aa6	-0.11745195
255	0x3d115719	0.035483453

fc2.bias f4 [128]
0	0xbf4b5257	-0.79422516
1	0xbe3a8c5c	-0.18217605
2	0xbdb2cd68	-0.087305844
3	0xbdd9f1ac	-0.106417984
4	0xbf08a7ef	-0.53381246
5	0xbed21f40	-0.41039467
6	0xbe21f8a0	-0.15817499
7	0x3faf8d26	1.371495
8	0xbf0f3c95	-0.55951816
9	0xbf3afb71	-0.7303992
10	0xbebe373f	-0.37151524
11	0xbe5ec664	-0.21755368
12	0xbe934b80	-0.2876854
13	0xbe3fe0d3	-0.18738107
14	0xbecca161	-0.39966872
15	0xbe053016	-0.13006625
16	0xbe5d6163	-0.21619181
17	0xbdcc7a61	-0.099842794
18	0xbe440c5e	-0.19145343
19	0x3f6e70cd	0.9314087
20	0xbe2a649b	-0.1663994
21	0xbe432220	-0.19055986
22	0xbf7e26ff	-0.99278253
23	0x3e635a6f	0.22202466
24	0xbe93b5af	-0.2884955
25	0xbf56ced7	-0.8390936
26	0xbf92db6f	-1.1473216
27	0x3f6eb6ac	0.93247485
28	0x3ed2c45c	0.41165435
29	0xbee4a23f	-0.44655034
30	0xbf0fe57a	-0.5620953
31	0x3f770e7d	0.9650648
32	0xbe01cf62	-0.12676767
33	0xbf02f82b	-0.51159924
34	0xbf937bb2	-1.1522124
35	0xbf5241e6	-0.82131803
36	0xbf7d1d2c	-0.9887264
37	0xbf3192b4	-0.69364476
38	0xbdf1b8f7	-0.11802857
39	0xbf06b401	-0.52618414
40	0xbfa120cd	-1.2588135
41	0x3f372070	0.7153387
42	0xbe8583f9	-0.2607725
43	0xbec8291f	-0.39093873
44	0x3f539a20	0.8265705
45	0xbf149469	-0.58038956
46	0x3fa995ae	1.3248804
47	0xbf306d81	-0.6891709
48	0xbf21a88a	-0.63147795
49	0xbf0e96a4	-0.5569861
50	0x3f2ec2df	0.682661
51	0xbf483e9d	-0.7822054
52	0xbe3cfe94	-0.18456489
53	0xbe3fdd9d	-0.18736883
54	0xbd26797b	-0.040643197
55	0xbe9ac2dd	-0.30226794
56	0xbe6b0b75	-0.2295359
57	0xbf6c593f	-0.9232368
58	0xbe9bb569	-0.30411842
59	0xbfaacdea	-1.334409
60	0xbf4c8288	-0.79886675
61	0xbecaa77c	-0.39580905
62	0xbf38818a	-0.7207266
63	0x3e06ec6c	0.13176125
64	0xbf8462a2	-1.03426
65	0xbf382606	-0.7193302
66	0xbd98429b	-0.07434579
67	0xbea83c68	-0.32858586
68	0xbecf1523	-0.40445814
69	0xbf4b4e11	-0.79415995
70	0xbfba5cc2	-1.4559557
71	0xbf38537b	-0.7200238
72	0xbd8590e7	-0.065217786
73	0xbf303024	-0.68823457
74	0x3f87a30a	1.059663
75	0xbe72a763	-0.23696665
76	0xbe7d9f88	-0.24767888
77	0xbe0fb1c9	-0.14032663
78	0xbe2c2d95	-0.16814263
79	0x3f43fe7b	0.7656018
80	0xbe274e8f	-0.16338561
81	0xbf548b6f	-0.8302526
82	0xbe96a460	-0.29422283
83	0xbfaa206f	-1.3291148
84	0xbe4e64fa	-0.20155707
85	0xbd309ebd	-0.043120135
86	0xbdf71d62	-0.12066151
87	0xbf07feee	-0.53123367
88	0xbf894b27	-1.072606
89	0xbf247451	-0.64239985
90	0xbf11b212	-0.5691234
91	0xbe85ac44	-0.2610799
92	0xbf0e1577	-0.555015
93	0x3fa9d687	1.3268594
94	0x3ec0f3d0	0.37686014
95	0xbe8c9f78	-0.27465415
96	0xbf31b92a	-0.6942316
97	0xbe950b77	-0.2911031
98	0xbcb65ade	-0.022260126
99	0xbee35cd0	-0.44406748
100	0xbf0666c8	-0.5250058
101	0xbf157fe9	-0.583983
102	0x3f5e57c7	0.8685269
103	0xbf09f88d	-0.53894883
104	0xbf2eea4a	-0.68326247
105	0xbf096e34	-0.5368378
106	0xbe1098ec	-0.14120835
107	0xbf000eab	-0.5002238
108	0xbda5222f	-0.08063161
109	0xbf0c0484	-0.5469439
110	0xbe127ea5	-0.14306124
111	0xbf1c8575	-0.6114114
112	0xbefb2288	-0.49049783
113	0x3f54f529	0.83186585
114	0xbf003f08	-0.5009618
115	0xbf6e14ff	-0.9300079
116	0xbf34f96a	-0.70693076
117	0xbf2a71fb	-0.6658017
118	0xbec19dac	-0.37815607
119	0xbd078329	-0.03308407
120	0xbeda06e5	-0.42583385
121	0xbe19215a	-0.14954129
122	0xbf36a5e5	-0.71346885
123	0xbf4ad23f	-0.7922706
124	0xbede18f9	-0.43378428
125	0xbe5a5270	-0.2132051
126	0xbf0623ec	-0.5239856
127	0xbf8741be	-1.0566938

fc3.weight f4 [1, 128]
0	0xbe47d785	-0.19515808
1	0x3c7f346a	0.015576461
2	0xbb2ef4d8	-0.0026696231
3	0xbc0a19db	-0.008429016
4	0x3db9d57e	0.090739235
5	0x3c8af9a5	0.016964743
6	0x3c178624	0.00924829
7	0x3d9f3e0a	0.07775505
8	0x3d82a9e9	0.06380064
9	0x3d824e99	0.063626476
10	0xbd1d3737	-0.038382735
11	0xbc6f8a56	-0.014620384
12	0x3cd49e2d	0.02595433
13	0xbc99490a	-0.018711586
14	0xbcd29aa9	-0.025708513
15	0x3ce592a8	0.028024033
16	0xbd4a1aff	-0.04934215
17	0xbd787b32	-0.060664363
18	0xbcb32b87	-0.021871341
19	0xbd26c5a6	-0.040715836
20	0x3c417257	0.011807046
21	0xbd8b7985	-0.068102874
22	0x3d254eae	0.040358238
23	0x3d679e25	0.056547303
24	0xbb85380e	-0.00406552
25	0x3dc00dd6	0.09377639
26	0x3d59eb8e	0.053203158
27	0x3cd68b29	0.026189404
28	0x3d92c6a2	0.071667925
29	0xbb4e30d8	-0.0031462219
30	0x3aff1f76	0.0019464332
31	0x3d4b56ee	0.04964345
32	0x3cfa5a67	0.030560685
33	0xbd99e79a	-0.075148776
34	0x3d0d6859	0.03452334
35	0xbd3695d7	-0.044576492
36	0x3d688dc9	0.05677584
37	0xbdd3d5a4	-0.10343483
38	0x3d540448	0.051761895
39	0x3da2f206	0.079563186
40	0xbd1f5ee1	-0.038908843
41	0x3c507029	0.012722054
42	0xbd084c99	-0.033276174
43	0xbc05a8c7	-0.008157915
44	0x3d0ba17f	0.03408956
45	0x3d054c5b	0.03254352
46	0x3d516634	0.05112286
47	0xbc9e142e	-0.019296732
48	0x3c81e051	0.015854033
49	0x3bf241db	0.0073931045
50	0xbd26925d	-0.040666927
51	0x3cde0c04	0.027105339
52	0xbbfd7073	-0.0077343523
53	0x393767f3	0.00017490964
54	0x3c79c14c	0.0152438395
55	0x3d025ea9	0.031828556
56	0x3c6ebb53	0.014571029
57	0xbde737e4	-0.11289957
58	0x3e4f002f	0.20214914
59	0xbd004955	-0.031319935
60	0xbd128631	-0.035772506
61	0x3df7a365	0.12091712
62	0x3cc6a415	0.024248162
63	0xbd2a550e	-0.04158502
64	0x3c252faa	0.010082165
65	0x3d50fe3f	0.051023718
66	0x3d12f279	0.03587577
67	0xbd84e18a	-0.06488331
68	0xbcd3ba3a	-0.025845636
69	0x3c83f294	0.016106881
70	0xbc578708	-0.013154753
71	0x3cdf8198	0.027283475
72	0x3d0d2cdf	0.03446662
73	0xbd6c1d6c	-0.057645246
74	0xbdc93d75	-0.09826175
75	0xbd34d9a3	-0.044152867
76	0x3cb66a3a	0.02226745
77	0x3cd77c4f	0.026304392
78	0xbbd01483	-0.0063501014
79	0xbd46b4df	-0.048512336
80	0xba033539	-0.0005005184
81	0xbd013b8b	-0.031550925
82	0x3d58daad	0.05294292
83	0xbd5f25af	-0.054479297
84	0xbc823ca0	-0.015898049
85	0x3ca2b909	0.019863622
86	0xbc289314	-0.010288972
87	0x3cbf675d	0.023364717
88	0xbc891e9f	-0.016738234
89	0xbd46e5de	-0.048559062
90	0xbc24d6a1	-0.010060937
91	0xbc79c409	-0.015244492
92	0x3d9a71ed	0.07541261
93	0x3d5d7d80	0.054074764
94	0xbcfb3afc	-0.030667774
95	0x3b591d5b	0.003312907
96	0xbc060ac6	-0.0081812795
97	0xbd5c14e0	-0.053730845
98	0x3cf1f8b8	0.029537544
99	0x3c659531	0.014012621
100	0xbd7e0205	-0.062013645
101	0xbde4bd09	-0.11168868
102	0x3d660548	0.05615738
103	0x3cee4078	0.029083475
104	0xbd5d4bb2	-0.054027267
105	0x3c8e6f28	0.017386988
106	0xbad682f2	-0.0016365929
107	0x3d04643f	0.032322165
108	0xbcfe5c8e	-0.031049993
109	0xbd4dbc8c	-0.05022864
110	0x3c0dc593	0.008653062
111	0xbd4c11ae	-0.04982155
112	0xbe713fc8	-0.23559487
113	0x3d78ef03	0.060774814
114	0x3c411f44	0.011787239
115	0xbd4bf0f6	-0.049790345
116	0x3d2acb7b	0.04169796
117	0x3d631a35	0.055444915
118	0x3d1da0c5	0.0384834
119	0x3dea9b0e	0.114553556
120	0xbd78031e	-0.060549848
121	0x3ce77460	0.028253734
122	0xbdd1b325	-0.10239247
123	0xbd45bf8b	-0.048278373
124	0xba772605	-0.00094279676
125	0xbc79996e	-0.015234334
126	0x3d21b250	0.039476693
127	0x3d2027f9	0.03910062
