project3-collaboration/results/maddpg_actor_reacher_0_session_default.pth (torch_old, 167781 bytes, 18 tensors)

bn0.weight f4 [24]
000000 6c 86 0c 3e b8 5a 4e 3e a9 c2 57 be 5f aa fb 3c
       0.13723153 0.20151794 -0.2107035 0.030720888
000010 26 9b ee 3f 93 51 cc 3f 9a 34 fa 3b b2 85 9b 3b
       1.8641098 1.5962394 0.007635665 0.0047461623
000020 1e 8a 90 bc 65 17 14 3d 1c ad 13 bc 9f 48 bd bd
       -0.017643984 0.036155123 -0.00901344 -0.09242367
000030 67 3e 84 3c 3d bb 07 3f 75 ee 2c 3d a5 4a fd 3e
       0.016143037 0.5302008 0.042219598 0.49471012
000040 84 49 9c 3f 04 84 80 3f 2b 2f 67 bd cb e4 15 bd
       1.2209935 1.0040288 -0.056441467 -0.036595147
000050 b7 63 f4 3f eb 00 de 3f d3 39 55 3e aa ad 8b 3f
       1.909293 1.734403 0.2082284 1.0912373

bn0.bias f4 [24]
000000 91 ba 73 3b 65 65 60 3a 2c 6f 9b ba 72 65 f1 38
       0.003719006 0.0008560031 -0.0011858693 0.00011510671
000010 24 19 1c 3b 00 fe 36 3c 57 d5 87 39 4c 24 51 36
       0.0023818696 0.011168957 0.00025908157 3.1164554e-06
000020 09 4b db ba 1d 53 62 bb f0 a7 28 39 bf f2 b4 3b
       -0.0016730736 -0.0034534403 0.0001608429 0.0055221017
000030 fd af 86 3a 6d 75 92 3c 94 c3 39 3b 26 d0 1b b9
       0.0010275837 0.017878259 0.0028345333 -0.00014859493
000040 a0 65 f4 3b 9f d7 ca 3b 3d 99 d8 3b a7 2a 08 bb
       0.0074584037 0.006190255 0.0066100643 -0.0020777376
000050 c2 27 05 bb 8a 7d 68 3b 11 d7 51 3b fa b2 7b 3b
       -0.0020317887 0.0035475218 0.0032019059 0.003840624

bn0.running_mean f4 [24]
000000 ff 77 85 c0 44 f8 80 be 57 be 6e 41 ec 25 6c 3c
       -4.170898 -0.25189412 14.92147 0.014413338
000010 87 e2 b9 bc 97 db 80 40 57 be 6e 41 ec 25 6c 3c
       -0.022691024 4.0268054 14.92147 0.014413338
000020 08 8a 85 c0 e6 a8 82 be 45 f1 6a 41 55 b2 f6 bd
       -4.1730995 -0.25519484 14.683904 -0.12045733
000030 4c 4b ab 3b 97 b0 80 40 45 f1 6a 41 55 b2 f6 bd
       0.005227482 4.0215564 14.683904 -0.12045733
000040 0c a5 85 c0 a7 08 8a be e2 71 69 41 71 41 43 be
       -4.1763973 -0.26959726 14.590303 -0.19067933
000050 5b 12 fb 3c db e4 80 40 e2 71 69 41 71 41 43 be
       0.030648401 4.0279365 14.590303 -0.19067933

bn0.running_var f4 [24]
000000 af 61 98 41 c3 44 58 3f f4 bd ed 43 d9 a4 8d 41
       19.047697 0.8447992 475.484 17.705492
000010 42 e9 da 41 43 b3 06 40 f4 bd ed 43 d9 a4 8d 41
       27.363895 2.1046913 475.484 17.705492
000020 8d 2d 97 41 e8 e0 55 3f 12 61 f0 43 9b 28 8e 41
       18.897242 0.83546305 480.75836 17.769827
000030 fd d7 dd 41 71 f7 04 40 12 61 f0 43 9b 28 8e 41
       27.730463 2.0776026 480.75836 17.769827
000040 43 02 98 41 3d 07 57 3f b4 8a f0 43 2d 33 90 41
       19.001104 0.8399542 481.08362 18.024988
000050 c1 0c df 41 86 4d fd 3f b4 8a f0 43 2d 33 90 41
       27.881227 1.9789283 481.08362 18.024988

fc1.weight f4 [256, 24]
000000 e3 6b 7c bc 37 9a bd 3e ff a1 c5 3e 1f 77 3c bf
       -0.015406582 0.3703172 0.38600156 -0.73619264
000010 81 aa 46 3e ad 78 34 3f ff 55 4e be 2e 49 65 be
       0.1940098 0.70496637 -0.20149992 -0.22391197
000020 c7 1e d6 be f6 5d de 3e 03 75 3c bf 03 42 ce bd
       -0.41820356 0.43431062 -0.73616046 -0.100711845
000030 0a 59 7f 3e 6d 47 85 3f 2a 8a 1c be ed 71 29 bf
       0.2493631 1.0412422 -0.1528708 -0.6618946
000040 d1 0e c7 3c 21 4c 0f 3e 1b ec 1e 3f 67 34 05 3f
       0.024299057 0.13993885 0.6207902 0.52033085
000050 20 86 c2 bf 8b 0d c5 3f 07 20 91 bd 79 e1 84 3d
       -1.5197182 1.5394758 -0.07086187 0.06488318
000060 fb 6b 0c 3d d1 5a 67 bd 19 ee bc bc ae 68 75 3d
       0.034282666 -0.056483094 -0.023062753 0.059914283
000070 4b 93 c7 3e 0f bc 75 3b 13 5a b9 bd c8 26 8a 3c
       0.38979563 0.0037496125 -0.090503834 0.016864195
000080 59 6f 2c 3e 63 c4 ed 3c ba f9 ed 3d 3c 80 c6 be
       0.16839351 0.029024309 0.11619897 -0.3876971
000090 19 62 65 3e cd 29 d1 3d 88 0c 46 3e f1 53 22 be
       0.22400703 0.10213051 0.19340718 -0.15852334
0000a0 75 5a e0 3e e7 cf 8a bc 76 a0 6e be f7 f9 1b be
       0.43819013 -0.016944839 -0.23303398 -0.15232073
0000b0 dd 63 c2 3e d9 88 50 3e f4 35 ea 3d 9a e4 57 be
       0.37966815 0.20364703 0.11436072 -0.21083298
0000c0 54 70 38 be 89 75 ed be 86 c3 1e 3f 7d 9c 95 be
       -0.180116 -0.46378735 0.62017095 -0.29220954
0000d0 f8 33 b5 bf 17 74 95 3f 2a 77 a3 bd f2 85 19 bf
       -1.4156485 1.1676053 -0.07981713 -0.5997001
0000e0 e5 68 31 3f a6 42 53 3f 8f 97 e6 be 20 04 7d 3f
       0.6930068 0.8252357 -0.45037505 0.9883442
0000f0 bc ed b9 be 52 48 ff bd 52 5b c6 bd 57 26 30 bf
       -0.3631419 -0.12464966 -0.09685387 -0.688085
000100 a8 1e 6c bc 98 f8 b1 be c3 65 ef 3e 34 98 c0 3e
       -0.014411606 -0.34759974 0.46757326 0.37616122
000110 a1 f4 c0 bf bd f5 29 bf 1d 6e 16 bd 2b 95 9f be
       -1.5074655 -0.6639059 -0.036726106 -0.31168494
000120 a5 06 66 3e ff 1d fe bd 46 62 be bc 1c 2d 1e be
       0.22463472 -0.12408065 -0.02324022 -0.15446895
000130 4f 23 03 bf ed 5b e1 3f 64 11 c0 3e 84 db 6e be
       -0.5122575 1.7606179 0.37513268 -0.23325926
000140 6f 7b 71 be 5d db 6f bb cf 8b 6b 3d 53 84 54 be
       -0.23582242 -0.0036599257 0.05750638 -0.20753603
000150 7b 02 d9 3d 46 e5 25 3f ef 03 02 3f 45 31 99 3e
       0.10596176 0.6480297 0.5078725 0.29920402
000160 0c f7 d0 3e b7 ca 25 be 4e ff 66 be bd 4e ee 3e
       0.40813482 -0.16190611 -0.22558329 0.46544448
000170 ea db 95 bf a9 04 37 3e ee 08 ef be 89 d9 a9 3f
       -1.1707737 0.17872871 -0.466865 1.3269511
000180 f0 b9 ad 3f ef 8c 97 3e c5 e5 79 bf 64 dd a7 be
       1.3572369 0.2959971 -0.97616225 -0.32786095
000190 32 ad 93 bf c6 68 58 be 81 5d 5b 3f ca 67 02 3f
       -1.153723 -0.21133718 0.8568955 0.5093962
0001a0 c7 53 85 bf 53 ad 97 3f 76 14 84 3e b0 cc 89 3e
       -1.0416192 1.1849769 0.2579686 0.26913977
0001b0 bc bf 39 3f be e8 2f 3f b3 51 0e 3f 2a 65 2c 3f
       0.7255819 0.6871451 0.55593413 0.67341864
0001c0 16 6c 1d 3f 4c e2 4a 3f c3 b5 31 3f d5 f5 3c 3d
       0.6149305 0.7925155 0.6941797 0.04613288
0001d0 37 2f 00 3f 85 cb b2 3f 53 62 76 3f 9c fe f6 3e
       0.50072044 1.3968359 0.9624378 0.48241127
0001e0 cf a2 36 bf a3 37 34 3e 8a ed 2a bf 96 55 e3 3f
       -0.71342176 0.17599349 -0.66768706 1.7760494
0001f0 06 ec e9 be aa 57 4a bf f4 58 5a 3f 10 d5 55 3f
       -0.45687884 -0.79040015 0.8529198 0.8352823
000200 ef ae 4c bd e2 13 b9 3e cc e8 31 3f 28 4c ad 3d
       -0.049971517 0.36147982 0.69495845 0.08461791
000210 a5 df 3b 3f 2e bc 2f bf b3 e1 ca 3e d4 db 99 3f
       0.7338813 -0.68646514 0.3962532 1.2020211
000220 b1 75 9f 3f 36 39 2c 3f b3 b5 de 3e dd ef 0d bf
       1.2457792 0.67274797 0.43498 -0.5544413
000230 65 97 78 bd 60 74 00 bc 6c 8e 08 bf 30 f6 92 bf
       -0.060691256 -0.007840246 -0.5334232 -1.148138
000240 3d 74 20 bf 0b 36 23 bf e6 74 f2 3e 03 69 17 bf
       -0.62677366 -0.6375434 0.4735481 -0.5914461
000250 a2 bf 58 bf 1d 19 2f 3f 7b 87 7d bf c4 4d 8e 3f
       -0.8466741 0.68397695 -0.9903485 1.1117482
000260 d2 01 74 bd 3f 1f 4e bf b9 a3 95 be cc 08 49 3f
       -0.05957205 -0.8051643 -0.29226473 0.7852905
000270 40 84 16 3d c4 9c ac 3e 47 3f 20 bf 40 e2 70 3f
       0.036747217 0.33713353 -0.62596554 0.9409523
000280 db a1 8d 3d e0 92 4d 3e 58 a0 94 3f cf 6b 23 3e
       0.06915637 0.2007556 1.1611433 0.15959094
000290 d1 af b6 bf ab 40 a9 3e 10 77 63 3f e3 7d fa 3e
       -1.4272405 0.3305715 0.8885355 0.4892417
0002a0 8d 72 91 bf 7e 04 b5 3f b5 c4 9b 3e 56 41 18 3e
       -1.1363083 1.4141996 0.30423513 0.14868674
0002b0 9e 37 90 be 18 41 a8 3f 74 11 af 3f 5a e7 59 bf
       -0.28167433 1.3144865 1.3677201 -0.8511864
0002c0 0d 81 db be 0b 2e 8b 3f 85 4f ab 3e f9 a1 88 be
       -0.42871895 1.0873426 0.33459106 -0.26686075
0002d0 58 e6 80 3f bc 7c 62 3d 07 8f 9b bf 9d fa 02 c0
       1.0070295 0.055294737 -1.2153023 -2.0465462
0002e0 ff c4 34 be 61 8d fd be f2 a6 dc be ca 5d 47 bf
       -0.17653273 -0.49521926 -0.4309612 -0.77877486
0002f0 75 2a 8d be 11 1e 50 bf e3 14 23 3f 1f e9 bb bf
       -0.27571455 -0.8129588 0.63703746 -1.4680518
000300 d8 c0 b7 bf f9 59 90 bf 7f ea b1 be 6e 05 8e 3f
       -1.4355726 -1.1277457 -0.3474922 1.1095407
000310 46 b4 15 bf d2 e0 0c 3f 49 e0 70 3e bf d0 0b 3f
       -0.584782 0.5503055 0.23523058 0.54615396
000320 37 15 39 bf f4 e8 97 bf b0 91 85 bf 3e c3 ce be
       -0.72297996 -1.1867967 -1.0435085 -0.40383333
000330 e3 6f 37 be 19 19 89 be b1 9a a4 be fe ee 0f 3f
       -0.17913775 -0.2677696 -0.3214927 0.5622405
000340 7a ac b1 be df e3 b0 be 51 bd 7a 3e 1e bc 42 be
       -0.34701902 -0.34548852 0.24486281 -0.19017074
000350 99 b0 db 3f 8d 0e c8 be 5f ba c7 3e 1d de cc 3e
       1.7163268 -0.390736 0.39009377 0.4001321
000360 1b bf ad 3f dd ed 41 bf 93 f6 45 3f 5c c6 2d 3f
       1.3573946 -0.75753576 0.7732937 0.678808
000370 a7 f5 06 bf cf 1f 34 bf 99 1f 3d 3f e2 8f 71 3f
       -0.52718586 -0.70361036 0.7387634 0.9436017
000380 c0 0f df 3d 33 ae 14 bd bb d3 0b 3f f7 d0 06 3e
       0.10891676 -0.03629894 0.5461995 0.13165651
000390 65 6e 3c 3f 0c d1 9e be 27 c8 6e be 72 d3 07 3f
       0.7360595 -0.31018865 -0.2331854 0.53057015
0003a0 a2 2a c7 3f 5c ba 2b 3c fc cd 82 be bc 03 15 3f
       1.5559886 0.010481443 -0.2554778 0.58208823
0003b0 13 01 ae bd 2b e8 b8 3f 90 a6 f6 3e fb c1 91 3f
       -0.08496299 1.4445852 0.48173952 1.1387323
0003c0 61 f8 ac be bc 40 ae bf 60 77 17 3f 65 82 93 3e
       -0.33783248 -1.3613505 0.59166527 0.2881042
0003d0 18 d8 bf bd 26 17 22 bf a4 2d 46 bf f8 20 6b 3f
       -0.093673885 -0.6331657 -0.7741339 0.9184718
0003e0 c1 5d 73 bd 68 46 6e bf 7a 00 43 bf 88 06 bd bf
       -0.059415583 -0.9307618 -0.761726 -1.4767618
0003f0 66 40 b1 3e 8f 0d 87 bf 9b 29 48 bf 8d 51 41 40
       0.34619445 -1.0551013 -0.78188485 3.0206025

fc1.bias f4 [256]
000000 57 c1 69 3c 64 d7 4c be da dc 89 3d eb 06 24 3a
       0.014267287 -0.2000404 0.06731577 0.00062571344
000010 45 56 0a be ec b8 9b bd 3f 6c a6 bd 2c ce bc bd
       -0.13509472 -0.076036304 -0.08126115 -0.09219012
000020 3b bd 4f bd fa 54 1a 3d 95 d4 f1 bd 14 ef 55 3d
       -0.050717574 0.037678696 -0.11808125 0.052229956
000030 37 3f 2b be db 62 43 3e 7b 5c fa bd 5c c1 b1 3d
       -0.16723333 0.19080679 -0.122246705 0.086794585
000040 61 3d 0f be a9 43 0f be 9d 15 f5 bc ea c0 ee bd
       -0.13988258 -0.13990654 -0.029917533 -0.11657889
000050 50 9f 6a bd d2 c5 b6 bd 1e da 69 bd 8a 88 21 be
       -0.05728084 -0.0892445 -0.05709278 -0.15774742
000060 1b d8 4b 3e 64 75 ea 3d 77 ec 95 bd 83 c9 17 3e
       0.19906656 0.11448172 -0.07320493 0.14822964
000070 cc 3b ba bd 3d d5 2a be 29 ec 84 3d 1c df 8f bd
       -0.090934366 -0.16682906 0.064903565 -0.070249766
000080 a2 05 1d 3e c1 7d 61 bd e6 33 2a be 01 40 30 3e
       0.1533418 -0.05505157 -0.1662136 0.17211916
000090 57 bb 3f 3d 11 3b 7d 3d 39 e0 98 bc 0e 6d 26 be
       0.04680952 0.06182391 -0.018661605 -0.16252539
0000a0 0c 7b 85 3d ca 9a 5b 3a e0 20 0a be 0c 1a ee 3d
       0.0651761 0.00083772524 -0.13489103 0.11626062
0000b0 86 bb 43 be 42 b9 01 be 72 c4 41 bd 40 b2 42 be
       -0.19114503 -0.12668326 -0.047306485 -0.1901331
0000c0 c5 4c 3c be 52 93 7a bd 65 97 1a bd 20 90 19 3e
       -0.1838866 -0.06117565 -0.037742037 0.14996386
0000d0 10 57 c3 3d 53 58 42 3e fa d9 81 3d 3f a4 df 3c
       0.0953809 0.18979006 0.06340404 0.027299998
0000e0 e9 0f 1c bd 8b 37 b1 bd 57 ef 3c be bc e7 3e be
       -0.03810111 -0.08653172 -0.18450676 -0.18643087
0000f0 ae 3b b2 3d 82 1f 05 be a2 7e ab bd 33 70 c2 3d
       0.08702789 -0.130003 -0.08373763 0.094940566
000100 65 74 01 be cf 04 9a 3d c2 da 31 bc c2 cd 2a 3d
       -0.12642057 0.075204484 -0.010855379 0.041700132
000110 bf 6d be bd 42 54 18 3e 94 e3 2b be 84 24 43 be
       -0.09298276 0.14875892 -0.16786033 -0.19056898
000120 64 15 23 3e 6e 2f 0d be 0a c1 48 3e cb 34 ba 3d
       0.15926129 -0.13787624 0.19604889 0.09092101
000130 bf 09 a1 3d fe de cf bc d1 87 1d 3d 48 44 56 3d
       0.07863187 -0.025374886 0.038459603 0.05231121
000140 44 42 c4 bd 9a 08 1a 3e 48 6b 00 3e 8d c2 45 3c
       -0.09582952 0.15042344 0.12540925 0.01207031
000150 34 93 6e 3d 4d f9 ca bc 3f c5 96 bd 0b d5 20 be
       0.058245853 -0.024777079 -0.073618405 -0.1570627
000160 bc 55 a0 bd e1 45 48 be f3 c4 82 bd 7f bd da 3d
       -0.078288525 -0.19557907 -0.06385221 0.10680675
000170 ce cd 4a 3e 86 6d 3f be 4a 64 2e be 10 88 2c 3e
       0.19805071 -0.18694124 -0.17030445 0.16848779
000180 d7 c5 92 bd a1 8e 94 39 90 5d 02 3e 3d 4d 39 3e
       -0.07166641 0.00028335027 0.12731004 0.1809587
000190 b3 68 9e 3d fa 76 4c 3d 04 ff 8d bb e0 63 a5 3b
       0.077348135 0.049918152 -0.0043333787 0.0050473064
0001a0 e7 34 a8 3d b9 9e 44 be d4 a7 49 be 36 26 0d 3e
       0.08213215 -0.19201173 -0.19692928 0.13784108
0001b0 36 32 4c be c8 af db 3d 48 4c 17 3e 24 8e 0a 3e
       -0.19941029 0.10726887 0.14775193 0.13530785
0001c0 4c d7 7e 3d 2c de b8 3c a8 dd c1 3d de 29 f8 3d
       0.06221704 0.022566877 0.09466106 0.121173605
0001d0 92 6b d3 3b 56 81 16 be 9d 9a 01 3e 38 f5 b8 3c
       0.0064520324 -0.14697775 0.12656637 0.022577867
0001e0 68 41 fc 3d 05 06 0c be b1 a2 51 bd 5d 8b 05 be
       0.12317163 -0.13674171 -0.051180545 -0.13041444
0001f0 6a d4 36 3c a6 08 32 3e 96 a7 20 3d ec c1 31 3e
       0.011159042 0.17386112 0.039222322 0.17359132
000200 37 6f 19 3e 4e 9b 0f be 54 4c 48 3e 12 ac 38 3c
       0.14983831 -0.14024088 0.19560367 0.0112714935
000210 4b b2 2e 3e 39 2f 20 3d 74 63 0f bd 4c 5a 31 3e
       0.17060201 0.039107535 -0.035006955 0.17319602
000220 1f 45 1a be 8c f5 a2 3b 0f ca eb bc e0 68 19 3c
       -0.1506543 0.004973119 -0.028782872 0.009363383
000230 88 d5 6e bd ef ce 25 3e 07 9a 2e bc 86 95 ac 3d
       -0.058309108 0.1619222 -0.01065684 0.08426957
000240 50 d3 b4 3d d7 b2 3e 3e f0 14 97 3d 38 10 50 be
       0.08829367 0.1862291 0.073770404 -0.20318687
000250 03 72 2d be 22 8d 45 be 52 ea 4c be 62 0a 2e be
       -0.16938023 -0.19292119 -0.20011261 -0.16996148
000260 4b 97 3e bb ca e1 45 3e 86 2c 07 be cb a9 af 3d
       -0.0029081877 0.19324413 -0.13200578 0.08577307
000270 73 a3 be bd ae ec 21 3e 35 bc 07 3e c0 3d c2 3d
       -0.09308519 0.15812942 0.13255389 0.09484434
000280 de 22 38 3e fd a6 1d be 9d 93 31 be 8f 43 d5 bd
       0.17982051 -0.15395732 -0.17341466 -0.104132764
000290 ef 6a 2a 3d fc c6 38 3e 13 33 0a 3e e9 65 83 3d
       0.041605886 0.18044657 0.13496046 0.06415922
0002a0 b7 57 13 bd 18 43 f0 bd 36 67 50 3e 84 f4 36 be
       -0.035972323 -0.11731547 0.20351872 -0.17866713
0002b0 1a 28 10 be 7b c2 f5 3d 7a 0b 23 3e e0 be 5b 3d
       -0.14077798 0.11999985 0.15922347 0.05364883
0002c0 83 95 5d bb a8 b3 cc bc e8 cb d9 3c 5c 68 d5 bd
       -0.003381104 -0.02498801 0.026586488 -0.104202956
0002d0 97 d2 4e 3e 60 1f 50 3e 2e a4 a1 bd 26 a6 11 3e
       0.20197521 0.20324469 -0.07892643 0.14223537
0002e0 34 2a 48 bd b6 6e 15 be 92 12 10 3d 11 75 21 bd
       -0.048868373 -0.14593014 0.03517396 -0.039418284
0002f0 2f a0 2d 3e 2a 0e 68 3c 00 4f 3c bd cc d9 25 be
       0.16955636 0.014163533 -0.045973778 -0.16196364
000300 2f aa 08 3e 0f 7d 0b 3e 6e 4c eb 3c 98 7e 92 bc
       0.1334617 0.13621925 0.028722968 -0.01788263
000310 38 b9 8c bd 75 13 42 3d 7c 97 48 3e 85 b7 09 bd
       -0.06871265 0.047381837 0.19589037 -0.033622283
000320 6f b1 9a 3c e5 c1 47 be af 02 54 3d 60 e3 b1 bd
       0.018883435 -0.19507559 0.05176037 -0.086859465
000330 ba 9b 46 bd c3 b9 dd bd 8a 31 40 3e 28 b4 0e 3e
       -0.048488356 -0.10826447 0.18768898 0.13935912
000340 64 62 b5 bd 33 4b 4c bd 7c 11 7b 3d 4f 54 9d 3d
       -0.08856657 -0.049876403 0.06129597 0.07682096
000350 92 30 c6 bd 68 66 a9 3d f0 3b 06 3d 6f 95 ef 3d
       -0.09677233 0.082714856 0.032772005 0.11698424
000360 ce ad e1 bd e8 eb 06 be d8 93 c3 3d 2f 75 04 bc
       -0.11019479 -0.13175929 0.09549683 -0.008084579
000370 bc e1 b4 bd 44 23 24 3e 02 75 b9 bc fb 81 0b be
       -0.08832118 0.16029078 -0.022638801 -0.13623802
000380 5c ab ee bc 0e c5 c1 bd 26 ed 8f bd e7 fd 2b be
       -0.029134445 -0.09461413 -0.07027654 -0.16796075
000390 8f da 26 3e 2b 90 37 3e 14 6d 2f be 48 73 02 3e
       0.16294311 0.1792609 -0.17131454 0.12739289
0003a0 f7 e4 75 3d 35 6d a9 bd 2b bb 76 bd a4 a7 0e 3d
       0.06003281 -0.08272783 -0.06023709 0.034827843
0003b0 21 77 31 3d e2 56 31 3e 7a a7 47 3e 5f c5 3f 3c
       0.0433265 0.173183 0.19497481 0.011704772
0003c0 89 2c 44 3e aa 8c f7 bd 84 c4 be 3a d8 f9 2b be
       0.19157614 -0.120873764 0.0014554416 -0.16794527
0003d0 bb bc c7 3d a9 ad 24 3d a6 cb fd bd 7e 3e 1f be
       0.09752794 0.040204678 -0.123923585 -0.15551183
0003e0 00 04 26 bd ee d5 9d bd f4 5b aa bd 23 30 36 be
       -0.04053116 -0.077068195 -0.0831832 -0.177918
0003f0 a4 54 05 be 1b 6c 2d 3e e6 df cc bd 0f 3d aa 3d
       -0.13020569 0.1693577 -0.10003643 0.08312427

bn1.weight f4 [256]
000000 f2 15 b9 3e 3a 51 59 3c c8 17 6d 3f 37 23 f7 3f
       0.36149555 0.013263995 0.9261441 1.9307622
000010 64 58 49 3f 98 6d 73 3f 9b 2f 21 3f 5b f4 6d 3f
       0.786505 0.950891 0.62963265 0.9295098
000020 36 b7 8e 3f 28 dd 96 3f 54 bb a1 3f 74 a6 4e 3f
       1.1149662 1.1786242 1.2635293 0.8072274
000030 29 0b 28 3f 36 74 9f 3f 53 fe 52 3f 6a 5a 1f 3f
       0.6564203 1.245734 0.8241932 0.62247336
000040 29 7d 1d 3f 07 56 70 3f 26 82 69 3c 15 cb 35 3f
       0.61519104 0.9388127 0.014252221 0.71013004
000050 c3 a8 1d 3f 0d 65 9e 3f e1 fd f5 3b 39 3b 52 3e
       0.61585635 1.2374588 0.0075070714 0.20530404
000060 b3 58 97 3d 97 b5 eb 3f c4 83 b6 3e b6 9d 38 3a
       0.07389965 1.8414792 0.35647404 0.0007042544
000070 e7 10 ad bd 3f 52 7d 3e d5 f1 dc 3f 6f 8f be ba
       -0.084504895 0.24738406 1.7261301 -0.0014538596
000080 95 aa 97 3e 5c f0 77 3f f0 d5 53 3e ea f0 3d 3e
       0.2962233 0.96851134 0.2068708 0.18548933
000090 96 70 33 3f f6 12 44 3f 90 95 d0 3f f9 ff 8d 3f
       0.7009367 0.7659143 1.6295643 1.1093742
0000a0 0d e7 87 3f ab b3 ae 3f 14 34 66 3f 52 a1 0a 3e
       1.0617386 1.364858 0.89923215 0.13538101
0000b0 67 13 3f bb 07 2a 65 3e a9 bb 79 3f cc 7f 4f 40
       -0.0029155852 0.22379313 0.9755197 3.242175
0000c0 28 b4 82 3e 90 ac 63 3f f3 89 b6 3f 13 f4 58 3f
       0.25528073 0.88935184 1.4260849 0.8474743
0000d0 d2 5a e4 3d f6 2a 9c 3f 03 f5 e7 3c e6 a9 35 3d
       0.11150135 1.2200611 0.028315073 0.04435148
0000e0 46 19 58 3f 83 9f a3 3f 3e 79 13 40 2a dc 4c 3e
       0.84413564 1.2783054 2.304275 0.20005861
0000f0 5e 07 18 3f a4 7b b0 3f 20 f9 28 3d 9a 07 1c 3f
       0.5938624 1.3787732 0.04125321 0.609491
000100 57 77 95 3f f5 68 d2 3f 70 87 92 3f 87 37 48 3f
       1.1677045 1.643828 1.1447582 0.7820973
000110 51 f8 ec bc 53 0f 5a 3f 04 fd 23 3f 04 f9 f3 3d
       -0.028927 0.8517963 0.64057946 0.1191273
000120 a5 9f bc 3a c3 44 81 3d c5 5c b1 3f e4 aa 4a 3e
       0.001439084 0.063119434 1.3856436 0.19791752
000130 af 10 5b 3e a2 50 a1 3e 1b ad 8e 3e 1f 93 dc 3f
       0.21393083 0.3150683 0.27866444 1.7232398
000140 6f 75 82 3f f1 86 03 3f 3f 28 a1 3f 9b 5c 6a 3f
       1.0192088 0.5137778 1.2590407 0.91547555
000150 41 d0 85 3f 96 6f 68 3f 2a a3 5b bc 0a 0d 77 3f
       1.0454179 0.90795267 -0.013405601 0.9650427
000160 a5 8f 64 bd 81 2e a8 3e b4 75 7d 3f 8f a1 7d 3e
       -0.055801053 0.3284798 0.99007726 0.24768661
000170 22 10 dc 3c aa 48 36 3f 76 b1 24 3f 4f 50 65 3e
       0.026863161 0.71204627 0.64333284 0.22393917
000180 bb 85 56 3f dd 6e 39 3f d5 50 47 3f cf 36 a1 3f
       0.83797807 0.7243479 0.77857715 1.2594851
000190 dd ad a9 3f b8 3a 0f 3f 4b 05 c5 3f 28 d1 56 3f
       1.3256184 0.5594897 1.539224 0.839129
0001a0 b2 93 35 3e 93 a7 61 bc 80 b9 5b 3f 7e 38 82 3f
       0.17732123 -0.013772863 0.85829926 1.017349
0001b0 6d 67 cd 3f 90 ad 95 3b 90 e4 aa 3c dd 39 e2 3e
       1.6047188 0.0045678094 0.02086094 0.4418477
0001c0 82 d5 e8 3f 74 d3 6b 3e aa a3 97 3f d4 c5 94 3f
       1.8190157 0.23029882 1.1846821 1.1622872
0001d0 6a 27 a1 3f 85 f0 3d 3f 5c fe 36 3f 00 83 ec 38
       1.2590153 0.7419513 0.7148187 0.000112777576
0001e0 1f 6b 74 3e 4a 43 91 3d 31 ca 01 3f 38 9b 95 3f
       0.23868988 0.070929125 0.50699145 1.1687994
0001f0 48 fd a9 3f 1d 1d be 3f dc 2a 58 3f 5c 46 54 3f
       1.328042 1.4852635 0.844404 0.8291986
000200 b8 79 03 3e 15 a3 41 3f 47 c1 5a 3f 66 f7 c0 3d
       0.12839401 0.7563947 0.8545117 0.094221875
000210 77 be ed 3f f7 2e ab 3e d5 24 00 40 85 c0 28 bc
       1.857375 0.3343427 2.002248 -0.0102998065
000220 37 d8 6f 3f b6 dc a8 3f f0 4f c1 3f db b2 dc 3d
       0.9368929 1.3192356 1.510252 0.107763015
000230 c6 22 d4 3e b8 1f 67 3f 54 ef a0 3f 5e 27 26 3f
       0.4143278 0.90282774 1.2573037 0.6490382
000240 3e 29 dd be f8 5e 47 3f 8c f2 5c 3e 81 15 66 3e
       -0.43195528 0.77879286 0.215769 0.2246914
000250 68 50 73 3f 64 b9 e6 3d b4 8d 5e bd 9f 1c 75 bb
       0.95044565 0.11265829 -0.054334357 -0.0037401093
000260 32 c8 9e 3f 99 a1 60 3e 6e 86 9c 3e 2a 06 c7 3f
       1.2404845 0.21936645 0.30571312 1.5548756
000270 38 08 32 3e 67 60 44 3f f6 a4 e6 3e 66 ec 25 bb
       0.17385948 0.767096 0.4504773 -0.0025317906
000280 17 8b 90 3d 7b 0b fc 3c 28 3b 25 3f 55 1a 2a 3f
       0.07057779 0.030767193 0.6454339 0.6644643
000290 70 d4 92 3e 89 c5 10 40 96 9b e1 3f d0 7b 53 3e
       0.28677702 2.2620566 1.7625606 0.206527
0002a0 9d c2 7d 3f 97 d9 f6 3f 21 cf 81 3f d8 15 91 3d
       0.9912508 1.9285153 1.0141336 0.070842445
0002b0 b2 b4 9d 3c d2 b2 45 3f 7d 95 e1 3f 49 b0 1f 3c
       0.019251201 0.77225983 1.7623745 0.0097466195
0002c0 ad 8f 58 3f 59 47 89 3f 27 a4 97 3b 2a 4d be 3f
       0.8459423 1.0724899 0.004627723 1.4867299
0002d0 a8 e9 41 3c 85 21 e2 3f c0 c6 0f 40 db ff b7 3f
       0.011835493 1.7666479 2.2465057 1.4374956
0002e0 d5 3b ed 3f 41 8b 01 40 76 fd 4e 3f f1 17 cd 3f
       1.8533884 2.0241244 0.808555 1.6022931
0002f0 25 84 10 3f 1d ad 65 3f 40 75 cb 3f 15 56 dd 3f
       0.56451637 0.89717275 1.5895157 1.7291895
000300 df 16 1a 3e 0e d0 42 3e d5 88 40 3f 08 8b 86 3c
       0.15047787 0.19024679 0.7520879 0.016423717
000310 06 36 2c 3f e9 9e 67 3f 8c 23 d9 3d ed 23 fd 3d
       0.67269933 0.9047685 0.10602483 0.12360368
000320 ce 31 44 3f cb ab 9a 3f b6 e0 3d 3f 75 da b3 3f
       0.76638496 1.2083677 0.74171007 1.4051043
000330 ee 7e 1a 3f 4e 33 9d bd 20 4c 8c 3f b4 94 4d 3f
       0.6034993 -0.07675801 1.0960732 0.8030503
000340 ca 49 a9 3f 63 0b 8e 3e e5 d0 36 3f 89 30 8a 3d
       1.3225644 0.27743062 0.714125 0.067475386
000350 53 bd 43 3f e2 20 74 3f 28 52 5d 3f 51 b5 25 3f
       0.7646076 0.95362675 0.86453485 0.6472979
000360 aa 71 75 3f 38 ec 59 3f 99 21 bb 3f c4 b8 81 3f
       0.9587656 0.85126066 1.4619628 1.0134511
000370 41 e1 68 3f 65 57 73 3e 92 93 74 3e d3 c0 03 3e
       0.9096871 0.23763807 0.23884419 0.12866525
000380 d4 9b 99 3b 79 89 63 3e 17 d5 d0 3f 24 c8 b8 3e
       0.0046877656 0.2222041 1.631503 0.36090195
000390 a7 33 a3 3d 49 11 41 3f 8f 7c b4 3f 24 e0 b0 3f
       0.07968836 0.75417 1.4100512 1.3818402
0003a0 d1 30 46 3f f6 57 89 3d a1 51 a4 3f 35 0b 3b 3e
       0.7741824 0.0670623 1.2837411 0.18265994
0003b0 cb 72 14 3e 77 8f 6f 3f be 2e b7 3f 06 6d 1a 3e
       0.14496915 0.93578285 1.431114 0.15080652
0003c0 ff ee 19 3f ce 32 a7 3f 70 ed ce 3f 8e 58 44 3f
       0.60130304 1.3062379 1.616621 0.76697624
0003d0 26 86 af 3f c7 d9 8e 3f 8c d6 24 3f 18 de 11 3f
       1.3712814 1.116021 0.6438987 0.56979513
0003e0 30 11 c8 3b 96 68 40 3e 13 d1 c7 3c 7a d4 4d 3f
       0.0061055645 0.18789896 0.024391687 0.8040234
0003f0 e3 6f 9b 3e 44 ac 5b 3e e4 f1 87 3f 5f a8 d2 3f
       0.303588 0.21452433 1.0620694 1.6457633

bn1.bias f4 [256]
000000 7d f2 96 be 46 18 1f bd 88 d9 9d bf b6 4a 41 bf
       -0.2948188 -0.03884151 -1.233201 -0.75504625
000010 71 89 74 bf 3a ef 5e bf 20 e8 97 bf eb 8d 98 be
       -0.9552222 -0.8708378 -1.1867714 -0.29795775
000020 61 29 38 bf 80 a6 3e bf 12 77 bb bf ca 4d 72 bf
       -0.7193814 -0.7447281 -1.4645712 -0.94649947
000030 b8 8e 5b bf 92 70 67 bf fd 41 be be 23 f0 ce bf
       -0.85764647 -0.90406144 -0.3715972 -1.6167034
000040 36 45 8e bf 24 00 16 bf 3c 9f 31 bd f3 69 15 bf
       -1.1114872 -0.58593965 -0.04336475 -0.5836479
000050 8e 2f 4c bf b1 5f 3d bf a0 69 14 bd 1f 61 18 bf
       -0.7976006 -0.7397414 -0.036233544 -0.59523195
000060 27 f2 26 be 86 7b 87 bf 8c c0 b0 bf b9 43 95 bd
       -0.16303311 -1.0584571 -1.3808761 -0.07288308
000070 62 d3 a4 be 86 5a 9f bf 47 84 0d bf 99 6f b8 bd
       -0.32192522 -1.24495 -0.55279964 -0.090056606
000080 3e 92 6a bf 3a 5d 4c bf 70 11 74 bf ae 9f 1a bf
       -0.916294 -0.7982975 -0.9533911 -0.603999
000090 52 9e b5 bf c8 85 83 bf 29 21 f6 3e ce ec 1c be
       -1.418894 -1.0275202 0.48072174 -0.15324709
0000a0 74 c5 9b bf b8 7b 8b 3e 09 0c 68 bf 12 46 80 bf
       -1.2169633 0.27242827 -0.90643364 -1.0021384
0000b0 17 c7 52 bc e6 45 21 bf a3 5f 2f bf 59 54 0f 3f
       -0.0128648495 -0.6299728 -0.68505305 0.5598808
0000c0 f7 1b 6b bf 46 12 41 bf 11 fc a0 bf 8e 64 84 bf
       -0.91839546 -0.7541851 -1.2576925 -1.0343187
0000d0 14 40 c6 be c0 b8 5d bb b7 37 58 be 42 3d 16 be
       -0.38720763 -0.0033832043 -0.21115004 -0.14671806
0000e0 39 91 55 bf 0c c0 a8 3e 22 e2 a0 3e a4 c0 12 bf
       -0.8342472 0.3295902 0.31422526 -0.57325196
0000f0 65 ea 59 bf 59 7b 84 3e 7a 70 84 be c8 b1 a6 3e
       -0.8512328 0.25875357 -0.25867063 0.3255751
000100 d6 4f 51 bf 95 1b 12 bf 7e a6 69 bf 78 bd 64 bf
       -0.81762445 -0.57073337 -0.9126967 -0.89351606
000110 9d b9 c2 bd 6d 43 89 bf 07 fb a0 bf 75 48 22 bf
       -0.09508059 -1.0723702 -1.2576607 -0.6339181
000120 0f 03 ae bd 26 e8 67 be 0a 27 c1 be b6 fb a0 bf
       -0.08496677 -0.22647151 -0.37725097 -1.2576816
000130 ff 9e be bf 42 4f c8 bf 5f 06 70 bf e7 f5 f6 be
       -1.4892272 -1.5649188 -0.9375972 -0.48234484
000140 88 40 0b bf 06 92 3d bf 9f 2f 3a be 01 22 cd be
       -0.5439534 -0.7405094 -0.18182229 -0.40065005
000150 e7 1a 80 be 69 65 e0 be 16 75 c3 bd 2b 26 d8 bf
       -0.25020525 -0.4382737 -0.09543817 -1.6886648
000160 07 d1 93 be bf 5f 82 bf 10 78 0f 3f 47 8a 32 bf
       -0.28870413 -1.0185469 0.56042576 -0.69742244
000170 d9 a8 b3 bd 33 31 bc be 0d 71 7c bf 71 2f 97 bf
       -0.087724395 -0.36756286 -0.9861 -1.1811353
000180 03 d9 c1 be 73 28 bd bf 7b 68 8b bf 0d c5 90 be
       -0.3786088 -1.4777969 -1.089126 -0.28275338
000190 f3 fc 02 bf d2 4c 8d bf 59 be 0c bf 5b 5c b1 be
       -0.5116722 -1.1039069 -0.5497795 -0.34640774
0001a0 e8 8c 2d bf 82 41 82 bd 99 39 4b be 63 81 07 bf
       -0.6779313 -0.06360151 -0.1984619 -0.52931803
0001b0 42 13 86 bf 90 3d ab bc 41 96 e8 bd 23 a8 55 bf
       -1.0474627 -0.020903379 -0.11356784 -0.8345968
0001c0 be 44 5e 3e f1 6d 6f bf 28 cc 04 bf 57 41 91 bf
       0.2170591 -0.9352713 -0.5187402 -1.1348065
0001d0 52 5c 0f 3f 63 2c a7 bf 6b 35 06 bf 30 fd 93 bd
       0.56000245 -1.3060421 -0.5242526 -0.07226026
0001e0 4e d5 53 bf 1c d2 02 bf 74 12 95 bf 8b 20 96 bf
       -0.8274735 -0.5110185 -1.1646256 -1.1728681
0001f0 57 0a 00 bf 30 35 93 bd 2c b6 ff be 14 15 39 bf
       -0.5001578 -0.07187879 -0.49943674 -0.7229779
000200 57 df 9e be 9e c4 14 bf 65 de 4d bf 13 f9 16 bf
       -0.3102977 -0.58112514 -0.8041747 -0.5897381
000210 36 3a d4 be 57 e6 b1 bf 47 25 2b 3f 6b 8f b3 bd
       -0.4145066 -1.3898419 0.66853756 -0.08767589
000220 f1 e3 70 bf a7 6b d3 bc ed 65 0e bf 64 06 d5 be
       -0.9409781 -0.025808169 -0.55624276 -0.41606438
000230 ab 4c 3c bf b3 ab 05 be 02 d1 10 bf 87 c0 55 bf
       -0.73554486 -0.1305378 -0.5656892 -0.834969
000240 c1 73 61 bf b7 7e 72 bf 0e f6 e2 bd c2 95 51 bf
       -0.8806725 -0.947246 -0.110820875 -0.8186914
000250 fc 32 86 bf a3 4f bf be 25 3e ac be 4e ae 42 be
       -1.0484309 -0.37365445 -0.33641163 -0.19011804
000260 c4 4c b1 bf 57 d6 30 bf 85 a1 8f be 45 b1 22 3e
       -1.3851552 -0.69077057 -0.28052917 0.15887935
000270 90 ca 85 bf 1a 9a 11 bf c7 08 26 bf f1 a1 5f bc
       -1.0452442 -0.56875765 -0.64857143 -0.01364945
000280 8e f6 56 be b1 4e 1f be 5d 61 7d bf 0b 32 4f bf
       -0.2099249 -0.15557362 -0.9897669 -0.80935735
000290 06 fa 90 bf 05 f3 27 3f ac 04 0a bf a6 18 31 bf
       -1.1326301 0.65605193 -0.5391338 -0.69178236
0002a0 e4 fe 8f bf 58 4c 1f bf d1 e6 84 3f 8e 83 a2 be
       -1.1249661 -0.62225866 1.038294 -0.31740993
0002b0 e7 83 58 be 5e 07 3f bf 44 b1 53 bd 48 d4 9b bd
       -0.21144067 -0.74620616 -0.051682726 -0.07608849
0002c0 e4 d6 05 bf b6 7e 77 bf 56 2e af bd 54 34 5f be
       -0.5228102 -0.9667772 -0.0855376 -0.21797305
0002d0 fa 85 16 bd a5 7c 2d 3e 73 b0 6a be b8 36 7f be
       -0.036748864 0.1694208 -0.22918873 -0.24923217
0002e0 1f 37 15 bf ad f3 83 be cf 61 ab bf 67 9c 07 3f
       -0.58287233 -0.25771847 -1.3389224 0.52973026
0002f0 75 36 55 bf 8f 43 04 bf 41 56 81 bf 65 be bd be
       -0.8328622 -0.51665586 -1.0104448 -0.37059322
000300 7e c8 2e bf fe 53 36 bf fd 65 ff be a7 9d 7c bd
       -0.68274677 -0.7122191 -0.49882498 -0.061673786
000310 be ef f2 be 9d ba 69 bf af f5 9f be 49 68 17 bf
       -0.47448534 -0.91300374 -0.3124213 -0.591435
000320 dc 87 5a bf dd 79 8e bf e8 b9 73 bf 36 27 8f bf
       -0.85363555 -1.113094 -0.95205545 -1.1183841
000330 73 6d 0e bf 5f 02 a0 be ac cd b2 be 79 01 48 bf
       -0.55635756 -0.3125181 -0.3492254 -0.7812725
000340 b0 e1 80 bf 95 43 4f bf a4 a2 47 bf 1b 8d 8c be
       -1.0068874 -0.80962497 -0.77982545 -0.27451405
000350 2a d2 93 bf 9d 3c 8b bf f1 a0 7d bf 78 25 84 bf
       -1.1548512 -1.0877873 -0.990737 -1.0323935
000360 06 48 9e be 9a 07 6a bf 33 5a 8f be 84 d7 d0 be
       -0.30914325 -0.9141785 -0.27998504 -0.40789425
000370 28 4f 68 be 3e 46 65 bf a2 2e 37 bf 4e 22 e8 be
       -0.22686446 -0.89560306 -0.7155553 -0.45338672
000380 02 e3 ee bd 2c e0 59 bf 6f 29 91 be 1a a0 3c bf
       -0.11664392 -0.85107684 -0.28351924 -0.73681796
000390 ea 59 d0 be 37 82 4a bf 27 74 94 be 22 89 93 bf
       -0.406936 -0.7910494 -0.28994867 -1.1526225
0003a0 a5 2a 06 3f c6 da 6e be f1 1b 37 bf 1f bd 4e bf
       0.5240882 -0.23325643 -0.7152701 -0.80757326
0003b0 30 c6 3a bf 60 a5 90 bf 26 0f a4 bd c5 a4 7d bf
       -0.7295866 -1.1300468 -0.08010702 -0.99079543
0003c0 94 df 76 bf 35 8e d4 bc 0b d2 12 bf f0 0e 8b bf
       -0.96434903 -0.025946716 -0.5735175 -1.0863934
0003d0 a4 7c 80 bf 08 36 2c bf e9 08 98 be ce 4c a1 bf
       -1.0038037 -0.67269945 -0.29694298 -1.2601564
0003e0 e5 79 c7 bc fd 16 a2 bf 8c 32 b3 bd bc 67 8c bf
       -0.024350116 -1.2663265 -0.087498754 -1.0969157
0003f0 d3 52 ce bf 4b 61 64 bf a7 8e 65 bf c1 c4 09 bf
       -1.6119026 -0.8921096 -0.89670795 -0.5381585

bn1.running_mean f4 [256]
000000 99 b9 54 3d 35 25 4a be aa d2 95 3d 57 7c 1d 3d
       0.051934812 -0.19740756 0.073155716 0.038448658
000010 70 b9 c6 bd 4a 0d b2 bd a9 96 4d bd 6f 4d c9 bd
       -0.09703338 -0.08693941 -0.05019251 -0.098292224
000020 9e 9f 73 bd 67 8b 42 3d fd 6e 20 be ee 7c 7c 3d
       -0.059478395 0.047496226 -0.15667339 0.06164258
000030 ad 60 fd bd c6 4d 31 3e 4b 8b 0f be d5 03 fc 3d
       -0.12371955 0.17314824 -0.1401798 0.123054184
000040 34 fa 01 be 8f ab 10 be 26 8e 48 bc f0 44 e6 bd
       -0.12693101 -0.14127944 -0.012240922 -0.112436175
000050 ff 53 8d bd a2 77 e8 bd db f4 5e bd fb 8f 0b be
       -0.069007866 -0.11350943 -0.05443273 -0.13629143
000060 92 95 68 3e de 8a 02 3e 45 63 b9 bd 58 18 15 3e
       0.22713307 0.12748286 -0.09052137 0.14560068
000070 d6 45 c6 bd 38 af 32 be f7 e9 53 3d a5 03 96 bd
       -0.09681289 -0.17449653 0.0517368 -0.07324914
000080 fd 21 27 3e bc 37 50 bd ea 38 48 be 87 69 34 3e
       0.16321559 -0.050834402 -0.19552961 0.1761838
000090 4b 00 3b 3d f5 f0 8e 3c 56 08 bd bc 83 0c 1a be
       0.045654576 0.017448882 -0.023075264 -0.15043835
0000a0 da 75 66 3c 93 9a 4e 3c ce 4a 2e be 33 9a 03 3e
       0.014066184 0.012610096 -0.17020723 0.12851791
0000b0 e6 bd 44 be d2 4d f4 bd 09 d4 51 bd 93 1e 33 be
       -0.19213066 -0.119289055 -0.051227603 -0.17492132
0000c0 55 ca 41 be 08 82 19 bd 14 a5 e8 bc e6 93 28 3e
       -0.1892484 -0.037477523 -0.028399028 0.16462669
0000d0 e9 c8 d2 3d 03 5c 4e 3e 0b 7a 73 3d e6 9e e4 3c
       0.10292227 0.20152287 0.05944256 0.0279078
0000e0 1e 34 b0 bd 53 a6 eb bd 6d 27 58 be 13 f1 2d be
       -0.086036906 -0.11506333 -0.2110879 -0.16986494
0000f0 58 22 96 3d d0 be d4 bd 23 a7 ad bd 00 a4 e2 3d
       0.07330769 -0.10387957 -0.084791444 0.11066437
000100 26 ce 2b be fb 6d 3c 3d 78 d1 a0 bc cd 0a fa 3c
       -0.16777858 0.046003323 -0.019631132 0.030522728
000110 14 2e c1 bd e1 cc 08 3e 14 13 3f be b3 95 3b be
       -0.09432617 0.13359405 -0.18659621 -0.18318824
000120 99 d5 22 3e b8 d0 12 be 60 02 6b 3e e9 65 8c 3d
       0.15901794 -0.14337432 0.22950125 0.06855375
000130 d1 b9 ae 3d 13 d9 86 bd 4c bf 0d 3d 77 4d 28 3d
       0.085315354 -0.06584372 0.034606263 0.0410895
000140 19 f9 d2 bd 61 d2 20 3e 26 7c fe 3d 7b 6c c2 3d
       -0.10301418 0.15705253 0.12426023 0.09493347
000150 e6 ca 66 3d 1c 07 ca bc 46 60 90 bd 96 bd 50 be
       0.056345843 -0.024661593 -0.07049613 -0.20384821
000160 bf ff a9 bd 38 ea 43 be ee 5d 6f bd 04 19 0e 3e
       -0.08300733 -0.19132316 -0.058439188 0.1387673
000170 79 03 4d 3e 54 6d 42 be 09 b1 28 be 01 02 3e 3e
       0.20020856 -0.18987018 -0.16473784 0.18555452
000180 cd db 82 bd 1e d4 90 3c e9 7f b7 3d 63 5e 5f 3e
       -0.0638958 0.01767927 0.08959944 0.2181335
000190 fb 03 a2 3d 66 9e f3 3c f1 89 a6 bc dd b6 93 3c
       0.079109155 0.029738616 -0.020329447 0.018031532
0001a0 55 fd be 3d ca 27 42 be 44 fb 37 be d2 fa 26 3e
       0.09325663 -0.18960491 -0.17966944 0.16306618
0001b0 51 e0 47 be c9 ae dc 3d 58 6a 1b 3e bb 3e b6 3d
       -0.19519164 0.10775525 0.15177286 0.08898684
0001c0 0d 44 99 3d 5b cf 61 3c a0 fd e7 3d 85 8c f8 3d
       0.07483683 0.013782348 0.11327672 0.12136177
0001d0 f7 d5 93 3c 42 fb 48 be 9b 61 09 3e 06 82 97 3c
       0.018046362 -0.19627097 0.1341614 0.018494617
0001e0 b4 7b d0 3d b5 eb 0d be a1 6a 6f bc 43 32 37 be
       0.101798445 -0.13859446 -0.014612825 -0.17890267
0001f0 16 12 d9 3c 48 f1 3f 3e d0 1c 0a 3d b8 b4 41 3e
       0.026497882 0.18744385 0.033718884 0.18916595
000200 59 b2 2d 3e 13 1a 18 be 5a 4e 4e 3e 2c e8 a1 3b
       0.16962565 -0.14853697 0.20147076 0.004941007
000210 f2 ea 06 3e b3 06 58 3d 7c 90 f3 bc f6 b8 41 3e
       0.13175562 0.052740764 -0.029731981 0.18918213
000220 88 c8 e6 bd 4c 29 04 3c d6 5f 2c bc 9a b3 84 bc
       -0.11268717 0.008066487 -0.010520896 -0.016198922
000230 39 8f 5a bd 63 96 0b 3e 49 35 fd bc be b6 c6 3d
       -0.053359244 0.13631587 -0.030909197 0.09702824
000240 97 97 b6 3d e8 cb 46 3e 48 66 2f 3d f3 4d 4b be
       0.08915632 0.19413722 0.042822152 -0.19853954
000250 c3 b7 69 be ff 3f 37 be e8 10 45 be 81 68 36 be
       -0.22824006 -0.17895506 -0.1924473 -0.17813303
000260 50 4e 0c 3b d9 0e 5b 3e 40 e1 01 be 95 30 92 3d
       0.0021408983 0.21392383 -0.12683582 0.071381725
000270 03 d8 ef bd 24 b0 28 3e 9c 11 df 3d c8 21 c0 3d
       -0.11711123 0.16473442 0.108920306 0.09381443
000280 c1 68 48 3e 58 55 1f be a1 86 4c be bd aa d4 bd
       0.1957121 -0.155599 -0.19973232 -0.10384128
000290 c0 89 6c 3d 94 9d 4c 3e 01 a7 0b 3e 84 f6 89 3d
       0.057748556 0.19981986 0.13637926 0.06736472
0002a0 51 bb 77 bd 9d f3 de bd c1 32 46 3e 69 1b 37 be
       -0.060481373 -0.10886309 0.19355299 -0.1788155
0002b0 cc 54 1e be e2 62 fd 3d 0c 3c 1d 3e d4 66 62 3d
       -0.15462035 0.12372376 0.15354937 0.055273846
0002c0 d3 36 b4 bc b7 f4 b0 bd 39 8c e3 3c 81 db c5 bd
       -0.021998798 -0.08640426 0.027776824 -0.09661008
0002d0 2d 1e 57 3e 74 77 43 3e 4a c8 a6 bd 3f 55 10 3e
       0.21007605 0.19088537 -0.08143671 0.14095019
0002e0 ef 83 46 bd 02 fd 1b be 9e 8b 58 3c 19 c4 97 bc
       -0.048465665 -0.15233234 0.013216881 -0.018526124
0002f0 dd 21 fd 3d d5 c1 92 3c 5c 29 a1 bd 63 82 46 be
       0.123599745 0.017914692 -0.07869217 -0.19385676
000300 38 1a 08 3e 99 c0 1c 3e e1 2b 1d 3c d3 e2 97 bc
       0.13291252 0.15307845 0.009592981 -0.018540775
000310 ea c9 a8 bd 72 61 28 3d ed d0 4b 3e 3d 67 fd bc
       -0.08241637 0.041108556 0.19903918 -0.030933017
000320 5a 4b 31 3c 1e f1 5a be 11 b1 84 3d a4 fd 0c be
       0.010821188 -0.21381041 0.06479085 -0.13768631
000330 1f ec bf bd 76 a3 e1 bd 5c a5 49 3e 48 e4 5f 3d
       -0.093712084 -0.11017506 0.19691986 0.054661065
000340 1b 9e 91 bd b8 42 43 bd e0 46 81 3d bc 78 b5 3d
       -0.07110234 -0.04767105 0.063123465 0.08860919
000350 e8 b4 ff bd a6 50 c6 3d 32 e4 22 3d 05 37 bc 3d
       -0.12485677 0.09683351 0.039768405 0.09190182
000360 5e b1 d2 bd 5a 3f 2a be 6c 15 b4 3d 89 7f 99 bc
       -0.10287736 -0.16625729 0.087931484 -0.018737571
000370 c7 68 bf bd 54 27 28 3e f9 52 3b bc 75 66 0d be
       -0.093461566 0.16421252 -0.011433356 -0.13808616
000380 db 6f dc bc 8c 8f b3 bd 45 4c 8b bd a0 ab 17 be
       -0.026908806 -0.08767614 -0.06801657 -0.14811563
000390 8c 53 2c 3e 15 ec 3e 3e a7 ad 9d bd 14 39 ad 3d
       0.16828746 0.18644746 -0.07699137 0.084581524
0003a0 cd 33 8d 3d 86 06 85 bd 54 49 07 bd 90 99 b7 3c
       0.06894646 -0.06495385 -0.033028916 0.022412091
0003b0 be 7f ad 3c c1 2c e5 3d 7d 18 1f 3e a4 9e 00 bb
       0.021179076 0.11190177 0.15536685 -0.0019625807
0003c0 9f 59 24 3e da aa e4 bd 62 cd 8d ba 97 db 27 be
       0.16049813 -0.111654 -0.0010818655 -0.1639236
0003d0 f2 4d 41 3d e6 20 4c 3d 8b ab 0b be 26 ed 23 be
       0.047193475 0.049836062 -0.13639657 -0.16008434
0003e0 a0 cc 27 bd e3 0a 9f bd 6a 2b ad bd 76 b5 76 be
       -0.04096663 -0.07765748 -0.08455546 -0.2409266
0003f0 1f 48 f4 bd a9 1a 2c 3e df 28 20 be 44 d0 86 3d
       -0.119278185 0.16807045 -0.15640591 0.06582692

bn1.running_var f4 [256]
000000 cc 1f c5 41 ff 78 56 40 a5 98 03 42 7b 92 b2 41
       24.640526 3.351135 32.899067 22.321524
000010 cd ed 3e 41 67 b1 99 40 ce 04 b0 41 6d cd 2c 41
       11.933057 4.8029056 22.002346 10.800153
000020 84 e4 b7 40 e2 b2 1d 41 56 f2 95 40 bb 9d 64 41
       5.746645 9.856173 4.685832 14.288508
000030 d2 df 7d 40 1f f6 5e 41 80 33 1a 41 4e e8 b3 41
       3.966786 13.935088 9.637573 22.48843
000040 af 57 c1 3f 46 8d 29 41 76 93 a2 40 b4 9d f8 40
       1.5104884 10.596991 5.0805006 7.769251
000050 df ca f2 40 3b 8b 57 41 27 9a 13 40 e5 d7 33 41
       7.5872645 13.471492 2.3062837 11.240209
000060 23 03 bb 40 08 94 e8 40 21 d9 45 41 01 fc 64 3e
       5.844133 7.26807 12.36551 0.22361757
000070 73 83 ab 3f 47 bd a1 40 74 9b c1 40 1d db cc 3e
       1.339949 5.054355 6.050226 0.4001092
000080 89 d3 82 40 68 a5 a1 41 b1 65 c9 40 4b 0d a0 40
       4.088322 20.205765 6.2936635 5.0016227
000090 fb 94 11 40 cd 50 e4 41 dd 7c ac 3f bc 29 59 41
       2.274718 28.539454 1.3475605 13.572689
0000a0 7c 81 9c 41 72 a2 24 42 01 99 2b 41 9c 28 86 40
       19.563225 41.158638 10.724854 4.192457
0000b0 a5 2f bc 3d 52 95 9b 3f 2c a0 39 42 14 ee 20 41
       0.09188775 1.2154944 46.406418 10.058125
0000c0 7a 5c ad 40 05 ee 60 41 77 95 a9 41 88 96 69 40
       5.4175386 14.05811 21.19798 3.6498127
0000d0 04 1b 94 40 02 e4 c8 40 2b 7b bc 3e 1b b2 13 3e
       4.628298 6.277833 0.3681272 0.1442341
0000e0 71 56 cb 41 2e fe 35 41 d1 34 b2 40 fe 5d 1d 40
       25.417208 11.374556 5.5689473 2.4588618
0000f0 19 d1 ac 40 98 af 4e 41 88 a3 33 3f d9 7c 17 41
       5.4005246 12.91787 0.70171404 9.46798
000100 c3 92 c6 41 90 79 85 40 f4 f1 a8 40 fc 6c ea 40
       24.821661 4.171089 5.2795353 7.3258038
000110 9e 55 d3 3d 28 62 a5 40 5c f4 d6 40 4d 6c 9e 40
       0.103190646 5.168232 6.717329 4.9507203
000120 56 00 17 3e 5f d9 8d 40 78 96 83 41 e4 18 2b 40
       0.14746222 4.4327846 16.448471 2.6733942
000130 2c 4e 10 41 da 13 40 40 14 53 b9 40 58 cd aa 41
       9.019085 3.0012116 5.7913914 21.350266
000140 0b ca 0e 41 71 25 3f 41 f6 57 26 41 05 ea 84 42
       8.924327 11.946641 10.396475 66.45707
000150 9f 0d a3 41 97 bf a6 41 53 b5 fe 3f ef 1f 29 41
       20.38165 20.84355 1.9899086 10.570296
000160 94 05 8c 3f b4 e8 ed 3f d7 27 92 41 b9 4f 16 41
       1.0939202 1.858664 18.269453 9.394464
000170 49 2b 57 3e 5f dc 2d 41 af 67 97 40 ff e8 9b 3f
       0.21012606 10.866302 4.7314067 1.218048
000180 11 45 ab 40 bc 7b 21 40 de 68 df 41 1c ac 80 41
       5.352181 2.5231771 27.926205 16.084038
000190 9d 6a 9f 40 c4 74 5c 41 f5 2d 40 40 ec fa 6e 41
       4.9817643 13.778507 3.002805 14.93626
0001a0 32 45 b9 40 b9 60 42 3e 19 ce 8e 41 24 a6 95 41
       5.7896967 0.1898221 17.850634 18.706123
0001b0 30 c5 e9 40 dd c3 3b 3d c3 b3 aa 3e d0 b7 95 41
       7.3053207 0.045841087 0.33340272 18.714752
0001c0 0c e6 a3 41 d2 39 07 40 4f 6e db 40 47 d1 b5 41
       20.487328 2.112904 6.8572154 22.727186
0001d0 a3 90 42 41 34 ef 63 41 be 72 b9 40 b2 29 d5 40
       12.160312 14.245899 5.7952566 6.6613398
0001e0 c5 e6 18 42 e4 be 6a 40 66 c4 d9 41 38 df bd 40
       38.22536 3.667901 27.220898 5.9334984
0001f0 e8 ee 50 41 1c b5 77 40 ee 78 ee 40 f5 97 13 41
       13.058327 3.870429 7.452262 9.224599
000200 6a db a3 40 f9 84 d4 40 51 6c de 40 7b b3 4e 40
       5.120534 6.641232 6.950722 3.2297046
000210 2f 41 5e 41 bd 07 25 40 e7 e3 db 41 56 5a 76 40
       13.890914 2.5785973 27.48628 3.8492637
000220 73 65 b3 41 8d a9 75 40 0c ea 01 41 62 a1 0e 41
       22.424536 3.8384736 8.11964 8.9144
000230 e0 8b bb 40 70 ad ff 40 15 ed 29 41 d9 de d4 40
       5.8608246 7.9899216 10.620381 6.652203
000240 c1 ac c1 3f d5 25 b1 40 3d df 8b 41 ef f1 15 40
       1.5130845 5.535868 17.484003 2.3428915
000250 2c 91 ad 41 b2 03 f5 40 cc a0 e8 3e e8 3a be 3f
       21.695885 7.656701 0.45435178 1.4861727
000260 fe 36 2f 41 3a 32 85 41 a3 e1 35 41 2b a5 5f 41
       10.950926 16.649525 11.367587 13.977824
000270 2b 21 50 41 18 55 d6 40 20 28 8b 40 cf 2b 26 3d
       13.008098 6.6978874 4.348648 0.040569123
000280 10 df 8f 40 a2 ce 01 3f b4 98 3b 40 77 50 2c 41
       4.4959793 0.5070592 2.9311953 10.769645
000290 9f 40 bc 40 09 d8 72 41 53 ec 1f 41 08 84 b2 40
       5.8828883 15.177743 9.995196 5.578617
0002a0 54 de 8e 41 74 69 b4 40 c5 91 d5 41 50 57 12 3f
       17.858559 5.6378727 26.696177 0.5716448
0002b0 3a 17 3b 40 d5 a3 23 40 18 1f 87 41 c0 e8 94 3c
       2.9232926 2.5568745 16.890182 0.01817739
0002c0 eb 24 91 40 96 74 f6 41 f7 87 ca 3d 02 1f 62 40
       4.5357566 30.806927 0.098892145 3.5331426
0002d0 72 f6 af 40 bd 96 9c 41 50 1f 06 41 28 13 b8 41
       5.4988337 19.573603 8.382645 23.009354
0002e0 13 18 3f 41 13 79 07 40 15 1d 99 41 78 37 5e 42
       11.9433775 2.1167648 19.1392 55.55417
0002f0 ed 20 9f 41 6a 0d ab 40 3a 75 ea 41 86 9d b1 40
       19.891077 5.3453875 29.30724 5.550479
000300 ec 75 93 3f 9b 85 b5 40 6b ae 0b 41 4b 8a 20 3d
       1.1520362 5.6725593 8.7300825 0.039194386
000310 fb b4 63 40 22 d9 ae 41 67 6a ff 3f 20 44 16 40
       3.5579212 21.856022 1.9954346 2.347908
000320 0f a7 a3 41 83 b0 da 40 8a e8 24 41 4e c6 f1 41
       20.456572 6.834047 10.306772 30.221828
000330 11 89 d5 40 d7 36 ad 3e 2b 9d c8 40 66 01 07 42
       6.6729817 0.33830902 6.2691855 33.751366
000340 7b 50 82 41 f3 2a 32 41 6b 42 65 40 24 ab 33 40
       16.289297 11.135486 3.5821788 2.8073206
000350 d4 4d 5b 41 30 14 d1 41 b2 86 4b 41 88 fe 24 41
       13.706501 26.134857 12.720385 10.312141
000360 ac a3 eb 40 94 14 0c 42 cf b4 95 41 c3 11 09 41
       7.3637295 35.020096 18.713285 8.566836
000370 ee d8 06 41 77 9c 66 40 58 de 9b 40 87 25 6b 40
       8.427961 3.6032999 4.8708916 3.6741655
000380 57 70 9b 3d 7b d8 0c 41 a4 5b 09 41 03 63 d4 40
       0.075897865 8.802852 8.584873 6.6370864
000390 00 ef 7c 3e 34 81 14 41 f4 85 54 42 2a 72 e1 41
       0.24700546 9.281544 53.130814 28.180744
0003a0 8e 54 63 41 a1 af 01 41 9f 0c 2f 41 f1 6c 5f 40
       14.208143 8.105378 10.940581 3.4910243
0003b0 e0 68 c6 40 d2 09 8d 41 c3 ce 3e 41 f0 6d 50 40
       6.200302 17.629795 11.925479 3.25671
0003c0 d8 1a 50 41 ba 9d 83 41 77 b7 d4 40 3c a2 66 40
       13.006554 16.452015 6.6473956 3.603652
0003d0 02 d0 35 42 cb 42 74 40 c0 b6 80 41 48 22 ee 3f
       45.453133 3.8165767 16.089233 1.8604212
0003e0 93 53 8e 3c 04 97 86 40 2e 20 f9 3c f1 ee 4c 41
       0.017373836 4.2059345 0.030410852 12.808335
0003f0 02 c1 89 40 4a 19 be 40 76 a8 d0 41 e0 1e c6 40
       4.3048105 5.940587 26.082256 6.191269
