project2-continuous-control/results/submission_3/checkpoint_critic.pth (torch_old, 88306 bytes, 9 tensors)

_fc1.weight f4 [128, 33]
0.506288 0.9912678 -0.60558087 -0.15384376 -0.9126314 0.32048035 0.6563061 0.5650049
0.14689574 0.049098294 0.3915741 -0.09560167 -0.64327 -0.6048651 -0.7288505 0.24844801
-0.62012106 -0.18397239 -0.10130551 -0.057064544 -0.13543564 -0.12697668 0.21694732 0.83988017
-0.18334897 0.7358908 -0.031160763 -0.103836305 -0.21415457 0.019423435 0.06707769 -0.0610448
0.27303803 -0.28288063 0.88950074 -0.05252942 0.22099712 -0.681479 0.23446693 0.97052234
-0.04938971 0.004979014 0.09819151 -0.111914456 0.53955555 -0.7305215 0.28978628 0.10861462
-0.08676241 -0.768237 -0.15236555 -0.15672389 -0.014292865 -0.14663991 -0.12523787 0.88038814
0.43710712 -0.16572303 0.16791728 -0.15602818 0.09040759 -0.20887472 -0.08094524 -0.29224113
0.16404456 -0.18537615 0.6767167 1.1286896 0.7618824 -0.3272102 -0.21196178 0.18969011
-0.2310157 -0.015402226 0.22590546 0.071572505 0.07344909 -0.21826321 -0.03233591 -0.8493705
-1.7528352 -1.3149363 0.12058221 0.28883073 0.0016560552 -0.042374283 -0.07611793 0.20781411
-0.37431648 -0.23429273 -0.51452136 -0.2030155 0.6904236 -0.013589877 1.0741096 0.0055779545
0.00095309585 0.008412162 -0.12065247 0.043583598 -0.29899055 -0.19711962 -1.9348712 -0.54355663
-0.06860294 0.37432972 0.0077766515 0.14878233 -0.11322241 -0.14380169 0.1511214 -0.18109986
-0.17103724 0.04059925 0.15177651 0.19658269 -0.06389864 0.13546833 0.044268016 -0.09346216
-0.009576005 0.017565366 0.035071757 0.2544411 0.20751947 0.3378278 -0.020736098 0.33918637
-0.011925731 0.01398058 -0.013660913 -0.10529051 -0.12350359 0.58415365 -0.8793142 -0.25557894
1.5160624 -0.122326724 -1.054223 0.5439126 1.1359187 0.64461875 0.4605604 0.019021764
-1.0075656 0.031981282 -0.9602072 0.037737317 0.2714679 0.111771256 -0.12845595 0.84591025
-1.4648395 0.023759939 -0.53552604 -0.13065824 0.24173844 -0.98257506 0.26568747 -0.13994178
0.79014575 0.07757736 -0.15951884 -0.035226543 -0.20379455 -0.28702626 -0.0693348 0.05700508
0.36217618 0.5833042 0.22241367 0.021274723 0.1868725 0.6194595 -0.18569788 0.049446065
-0.4661559 0.011949455 -0.029200574 -0.06321349 -0.15844724 -0.20309365 -0.22416654 0.42092967
-0.24583164 0.55198383 0.1290712 -0.3973004 0.52681935 -0.19170058 0.040826574 0.103289664
-0.14833638 0.33140743 0.022886198 0.28530467 -0.22808744 -0.3168124 0.8531023 0.53555083
-0.9191186 0.3430349 0.113832064 -0.3779314 0.64724004 0.3080965 -0.21257685 -0.07505122
-0.19506083 -0.09728525 0.41884366 -1.2279253 -0.10484479 0.54814607 0.12315753 -0.17389639
0.3536966 0.27566314 -0.011115987 0.19530232 0.04227987 -0.7826823 -0.16302407 0.5249149
1.2518102 -0.062106274 0.84435767 -0.021514459 -0.07978865 0.051223367 0.90757906 0.25786927
0.1490157 -0.50545454 0.20068774 0.0022559622 0.07552066 0.2314884 0.5094421 0.067088634
0.07832118 0.36341822 0.032949794 -0.4045663 -0.2667073 -0.22727796 0.52441776 -0.0912287
-0.4636213 -1.1329925 -0.19670413 0.34065428 -0.13909186 0.15836126 -0.19352971 0.054901104
00000000: 179c 013f bac3 7d3f 5907 1bbf 3889 1dbe
00000010: 36a2 69bf 0016 a43e ad03 283f 29a4 103f
00000020: d66b 163e 4b1b 493d 677c c83e cfca c3bd
00000030: 58ad 24bf 70d8 1abf f295 3abf 2869 7e3e
00000040: 41c0 1ebf 4263 3cbe 4379 cfbd 83bc 69bd
00000050: a4af 0abe 2d06 02be 7027 5e3e 6302 573f
00000060: d5bf 3bbe 5763 3c3f db44 ffbc 21a8 d4bd
00000070: 564b 5bbe e51d 9f3c 0760 893d 1d0a 7abd
00000080: a4cb 8b3e bbd5 90be 52b6 633f 1729 57bd
00000090: 124d 623e 6875 2ebf 1918 703e 2774 783f
000000a0: dd4c 4abd ff26 a33b a118 c93d 6833 e5bd
000000b0: 5020 0a3f 7503 3bbf de5e 943e 5871 de3d
000000c0: 7eb0 b1bd 2eab 44bf b705 1cbe 3a7c 20be
000000d0: 9f2c 6abc c628 16be 5b3e 00be 1e61 613f
000000e0: 81cc df3e 4cb3 29be 82f2 2b3e dac5 1fbe
000000f0: 9d27 b93d 41e3 55be 9ec6 a5bd a1a0 95be
00000100: 4cfb 273e 3fd3 3dbe 4e3d 2d3f e778 903f
00000110: ba0a 433f 1888 a7be 820c 59be 203e 423e
00000120: 618f 6cbe 9e59 7cbc c353 673e 9b94 923d
00000130: 7a6c 963d 6480 5fbe a972 04bd 5870 59bf
00000140: e75c e0bf d54f a8bf cef3 f63d 9fe1 933e
00000150: fe0f d93a a890 2dbd b8e3 9bbd 39cd 543e
00000160: 69a6 bfbe 6fea 6fbe acb7 03bf 4ce3 4fbe
00000170: 9abf 303f 13a8 5ebc 6c7c 893f 46c7 b63b
00000180: 2ed9 793a 2ad3 093c a418 f7bd b784 323d
00000190: 4a15 99be bad9 49be dca9 f7bf 8726 0bbf
000001a0: b37f 8cbd 25a8 bf3e 48d3 fe3b 655a 183e
000001b0: 27e1 e7bd c040 13be 91bf 1a3e 3e72 39be
000001c0: 6324 2fbe 664b 263d 4d6b 1b3e f94c 493e
000001d0: 4add 82bd 36b8 0a3e 6152 353d 1769 bfbd
000001e0: ade4 1cbc 3ee5 8f3c 67a7 0f3d 1b46 823e
000001f0: fc7f 543e c4f7 ac3e c0de a9bc d6a9 ad3e
00000200: 2464 43bc cd0e 653c 06d2 5fbc 8da2 d7bd
00000210: 73ef fcbd 188b 153f bc1a 61bf 3edb 82be
00000220: 550e c23f 6f86 fabd c7f0 86bf db3d 0b3f
00000230: c965 913f bc05 253f 93ce eb3e 88d3 9b3c
00000240: e9f7 80bf cefe 023d 24d0 75bf 7292 1a3d
00000250: d7fd 8a3e 54e8 e43d f589 03be 938d 583f
00000260: dc7f bbbf 34a4 c23c 3c18 09bf 46cb 05be
00000270: 488a 773e 0a8a 7bbf 3008 883e e64c 0fbe
00000280: fe46 4a3f e1e0 9e3d e858 23be b549 10bd
00000290: 85af 50be 1bf5 92be 67ff 8dbd 297e 693d
000002a0: 286f b93e 6d53 153f 69c0 633e 5448 ae3c
000002b0: 815b 3f3e e694 1e3f 9627 3ebe f587 4a3d
000002c0: fcab eebe a6c7 433c 0b36 efbc 1376 81bd
000002d0: fe3f 22be c8f7 4fbe ea8b 65be 1884 d73e
000002e0: 4abb 7bbe d04e 0d3f 3e2b 043e f56a cbbe
000002f0: a2dd 063f 284d 44be c439 273d 8889 d33d
00000300: 7ee5 17be 3cae a93e d67b bb3c 7413 923e
00000310: c18f 69be 3c35 a2be ea64 5a3f dc19 093f
00000320: 5b4b 6bbf 45a2 af3e c920 e93d 3980 c1be
00000330: 86b1 253f d3be 9d3e bfad 59be 74b4 99bd
00000340: 07be 47be 7d3d c7bd ad72 d63e a82c 9dbf
00000350: deb8 d6bd 4d53 0c3f 043a fc3d e511 32be
00000360: b917 b53e b823 8d3e d41f 36bc 55fd 473e
00000370: a82d 2d3d de5d 48bf c8ef 26be d360 063f
00000380: 513b a03f 2663 7ebd d327 583f 173f b0bc
00000390: 3b68 a3bd 98cf 513d 1a57 683f 7107 843e
000003a0: 9297 183e 7865 01bf 1681 4d3e c4d8 133b
000003b0: 93aa 9a3d 4c0b 6d3e cc6a 023f c465 893d
000003c0: db66 a03d f411 ba3e 5df6 063d 5023 cfbe
000003d0: dc8d 88be 8ebb 68be 3e40 063f 1dd6 babd
000003e0: c55f edbe e605 91bf cf6c 49be 3d6a ae3e
000003f0: 196e 0ebe 7429 223e a72c 46be fbdf 603d

_fc1.bias f4 [128]
-0.4282422 -1.6161168 0.64318585 0.2582734 -2.3855119 -1.583499 -1.1039089 -1.4088923
-0.5867605 -2.0157692 -1.3000634 -1.1812193 -1.3992015 -1.5390768 -1.2107867 -0.3811593
-1.6164862 -1.9894753 -1.9177802 -1.4206616 -1.7140741 -1.0526228 -1.9747143 -1.7604326
-1.5987911 -0.7522528 -0.48820618 -0.49409884 -1.1705233 -1.6288702 -1.626585 -0.15904248
-1.5279733 -1.4730705 -1.6818848 0.19412449 -0.85640305 -0.96862847 -1.7759075 -1.8915745
-0.7792356 -0.903768 -2.0465927 -1.5413603 -2.143926 -0.9865422 -1.9716889 -1.8593116
-1.1035963 1.4013956 -0.9973143 -1.3670958 -1.1183504 -1.7597293 -1.6207309 -1.0185167
-1.8301992 -0.8642945 -2.141354 -1.4839898 -1.0198884 -1.4160205 -0.5245284 -1.5442836
-1.4888443 -1.5012442 -0.8753235 -1.4511284 -1.4867321 -1.0828922 -1.7913561 -0.8691899
-1.7802904 -0.57150686 -1.209224 -1.358412 -1.2158848 -0.78086776 -1.856103 -1.5501968
-1.8329695 -1.7428952 -0.8500758 -0.7004464 -1.4025955 -1.3233358 -0.8177425 -1.487954
-1.8916901 -1.5760591 -1.516116 -0.8508331 -1.5789832 -0.119570784 -1.2102233 -0.49105868
-1.8988577 -0.68052405 -0.25251415 -0.76478004 -1.0884293 -0.12103562 -0.79070574 -1.197568
-1.1080669 -1.2226145 -1.9578826 -1.5239933 -0.9383367 -1.6474178 -1.9068912 -1.5132576
-1.5925527 -0.96506196 -1.5315433 -1.7911209 -1.3781395 -1.5557613 -1.9668559 -1.8927292
-1.1648953 -0.83309513 -1.5433388 -1.336666 -1.4314445 -1.2943788 -1.7807723 -0.55172986
00000000: 9042 dbbe eadc cebf d4a7 243f 693c 843e
00000010: 3aac 18c0 18b0 cabf e34c 8dbf 9556 b4bf
00000020: f035 16bf 5d02 01c0 7a68 a6bf 3232 97bf
00000030: 0919 b3bf 7800 c5bf 0ffb 9abf 5027 c3be
00000040: 05e9 cebf 20a7 febf d279 f5bf 3dd8 b5bf
00000050: c866 dbbf 58bc 86bf 70c3 fcbf db55 e1bf
00000060: 30a5 ccbf a493 40bf 29f6 f9be 86fa fcbe
00000070: b5d3 95bf d27e d0bf f033 d0bf 08dc 22be
00000080: a194 c3bf 938d bcbf 0048 d7bf 92c8 463e
00000090: 3b3d 5bbf 09f8 77bf f050 e3bf 1d1f f2bf
000000a0: fc7b 47bf 575d 67bf 60fb 02c0 4b4b c5bf
000000b0: 1536 09c0 088e 7cbf 4d60 fcbf ecfd edbf
000000c0: a542 8dbf ee60 b33f fd4f 7fbf fffc aebf
000000d0: 1b26 8fbf cf3e e1bf 1c74 cfbf c15e 82bf
000000e0: f843 eabf 6842 5dbf f20b 09c0 61f3 bdbf
000000f0: b48b 82bf 2940 b5bf 7e47 06bf 16ab c5bf
00000100: 7392 bebf c528 c0bf 3315 60bf 93be b9bf
00000110: 3d4d bebf 369c 8abf 284b e5bf 3b83 5ebf
00000120: 8ee0 e3bf 464e 12bf dac7 9abf 72e0 adbf
00000130: 1da2 9bbf f3e6 47bf c894 edbf d96c c6bf
00000140: bf9e eabf 3117 dfbf 919e 59bf 7550 33bf
00000150: 4088 b3bf 1163 a9bf 9357 51bf 4775 bebf
00000160: e722 f2bf 4ebc c9bf 1710 c2bf 33d0 59bf
00000170: 1f1c cabf 87e1 f4bd 99e8 9abf 0b6c fbbe
00000180: c50d f3bf d336 2ebf 8949 81be a0c8 43bf
00000190: a751 8bbf 86e1 f7bd b16b 4abf e949 99bf
000001a0: 23d5 8dbf a27e 9cbf e69b fabf 3612 c3bf
000001b0: d536 70bf 96de d2bf 0315 f4bf 6db2 c1bf
000001c0: c4d8 cbbf 4d0e 77bf 9c09 c4bf 7343 e5bf
000001d0: e066 b0bf 3023 c7bf efc1 fbbf f344 f2bf
000001e0: 4a1b 95bf b945 55bf 208c c5bf df17 abbf
000001f0: 9339 b7bf 34ae a5bf 59f0 e3bf 2b3e 0dbf

_fc2.weight f4 [128, 132]
0.77832776 2.1856565 -0.33096373 -0.44502878 0.43329054 0.20632967 -1.4040906 -0.16067953
-0.054125305 0.0035850317 -0.49304888 -2.4367003 1.2926573 0.40297252 -0.60496306 -0.52776825
-0.28384426 -1.0477278 0.8188782 -2.1228664 0.037944764 0.02898767 0.05818586 0.057476763
0.7416751 0.51163524 0.9114087 0.8442913 -0.33537534 -0.81218785 0.60641325 -2.1046739
0.8472106 -0.12935504 -0.75895804 0.15330714 0.4649957 -1.5803427 -0.084318966 1.4311824
1.0854523 0.8405726 0.28292122 -0.012871737 0.9194879 -0.20864855 0.9930048 -0.84957147
-1.5298221 -1.0122406 1.3998863 1.1069969 1.0000334 0.5695931 0.9363847 -1.2244387
-0.22996 -0.28590766 -0.7548702 1.0933622 0.12741745 -0.8935076 0.79441905 -1.2348073
-0.4316501 0.6199875 -0.83344835 1.3220768 2.1875393 0.51502824 -1.161682 0.28769898
-1.5210778 0.58926535 -0.27179775 1.7858716 -0.24071905 0.8758364 0.77216834 0.75690496
0.92204696 -1.1592581 -0.5336328 -0.31576544 0.38656074 -0.113757536 -0.51420975 -0.22668478
-0.2465041 0.45633548 0.495458 0.57974195 -1.4653101 1.7645885 -1.5685172 -1.0905676
-0.5345829 -0.36265424 0.759168 1.786549 -1.5942348 0.7118266 -0.7101444 0.13831411
0.99815065 -0.09444842 0.119749695 0.71385586 -0.12033545 1.6454427 -1.2883495 1.8500348
2.3304574 0.35649627 0.6828748 0.7888518 0.50723946 -0.062047932 0.018976765 -0.8353605
0.5645366 -1.6594137 -0.16119479 0.00037778652 0.32007965 -1.5982385 -0.21640618 0.9239374
-0.23198387 0.029924873 0.009296715 0.3170733 -0.053946372 -0.071005814 -0.05480167 -0.021495236
-0.06712927 -0.18441486 -0.04437948 -0.1789341 -0.12018248 -0.027036449 -0.0757328 0.054189596
-0.086832404 -0.12346343 -0.04487846 -0.045693453 0.046256483 0.013319948 -0.0021166678 0.0017103716
-0.11160242 -0.03244849 -0.118165575 0.035765454 -0.05337877 -0.13551342 0.028355345 -0.06248812
-0.11904203 -0.07005554 0.020773973 -0.13101248 -0.08186229 0.011414919 -0.14195545 0.034279943
-0.10834142 -0.040616106 -0.12195006 -0.13868247 0.0040131207 -0.18458495 -0.04735804 -0.020822292
0.023385772 0.027547788 -0.0022691318 -0.052791476 -0.12987743 -0.11581733 -0.18578008 -0.115391135
-0.09107808 -0.14144526 -0.07179748 -0.045550168 0.014096905 -0.09706839 -0.050725028 -0.17639501
-0.118855044 -0.099698626 -0.074886575 -0.1975757 -0.0983575 -0.07638444 -0.078955285 0.014371818
-0.07231894 0.022484712 -0.16035625 -0.07615454 0.06722649 -0.06201938 -0.05368309 -0.07476264
-0.10121708 -0.0005239873 0.03475773 0.029442847 -0.070798896 -0.036627248 -0.08993984 -0.04232654
-0.20743038 -0.10237004 -0.038970333 -0.123131976 -0.04514532 -0.0056859343 -0.14853978 -0.038577825
0.047987215 -0.04643465 -0.027619507 0.024066366 0.0033288936 -0.040492993 -0.14639957 0.0007365956
-0.16482946 -0.025277946 0.0064832456 -0.048361987 0.04675854 0.043417897 -0.10507867 -0.14280525
-0.15257886 0.13951053 -0.19435537 -0.13404931 -0.07371186 -0.04688816 -0.039030276 -0.14035219
0.012861639 0.052408088 -0.05074799 -0.08972923 -0.19880609 -0.22090305 0.0077851326 -0.07075604
00000000: 7d40 473f cce1 0b40 1474 a9be d0da e3be
00000010: 42d8 dd3e 1648 533e 3eb9 b3bf 2d89 24be
00000020: 7fb2 5dbd daf2 6a3b e770 fcbe e6f2 1bc0
00000030: cb75 a53f 6a52 ce3e dcde 1abf d21b 07bf
00000040: 0954 91be f21b 86bf 00a2 513f 0bdd 07c0
00000050: f86b 1b3d 8d77 ed3c 4c54 6e3d c16c 6b3d
00000060: 6bde 3d3f 87fa 023f 1552 693f 7a23 583f
00000070: 51b6 abbe 8beb 4fbf e63d 1b3f fab2 06c0
00000080: cbe2 583f a675 04be 134b 42bf 8cfc 1c3e
00000090: eb13 ee3e ab48 cabf 6caf acbd fc30 b73f
000000a0: 1af0 8a3f c42f 573f 0ddb 903e fae3 52bc
000000b0: 8f63 6b3f f7a7 55be 9035 7e3f 847d 59bf
000000c0: 36d1 c3bf 1a91 81bf 792f b33f 13b2 8d3f
000000d0: 1801 803f dad0 113f e8b6 6f3f 68ba 9cbf
000000e0: a27a 6bbe 7d62 92be 2c3f 41bf 4bf3 8b3f
000000f0: b879 023e eabc 64bf 0c5f 4b3f 2a0e 9ebf
00000100: 3e01 ddbe 80b7 1e3f df5c 55bf d039 a93f
00000110: a500 0c40 e4d8 033f ffb1 94bf 484d 933e
00000120: adb2 c2bf 18da 163f 1329 8bbe 7197 e43f
00000130: 0e7f 76be d036 603f d3ac 453f 86c4 413f
00000140: 450b 6c3f 9262 94bf 299c 08bf 02ac a1be
00000150: 4aeb c53e b6f9 e8bd 40a3 03bf 0e20 68be
00000160: 926b 7cbe cea4 e93e acac fd3e f869 143f
00000170: 488f bbbf 09de e13f 2cc5 c8bf b897 8bbf
00000180: 6dda 08bf d1ad b9be d658 423f a3ad e43f
00000190: e30f ccbf 453a 363f 06cc 35bf 37a2 0d3e
000001a0: cd86 7f3f 2c6e c1bd 543f f53d 42bf 363f
000001b0: 6f72 f6bd de9d d23f a3e8 a4bf f1cd ec3f
000001c0: 3726 1540 ae86 b63e e2d0 2e3f 31f2 493f
000001d0: 72da 013f f925 7ebd 2975 9b3c 30da 55bf
000001e0: 7885 103f ab67 d4bf 3f10 25be a611 c639
000001f0: 7be1 a33e 1493 ccbf 9599 5dbe 2987 6c3f
00000200: 2e8d 6dbe 0225 f53c 4051 183c 6e57 a23e
00000210: dff6 5cbd 7f6b 91bd b777 60bd c716 b0bc
00000220: 127b 89bd 40d7 3cbe 42c7 35bd 803a 37be
00000230: 3b22 f6bd 8b7b ddbc cc19 9bbd e9f5 5d3d
00000240: 30d5 b1bd 65da fcbd 7ad2 37bd 0f29 3bbd
00000250: 7077 3d3d e93b 5a3c cbb7 0abb 8c2e e03a
00000260: cf8f e4bd b5e8 04bd cb00 f2bd cc7e 123d
00000270: b2a3 5abd 08c4 0abe 7849 e83c 8bf3 7fbd
00000280: 4fcc f3bd 4779 8fbd 2e2e aa3c 2328 06be
00000290: 6ba7 a7bd a405 3b3c c55c 11be 2069 0c3d
000002a0: 1be2 ddbd 135d 26bd f4c0 f9bd c702 0ebe
000002b0: 7f80 833b d603 3dbe 81fa 41bd 8393 aabc
000002c0: 8593 bf3c e6ab e13c b7b5 14bb e03b 58bd
000002d0: 97fe 04be a331 edbd 223d 3ebe 3052 ecbd
000002e0: 2587 babd 07d7 10be 8f0a 93bd d092 3abd
000002f0: b4f6 663c cbcb c6bd 0cc5 4fbd e5a0 34be
00000300: 466a f3bd cb2e ccbd 225e 99bd 4951 4abe
00000310: a86f c9bd 726f 9cbd 4fb3 a1bd c677 6b3c
00000320: f41b 94bd dc31 b83c 6e34 24be e9f6 9bbd
00000330: 0bae 893d 0908 7ebd cde2 5bbd 281d 99bd
00000340: e74a cfbd 315c 09ba 1f5e 0e3d 2032 f13c
00000350: 03ff 90bd 7406 16bd 6132 b8bd 985e 2dbd
00000360: a168 54be 62a7 d1bd 5b9f 1fbd 9e2c fcbd
00000370: 4dea 38bd 1351 babb d01a 18be c803 1ebd
00000380: 3e8e 443d 4232 3ebd 4e42 e2bc d426 c53c
00000390: 9129 5a3b fbdb 25bd c5e9 15be 1818 413a
000003a0: 0ec9 28be b213 cfbc 6871 d43b 3817 46bd
000003b0: e285 3f3d f7d6 313d 7c33 d7bd 8a3b 12be
000003c0: a23d 1cbe d9db 0e3e 1805 47be 3944 09be
000003d0: 3ef6 96bd cd0d 40bd 36de 1fbd 7cb8 0fbe
000003e0: a0b9 523c dda9 563d 20dd 4fbd f5c3 b7bd
000003f0: d393 4bbe 6934 62be 6d1a ff3b 8be8 90bd

_fc2.bias f4 [128]
-1.3077408 -0.15102656 -0.1947335 -0.84448314 -1.9970087 -0.68361264 -0.21761157 -0.36975604
-0.9775953 -1.8774679 -0.08838857 -0.55791056 -0.22537869 -0.46547857 -0.70704645 -0.5457751
-0.8124286 -0.16282533 -0.62965155 0.28659588 -0.8989611 -0.17132653 0.19466501 -0.122145765
-0.31250337 -0.47104716 -0.22271231 -0.6440634 -0.7211282 -0.60893035 -0.28724357 -1.920092
-1.3635966 -0.15356547 0.102261044 -1.6105387 -0.51245296 -0.65485984 -0.79466796 -1.3815534
-0.4673031 -0.8736903 0.06941274 -0.9362008 -0.19624291 -0.35511282 -1.3204107 -1.701828
0.55631375 -0.49093235 -0.61975294 -0.53952944 -1.4390187 -0.21156554 -0.32148787 -0.36554408
-0.37406376 -0.9995598 -0.09324599 -1.009845 -0.2808461 -0.21193519 0.25256336 -0.6453365
0.18452397 -0.13234241 -0.6816272 -0.1809558 -0.41951695 -0.48199615 -0.86524713 -0.90075576
-0.31055647 -0.11472609 -0.17028713 -0.69769543 -0.5687233 -0.74902695 -0.25835592 -0.23856826
-1.1383421 -0.93166137 -0.4035646 -0.2209471 0.08947581 -1.3247753 -0.22410925 -0.21119764
-0.6765426 -0.18159185 -0.38071448 -0.3071283 -1.8287156 -0.141492 -1.0944606 -0.80142623
0.4693191 -1.3269807 -1.366714 -0.10396885 -0.19164048 2.4586024 -0.16811956 -0.3120787
-0.17542255 -0.29294777 -0.16808611 -0.09772564 -0.15427798 -0.21464524 -0.63001764 -1.2840834
-1.6421942 -0.10789525 -0.09023235 -0.3469138 1.825815 -0.14047724 -0.9371875 -1.0918002
0.2890213 -0.32351458 -0.36318132 -0.9416812 -0.53655463 -0.49686667 -1.4679674 -0.15778168
00000000: 0d64 a7bf b5a6 1abe 3868 47be 0c30 58bf
00000010: fb9d ffbf 3d01 2fbf 91d5 5ebe aa50 bdbe
00000020: b043 7abf de50 f0bf 1105 b5bd 3ad3 0ebf
00000030: acc9 66be 3553 eebe ff00 35bf ebb7 0bbf
00000040: 52fb 4fbf afbb 26be d830 21bf b2bc 923e
00000050: 5122 66bf 3970 2fbe 4456 473e 8f27 fabd
00000060: 7100 a0be 182d f1be b20e 64be 57e1 24bf
00000070: dc9b 38bf dce2 1bbf 9711 93be 93c5 f5bf
00000080: 558a aebf 4440 1dbe 3d6e d13d 2226 cebf
00000090: 1e30 03bf e5a4 27bf 5c6f 4bbf bed6 b0bf
000000a0: 5a42 efbe 2baa 5fbf 4428 8e3d dbaa 6fbf
000000b0: e7f3 48be 59d1 b5be 3803 a9bf 80d5 d9bf
000000c0: 946a 0e3f 7c5b fbbe 21a8 1ebf 9a1e 0abf
000000d0: c431 b8bf a3a4 58be 0f9a a4be 9828 bbbe
000000e0: 4985 bfbe 27e3 7fbf c1f7 bebd 9a42 81bf
000000f0: 0fcb 8fbe 8a05 59be fc4f 813e c634 25bf
00000100: daf3 3c3e c584 07be 1f7f 2ebf 7a4c 39be
00000110: edca d6be 33c8 f6be d680 5dbf ee97 66bf
00000120: 4201 9fbe 83f5 eabd c05f 2ebe 2b9c 32bf
00000130: da97 11bf 3bc0 3fbf 3a47 84be 3d4b 74be
00000140: 32b5 91bf 5c81 6ebf 05a0 cebe f53f 62be
00000150: 183f b73d 3d92 a9bf e57c 65be 3244 58be
00000160: e531 2dbf 37f3 39be 02ed c2be ec3f 9dbe
00000170: 5a13 eabf 47e3 10be 4917 8cbf 452a 4dbf
00000180: 984a f03e 81da a9bf 7cf0 aebf 9fed d4bd
00000190: 673d 44be be59 1d40 8927 2cbe c8c8 9fbe
000001a0: f8a1 33be 40fd 95be c41e 2cbe 6124 c8bd
000001b0: 0cfb 1dbe f6cb 5bbe d648 21bf d85c a4bf
000001c0: 6b33 d2bf 2ff8 dcbd bdcb b8bd b09e b1be
000001d0: 4eb4 e93f 44d9 0fbe 85eb 6fbf 1cc0 8bbf
000001e0: 9afa 933e b4a3 a5be e7f2 b9be 0512 71bf
000001f0: a55b 09bf 4f65 febe 5be6 bbbf 8591 21be

_fc3.weight f4 [1, 128]
0.03074487 0.022203404 -0.0033465272 -0.032466415 -0.042547736 0.06786311 0.045739185 0.02875646
0.015734358 -0.11212926 0.0066552144 -0.009759818 -0.019849598 -0.041758988 0.05854242 0.021610273
0.024145497 0.04788663 0.023560403 -0.083126776 0.03592303 -0.012570436 0.041627083 0.018922519
0.026339227 -0.044443224 -0.14078659 -0.08612887 0.09973676 -0.07584502 -0.05441341 -0.070299566
-0.023221135 0.0033882621 0.008129615 -0.015859088 0.027565146 0.027951749 -0.09809954 -0.0067513343
0.0050380053 -0.071100675 0.020692155 0.018515268 -0.027994333 0.04938316 -0.005106576 0.021721218
-0.026701827 0.03320173 -0.02383832 0.02979512 -0.04743514 0.04517161 -0.010268164 0.010917552
-0.04476174 0.028796827 0.0075652916 0.010623962 0.02523453 0.011181829 -0.041186288 0.025612317
0.027156407 -0.01063783 -0.031594295 -0.14197542 -0.05940826 -0.011113696 0.04985021 -0.066199705
0.018394973 0.104543656 -0.009007881 0.025554612 0.0279783 0.057927676 -0.031234495 0.017051233
-0.038497906 -0.014809518 -0.029746305 -0.019663213 0.024925718 -0.063393146 0.018546926 0.00583754
-0.031079039 -0.025875146 -0.06483733 -0.01917245 0.03576007 0.011155136 0.008036666 -0.02572659
-0.062433653 0.03657597 0.02516282 -0.104032986 0.018927844 0.38731462 0.01292956 0.32894817
-0.010297999 -0.03381515 -0.025799682 0.01591569 -0.011992864 -0.0022167999 0.021886157 -0.028226042
0.021768354 -0.015580035 0.014400092 0.025994109 0.17422912 0.009375094 0.040402487 0.026666384
-0.17894314 -0.069193035 -0.0249993 -0.01777111 -0.024110176 -0.06119718 -0.06003416 0.009251664
00000000: aadc fb3c eae3 b53c 6951 5bbb 81fb 04bd
00000010: 8946 2ebd d0fb 8a3d 0359 3b3d ab92 eb3c
00000020: 57e5 803c 07a4 e5bd fc13 da3b a5e7 1fbc
00000030: a09b a2bc 790b 2bbd 2dca 6f3d 0708 b13c
00000040: c7cc c53c c524 443d bf01 c13c 5f3e aabd
00000050: 0724 133d 3bf4 4dbc 2981 2a3d 6603 9b3c
00000060: 5dc5 d73c 190a 36bd 5c2a 10be 5564 b0bd
00000070: c942 cc3d a254 9bbd 99e0 5ebd 38f9 8fbd
00000080: 403a bebc 9b0d 5e3b 1432 053c ebea 81bc
00000090: 4dd0 e13c 11fb e43c 69e8 c8bd 4c3a ddbb
000000a0: da15 a53b 3b9d 91bd 9882 a93c 55ad 973c
000000b0: 5f54 e5bc ff45 4a3d 1055 a7bb b2f0 b13c
000000c0: cabd dabc 8afe 073d 9548 c3bc e514 f43c
000000d0: 594b 42bd de05 393d cd3b 28bc 88df 323c
000000e0: 1658 37bd 53e7 eb3c 44e6 f73b 2010 2e3c
000000f0: a5b8 ce3c fd33 373c f4b2 28bd ecd0 d13c
00000100: 1d77 de3c 4b4a 2ebc 0569 01bd 0162 11be
00000110: 1356 73bd 3816 36bc bc2f 4c3d b693 87bd
00000120: 0eb1 963c fc1a d63d cb95 13bc e857 d13c
00000130: bf32 e53c 9245 6d3d 7cdf ffbc 07af 8b3c
00000140: fbaf 1dbd 9fa3 72bc 86ae f3bc bf14 a1bc
00000150: 0531 cc3c 44d4 81bd b9ef 973c d648 bf3b
00000160: 7899 febc 1df8 d3bc 6fc9 84bd 8b0f 9dbc
00000170: 2779 123d 08c4 363c 38ac 033c 92c0 d2bc
00000180: 6eba 7fbd afd0 153d 4222 ce3c 3f0f d5bd
00000190: 910e 9b3c 1a4e c63e 81d6 533c e56b a83e
000001a0: f0b8 28bc c181 0abd db59 d3bc 9f61 823c
000001b0: b87d 44bc bb47 11bb 994a b33c 4d3a e7bc
000001c0: 8c53 b23c 6743 7fbc 5dee 6b3c 99f1 d43c
000001d0: 1e69 323e ff99 193c 147d 253d 7673 da3c
000001e0: df3c 37be 14b5 8dbd 55cb ccbc b894 91bc
000001f0: b482 c5bc e5a9 7abd 61e6 75bd 4b94 173c

_bn0.weight f4 [33]
0.46037036 0.22637853 0.35609877 0.20021135 -0.12915501 0.19212642 -0.0763307 0.044131152
0.0543518 0.036861185 0.10674524 0.081063375 0.06304574 0.92223805 0.2905951 0.6848313
0.06922801 0.08229092 0.044378065 0.085237555 0.06615799 0.068226084 0.0275658 0.23769568
0.17420772 0.21842901 0.72616446 0.6961094 0.61289966 0.33558935 0.78419095 0.8078086
0.56459713
00000000: aab5 eb3e c6cf 673e 9452 b63e 3404 4d3e
00000010: 3641 04be cabc 443e 4553 9cbd dec2 343d
00000020: fe9f 5e3d c1fb 163d 409d da3d 8e04 a63d
00000030: 201e 813d cb17 6c3f e2c8 943e 1b51 2f3f
00000040: 6ac7 8d3d 2488 a83d c6c5 353d 0791 ae3d
00000050: d77d 873d 1eba 8b3d acd1 e13c 7f66 733e
00000060: 8263 323e dbab 5f3e eae5 393f 3a34 323f
00000070: fee6 1c3f 5ed2 ab3e bdc0 483f 8bcc 4e3f
00000080: 7089 103f

_bn0.bias f4 [33]
-0.01751568 -0.34466705 -0.07526971 0.056261793 -0.08454313 -0.011901563 -0.0052086026 0.027015328
-0.013011967 0.007598589 0.016104592 -0.019661 -0.044624206 -0.017328368 0.0565228 -0.012030149
-0.0041520083 0.009900363 -0.0021580935 -0.0054884087 0.013940788 0.00078689586 -0.007351898 -0.07447901
-0.008670033 0.027984966 -0.025403954 0.0028559428 -0.034010313 -5.6410787e-05 0.0066971947 0.0038486894
0.11513484
00000000: 0b7d 8fbc 3378 b0be 0127 9abd c472 663d
00000010: f324 adbd c6fe 42bc edac aabb 404f dd3c
00000020: 2530 55bc 96fd f83b c7ed 833c 1b10 a1bc
00000030: dfc7 36bd 39f4 8dbc 7484 673d 1a1a 45bc
00000040: 920d 88bb 2235 223c cd6e 0dbb 1cd8 b3bb
00000050: e767 643c b047 4e3a 31e8 f0bb 7488 98bd
00000060: c10c 0ebc ba40 e53c f41b d0bc c52a 3b3b
00000070: 664e 0bbd 9f9a 6cb8 2474 db3b 4b3a 7c3b
00000080: d1cb eb3d

_bn0.running_mean f4 [33]
-0.10708295 -2.9293764 -0.33700788 0.90385306 -0.014539315 -0.015687672 -0.048954956 0.014048586
-0.002849643 -0.013607551 -0.055307876 0.00204295 -0.04082028 0.05982079 -3.5338275 -0.5302661
0.0260193 0.01098631 0.007148772 -0.043515474 0.010969719 -0.036208503 -0.025266273 -0.048260156
0.13635634 -0.014299492 0.037269868 -0.99999976 -0.06609742 0.0 0.99999976 0.0
-0.016057637
00000000: 4e4e dbbd e77a 3bc0 4c8c acbe ea62 673f
00000010: 4f36 6ebc 6f83 80bc fe84 48bd 0a2c 663c
00000020: 13c1 3abb 35f2 5ebc 838a 62bd 03e3 053b
00000030: 2a33 27bd a506 753d 3b2a 62c0 85bf 07bf
00000040: 6d26 d53c edff 333c 3f40 ea3b 483d 32bd
00000050: 56ba 333c 5e4f 14bd 37fb cebc 71ac 45bd
00000060: ffa0 0b3e 6b48 6abc 4aa8 183d fcff 7fbf
00000070: 165e 87bd 0000 0000 fcff 7f3f 0000 0000
00000080: 4e8b 83bc

_bn0.running_var f4 [33]
3.877023 0.51683223 2.952769 0.042975564 0.063096605 0.0067217816 0.067577966 0.35150868
0.045319904 0.15132248 2.5468545 1.3536094 2.9502778 19.137854 1.5319446 17.367558
0.12570208 0.2655687 0.107088245 0.49861917 3.4939983 0.92651576 0.7933207 8.459703
4.2726517 9.106674 32.36866 6e-45 31.740904 6e-45 6e-45 6e-45
0.34021375
00000000: 2521 7840 1e4f 043f 2bfa 3c40 2507 303d
00000010: cb38 813d 6442 dc3b 5166 8a3d f2f8 b33e
00000020: 5da1 393d 48f4 1a3e aaff 2240 1343 ad3f
00000030: 5ad1 3c40 531a 9941 c316 c43f c2f0 8a41
00000040: 0cb8 003e 9ff8 873e 1551 db3d 034b ff3e
00000050: ab9d 5f40 2330 6d3f 1117 4b3f f25a 0741
00000060: 90b9 8840 f0b4 1141 8279 0142 0400 0000
00000070: 5fed fd41 0400 0000 0400 0000 0400 0000
00000080: 7f30 ae3e
