project2-continuous-control/results/submission_3/checkpoint_actor.pth (torch_old, 178200 bytes, 18 tensors)

_fc1.weight f4 [256, 33]
000000 c4 e7 4e bf 5e 91 1b 40 51 0f 0c be 90 d8 44 3f
       -0.80822396 2.4307475 -0.13677718 0.7689295
000010 da c7 df be dd ee ee 3e 12 e4 e6 be 5b 58 2f bf
       -0.43707162 0.46666613 -0.4509588 -0.68494195
000020 b8 7d a5 3d fb 67 33 bf 20 0a e0 3e ac 3c 91 3e
       0.080806196 -0.70080537 0.43757725 0.283666
000030 21 2d 21 3f 98 4a 9b 3f 3f af a3 3f 26 26 56 bf
       0.62959486 1.2132139 1.2787856 -0.8365196
000040 e0 cd d3 be 98 6d 6c be 95 a7 ca bd 7c 68 3e 3c
       -0.41368008 -0.23088682 -0.09895245 0.011621591
000050 b1 0f 6b 3f 57 21 8a 3f a2 0d ed 3d 85 b9 00 3f
       0.9182082 1.0791425 0.11574866 0.5028308
000060 49 0c 26 40 42 42 ae 3e cf 8f dd bf 55 0b 74 bc
       2.5944998 0.34034926 -1.7309512 -0.01489528
000070 3d 4d 00 bf 9b 4b 8e 3d 72 88 99 bd 3b 7c ba ba
       -0.50117856 0.06948014 -0.07496728 -0.0014227697
000080 bb 66 07 3f a2 c6 6a bc 94 1b 13 bd 79 d5 33 3c
       0.5289113 -0.014329584 -0.035914972 0.010976189
000090 fc 54 d6 3c 87 19 da bd 92 0e 18 be ea 3f 67 3e
       0.02616357 -0.106494 -0.14849308 0.22582975
0000a0 ba 0f ef bb 5e 53 c4 bd 1c ce e5 3d 6e 6f 5d 3d
       -0.007295576 -0.095862135 0.11220953 0.054061346
0000b0 da 80 bf 3c 62 b6 9f bb 41 33 ca bd 87 26 7f 3d
       0.02337687 -0.0048740366 -0.09873057 0.062292602
0000c0 47 14 81 3d 83 a6 12 3d 02 40 a7 3d a9 7b a9 3d
       0.06302696 0.03580333 0.081665054 0.082755394
0000d0 56 61 30 3c 7e 23 88 3e 85 9a 34 3e a7 85 1b 3e
       0.010765394 0.26589578 0.1763707 0.15187703
0000e0 ca 6b 84 3c cf 60 ae 3b e8 e4 29 3d bb dc 24 be
       0.01616468 0.005321599 0.041478068 -0.16099827
0000f0 10 f8 90 bc 1d 08 5e be e7 bc 77 bd 78 c1 82 bc
       -0.01769641 -0.21682782 -0.060482886 -0.015961394
000100 cf 16 81 3d 78 26 18 be ba 15 39 3e 00 79 52 bd
       0.063031785 -0.14858425 0.18074694 -0.051384926
000110 99 d5 1f bf d6 e7 86 be 74 23 9a 3e ff aa 11 be
       -0.624353 -0.26348752 0.30105174 -0.14225386
000120 49 f6 7b 3e d9 5d 8d be 4f a5 e2 3e c2 11 96 3d
       0.24605669 -0.27610663 0.44266745 0.07327606
000130 cb 50 b4 be 20 6a 5f be 73 11 46 3d a8 de b7 bc
       -0.3521789 -0.21817827 0.048356485 -0.022445038
000140 b6 97 fb 3e 1f 92 d7 3e d0 91 f3 3d cc 7f 4e 3f
       0.49139184 0.4210367 0.11893046 0.8066375
000150 f6 b6 e6 bd 65 fd 04 bf 71 df 53 3f 6d d6 8f 3e
       -0.11265366 -0.5194915 0.8276282 0.2809328
000160 d1 d2 39 bf 50 ee 0b bf 1b c3 e7 3e 78 ee 67 bd
       -0.72587305 -0.5466051 0.4526604 -0.056623906
000170 1c 27 fc 3d dc be fb bc c0 66 b0 3d 89 42 d6 bc
       0.12312147 -0.030730657 0.08613348 -0.026154773
000180 d1 14 65 bd 56 95 2e 3d b7 8c 92 3d 06 52 35 3e
       -0.055928055 0.042622887 0.071557455 0.1770707
000190 5c 76 cd 3f 18 0f 8f be b7 3e 52 c0 f3 1b 06 3d
       1.6051745 -0.27941203 -3.2850778 0.0327415
0001a0 f5 2e 66 3f cb 38 05 3f d2 e3 27 3f e1 2f 1c bf
       0.899154 0.52039784 0.65582 -0.6101056
0001b0 cf 01 2f 3e 03 05 82 3f 17 c6 ab bf 11 20 f0 be
       0.17090534 1.015778 -1.3419827 -0.46899465
0001c0 89 0f df be fe 17 b3 3f f1 a0 99 3e 1e 53 fa bf
       -0.4356654 1.3991697 0.300056 -1.9556615
0001d0 d4 5d a0 bf 00 9d 76 3f af 6d 6e be c2 9b 5e 3f
       -1.2528634 0.96333313 -0.23284028 0.8695642
0001e0 c9 57 34 bf 77 83 52 3f 7b 71 1f bd 16 ac c6 be
       -0.7044645 0.8223185 -0.038926583 -0.38803166
0001f0 8e 78 05 3f 44 74 11 3f 17 f8 b2 3d 47 74 a0 3f
       0.52137077 0.5681803 0.08738726 1.2535485
000200 4b 71 f5 bc d4 bb 34 bd ac da a4 3c 0b 82 ba be
       -0.029961249 -0.04412444 0.020123802 -0.3642734
000210 93 9c c7 3f 1b bd fd bf 4b 30 67 be 98 e9 10 be
       1.5594658 -1.9823335 -0.22577016 -0.14151609
000220 bd 2a 2e 3f 23 e2 43 3e 8c e2 48 bf a6 20 ff bf
       0.68033963 0.19129233 -0.78470683 -1.9931839
000230 46 45 41 3f f0 d6 31 bd d1 a0 b9 3f 3f 2a a0 bf
       0.7549633 -0.04341787 1.4502202 -1.2512892
000240 15 d7 97 bd 13 2d 1c be 8b c6 06 c0 21 45 2e 3f
       -0.074140705 -0.1525157 -2.105868 0.6807423
000250 99 4b f8 3e 59 06 16 3e cd d3 00 3e 93 41 46 3f
       0.48495176 0.14650859 0.12580796 0.7744381
000260 29 88 37 3e 22 66 a1 bf 87 8f a7 bf 0c ba 79 bf
       0.17923035 -1.2609293 -1.3090676 -0.9754951
000270 e9 07 b7 bf 6d 80 28 3f 21 4e 93 bf 39 7a 05 3d
       -1.4299289 0.6582096 -1.1508218 0.032587264
000280 42 c1 9b 3e 6e a6 9b 3c a2 90 b0 bd 65 45 a4 3d
       0.30420882 0.019000258 -0.086213365 0.080210485
000290 b9 d6 e4 3e 16 19 46 bf f0 b7 2e 3f 4d 88 3d bf
       0.4469507 -0.7738203 0.68249416 -0.74036103
0002a0 90 a9 96 bf ec 31 54 bf 4f 9a db 3f e4 15 5c 3f
       -1.1770496 -0.82888675 1.7156466 0.859709
0002b0 06 e2 e3 be d6 ca cf bf 80 ae 03 bf ef 6d a6 bf
       -0.4450838 -1.6233776 -0.5143814 -1.3002299
0002c0 e2 4a 1d 3d b4 8f 28 be 98 b0 36 bf 6f b6 68 3c
       0.038401492 -0.16461068 -0.7136321 0.014203652
0002d0 d7 08 a0 bf 24 69 9a bf fa dd 87 be 9f 1e 18 bf
       -1.2502698 -1.2063336 -0.26536542 -0.59421724
0002e0 11 0d 64 bf c0 b1 92 bf 9c 5a 70 be 04 73 b0 3f
       -0.8908244 -1.1460495 -0.23472065 1.37851
0002f0 04 2b 03 c0 90 a0 87 bf 36 cc 1c bf 88 ee d9 3f
       -2.0495005 -1.0595875 -0.612491 1.7025919
000300 04 27 f0 3c fa 81 2c bf ea 58 aa bd 2f c1 1d 3d
       0.02931548 -0.6738583 -0.0831774 0.038514312
000310 22 dc 9d 3c 02 fc f8 3e dd 23 08 3e 34 e0 e3 be
       0.019270007 0.48629767 0.13294931 -0.4450699
000320 80 55 19 bd 4e 04 aa be 57 b3 ca 3c 0f c1 a7 3e
       -0.037435055 -0.3320641 0.024743719 0.3276448
000330 af 27 aa bd 9b 7f de bb 35 8b 14 3f 95 36 d0 be
       -0.0830835 -0.006790114 0.58024913 -0.40666643
000340 d1 34 8d 3d e3 2e 16 3f 0e 15 2a bf 4c e8 8c be
       0.068948396 0.58665293 -0.66438377 -0.27520978
000350 89 e4 3b 3d 08 79 7b 3e 60 2f a4 3e b1 49 1f be
       0.045872245 0.24557889 0.32067394 -0.15555455
000360 32 85 8f be fb 61 28 be 1f bb a8 3e 9c 65 9d 3e
       -0.28031307 -0.16443627 0.32955262 0.30741584
000370 07 65 c3 be 04 61 19 bf 24 00 c7 3e 5d 4b 57 bd
       -0.38163015 -0.5991366 0.38867295 -0.052562106
000380 57 bb 63 be b9 9a 49 3b a3 ed 5a bf 81 ff a9 3d
       -0.22239433 0.0030762388 -0.85518855 0.08300687
000390 c8 8b 9d bb 7c f4 a6 bc 72 67 a4 be 4c 2b 42 3f
       -0.004807923 -0.020380251 -0.32110173 0.75847316
0003a0 c3 d9 35 c0 57 c8 fd 3f 57 f6 97 be 83 ad b5 bc
       -2.8414161 1.9826764 -0.2968013 -0.022177463
0003b0 db ba 3c 3f 20 f8 1d 3e 8b a2 02 3f 0f 70 32 3e
       0.7372262 0.15426683 0.5102927 0.1742556
0003c0 91 0d a5 bf ee 71 9a 3e c4 d7 f7 be bb 71 b0 bf
       -1.2894765 0.30165046 -0.48406804 -1.3784708
0003d0 1a 9a 63 bf 9c 65 28 c0 c9 a2 fb 3e 65 ac ab 3e
       -0.88907015 -2.6312017 0.49147633 0.33529964
0003e0 f2 34 f9 3f 1a 0f b4 3e 3a 3a f3 bd 35 5e 81 3e
       1.9469283 0.35167772 -0.1187634 0.25267187
0003f0 33 3c 9f 3f d5 35 54 bf d8 bc 12 bf c5 e7 23 c0
       1.2440246 -0.8289464 -0.573194 -2.561021

_fc1.bias f4 [256]
000000 97 15 b4 3d d6 52 21 3e 34 3d 3c bd 2f c4 13 3e
       0.087931804 0.15754256 -0.045956805 0.14430307
000010 e9 de d7 ba c7 02 22 be 29 7a 25 be bf 01 a4 bd
       -0.0016469631 -0.15821372 -0.16159882 -0.080081455
000020 4c f2 b6 ba 5b 20 0f 3e 37 07 99 bd 4f 72 d7 bc
       -0.0013957708 0.13977186 -0.07472079 -0.026299624
000030 5e c0 f5 3d 7b 3a 34 bd 0e aa 97 3d ee 5d 7c bc
       0.11999582 -0.044001084 0.07405482 -0.015403254
000040 0b b6 89 bd 90 15 e9 bd 4f de 2e 3e f5 8f c0 bd
       -0.06724175 -0.11381066 0.17076991 -0.094024576
000050 28 7e 99 3c 66 2c 72 3d b2 78 0b 3d 32 fd 5a bc
       0.018736914 0.059124373 0.03405065 -0.0133660305
000060 56 45 0d bd 03 8b 96 bd bf ea 74 3d 68 45 50 bd
       -0.034489952 -0.07350733 0.059794184 -0.05084744
000070 fc c9 86 3d f3 48 b8 3d 11 05 7a 3d 2c 9c a5 bd
       0.06581494 0.08998289 0.061039988 -0.08086428
000080 ff 1d f5 bd 25 b3 3f bd dc 37 6b 3d 53 5c 95 3c
       -0.11968612 -0.046801705 0.05742632 0.0182325
000090 85 b1 2f 3e 78 d5 f3 3d 15 ee a1 bd 2a 00 00 3e
       0.17157562 0.1190595 -0.07906739 0.12500063
0000a0 06 c3 c9 bd 14 e6 71 bd 20 b0 02 3e b5 03 03 be
       -0.09851651 -0.05905731 0.12762499 -0.12794383
0000b0 03 29 46 bd a2 e1 12 be 03 4a a4 3d 2c 1b 00 3e
       -0.048378956 -0.14343885 0.08021929 0.12510365
0000c0 db 61 20 3e 14 1f 7a bd 1e 2d 02 be b7 7b bb 3d
       0.15662329 -0.061064795 -0.12712523 0.09154456
0000d0 aa b4 e4 bd 73 84 6d bd 76 d6 11 be 01 db 0b 3e
       -0.111672714 -0.05798764 -0.14241967 0.13657762
0000e0 97 6a 92 bc 76 07 b8 3c 1c 92 2d 3c ee cb b9 3c
       -0.017873092 0.022464495 0.010593917 0.022680249
0000f0 17 3b 9e bd 8b 89 2e 3e 9b 99 23 be 24 b2 b9 bc
       -0.07726114 0.17044656 -0.15976565 -0.022667952
000100 e2 88 ce bd e8 45 f4 bd 79 95 be 3d 75 7a 02 3e
       -0.10084702 -0.11927396 0.093058534 0.12742026
000110 b0 8d a8 3d db 42 57 3d de 1b ee 3d 81 43 bf 3d
       0.0823015 0.052553993 0.11626409 0.09339047
000120 f5 0a 4e bd 40 d9 96 bd bc 44 53 3d e1 ec dd 3d
       -0.05030342 -0.07365656 0.051579222 0.10836197
000130 f8 19 f0 3d 34 56 dd 38 79 e6 30 3e 0f 1a ff bd
       0.11723703 0.00010554158 0.17275418 -0.12456142
000140 05 25 95 3d 06 99 15 3e 2b 37 45 3c 29 58 d7 3d
       0.072824515 0.14609155 0.012037079 0.10514862
000150 c0 b9 1b 3e 58 8d 0b be b0 b1 e7 3d ce c7 aa 3d
       0.15207577 -0.13628137 0.11313188 0.08338891
000160 3b c6 b9 3d 72 32 b4 3d 33 1b d3 3d e8 75 62 3d
       0.090710126 0.08798684 0.10307922 0.055288225
000170 a9 e9 c8 3d 8c 22 22 be 28 51 32 be ed 0e be 3d
       0.09810192 -0.15833491 -0.17413771 0.092801906
000180 33 d7 31 3e 57 18 55 bd 97 3b 08 3e 3f 44 9b bc
       0.17367248 -0.052025165 0.13303982 -0.01895344
000190 bc 54 ae 3d db b9 68 bc fb f2 ad 3d 59 85 9b bd
       0.085122555 -0.014204468 0.084936105 -0.075937934
0001a0 9a 09 12 be b0 e5 be 3d e3 a5 94 bd aa d0 04 3e
       -0.14261475 0.09321153 -0.07258203 0.12970224
0001b0 20 50 bb 3c 8b 50 91 bd a3 c6 2b 3e 90 1e 2a 3e
       0.022865355 -0.070954405 0.16774993 0.16613221
0001c0 4b 3c b6 bd e8 16 a1 3d c6 1c 4c 3d ab be d9 bd
       -0.08898219 0.07865697 0.049832128 -0.1063207
0001d0 7c bd a8 3c b7 51 1c be 64 85 49 3c 12 0d 1a be
       0.020598166 -0.15265547 0.012299869 -0.15044048
0001e0 58 2e 19 3e ce ea b2 3d 6f fd 0c 3e 87 47 0b 3d
       0.14959085 0.08736192 0.13768552 0.03400376
0001f0 20 7a 98 bd 22 72 b4 3d 9f 22 9d 3d 75 5f d8 3d
       -0.074451685 0.088108316 0.07672619 0.10565082
000200 7f 95 db bc 37 11 33 3e bc c2 e3 bd 32 73 20 be
       -0.026804684 0.17487036 -0.11121127 -0.15668944
000210 ad af 40 3d 6f 9b 22 3e 84 64 d9 3c f6 ec 48 bd
       0.047042537 0.15879606 0.026537187 -0.04905411
000220 e4 d4 18 be a0 0f f1 3d bc 40 30 be c5 14 93 bd
       -0.14924961 0.11770558 -0.17212194 -0.07181696
000230 95 5b c9 3d b7 0b c7 bd b1 18 ee bd 3c 58 b5 bd
       0.09831921 -0.09719031 -0.11625803 -0.0885472
000240 d5 43 a9 3d 8d 30 99 bd 6c 1b 1b bd fa 75 2f bd
       0.08264891 -0.074799635 -0.03786795 -0.04283712
000250 56 d7 be 3d 4b db 1c 3e 28 cb 31 3c a0 35 3f 3a
       0.09318416 0.15318029 0.010851659 0.00072940625
000260 c5 04 90 bc 4c 1b aa 3d 8e 61 01 3e f8 74 2c 3d
       -0.0175804 0.08305988 0.1263487 0.042103738
000270 9b 62 dd 3d 03 17 66 bd 5e e0 12 bc 2d 62 15 be
       0.10809823 -0.05617429 -0.008964626 -0.14588232
000280 d8 d8 9c 3d 63 ca b7 bd c2 47 e4 bc 78 0e 2d be
       0.07658547 -0.08974149 -0.027866248 -0.1690005
000290 ce e6 73 3c eb 73 60 3d 7e 97 d7 3d 63 04 1d bd
       0.014886571 0.054798048 0.10526942 -0.03833426
0002a0 00 ff 04 3c 8f 96 27 3e cd 28 bf 3a 38 d5 00 3e
       0.008117437 0.16366027 0.0014584303 0.12581336
0002b0 e4 77 2f 3e 50 eb 17 3e f0 0b a6 3d f0 8f e4 3d
       0.17135578 0.14835858 0.08107746 0.111602664
0002c0 0c 89 21 3e b6 9e 87 bc 57 59 0f 3e 92 34 92 bd
       0.15774935 -0.016555171 0.13998924 -0.07138933
0002d0 dd 3a 68 bd 15 ab a0 3d 15 6b d4 bd c2 7e 8b bd
       -0.05669676 0.07845131 -0.10371987 -0.068112865
0002e0 47 89 16 3c 42 ca 78 3c a7 79 00 3c a0 2d b5 bc
       0.009188003 0.015184941 0.007841504 -0.022116482
0002f0 2a 18 61 3d a3 51 2c 3e 3c 3d 76 bd 80 37 c2 3d
       0.054954685 0.16828017 -0.06011699 0.09483242
000300 92 0b 2f 3d 90 4d e2 3d 35 cb 0f 3e b8 61 88 bc
       0.042735644 0.1104995 0.14042361 -0.016648158
000310 cf 79 11 bd e4 bd 8e bd 58 a9 47 bd f2 26 93 bd
       -0.035516556 -0.069698125 -0.048745483 -0.071851626
000320 87 34 32 bd 5f 00 cf 3d 6f 86 54 3d 62 6c a4 bd
       -0.043507125 0.10107493 0.05188602 -0.08028485
000330 eb 8d c9 3d c3 7d 98 3c 3c f5 e8 3b 18 00 8b 3d
       0.09841522 0.018614655 0.0071093123 0.06787127
000340 37 30 c7 bd 13 37 98 bc 51 e7 07 3e a3 12 e8 3d
       -0.09725993 -0.018580949 0.13271834 0.1133168
000350 9f 4e c6 3d 25 af c3 bc d7 93 96 3c d6 70 e7 3d
       0.096829645 -0.023887226 0.018381042 0.113008186
000360 aa 0e 00 3d df 22 c3 3d ac 9a b4 3d 0c 0c 9f 3d
       0.031263985 0.095281355 0.08818564 0.0776597
000370 b8 f2 a7 3d 03 e9 ec bd 42 5f 1c be c3 14 31 be
       0.08200592 -0.11567881 -0.15270713 -0.17293076
000380 68 b3 0b 3e d4 bb c7 bd fd 8f 0c be 15 1e bc 3c
       0.13642657 -0.09752622 -0.13726802 0.022963563
000390 24 83 07 bd 59 83 59 3d 3c bf 3a bd b8 14 0a 3e
       -0.03308405 0.05310378 -0.04559253 0.13484466
0003a0 80 1b 2b be 9a 0a 33 be 53 cf 19 3e b6 5a 99 bd
       -0.16709709 -0.17484513 0.15020494 -0.07488005
0003b0 63 9b 2a 3d 2d 4c 81 3d 48 54 da 3c 04 c8 e0 bd
       0.041652095 0.063133575 0.026651517 -0.1097565
0003c0 cb c9 95 3c 21 6a e9 bd 62 84 0f 3e d3 7e dd 3c
       0.018284699 -0.113971956 0.14015344 0.027038014
0003d0 aa 77 00 3e c7 b9 fd 3d d9 5c 96 3d d1 5b 78 3d
       0.12545648 0.1238895 0.07341928 0.060634438
0003e0 10 8b ca 3d 63 a9 e2 bd 30 70 05 3e 88 d6 19 bd
       0.09889805 -0.11067464 0.13031077 -0.03755811
0003f0 18 5c 0a 3e c8 b1 0a bc 3d a3 a6 3d ca e7 01 3e
       0.13511693 -0.008465238 0.08136604 0.12686077

_fc2.weight f4 [128, 256]
000000 61 87 9b bf b7 8c 43 be 9f cd 72 3d ee d9 68 bf
       -1.2150689 -0.19096647 0.059278127 -0.90957534
000010 1f 45 8c bf e1 b5 4a 3d fe 21 c7 3e dc cd 84 3f
       -1.0958594 0.04948986 0.3889312 1.0375323
000020 0f 47 2b bf 32 61 97 bf f0 c2 56 3b be 1e d2 3f
       -0.669053 -1.1826537 0.003277 1.6415632
000030 bb 9c 98 3f c3 73 be 3f 10 e0 8d 3f 62 48 7c 3c
       1.192283 1.4879078 1.1084003 0.015398117
000040 94 ce cd 3f 9c 15 39 3f 14 2c e3 3f 6c 5c af 3f
       1.6078668 0.722986 1.7747827 1.370008
000050 a5 a0 97 bf 65 04 c3 3e 3a 5a f9 3f cc 75 08 40
       -1.18459 0.3808929 1.948066 2.1321898
000060 4c ba e9 3d 78 09 31 c0 e1 85 8f bf f2 7e b5 3e
       0.114124864 -2.766203 -1.1212732 0.35448414
000070 95 30 51 3e a5 fa 9a be c6 27 a8 3e 5e a2 52 3d
       0.20428689 -0.30269352 0.32842845 0.051424377
000080 14 72 91 3d c5 75 73 3f c7 8d 0e 40 4c 96 52 be
       0.07101837 0.9510158 2.2274034 -0.20565146
000090 22 7f 8a be 49 da 83 be 8f 06 40 3e 80 97 59 be
       -0.2705012 -0.25752476 0.18752502 -0.21249199
0000a0 47 97 ce 3e 08 a8 bf 3f 7e c7 46 bf 8a 42 c0 be
       0.4034979 1.4973154 -0.7764815 -0.37550765
0000b0 35 fb cd bd ed 1b 26 3f 0f 68 5f 40 18 c7 81 3f
       -0.100576796 0.6488636 3.4907262 1.0138884
0000c0 d2 0a 5a 3f e8 8f 78 3f 58 86 4b 3f c5 82 ee be
       0.8517276 0.97094584 0.7950187 -0.46584144
0000d0 2c 70 96 be 6a 1c 99 bf 86 5a 34 3f 53 3d 5a be
       -0.29382455 -1.1961796 0.7045063 -0.21312456
0000e0 a1 2a 41 bf 1c bf 80 bf 6e 56 cb 3f 55 1a 94 3e
       -0.7545567 -1.0058322 1.5885751 0.2892634
0000f0 11 f3 a1 bf 6b a4 3d 3e 5a 61 8b 3f a8 1f 0c 3f
       -1.2652303 0.18519752 1.0889084 0.54735804
000100 1f ae 4e 3f 61 b2 eb 3e be 74 9f bf b0 ef b8 3e
       0.8073444 0.4603453 -1.2457502 0.36120367
000110 21 50 fb 3f 01 23 80 bf 0b 09 6d be c5 31 8b be
       1.9633828 -1.0010682 -0.23147981 -0.2718641
000120 51 c4 8b 3f e0 84 8c bf ee 5f 98 3d dc 3f 5f bf
       1.0919286 -1.097805 0.07440172 -0.87206817
000130 cc 70 8e 40 09 88 33 3e 8b 50 65 bf 9e 78 44 3e
       4.451269 0.17532362 -0.89576024 0.19186637
000140 ed f5 2c 3d 04 fc 2a 3f 7c 87 9f 3f 85 3c 40 40
       0.04222672 0.66790795 1.2463222 3.0036938
000150 f7 b5 00 bf c8 d9 6d c0 94 cb 91 3e f3 8b 0f bf
       -0.50277656 -3.7164173 0.2847563 -0.5607292
000160 4d 32 c0 3e 7b a5 40 3f 85 53 60 3f 8c 4e f7 bf
       0.37538376 0.75252503 0.8762744 -1.9320846
000170 0a 11 ab 3f c2 4e cf 3e f9 d1 ce bf 88 27 b0 be
       1.3364575 0.40489775 -1.6157829 -0.3440516
000180 e3 38 e9 3f 76 70 7f 3e 0e ca 00 3f bc a3 eb bc
       1.8220485 0.24945244 0.5030831 -0.028764598
000190 47 00 9c 3f 41 aa 27 be f5 58 c2 be 63 2f 15 bf
       1.2187585 -0.1637354 -0.37958494 -0.5827543
0001a0 76 95 ad 3e d7 e4 90 bd 6b 77 09 3e 66 e3 43 be
       0.33903092 -0.07074898 0.1342446 -0.19129714
0001b0 17 3f ab 3f d1 1b 15 be af 91 c4 3f f1 ff 9a bf
       1.3378628 -0.14561392 1.5356959 -1.2109357
0001c0 c3 c0 ae bf d6 86 7d bf 52 1b 3d 3f 62 a5 5f 3f
       -1.3652576 -0.9903387 0.7386981 0.8736173
0001d0 f9 33 99 bf 29 d7 71 3e 00 35 8a bf 17 b0 c9 3f
       -1.1968986 0.23617233 -1.0797424 1.5756863
0001e0 e9 e8 e9 3e 85 ac 01 3b 1f b2 f7 3e 77 9a 92 bf
       0.4568551 0.0019786668 0.48378083 -1.1453389
0001f0 cb b2 4e bf 1f 45 46 bf b1 be 89 be 7a fc 3c be
       -0.80741566 -0.7744922 -0.26903298 -0.18455687
000200 7e e1 0f bf 5a 90 62 bf 5b f4 04 bd ca e3 00 c0
       -0.5620345 -0.88501513 -0.032459598 -2.0139031
000210 47 bb 2c 3f e0 bb 5e bf 74 8b 88 be 64 00 11 40
       0.6747326 -0.87005424 -0.26668894 2.2656488
000220 b2 51 02 40 69 11 49 be e9 93 52 3f 1b 84 c0 bd
       2.0362363 -0.19635548 0.82256943 -0.09400197
000230 c6 02 81 bf 2e 4e 9b be e1 fe ea bd ba e7 60 bf
       -1.0078971 -0.30333084 -0.114743955 -0.87853587
000240 72 ce ff 3f 6b 91 a1 bf 07 74 95 be bf fc 3c 3f
       1.9984877 -1.2622503 -0.29190084 0.7382316
000250 9f 6e c0 bf ae 3e 64 bf 35 d8 0e 3d a3 04 05 bd
       -1.5033759 -0.8915814 0.03487416 -0.032475125
000260 72 37 b4 3e 8b 32 ca 3e 40 0a 41 bf 62 9a d0 3e
       0.3519855 0.39491686 -0.75406265 0.40742785
000270 06 14 c9 3f 1c 83 b6 3e 65 a0 f2 3e 99 57 ea 3e
       1.5709236 0.35646904 0.47387996 0.45769957
000280 e5 ea dd 3f f4 c3 fb be 25 05 b2 3f 7d 9f d1 3e
       1.7337309 -0.49172938 1.390782 0.40941992
000290 d1 7b b9 bc 38 12 c8 3d 98 6a 00 3c 52 8c 9f bf
       -0.022642048 0.097691 0.007837914 -1.2464697
0002a0 62 d0 80 3f 25 ee 0c be 98 39 77 3e 51 8d b7 3e
       1.0063593 -0.1376272 0.24143064 0.35850003
0002b0 b3 23 cd bf d3 4a 29 bf 9e 06 4d 3f b3 16 51 bf
       -1.602652 -0.661298 0.8008822 -0.8167526
0002c0 ca 25 44 be 9e 0d b2 3f 85 99 19 be b6 4d 0a c0
       -0.1915504 1.3910406 -0.1499997 -2.160993
0002d0 f6 c7 02 40 d6 18 68 bf 3a 9b a0 3f 25 c4 84 be
       2.0434546 -0.90662897 1.2547371 -0.25930896
0002e0 41 5a f0 bf 93 f0 ea 3e 43 d5 01 bf 26 a0 49 bf
       -1.8777543 0.4588667 -0.50716037 -0.7875999
0002f0 45 ba 10 3f d8 4d 5e bd 1d 60 07 c0 fa 62 1e 3e
       0.56534225 -0.054273456 -2.1152413 0.15467444
000300 8f 22 21 3f 5c 99 92 be 8b 1d 6f bf ef b1 e1 3c
       0.6294336 -0.2863263 -0.93404454 0.027550666
000310 31 fc a9 bf 21 5c c5 3f 45 5c b1 3f 09 71 c8 bf
       -1.3280088 1.541874 1.3856283 -1.5659496
000320 1e d9 f5 3f de 04 77 bf e1 d5 62 be df c1 5d 3f
       1.9206884 -0.964918 -0.22151901 0.8662395
000330 93 0e 7a bf 9d 35 43 3f a3 a8 48 3f 34 99 a1 bf
       -0.9767849 0.7625368 0.7838232 -1.2624879
000340 c7 6c 50 bf ac fe 8b bf d9 be 93 be 9d d8 98 be
       -0.8141598 -1.0937095 -0.28856543 -0.29852763
000350 67 c2 d3 3e 8b 8f 10 bf 19 0b 08 c0 79 7f 9c be
       0.41359255 -0.5646903 -2.1256773 -0.30566004
000360 42 c3 42 bf ab 3b b6 3f a8 be ca 3e 2b 0f 67 bd
       -0.7607919 1.4236959 0.39598584 -0.05641095
000370 99 75 76 bf b3 c6 6d 3f a3 78 92 3f 6a eb 0f bf
       -0.9627319 0.92881316 1.1443065 -0.5621859
000380 4b a0 b2 3f b7 e1 2e 3f 5c 8d bd bf ec c0 2b 3f
       1.3955168 0.68313164 -1.4808764 0.6709125
000390 5a 23 cc 3f e1 88 a8 be de 54 c6 3f 01 7d 54 3f
       1.5948288 -0.3291693 1.549465 0.8300324
0003a0 a2 3f 76 3f ae 8d 04 3e dc 74 44 3e 23 3d cf 3f
       0.96190846 0.12944672 0.19185203 1.6190532
0003b0 45 c3 1c 3f 98 21 1b 40 13 fb bf bf 46 c8 03 bf
       0.6123546 2.4239254 -1.4998497 -0.5147747
0003c0 b0 b6 2a 3d 1d 17 29 be 13 42 97 3f c4 f2 89 3e
       0.04167813 -0.16512723 1.1817039 0.26943028
0003d0 02 1b fc 3d b9 41 5f bf 1f 8d 9d bf d0 b6 02 3f
       0.12309839 -0.8720966 -1.2308692 0.510602
0003e0 ec 1a d8 bf 3f f1 5f 3f bf c5 3a 3f 84 8c 69 bf
       -1.6883216 0.8747749 0.72957987 -0.91230035
0003f0 0b 81 6f 3f 8d c9 0d 40 be 8f e3 bf fd b3 02 40
       0.9355628 2.2154267 -1.7778242 2.0422356

_fc2.bias f4 [128]
000000 34 9f b6 3c b8 86 d7 bc d4 7f 15 bd ec eb d8 bc
       0.02229271 -0.026309356 -0.03649886 -0.026479684
000010 16 77 4d bd 3f 45 40 3d 9f a8 07 bc f3 f3 8b bc
       -0.050162397 0.04694104 -0.0082799485 -0.017084097
000020 0b c9 ee 3a c5 f5 2f bc 41 4a 0d 3d 3d ee 22 bd
       0.0018217874 -0.010739748 0.034494642 -0.039777983
000030 c4 57 3d bd 4b d1 f3 3b b7 ed 3f bc 6b dd 32 3d
       -0.046226278 0.007440721 -0.0117143905 0.043668192
000040 c8 c8 b9 bb 64 75 36 3d 32 bf cf bc 09 d0 ef bc
       -0.005669687 0.044545546 -0.025359724 -0.029274004
000050 66 c1 00 bb 97 ed af bc 27 12 7d bd 2b 2a 38 bc
       -0.0019646524 -0.021475596 -0.06178489 -0.011240522
000060 59 28 3e bd f8 5b eb bc 49 a9 67 bd 28 29 08 3d
       -0.046425197 -0.028730378 -0.056557927 0.033242375
000070 4d b4 87 bc 7c 6c aa bb 36 44 54 bd f0 07 c4 bc
       -0.016565466 -0.0052009206 -0.051822864 -0.023929566
000080 54 d9 49 bd bf 80 f0 bc 41 6f 56 bd 4b b2 af 3a
       -0.049279526 -0.029358266 -0.052352194 0.0013404576
000090 4a 21 73 bc 5b 82 e9 bc 33 57 1a bc e4 e6 34 bd
       -0.01483948 -0.028504541 -0.009420204 -0.044165507
0000a0 b2 f9 68 3d 0c 60 64 bc dc 5f 9c 3a fa e6 bb bc
       0.056878753 -0.013938915 0.0011930424 -0.022937287
0000b0 4e c5 c8 bc 1e 0f 29 3d ba 61 88 3b b3 ef 0a bd
       -0.024508145 0.041274182 0.0041620405 -0.03392
0000c0 e1 0d f0 bb a9 02 e3 3c 52 bc 28 bc bd b6 20 bc
       -0.0073258732 0.02771123 -0.010298805 -0.009809193
0000d0 f7 b2 b2 bc 8e 6e bf bc e7 00 f4 bc 87 b8 1a 3d
       -0.021813853 -0.023368146 -0.029785587 0.037773635
0000e0 42 ea b8 3c d6 e0 8e 3c 9f 70 16 3d 78 ee 82 39
       0.02257264 0.017441195 0.036728498 0.00024973205
0000f0 25 a1 7e bc 91 a5 b2 3c a7 39 7e 3b 14 2a 73 3d
       -0.01554135 0.021807464 0.0038791688 0.0593663
000100 ec 48 4f bd 25 f4 54 3d db 0d 56 bb 8e e7 5b bb
       -0.050606653 0.051990647 -0.0032662067 -0.0033554765
000110 7e de d7 3b 38 74 41 3c ae de 49 ba 86 e6 21 3d
       0.0065878024 0.011807494 -0.00077007234 0.039526485
000120 ba 90 83 3c 0c 79 ed bc 73 4d 10 bc ef 68 06 3d
       0.016060222 -0.028988384 -0.008807528 0.032814916
000130 6e 37 6d bd 4b e1 68 3d 64 45 ba 3c d9 e0 75 3d
       -0.05791419 0.05685548 0.022738166 0.060028885
000140 1e d1 56 bd f5 a9 0f 3c 9c fc 51 3d f7 db 4b 3c
       -0.052445523 0.008768548 0.051266298 0.01244258
000150 68 70 e7 bc 8c ea 5f bd 56 b3 c1 3c e5 52 41 3d
       -0.028251842 -0.05466704 0.023645084 0.047198195
000160 9b 7e 19 3d c3 01 2d 3c 8b ee 63 3d 2a ba c8 3c
       0.037474256 0.010559502 0.055647414 0.024502832
000170 b6 c8 dc 3c 15 69 9b 3c 63 ac 18 bd c7 89 31 3c
       0.026951175 0.018971005 -0.037273776 0.010836071
000180 7e 4f ec bc 33 9e 0d 3d ed c6 95 39 3c 92 f1 bc
       -0.028846499 0.0345747 0.00028567706 -0.029488675
000190 81 6b 3a bd 82 e2 30 3d b3 79 a8 3c cf e0 a1 bc
       -0.04551268 0.043184765 0.020565843 -0.019760517
0001a0 c4 a6 40 3d d2 36 af 3b e8 d5 50 bd 6f 2e 79 3d
       0.04703404 0.0053471113 -0.050985247 0.0608353
0001b0 92 56 07 3d d6 98 59 bd 6b 54 b5 bc 3b 16 3a bd
       0.033041544 -0.05312427 -0.02213498 -0.045431357
0001c0 0d da 55 3d 9d c6 a5 bc a6 57 72 3d cb 7d 54 bb
       0.052209903 -0.020236308 0.05916562 -0.0032423611
0001d0 1f b3 77 3d e5 52 eb 3c 4c af 78 3d 90 cd 2f 3d
       0.060473558 0.02872605 0.06071405 0.04292065
0001e0 eb 01 63 bd 42 fc da 3c c3 2a be bc 43 c3 51 3d
       -0.05542175 0.026731614 -0.02321375 0.051211607
0001f0 58 10 35 bd 65 85 56 bd f6 09 ba bc 13 44 b5 bc
       -0.04420504 -0.05237331 -0.022709828 -0.022127187

_fc3.weight f4 [4, 128]
000000 1b 0b 0e c0 e7 fd b0 bf d1 07 99 be a2 31 19 c0
       -2.2194278 -1.3827485 -0.29888776 -2.3936543
000010 1a f1 6e 40 8a 6e 10 c0 f3 8d 83 3c 5a 37 db 3e
       3.7334657 -2.2567468 0.016058898 0.42815667
000020 b6 07 62 c0 fd 86 b6 40 70 23 13 c0 90 63 7e c0
       -3.5317206 5.703978 -2.299038 -3.9748268
000030 d6 15 74 40 5b 40 61 40 98 64 1a 40 ad 9d 21 c0
       3.8138328 3.519553 2.4123898 -2.5252488
000040 8d 93 91 40 98 46 ab c0 70 b5 51 c0 13 04 7b 40
       4.5492616 -5.3523674 -3.276699 3.9221237
000050 ec b5 a0 3f ef b1 c1 40 ed 50 b9 c0 65 3e 62 c0
       1.2555518 6.0529704 -5.7911286 -3.5350583
000060 ee 3e 32 3f 8c c7 1b c0 82 e3 4a bf 32 97 c9 bf
       0.69627273 -2.4340544 -0.792534 -1.5749266
000070 be ac 97 40 e0 1d 1d 40 cc 4a 7e 40 db c6 9f 3f
       4.7398367 2.4549484 3.9733152 1.2482561
000080 a1 5a bc 3f 67 2b 87 40 ca ae b7 c0 df df 28 bf
       1.4715158 4.224048 -5.7400866 -0.659666
000090 b2 ea ba 3f d8 c5 c0 40 78 59 80 bf 0e b3 1e c0
       1.4602873 6.024151 -1.0027304 -2.4796786
0000a0 e8 be 1d c0 ef 95 11 c0 9e 63 be 40 4a fd 1c 3f
       -2.464777 -2.2747762 5.9496603 0.6132399
0000b0 0c 6e 0d 40 23 7e a8 c0 b8 2e 42 3f a5 8f dc bf
       2.2098417 -5.2653975 0.7585254 -1.7231337
0000c0 f1 d3 e2 3e c9 79 29 c0 39 31 1a c0 85 d0 3d 40
       0.44302323 -2.6480582 -2.4092543 2.965852
0000d0 b7 c5 bf bc a2 b9 dd bf b2 56 64 3f ae f7 5d 40
       -0.023409707 -1.7322276 0.89194787 3.4682422
0000e0 b9 5b 8a 3e 15 e9 a4 bf 6d 64 1d 40 03 42 84 3f
       0.27023104 -1.2883631 2.4592545 1.0332645
0000f0 38 5e 03 40 f0 67 94 c0 b2 f5 5b c0 8d 99 51 c0
       2.0526257 -4.6376877 -3.436871 -3.274997
000100 62 1c 9d 3f 06 61 06 c0 62 d6 7b c0 77 4d 44 40
       1.2274287 -2.0996718 -3.93496 3.067228
000110 a3 ce 94 40 83 c9 b2 c0 69 e9 50 c0 9f 6a bb bf
       4.650224 -5.5870986 -3.2642462 -1.4641913
000120 d7 2b 93 40 e1 04 2c 40 b9 d8 05 3f 2b bb d1 bf
       4.5991015 2.6877978 0.5228382 -1.6385244
000130 2b 2d 3f 3f 1d 75 e8 3e 87 c8 b3 3f df 5f d6 3f
       0.74678296 0.4540185 1.4045571 1.6748008
000140 fd 9b cb 40 2a e3 5c 40 0a 02 03 c0 3e d6 03 3e
       6.3627915 3.451365 -2.0469995 0.12874696
000150 6a 3a e2 3f b3 d5 1e c0 af 22 24 c0 a5 3e c4 c0
       1.7674077 -2.4817932 -2.564617 -6.132647
000160 40 e5 c9 bf 80 49 8a c0 68 c6 b2 c0 e3 eb 6e c0
       -1.5773087 -4.321472 -5.5867195 -3.7331474
000170 09 c6 e4 be 8b f1 7e 3f a3 11 e5 3c 67 72 b2 bf
       -0.4468234 0.99587315 0.027962511 -1.3941163
000180 e1 c4 0d bf 85 ec bb 3c ec 15 73 3f 84 cd b5 3f
       -0.5537854 0.02293993 0.94955325 1.4203343
000190 cd 3a 07 3d 82 a6 57 c0 27 ed 21 c0 0f 55 a4 bd
       0.03301506 -3.3695378 -2.5300996 -0.08024036
0001a0 2c 65 83 3f e3 04 5a 40 37 ca bd c0 42 be 42 c0
       1.026525 3.4065483 -5.9309344 -3.0428624
0001b0 d8 bd d4 3f 69 b1 64 c0 c4 ab d9 bf d0 ba f3 bf
       1.6620436 -3.5733283 -1.7005544 -1.9041386
0001c0 3e b9 7b 40 d6 52 1f bf 5d 4e 91 bf 63 eb 9e c0
       3.9331813 -0.6223577 -1.135204 -4.9662337
0001d0 cb c1 1f 40 da 22 97 40 4f 71 8d c0 88 48 46 bf
       2.4962032 4.7230043 -4.4200816 -0.77454424
0001e0 b6 c7 57 40 f0 1a 9d 40 61 65 9d bf 03 dc 16 c0
       3.3715644 4.9095383 -1.2296563 -2.3571784
0001f0 11 14 4c 40 ac 72 67 c0 50 18 08 c0 c4 96 a7 40
       3.1887248 -3.616374 -2.126484 5.237154
000200 57 2a 29 40 a1 81 06 3f 59 7b c2 bf 1c 24 e7 3f
       2.6432092 0.5254155 -1.5193893 1.8057895
000210 ae 94 10 3f 0c cc b2 c0 66 b8 bf 3f 1b 3f 8a be
       0.5647687 -5.587408 1.4978149 -0.2700127
000220 46 38 8d c0 0e d3 83 40 12 b0 7f 3e d8 f3 19 40
       -4.4131193 4.1195135 0.24969509 2.405508
000230 73 73 e9 3f fe 63 51 c0 97 7d 8f c0 4d 57 13 bf
       1.8238357 -3.271728 -4.484081 -0.57555085
000240 a2 9b 32 40 29 6a 0e 40 13 f7 84 3f 53 8a b0 bf
       2.790749 2.2252295 1.0387901 -1.3792213
000250 83 fc 80 c0 ea 92 0a 40 ce 07 8e bf e0 eb 73 40
       -4.030824 2.165217 -1.1096132 3.8112717
000260 90 70 8f 40 4d 95 ca 3e 14 11 06 bf 91 3f e0 bf
       4.4824905 0.39567032 -0.5236981 -1.7519399
000270 c3 87 8c bf 3d de 44 40 84 25 f3 3f d2 6b 90 c0
       -1.0978931 3.0760643 1.8995824 -4.5131617
000280 16 ce e6 bf ea 42 66 c0 cc d2 72 3e fd eb 55 3f
       -1.8031642 -3.597834 0.23713225 0.83563215
000290 0a 75 5b bf a9 83 1c be 55 b6 3f c0 d0 03 b5 40
       -0.8572546 -0.152846 -2.9955037 5.6567154
0002a0 b8 ed c1 be 22 7a 5d be 83 6d 2a 40 1c c4 0c c0
       -0.37876678 -0.21628621 2.662934 -2.1994696
0002b0 7a ab 31 c0 62 fa 3e bf 4e 2f cc 3f d0 05 4c c0
       -2.776091 -0.74600804 1.5951936 -3.1878548
0002c0 52 78 c4 bf 25 e1 52 40 ef e9 89 40 87 22 b3 bf
       -1.5349219 3.2949917 4.3098063 -1.3994912
0002d0 af 94 a5 c0 bb 46 47 3f 66 ca 60 40 45 0d 84 3f
       -5.1744 0.778423 3.5123534 1.031655
0002e0 06 63 f2 bf d1 cb 7c be cf c1 40 40 eb df 2d 40
       -1.893647 -0.24687125 3.0118291 2.7167919
0002f0 df 13 12 c0 60 cf 50 40 81 ed 7f bf 4d bb 80 bf
       -2.2824628 3.2626572 -0.9997178 -1.005716
000300 3c 99 92 40 00 a7 b6 3f de 8c 7b 40 37 21 8d bf
       4.5812054 1.4269714 3.9304729 -1.1025761
000310 61 66 cf bf 8f 5f 8e 3f 51 0a 6a be 1e ea c1 bf
       -1.6203119 1.1122912 -0.22855498 -1.5149572
000320 8c 6b 12 40 09 75 36 40 57 a5 4f 40 0f 6b 3e bf
       2.2878141 2.8508933 3.2444665 -0.7438211
000330 fa 73 13 c0 fe b5 85 40 53 07 37 bf 34 20 d5 bf
       -2.3039536 4.178466 -0.7149555 -1.6650453
000340 22 e6 2b bf 1b ea 71 c0 3a a8 93 c0 41 03 8f 40
       -0.6714803 -3.7799137 -4.6142855 4.469147
000350 3a 61 a0 3e 89 8b ac bf 4c 0c 16 40 9f 4b 00 c0
       0.31324178 -1.3480083 2.3445005 -2.0046155
000360 80 89 f0 bf 12 2e ab 3e e5 66 34 bf 4a 30 77 c0
       -1.8791962 0.33433586 -0.70469505 -3.8623223
000370 1c b2 1d 40 f8 80 63 40 5e 80 96 40 ee 97 f2 bf
       2.463996 3.5547466 4.70317 -1.8952615
000380 0c 4e 96 40 ff 74 2a 3f 9d c1 06 c0 8a 28 7a 40
       4.697027 0.6658477 -2.1055672 3.9087243
000390 dc 3c 72 c0 9e cc 5a 3f 05 8e da 3f 99 fb 41 40
       -3.7849646 0.8546847 1.7074591 3.0309813
0003a0 f0 4c 37 be d8 74 fe bf 6f c9 2e 40 32 ba 69 3e
       -0.17900443 -1.9879408 2.7310445 0.22824934
0003b0 34 d6 43 3e 41 b6 a1 3e 65 a1 6a 40 d4 53 4a 40
       0.19124681 0.3158436 3.6661007 3.1613665
0003c0 6c 80 0c c0 70 94 63 40 7a 83 bd c0 53 18 c8 be
       -2.1953382 3.555935 -5.9222994 -0.39081058
0003d0 3e 7a ce 40 47 28 91 3f d3 70 ef be 20 aa 46 bf
       6.452422 1.1340417 -0.46765766 -0.7760334
0003e0 ef 28 83 c0 b8 2c b5 bf 91 b3 10 c0 c7 39 ef bf
       -4.098747 -1.4154272 -2.2609599 -1.8689507
0003f0 1f 48 ed 3f c9 c1 39 3f 77 06 43 c0 82 32 2d c0
       1.8537635 0.7256132 -3.0472696 -2.7062078

_fc3.bias f4 [4]
000000 cd b1 3d 3d 7d 18 fc be 69 31 0e 3f 94 2d b4 3f
       0.046312142 -0.49237433 0.55544144 1.4076409

_bn0.weight f4 [33]
000000 69 26 b3 3f 68 c0 43 bf 0a c9 a5 bf 5b 79 92 3e
       1.3996097 -0.76465464 -1.2951977 0.28608212
000010 97 e9 88 3e bb 96 bf 3e b6 ab e8 bd d2 f7 01 3d
       0.26740715 0.37419686 -0.11360876 0.03173048
000020 23 34 b3 3d 05 4e 6f bd fa ff 02 3e 0a 86 d1 3d
       0.08750179 -0.058424015 0.1279296 0.10230644
000030 68 ef fd 3d ba 18 25 40 b7 ae 99 3f 89 2c 0c 40
       0.12399179 2.5796342 1.2006444 2.1902182
000040 92 e8 b2 3d 37 1a d5 3d 92 88 d2 bb 33 98 94 bd
       0.087357655 0.10405391 -0.006424972 -0.07255592
000050 5f 4f 39 3e 81 67 e0 3d e9 70 16 bd 43 1f 10 3f
       0.18096684 0.10957242 -0.036728773 0.562977
000060 86 7d d1 3e 28 cc 04 3f 89 1c 29 40 7e 48 3f 3f
       0.4091608 0.5187402 2.6423666 0.7471999
000070 d5 e1 06 c0 38 95 40 3f 23 9a 04 3f 1d 40 3a 3f
       -2.1075337 0.7522769 0.51797694 0.7275408
000080 9b c0 ac 3f
       1.3496279

_bn0.bias f4 [33]
000000 71 eb 8c 3c ce 5f a3 3c c7 88 2f bc ea 24 06 39
       0.017202111 0.019943144 -0.010713763 0.00012792987
000010 3b 20 cd 3b 44 57 9d bb e4 a2 61 3c 9d 40 ca 3a
       0.0062599457 -0.0048016626 0.013771746 0.0015430633
000020 5f 2c af bb 99 ca 80 3c 2d a6 06 3c 22 87 cd 3b
       -0.0053458656 0.015721606 0.00821833 0.0062722126
000030 01 76 aa 3c 5a 3f 2d 3c 08 9d 25 3b eb 14 91 bc
       0.020808222 0.010574186 0.00252706 -0.01771017
000040 d2 86 37 ba f5 81 9c 3b f1 5e d2 b8 35 15 48 3c
       -0.0007000986 0.0047762343 -0.000100312645 0.012212087
000050 40 0d 7c bc 40 a2 6d 3b e4 0f e0 3a 37 28 bb 3c
       -0.015384018 0.0036260039 0.001709458 0.022846324
000060 87 26 63 bc ce 53 b3 bc b6 2f d9 ba 97 e6 00 3a
       -0.013864166 -0.021890547 -0.0016570005 0.0004917173
000070 7c 5b 05 3c 20 c2 00 bb 44 6f a1 ba 3b db f5 b9
       0.008139487 -0.0019646958 -0.0012316485 -0.0004689338
000080 d1 e5 3b bc
       -0.011468367

_bn0.running_mean f4 [33]
000000 0f f0 cd bd 03 d5 3b c0 03 f0 a7 be ae 8a 67 3f
       -0.10055553 -2.9348762 -0.32800302 0.90445983
000010 e0 71 61 bc b6 43 86 bc 6f 75 47 bd 98 75 46 3c
       -0.01376006 -0.016389709 -0.048695978 0.0121129975
000020 c1 f5 10 bb 4b 45 1c bc 83 f5 19 bd f0 2a 01 3a
       -0.0022119137 -0.009538005 -0.037587654 0.00049273577
000030 cf f4 0a bd 44 8a 6b 3d 85 e9 62 c0 a0 15 03 bf
       -0.033924874 0.057504907 -3.545503 -0.5120487
000040 22 fa da 3c 6c 1a 41 3c 8b 9e bf 3b e0 4c 2b bd
       0.0267306 0.011786085 0.005847757 -0.04182136
000050 54 02 8b ba 4f 30 04 bd bc 63 8a bc 3f 00 3f bc
       -0.0010605552 -0.032272633 -0.01689326 -0.0116577735
000060 d5 03 f6 3d e2 dd 1b bc 21 15 9f 3c fc ff 7f bf
       0.1201245 -0.00951335 0.019419255 -0.99999976
000070 7e 84 84 bd 00 00 00 00 fc ff 7f 3f 00 00 00 00
       -0.064705834 0.0 0.99999976 0.0
000080 62 22 39 bc
       -0.011299701

_bn0.running_var f4 [33]
000000 95 e4 77 40 33 0e 02 3f b6 0a 3c 40 c8 2c 2c 3d
       3.8733265 0.50802916 2.9381537 0.042034894
000010 70 22 81 3d 7a 3a eb 3b d2 17 89 3d b5 de b6 3e
       0.063053966 0.007178602 0.066939965 0.35716787
000020 6e 7c 3d 3d 15 ca 1d 3e 46 4c 26 40 51 2d af 3f
       0.046261244 0.1540912 2.5984054 1.3685704
000030 6e 5d 3f 40 fb b1 98 41 af 3e c6 3f 0d a1 8b 41
       2.9900775 19.086905 1.548788 17.453638
000040 ce 37 02 3e ac 57 89 3e 4d 3a d9 3d aa b1 fd 3e
       0.127166 0.268247 0.10606823 0.4954961
000050 e8 e8 60 40 6c 51 71 3f 0d b3 4f 3f 16 75 08 41
       3.5142155 0.94264865 0.81132585 8.528585
000060 8a f3 8e 40 e8 5e 12 41 8b db 00 42 04 00 00 00
       4.467229 9.14817 32.214397 6e-45
000070 6f d7 fe 41 04 00 00 00 04 00 00 00 04 00 00 00
       31.855192 6e-45 6e-45 6e-45
000080 d8 8d ac 3e
       0.33701968

_bn1.weight f4 [256]
000000 21 8c ae 3f ab 4f 9a 3c 3a 72 e9 3d 09 df 46 3f
       1.3636514 0.018836817 0.1139874 0.77684075
000010 72 fc 60 3f e0 f1 a3 3f 27 3d 7d 3e f4 68 a1 3f
       0.878852 1.2808189 0.24730359 1.2610154
000020 c9 8e 8c 3f 5f 13 a6 3f f3 ce b1 3f 3e fe f9 3f
       1.0981075 1.2974662 1.3891281 1.9530714
000030 17 82 0c 3f 7c 13 a5 3f 88 d3 86 3f d9 06 5a 3f
       0.54886 1.2896571 1.0533304 0.851667
000040 c0 65 dd 3f f2 4f 65 3d 64 58 8f 3f b3 07 bb 3e
       1.7296677 0.055984445 1.119885 0.36529312
000050 c7 5a 3a 3f 84 c7 16 3f 4b 5a a8 3f 8a 78 a5 3f
       0.72794765 0.58898187 1.3152555 1.2927411
000060 a1 ef 40 3e aa 4c a0 3f 8d 27 eb 3e a7 b0 92 3e
       0.18841411 1.2523396 0.45928612 0.286504
000070 b3 f2 2a 3f 1a cc c0 3f 00 7f 97 3f 9c ae 86 3f
       0.6677658 1.5062287 1.1835632 1.0522037
000080 d7 83 10 3a 38 14 6c 3f 16 45 9b 3f e1 98 72 3e
       0.000551281 0.9221835 1.2130458 0.23691131
000090 b9 21 82 3f 88 6c ae 3f 55 a9 e2 3e 68 30 2e 3e
       1.0166541 1.3626871 0.44269815 0.17010653
0000a0 fe 14 c5 3f 8f 27 ce 3f a2 de 07 3f 6b c4 c4 3e
       1.5397031 1.6105822 0.53074086 0.38431105
0000b0 89 34 c4 3c 87 12 5f 3e ae d9 bb 3f 70 17 b4 3f
       0.023950832 0.21784411 1.4675806 1.4069653
0000c0 19 3e 0a 40 bb 73 b5 3f b6 3d 59 3f ad 98 f4 3e
       2.1600401 1.4175943 0.8485979 0.47772732
0000d0 98 0c 85 3f dc 27 e0 3f 6a 2a 5c 3f ea 37 67 3f
       1.0394468 1.7512164 0.8600222 0.90319693
0000e0 1a ef 7f 3f 9c ec 7e 3f e9 3e a1 3f f7 e9 90 3f
       0.99974215 0.9957979 1.2597324 1.13214
0000f0 d6 80 99 3f f4 69 c8 3e 34 0f e1 3f c5 d2 15 3c
       1.1992443 0.39143336 1.7582765 0.00914449
000100 96 0a 8c 3f bc 10 86 3f 2d e8 96 3d ce 8c 8b 3e
       1.094073 1.0473857 0.07368503 0.27255863
000110 1c 27 cf 3f f6 4d a6 3f cf 1e bf 3d 3d a1 5a bf
       1.618381 1.2992542 0.09332048 -0.8540228
000120 71 8e f6 3e de 18 a2 3f 3c 30 14 3c d9 0d 70 3f
       0.4815555 1.2663839 0.009044703 0.9377113
000130 e6 7c 9c 3f de 31 cd 3c 82 bc ba 3f 2d 5c 60 3f
       1.2225616 0.025048193 1.4588778 0.8764065
000140 01 ad 34 3f 15 ac f3 3f 0f 84 92 3f 4e 1e 24 3f
       0.70576483 1.903689 1.1446551 0.6410874
000150 80 d1 08 3f 9c 90 c7 3f 69 21 85 3e 1b 93 b6 3f
       0.5344467 1.5591006 0.26002052 1.4263643
000160 64 c4 b8 3d 55 76 0d 3f eb 9f c5 3f 39 f9 5c 3f
       0.090218335 0.55258685 1.5439428 0.86317784
000170 8f 28 23 3f 04 37 c3 3c 2f 62 ac 3f 31 f7 06 be
       0.6373376 0.023829944 1.3467463 -0.13180234
000180 61 0d 86 3f 68 27 07 3e f7 f0 50 3f dc 82 54 3e
       1.0472833 0.13198626 0.81617683 0.20753044
000190 15 39 b0 3f ae 83 2d 3f 5a 16 ad 3e 23 36 2c 3e
       1.376742 0.6777905 0.33806115 0.16817527
0001a0 be b5 94 3f 30 dc a5 3e 0c 14 8d 3f 41 3f 86 3f
       1.1617963 0.32394552 1.1021743 1.0488054
0001b0 34 34 b5 3f 38 c6 20 bd fb 8d aa 3f db 2a 9b 3f
       1.4156556 -0.039251536 1.3324579 1.2122453
0001c0 16 7e 7b 3f 81 6e 32 3f ac e7 b5 3f b4 01 8e 3f
       0.98239267 0.69699866 1.4211326 1.109427
0001d0 2a 6b b1 3e 46 5d b4 3f d5 70 b4 3f d4 a8 b1 3f
       0.34652072 1.4090965 1.4096934 1.3879647
0001e0 3e 3c 89 3f 1a 37 27 3d 34 70 7d 3f 99 9b ca 3e
       1.072151 0.040824033 0.98999333 0.39571837
0001f0 48 93 b9 3f f5 ee 89 3f e3 b2 ac 3f de db 1c 40
       1.4498072 1.0776049 1.3492092 2.4509196
000200 9f 3e 5d 3f 9e 63 aa 3f e9 11 09 3f 46 bf 6c 3f
       0.8642368 1.3311651 0.53542954 0.9247936
000210 9f 2b 31 bf a9 b3 bc 3f 2c 69 2b 3f cc 87 70 3f
       -0.69207186 1.4742328 0.66957355 0.9395721
000220 ba 51 a8 3f 65 41 8d 3e d5 97 88 3e e4 7e 60 3f
       1.3149941 0.27588955 0.2667834 0.8769362
000230 7a 7b db 3f ba 79 4b 3f c2 96 26 3f 5c de 84 3f
       1.7147057 0.79482615 0.6507379 1.0380359
000240 85 b3 6f 3f ce ee 96 3d 35 ba 9e 3f 84 30 79 3f
       0.936333 0.07369767 1.2400576 0.97339654
000250 19 c2 51 3f 52 d5 57 3f 8e 7b 29 ba 95 5a a3 be
       0.81936795 0.84309876 -0.00064652495 -0.31905046
000260 3f d5 a4 3f 18 7c 0f 40 5c 2b a0 3f 13 33 95 3f
       1.2877578 2.241949 1.2513232 1.1656212
000270 f8 a2 d8 3e da 0b 93 3f 88 d3 48 3e 39 24 40 3f
       0.42311835 1.1487992 0.19611943 0.7505527
000280 76 a3 b3 3f 1d 1d ca 3e a0 58 6f 3f 41 f1 8b 3f
       1.4034259 0.39475337 0.93494606 1.0933
000290 12 82 b7 3b 48 29 91 39 2c 26 f5 3c 4e 46 c6 3f
       0.0056002224 0.00027687312 0.029925428 1.5490205
0002a0 0d 2d 5d 3f f2 b3 0f 3d 38 61 9b 3f c8 09 6f 3f
       0.8639687 0.03508372 1.2139044 0.933743
0002b0 18 28 67 3f 11 fe 1e 3f fb 9d a1 3f 24 a4 c5 3f
       0.90295553 0.62106425 1.2626337 1.5440717
0002c0 74 df 70 3f db e6 38 3f 8f e8 5c 3e e1 80 54 3f
       0.9409096 0.7222726 0.21573089 0.83009154
0002d0 9d 2b ac 3f 8b 46 b5 3f 30 28 4b 3f 60 75 ae 3f
       1.345081 1.4162153 0.79358196 1.362957
0002e0 dd 6a a6 3f 38 a8 ef 3e 26 ea 33 bd 84 3c c8 3e
       1.3001362 0.46808028 -0.043924473 0.3910867
0002f0 16 76 1e 3e 18 05 c7 ba 07 3e b7 3f 02 50 fd 3f
       0.15474734 -0.0015184013 1.4315804 1.9790041
000300 b4 a1 a1 3e a9 6a 92 3f f5 5f 0a 40 f5 7b 55 3b
       0.31568682 1.14388 2.1621068 0.0032575105
000310 66 48 b4 3f 32 d8 0c 40 a2 d2 0b 3f 91 5a ad 3f
       1.4084594 2.2006955 0.54618275 1.3543264
000320 c7 81 ab 3f 51 dc be 3f 62 8a a3 3f b1 b0 d3 3e
       1.339898 1.4910985 1.2776606 0.41345742
000330 bc 8a 8c 3d 12 8b 8d 3f 6f f7 35 bf f4 cb bc 3f
       0.06862399 1.1058066 -0.7108068 1.4749742
000340 be 4d ea 3e 6a db cc 3e 6a a8 8a 3f 6c 37 c5 3f
       0.45762438 0.4001115 1.0832646 1.5407538
000350 c0 48 46 3f f3 e5 0e 3e a3 f1 53 3f 8a f1 84 3b
       0.7745476 0.13954906 0.82790583 0.004057114
000360 28 c7 00 3f 99 60 ba 3f cf 24 45 3e a6 42 b1 3e
       0.5030389 1.4560729 0.19252323 0.3462116
000370 e0 93 28 3f 7b 87 43 3e 27 38 70 3e 06 e2 cf 3f
       0.6585064 0.1909465 0.2345892 1.6240852
000380 10 65 be 3f de b1 92 3f 1a 88 68 3f 3f f4 9f 3f
       1.4874592 1.1460531 0.90832675 1.2496413
000390 89 aa aa 3f a3 02 ac 3f dd 57 9a 3f 41 0d 8a 3f
       1.3333293 1.3438305 1.2058064 1.0785295
0003a0 ff bb e2 3f 1f 1c b0 3f d3 e8 4c 3e b8 d5 ee 3e
       1.7713622 1.3758582 0.2001069 0.4664743
0003b0 89 ad 82 3f 37 38 a1 3f 8e c6 8e 3f 91 0e ef 3e
       1.0209209 1.259528 1.1154344 0.466908
0003c0 01 8f 5b 3e 9c d9 9e 3c 78 3a 26 40 50 5d 93 3e
       0.2144127 0.019390874 2.5973186 0.2878213
0003d0 46 f4 7e 3e 33 6e 12 3f ea d5 d8 3f c0 5b e0 3f
       0.2489787 0.571994 1.6940281 1.7528
0003e0 85 3b 74 3f 77 59 fa 3f c4 12 3c 3e 3d 17 4d 3f
       0.9540332 1.9558553 0.18366534 0.80113584
0003f0 aa a3 2d 3e 92 a7 08 40 1f ab 68 3f b5 5d e6 3f
       0.16956964 2.1352277 0.9088611 1.7997347

_bn1.bias f4 [256]
000000 b7 b1 3c be e8 d4 92 be fe 85 50 bf 8f a3 40 bf
       -0.18427168 -0.2867806 -0.81454456 -0.7524957
000010 3b 5f 77 be 25 18 93 bf fa a4 ab bf dd c9 d5 bd
       -0.24157421 -1.1491743 -1.3409722 -0.10438893
000020 49 44 1c bf 01 ac 51 bf 0e 2b 05 c0 e5 55 eb bf
       -0.61041695 -0.8190308 -2.0807528 -1.8385588
000030 68 54 24 bf 8a c6 4d bf 5f 0c 06 c0 9a a1 4d bf
       -0.64191294 -0.8038107 -2.094505 -0.8032471
000040 1d f7 df bf 17 2e 26 bf f1 ca 5e bf d3 67 af bf
       -1.7497288 -0.6491408 -0.87028414 -1.370356
000050 98 3f df bf 3d 63 7a 3e b7 4e 38 bd e1 e8 b2 bf
       -1.7441282 0.24451919 -0.044996943 -1.3977319
000060 0c 33 8e bf 3e 29 e1 bf fb af b8 bf 67 56 b8 bf
       -1.1109328 -1.7590711 -1.4428705 -1.4401368
000070 a4 67 0c c0 1b f2 a4 bf 4e ba ea bf 1e 34 d4 be
       -2.1938257 -1.2886385 -1.8338106 -0.41446012
000080 4d 93 3d be c0 f2 65 bf 6a 89 c1 bf 17 ee 80 bf
       -0.18513222 -0.8982353 -1.512006 -1.0072659
000090 b9 ea 6c bf c0 24 8f bf 08 0a 6b bf 45 1b e7 be
       -0.9254566 -1.118309 -0.9181218 -0.45137993
0000a0 3b 39 3a bf 36 0b 13 bf 73 1f 07 be 76 67 b3 bf
       -0.72743577 -0.5743898 -0.1319559 -1.4015949
0000b0 d5 92 30 be 68 85 8a bf 8b 0a 03 c0 98 bb 23 c0
       -0.17243512 -1.0821962 -2.0475185 -2.5583248
0000c0 ba a1 eb 3e 06 16 29 bf 26 d8 6d be b2 51 90 bf
       0.46021825 -0.6604923 -0.23226985 -1.1274931
0000d0 3d 79 aa bf 33 0f 2d bf f5 df 77 bf bb 90 5d bf
       -1.3318249 -0.6760132 -0.96826106 -0.86548966
0000e0 9e 50 f9 be f0 c8 84 bf 89 84 7b 3d 68 aa 96 bf
       -0.4869432 -1.0373821 0.061405692 -1.1770754
0000f0 05 88 ad bf 31 13 ee bf 68 66 9e bf 1e ac e1 bd
       -1.3557135 -1.8599607 -1.2375002 -0.11019157
000100 e2 d6 76 bf 4a 1c 09 bf cc 0a 0b bf 22 a4 87 bf
       -0.96421635 -0.5355879 -0.5431335 -1.0596964
000110 68 c5 9e bf b1 c4 3b bf 98 aa 44 bf ed 40 b7 bd
       -1.2403994 -0.73347 -0.76822805 -0.089479305
000120 3e 52 9c bf a1 5b b3 bf e3 f7 45 bd 2e 5d 5b 3e
       -1.2212598 -1.4012338 -0.048332106 0.21422264
000130 e1 68 f2 be 33 b7 87 be ca 9c b9 be ae 28 15 bf
       -0.4734564 -0.26506957 -0.36252433 -0.582652
000140 89 7f 84 bf a6 80 da bf 9e 9a d2 bf c4 ee 00 c0
       -1.0351421 -1.707051 -1.6453435 -2.014573
000150 75 cf db bf 38 91 ce bf 43 a7 75 bf f3 c0 aa bf
       -1.7172686 -1.6138067 -0.95958346 -1.3340133
000160 11 e8 18 bf 82 81 ea bf 63 3d 5c bf 48 17 84 be
       -0.59729105 -1.8320773 -0.8603117 -0.25799012
000170 b6 38 96 bf bc eb 8e be b3 a7 cd bf c1 e9 29 bf
       -1.1736057 -0.27914226 -1.6066803 -0.66372305
000180 56 30 8b bf da bc 3f bf 32 a2 a9 bf 3e ce 69 bf
       -1.0874126 -0.7489754 -1.3252623 -0.91330326
000190 77 4f f6 bf 0f 7c 73 be 64 10 8f bf 4b 83 9d bf
       -1.9243001 -0.23777793 -1.1176877 -1.2305692
0001a0 dd f5 b3 bf 27 fd 8c bf 2d 64 ac bf e6 8f c1 bf
       -1.4059407 -1.1014756 -1.3468071 -1.5122039
0001b0 3c 7b 06 c0 13 48 4c be 5b 25 23 bf e0 45 19 bf
       -2.1012716 -0.19949369 -0.63728875 -0.59872246
0001c0 86 a9 23 bf 88 26 93 bf 4c 8d a4 bf e0 b5 31 be
       -0.6393055 -1.1496134 -1.285562 -0.17354536
0001d0 b7 8d e5 bf 43 01 ae be 44 f6 8b bf 6e 41 e1 be
       -1.7933873 -0.33985338 -1.0934529 -0.4399523
0001e0 73 b7 09 bf 52 21 f2 be 3e c4 79 bf e1 08 13 c0
       -0.53795546 -0.47291046 -0.97565067 -2.297417
0001f0 b8 71 b4 bf d4 7d 87 bf c8 ca b9 bf 14 40 f2 bf
       -1.4097204 -1.0585275 -1.4515009 -1.8925805
000200 1a fa aa bf 2d 7f cd bf 2f ad 4d bf 56 92 e0 be
       -1.3357575 -1.6054436 -0.8034238 -0.43861645
000210 da 3c 98 3f 76 00 8e bf 4a 2c bf 3e fb 90 16 3d
       1.189357 -1.1093891 0.37338477 0.036759358
000220 8e 0e f6 bf 71 69 9e bf d6 c2 ce bf c6 f9 3f bc
       -1.9223192 -1.2375928 -1.6153209 -0.0117172655
000230 2f fc c6 bf 7f bb 76 bf 60 f9 74 3f 77 b0 a1 bf
       -1.554571 -0.96379846 0.95693016 -1.2631978
000240 b1 1e 95 bf f8 a3 b2 be d2 6a 4f bf 91 2b 0a bf
       -1.1649991 -0.34890723 -0.8102237 -0.5397273
000250 4d 71 b5 bf 8c 88 09 bf e0 c4 2a be c8 1b 2f 3f
       -1.4175202 -0.5372398 -0.16676664 0.68401766
000260 03 aa d0 bf d6 31 7c bf 87 a9 2a bf 17 c2 ba bf
       -1.6301883 -0.98513544 -0.6666493 -1.4590482
000270 77 9f fa bf 9e 37 d9 be 7f 3d 8b bf bf 49 a4 bf
       -1.9579915 -0.42425245 -1.0878142 -1.2835006
000280 e1 99 42 bf 5f 4d b0 bf 18 4d 3a be ee aa 1e bf
       -0.7601605 -1.3773612 -0.18193471 -0.6197957
000290 38 6e 14 be e7 9d 1a be 0d 44 87 be 0d 61 a1 bf
       -0.1449517 -0.15099297 -0.26419106 -1.2607743
0002a0 13 47 f2 be d7 e8 4d be 22 56 6d bf ec dc 3a 3e
       -0.4731985 -0.20108353 -0.92709553 0.18248338
0002b0 97 7f 2a bf 69 2e 25 bf eb a5 b0 be fd 62 52 bf
       -0.66600937 -0.6452394 -0.34501585 -0.82182294
0002c0 b7 59 3b bf ae 24 75 bf 03 a9 88 bf 53 77 a5 bf
       -0.7318377 -0.95759094 -1.0676578 -1.292704
0002d0 0b 21 71 bf 5f 7d 13 c0 49 41 a3 bf 65 3a b3 bf
       -0.94191045 -2.304527 -1.2754298 -1.4002196
0002e0 3d 80 84 bf 8d 32 09 c0 62 46 d3 bd 01 8a c7 bf
       -1.0351635 -2.1437104 -0.10316159 -1.558899
0002f0 23 b0 f1 be 16 7e 27 bd d4 41 f5 bf 7e 0b 31 c0
       -0.47204694 -0.04089173 -1.9160714 -2.7663264
000300 47 e0 cc bf 90 75 55 bf ff dd 2a c0 06 21 58 bd
       -1.6005944 -0.8338251 -2.6697996 -0.05276587
000310 0b 64 9b bf 2a 0c 3f c0 ef f0 08 c0 b3 d6 dd bf
       -1.2139906 -2.9851174 -2.1397054 -1.7331146
000320 27 f8 82 bf 41 3d 17 c0 26 3b e4 bf 24 09 c4 bf
       -1.023198 -2.3631136 -1.7830551 -1.531529
000330 40 6b ff be be 4e 24 bf e6 15 4c bf d9 12 a6 bf
       -0.49886513 -0.6418265 -0.79720914 -1.2974502
000340 e5 76 db bf 2a 33 82 bf 43 fc e5 bf 31 b9 bc bf
       -1.7145659 -1.0171864 -1.7967609 -1.4744016
000350 e8 46 10 c0 eb bf 0e bf c5 71 e4 bd 35 dc e5 bd
       -2.2543278 -0.55761594 -0.11154512 -0.11223642
000360 a7 e2 c1 bf 92 26 9c be c0 a4 4e bf d0 b7 bd bf
       -1.5147294 -0.30498177 -0.8072014 -1.482172
000370 84 48 ab be 5b 9d 5e bf 73 fd 93 bf 0a 56 8d bf
       -0.33453763 -0.86958855 -1.1561722 -1.1041882
000380 19 10 90 be c1 6e b0 bf ad 6b 1d bf f5 a6 55 bf
       -0.28137282 -1.37838 -0.61492425 -0.8345788
000390 21 1d 00 c0 3b d7 2e bf 4a fe 90 bf ef 4b be bf
       -2.001778 -0.68297166 -1.1327603 -1.4866923
0003a0 45 63 fe bf 38 b8 6e bf 78 cc 56 bf 30 b2 04 c0
       -1.9874045 -0.93249846 -0.83905745 -2.0733757
0003b0 b9 26 c9 be e6 3e 44 bf 0b 4e d1 3e 30 98 cd be
       -0.39287356 -0.76658475 0.40879855 -0.40155172
0003c0 b1 d7 c0 bf df 28 a9 bd 48 68 13 be 67 4e bd bf
       -1.5065824 -0.08259749 -0.14395249 -1.4789551
0003d0 d7 7a 62 bf d5 91 5b 3f ce b8 4b bf 5b 1c b4 bf
       -0.8846869 0.857694 -0.79578865 -1.4071153
0003e0 54 1e 94 bf d8 8e 10 c0 75 38 99 bf 98 69 7a bf
       -1.1571755 -2.2587185 -1.1970354 -0.97817373
0003f0 3c 0d 22 3f 44 13 12 bf 53 e5 3c be 95 7f a4 bf
       0.63301444 -0.57060647 -0.18446855 -1.2851435
