project2-continuous-control/results/session_submission/checkpoint_actor.pth (torch_old, 178200 bytes, 18 tensors)

_fc1.weight f4 [256, 33]
-0.05734738 -0.22194083 -0.2015966 0.31526437 0.22750185 -0.27579117 -0.05991199 0.3285873
0.19449425 0.21692844 -0.25426084 -0.27326944 -0.363229 0.70551753 0.15824333 0.6917901
-0.7530379 -0.0011779084 1.0891635 -0.47878528 -0.5396763 0.86113346 0.74978244 0.06439753
-0.44281885 0.6243227 -0.5089526 -0.014895363 -0.12031646 0.06948029 -0.074967265 -0.0014230618
-0.6777171 -0.015538969 -0.17692433 0.14616592 0.24745938 -0.12030831 0.15095524 -0.2218244
0.063604295 -0.22778098 0.25744808 -0.0055580805 -0.05080697 -0.03980376 -0.27008158 0.02368948
0.19717105 -0.16796476 0.076060764 -0.037433837 -0.050074678 0.124974415 -0.053955663 0.2450538
0.009429077 -0.027578972 -0.17846407 0.19914645 -0.01769641 -0.24669352 -0.060482886 -0.015961394
0.063031785 -0.10019695 -0.8589365 -0.23519173 -0.32309696 -0.43040407 0.12132367 0.49510828
-0.37967622 0.3802824 -0.5583033 -0.40621772 -0.22602062 -0.1485299 0.16572773 0.6200492
-0.46071282 0.924093 0.08593833 0.11854208 -0.03501449 0.18198112 -0.062364314 -0.25433952
-0.7934282 0.1654373 0.101898715 0.29724795 0.05383171 -0.030730674 0.7458727 -0.026154738
-0.055928096 0.042622875 0.30594116 -0.13097422 -0.6128719 -1.1491965 -0.23053873 0.23211922
0.27549034 0.2621271 0.16632406 -0.09821104 -0.36026877 -0.10244123 0.042210665 0.60186934
-0.64737177 -0.4318516 0.82190007 -0.29860318 0.0787398 -0.4264759 -0.17595969 9.82696e-05
-0.057827827 0.3269762 0.008712058 0.26031485 0.2797309 -0.19419968 0.08738726 -0.6461252
-0.029961495 -0.04412446 0.020123824 0.035770234 0.039450213 -0.444734 0.11462788 0.08429557
0.13814361 -0.4213531 0.09341668 -0.08660649 0.21888378 0.35423476 0.1584292 0.61162335
0.2597832 0.34819463 -0.40540352 -0.4678815 0.019649828 -0.18315336 0.8485653 0.3575155
0.0031942038 -0.03104107 -0.07033261 0.48241797 0.21375747 -0.10410804 0.39360234 0.032587297
-1.3810555 0.019000616 -0.086213365 0.080210485 -0.20955774 0.15143035 -0.6763708 0.22108477
-0.31696007 -0.25533038 -0.11304532 -0.081878826 0.40791866 -0.053457618 0.010555999 0.018562108
0.6312274 0.39440662 -0.06261329 -0.23339781 -0.883573 -0.6315962 -0.774771 0.7155978
0.450773 0.26540545 -0.055582926 0.33934665 0.21083927 -0.27584216 -1.7474556 0.34533304
0.029315136 -0.8440436 -0.0831776 0.03851428 0.01927019 -0.24052785 -0.4288792 0.57134
-0.48112252 0.43189102 -0.68703526 -0.17799707 -0.6489479 0.45459276 -0.2868193 -0.5115291
-0.44988883 0.37664443 0.00233381 0.1482776 0.5189544 0.06542696 -0.07947527 0.06058721
0.31206977 -0.39900783 0.37326685 0.004021537 0.18041466 -0.5080527 -0.29292795 -0.11113114
-0.41491142 0.0030765042 -0.94469446 0.08300687 -0.004808004 -0.020380143 -0.6569817 -0.4866111
-0.17501773 0.606221 -0.17243865 0.19557092 0.15450376 -0.30093083 -0.48432603 0.28256935
-0.3358647 -0.022915447 -0.73362035 -0.03963539 0.36883533 -0.44994897 -1.1434455 0.22050102
-0.33733878 0.3804896 0.22668913 0.27375165 0.39655662 0.08922457 0.26229617 0.12053896
00000000: 16e5 6abd 7544 63be 576f 4ebe 556a a13e
00000010: 3ff6 683e 8034 8dbe 4666 75bd 983c a83e
00000020: 8029 473e 7d22 5e3e 7a2e 82be f9e9 8bbe
00000030: 27f9 b9be cc9c 343f 8a0a 223e 2819 313f
00000040: 18c7 40bf 0c64 9aba b669 8b3f 5823 f5be
00000050: 3a28 0abf 3e73 5c3f bef1 3f3f dae2 833d
00000060: 27b9 e2be 9dd3 1f3f b84a 02bf ae0b 74bc
00000070: 7a68 f6bd af4b 8e3d 7088 99bd 0886 baba
00000080: de7e 2dbf 2997 7ebc a72b 35be 85ac 153e
00000090: fe65 7d3e 3464 f6bd 0394 1a3e ef25 63be
000000a0: f842 823d 6b3f 69be 3cd0 833e 8f20 b6bb
000000b0: f81a 50bd 4409 23bd 2248 8abe 7110 c23c
000000c0: 35e7 493e f4fe 2bbe bfc5 9b3d 3954 19bd
000000d0: 1b1b 4dbd 96f2 ff3d 9d00 5dbd 62ef 7a3e
000000e0: 6a7c 1a3c 4ced e1bc 49bf 36be 0ced 4b3e
000000f0: 10f8 90bc 3a9d 7cbe e7bc 77bd 78c1 82bc
00000100: cf16 813d 0f34 cdbd 43e3 5bbf 1ad6 70be
00000110: f76c a5be ec5d dcbe 8b78 f83d d57e fd3e
00000120: ec64 c2be 60b4 c23e f7ec 0ebf c5fb cfbe
00000130: f371 67be 3918 18be 88b4 293e 8bbb 1e3f
00000140: 8de2 ebbe 5c91 6c3f 6f00 b03d 31c6 f23d
00000150: 5b6b 0fbd 4259 3a3e b971 7fbd ca38 82be
00000160: 1c1e 4bbf 6568 293e 46b0 d03d e230 983e
00000170: a47e 5c3d e5be fbbc 83f1 3e3f 7642 d6bc
00000180: dc14 65bd 5395 2e3d 52a4 9c3e 1b1e 06be
00000190: 2ce5 1cbf df18 93bf 5812 6cbe a9b0 6d3e
000001a0: 120d 8d3e 8635 863e db50 2a3e df22 c9bd
000001b0: 2675 b8be b5cc d1bd 17e5 2c3d 1c14 1a3f
000001c0: 28ba 25bf a71b ddbe 0b68 523f 84e2 98be
000001d0: 5542 a13d 0d5b dabe c72e 34be 1716 ce38
000001e0: dfdc 6cbd 6d69 a73e 05bd 0e3c fd47 853e
000001f0: e338 8f3e 48dc 46be 17f8 b23d 7668 25bf
00000200: cf71 f5bc dabb 34bd b8da a43c cf83 123d
00000210: 8c96 213d 2db4 e3be 06c2 ea3d 28a3 ac3d
00000220: 8575 0d3e 98bb d7be 3f51 bf3d be5e b1bd
00000230: 1223 603e 425e b53e 443b 223e 5993 1c3f
00000240: 4e02 853e 9146 b23e 0d91 cfbe 2a8e efbe
00000250: adf8 a03c 8e8c 3bbe 933b 593f 460c b73e
00000260: d955 513b d849 febc 8b0a 90bd 7dff f63e
00000270: 3de3 5a3e 9936 d5bd 3f86 c93e 427a 053d
00000280: 6dc6 b0bf 2ea7 9b3c a290 b0bd 6545 a43d
00000290: 4e96 56be 8f10 1b3e a326 2dbf 0c64 623e
000002a0: 9748 a2be aaba 82be 4e84 e7bd 16b0 a7bd
000002b0: b7da d03e 60f6 5abd 12f3 2c3c 900f 983c
000002c0: 1e98 213f aaef c93e 663b 80bd d6ff 6ebe
000002d0: d731 62bf 4ab0 21bf 6457 46bf 6b31 373f
000002e0: b8cb e63e 39e3 873e ecaa 63bd d8be ad3e
000002f0: 40e6 573e 2f3b 8dbe a0ac dfbf 7ecf b03e
00000300: 4c26 f03c 3e13 58bf 0459 aabd 26c1 1d3d
00000310: 84dc 9d3c ef4c 76be 0e96 dbbe 5743 123f
00000320: b155 f6be d220 dd3e 8be1 2fbf dd44 36be
00000330: 7321 26bf 62c0 e83e fbd9 92be 92f3 02bf
00000340: d457 e6be 8ad7 c03e d6f2 183b 15d6 173e
00000350: 32da 043f 92fe 853d eec3 a2bd 4b2a 783d
00000360: 9cc7 9f3e c14a ccbe d51c bf3e 19c7 833b
00000370: 9fbe 383e be0f 02bf a7fa 95be b998 e3bd
00000380: 456f d4be 2d9f 493b 7fd7 71bf 81ff a93d
00000390: 768c 9dbb 42f4 a6bc f42f 28bf 1725 f9be
000003a0: d937 33be 4d31 1b3f c293 30be be43 483e
000003b0: 3c36 1e3e 9b13 9abe 95f9 f7be eeac 903e
000003c0: 75f6 abbe 2db9 bbbc 8bce 3bbf b858 22bd
000003d0: fcd7 bc3e b65f e6be 6c5c 92bf 05cb 613e
000003e0: abb7 acbe 88cf c23e 3221 683e 2d29 8c3e
000003f0: 7809 cb3e 5fbb b63d af4b 863e 21dd f63d

_fc1.bias f4 [256]
0.087388046 0.15754198 -0.045854427 0.14385581 -0.0034346166 -0.1599664 -0.16253726 -0.078396104
-0.00075766584 0.14083597 -0.07408199 -0.027527422 0.11894117 -0.042923737 0.075220466 -0.01570831
-0.06797343 -0.113008045 0.17104839 -0.09377163 0.017709147 0.059488397 0.032234665 -0.014289644
-0.0344949 -0.07317864 0.06114032 -0.05064494 0.06501969 0.08966133 0.061424952 -0.082547605
-0.119885564 -0.04792247 0.05582534 0.018624196 0.1695358 0.117971025 -0.081631884 0.124892116
-0.09987849 -0.05888735 0.12886977 -0.12728499 -0.04801906 -0.1429453 0.080383696 0.124886155
0.15327847 -0.06079822 -0.12853192 0.09140415 -0.11301678 -0.05785202 -0.14303333 0.1367756
-0.01838651 0.022706602 0.009946638 0.024543583 -0.07669258 0.16973098 -0.15780917 -0.022777498
-0.101445444 -0.11899204 0.09336829 0.12743588 0.08189944 0.051455587 0.11611342 0.09332311
-0.051166717 -0.07365867 0.051579222 0.10933091 0.11624758 0.0006211257 0.17324467 -0.124962576
0.07222467 0.14857654 0.011082717 0.105210334 0.15334445 -0.13495076 0.11541699 0.08101763
0.09164418 0.08771628 0.10412997 0.05570936 0.09714703 -0.15822704 -0.17457084 0.09214834
0.17369162 -0.05188568 0.13269687 -0.018924756 0.087760195 -0.014379324 0.083546415 -0.07558517
-0.14334773 0.0927624 -0.07318004 0.13081262 0.024146026 -0.07098865 0.16750729 0.16646685
-0.0924657 0.077506416 0.049626037 -0.107131295 0.021061065 -0.1509943 0.013021656 -0.15082869
0.14985906 0.087785944 0.13782178 0.03510587 -0.07409393 0.08933847 0.07738168 0.095267005
-0.02732317 0.17428283 -0.110800706 -0.15516588 0.045463406 0.15686165 0.026273465 -0.049902957
-0.14888714 0.11611345 -0.17034563 -0.07113105 0.09703708 -0.09785442 -0.11466647 -0.08779683
0.08318685 -0.074348174 -0.039659973 -0.04168827 0.094362475 0.15327866 0.011498624 0.00094008056
-0.017490897 0.082977615 0.12593168 0.042011667 0.107682385 -0.05432818 -0.008070561 -0.1454109
0.07444157 -0.09008209 -0.026741978 -0.1707786 0.015096702 0.054798167 0.10526384 -0.036682736
0.009311744 0.16352947 0.0025780203 0.12501322 0.17028539 0.1481264 0.07839986 0.11156136
0.15760958 -0.016544657 0.13968676 -0.07122194 -0.05408702 0.07795919 -0.10558363 -0.06753685
0.0094145 0.014544001 0.0087484745 -0.022959098 0.05519359 0.17189188 -0.059284944 0.09563114
0.04264539 0.10949855 0.14247444 -0.016648158 -0.03546265 -0.06975434 -0.048289936 -0.07438832
-0.042918894 0.10154102 0.05166118 -0.08244168 0.099417984 0.015882982 0.007063508 0.06687216
-0.09791656 -0.018419575 0.13290763 0.113361835 0.0975757 -0.024565732 0.019656789 0.11299908
0.030499728 0.09601034 0.08826332 0.07596137 0.082385786 -0.116916806 -0.15285972 -0.17218922
0.13703321 -0.097274244 -0.13714339 0.021321662 -0.03427307 0.05497327 -0.04593972 0.13447694
-0.16504672 -0.17240113 0.14935778 -0.07438258 0.042854067 0.06386109 0.027486522 -0.10944381
0.0188526 -0.11397195 0.14667352 0.028159682 0.124376744 0.124065906 0.075088084 0.06158064
0.098396175 -0.111116186 0.13166907 -0.037397545 0.13478035 -0.011806562 0.080679744 0.12902227
00000000: 81f8 b23d af52 213e dad1 3bbd f04e 133e
00000010: 4e17 61bb 3bce 23be 2b70 26be 238e a0bd
00000020: 189e 46ba 4e37 103e 4cb8 97bd 3081 e1bc
00000030: 6e97 f33d cdd0 2fbd 300d 9a3d b7ae 80bc
00000040: a735 8bbd c370 e7bd 4f27 2f3e 570b c0bd
00000050: c612 913c 1baa 733d 7f08 043d 1c1f 6abc
00000060: 864a 0dbd afde 95bd 466e 7a3d 1271 4fbd
00000070: 0b29 853d 5ca0 b73d bb98 7b3d b80e a9bd
00000080: 9086 f5bd 5a4a 44bd 1da9 643d c591 983c
00000090: cb9a 2d3e cb9a f13d 9e2e a7bd 70c7 ff3d
000000a0: 188d ccbd dd33 71bd 70f6 033e ff56 02be
000000b0: a2af 44bd 4160 12be 35a0 a43d 50c4 ff3d
000000c0: 08f5 1c3e 8e07 79bd df9d 03be 1932 bb3d
000000d0: 5775 e7bd 3df6 6cbd 5477 12be e70e 0c3e
000000e0: 4e9f 96bc 3203 ba3c 39f7 223c a00f c93c
000000f0: 0011 9dbd f5cd 2d3e ba98 21be e097 babc
00000100: a1c2 cfbd 19b2 f3bd e037 bf3d 8d7e 023e
00000110: e5ba a73d 18c3 523d dfcc ed3d 3020 bf3d
00000120: 3194 51bd 5bda 96bd bc44 533d e2e8 df3d
00000130: 3613 ee3d 0ad3 223a 0d67 313e 61ec ffbd
00000140: 87ea 933d 7324 183e 4994 353c 8478 d73d
00000150: 5406 1d3e 8830 0abe be5f ec3d 92ec a53d
00000160: f2af bb3d 98a4 b33d 1842 d53d 7f2f 643d
00000170: 06f5 c63d 4506 22be b3c2 32be 45b8 bc3d
00000180: 37dc 313e 1486 54bd b0e1 073e 1708 9bbc
00000190: 9ebb b33d 4297 6bbc 621a ab3d 66cc 9abd
000001a0: bfc9 12be 37fa bd3d 6bdf 95bd bef3 053e
000001b0: e3cd c53c 7f62 91bd 0887 2b3e 4976 2a3e
000001c0: a85e bdbd afbb 9e3d ac44 4b3d a767 dbbd
000001d0: 4188 ac3c 409e 1abe c958 553c d672 1abe
000001e0: a774 193e 1ec9 b33d 2721 0d3e 2ccb 0f3d
000001f0: 8fbe 97bd 16f7 b63d 497a 9e3d 591b c33d
00000200: d7d4 dfbc 3377 323e 7beb e2bd cee3 1ebe
00000210: d637 3a3d 57a0 203e 733b d73c 0b67 4cbd
00000220: df75 18be e3cc ed3d 166f 2ebe 28ad 91bd
00000230: 60bb c63d e667 c8bd 41d6 eabd d3ce b3bd
00000240: de5d aa3d db43 98bd 7f72 22bd 52c1 2abd
00000250: 1d41 c13d 15f5 1c3e ba64 3c3c bd6f 763a
00000260: 1249 8fbc 2bf0 a93d 3cf4 003e 6d14 2c3d
00000270: 9588 dc3d 3a87 5ebd 633a 04bc 98e6 14be
00000280: d274 983d f57c b8bd fe11 dbbc 96e0 2ebe
00000290: 2858 773c 0b74 603d 9194 d73d a340 16bd
000002a0: 4990 183c 4574 273e 01f4 283b 7703 003e
000002b0: 4b5f 2e3e 72ae 173e 1b90 a03d 487a e43d
000002c0: 6864 213e a988 87bc 0c0a 0f3e cfdc 91bd
000002d0: 5a8a 5dbd 11a9 9f3d 3b3c d8bd c350 8abd
000002e0: 463f 1a3c f649 6e3c c355 0f3c b814 bcbc
000002f0: ac12 623d 6d04 303e c5d4 72bd 42da c33d
00000300: efac 2e3d c740 e03d d2e4 113e b861 88bc
00000310: 4941 11bd 5ddb 8ebd abcb 45bd e758 98bd
00000320: b9cb 2fbd bdf4 cf3d ac9a 533d 2fd7 a8bd
00000330: a89b cb3d 071d 823c 0075 e73b 45f4 883d
00000340: 7a88 c8bd a6e4 96bc f018 083e 402a e83d
00000350: c5d5 c73d 133e c9bc 4607 a13c 106c e73d
00000360: 91da f93c 12a1 c43d 66c3 b43d a291 9b3d
00000370: e1b9 a83d 1472 efbd 4287 1cbe 5f52 30be
00000380: 6f52 0c3e b837 c7bd 516f 0cbe c4aa ae3c
00000390: eb61 0cbd a72b 613d 4a2b 3cbd 53b4 093e
000003a0: 0202 29be ec89 30be 3ff1 183e e555 98bd
000003b0: bf87 2f3d 9ac9 823d 6a2b e13c 1424 e0bd
000003c0: c570 9a3c 206a e9bd 9531 163e 22af e63c
000003d0: 3cb9 fe3d 4416 fe3d c8c7 993d fb3b 7c3d
000003e0: ef83 c93d e290 e3bd 42d4 063e 2b2e 19bd
000003f0: dc03 0a3e 4f70 41bc 6c3b a53d 6a1e 043e

_fc2.weight f4 [128, 256]
0.47775558 -0.021800902 -0.2588096 -0.4352435 -0.48377132 -0.4672574 0.8670833 -1.0934603
0.6521418 -0.61787516 -0.35722026 0.96289796 -0.03330725 0.21308894 -0.111324124 0.7750271
0.4971276 -1.3844588 1.0596918 0.9805297 0.8691063 -0.27567235 0.15044186 0.13761866
-0.3423451 0.38247195 0.10434612 0.5201707 -0.06900631 0.06055629 1.3738976 -0.10377089
-1.0827866 -0.24342105 -0.64895636 -0.5930741 -0.3552201 0.20670061 0.457188 0.56463605
-0.34113893 -0.8700327 0.71588725 0.4235682 -0.9888927 0.21598735 -0.3508739 0.55316925
-1.18076 0.3962852 0.51140463 0.5365665 -1.1193304 0.53037304 -0.21551368 -0.050114192
-0.8553289 -0.35443738 -0.28439572 -0.26313883 2.1286647 0.4850488 -0.1533882 -0.09200584
-0.15386568 1.0560689 0.13421124 -0.56444544 0.026562558 -0.81243503 0.48530096 -0.10615188
-0.10890636 0.02887193 0.083295025 0.006549575 -0.20030712 0.9493993 0.22163847 -0.08892978
-0.0593601 0.06191291 -0.41288704 0.45338926 0.017480107 0.3233995 0.09405496 0.715548
-0.67431116 0.15585634 -0.082277745 0.51258063 -0.98930234 0.85928637 -0.11804428 1.4214107
0.13399729 0.4845913 -1.2195053 -1.2594372 0.41347453 0.10866325 -0.6817727 0.035804134
-0.20902303 0.55953354 0.66346437 -0.33387068 0.030486023 -0.15045965 0.05759618 0.49685594
0.48509198 -0.28640124 -0.17919669 1.1094846 -0.6153861 -0.025791585 -0.28322282 -0.22122505
1.1429956 1.2290201 -0.5108804 0.4238685 -0.30337372 -0.14612657 -0.40351188 -1.3292445
0.094566 -1.0785264 -0.7303785 -0.13272522 -0.72392803 -0.37499136 -0.18010855 1.3453324
-0.2667651 0.36801165 -0.25401405 -0.28780678 -0.37569875 -1.9010389 -0.021839673 0.29592666
0.14031115 0.56888384 0.039305836 0.15369342 -0.7877273 -0.8724144 0.10934422 -0.45857176
-0.030412447 0.9411642 -0.722251 0.10945767 -0.18194443 -1.3068748 -0.43714544 -1.0511708
0.26147446 -0.212174 -0.7846167 0.136178 0.6587082 0.14796269 0.8515823 -1.0041837
0.028630948 -0.5065745 0.424485 -0.26932874 -0.64724183 -0.17794159 -0.41279525 -0.79565066
-0.099155635 0.60172766 -1.1617521 0.25953692 -0.37023053 1.1277752 0.8561065 -1.0464326
0.009106436 1.5605718 -0.26918924 0.041851923 1.1233127 0.40089336 0.19735421 -0.6691297
-0.78404194 0.6313249 0.47896492 0.03833331 -1.1583006 -0.6964229 -1.0074655 0.7102995
-0.19028938 0.31246078 -0.2331971 -0.055900265 -0.037904147 0.25902945 -0.15028468 0.311369
-0.2707222 -0.11891339 0.12257267 0.6836535 0.5415249 -1.0145988 -0.29126072 -0.035006028
0.54698145 -0.8296923 0.64582694 -0.6910593 -0.4331783 0.12368019 0.5505816 0.6433139
-0.1697694 0.54905117 0.8033935 -0.72764426 -0.2411908 -0.12444938 -0.5673543 0.80133843
-0.033739317 0.09593835 -1.1788728 -0.32443893 -0.53586805 -0.01031162 -0.052259326 0.7020439
-1.5095564 -0.12691806 -0.082536355 0.91447926 -0.4740954 0.33363715 0.13018672 -0.990838
-0.59111536 0.64606905 -0.34557822 0.12786707 0.33333424 0.09354881 1.0520103 0.38944995
00000000: 619c f43e ce97 b2bc b182 84be 3cd8 debe
00000010: e0b0 f7be 5d3c efbe 2cf9 5d3f 82f6 8bbf
00000020: c4f2 263f 112d 1ebf 93e5 b6be 7b80 763f
00000030: 2f6d 08bd fd33 5a3e e7fd e3bd 2d68 463f
00000040: 8287 fe3e f235 b1bf fba3 873f ff03 7b3f
00000050: c07d 5e3f ed24 8dbe 6e0d 1a3e e8eb 0c3e
00000060: db47 afbe 5dd3 c33e 6bb3 d53d e829 053f
00000070: 2e53 8dbd df09 783d e0db af3f d585 d4bd
00000080: c098 8abf 5e43 79be 0122 26bf b4d3 17bf
00000090: 69df b5be 53a9 533e 8c14 ea3e fd8b 103f
000000a0: c3a9 aebe 77ba 5ebf 6344 373f eedd d83e
000000b0: 1228 7dbf ca2b 5d3e bea5 b3be 809c 0d3f
000000c0: 2523 97bf e5e5 ca3e 6aeb 023f 6c5c 093f
000000d0: 3846 8fbf 87c6 073f 9eaf 5cbe 8a44 4dbd
000000e0: d6f6 5abf d178 b5be 519c 91be 22ba 86be
000000f0: 0b3c 0840 5158 f83e cc11 1dbe 8f6d bcbd
00000100: f78e 1dbe 442d 873f ac6e 093e 7f7f 10bf
00000110: b999 d93c befb 4fbf 5e79 f83e 2866 d9bd
00000120: 4c0a dfbd d384 ec3c 9596 aa3d d19d d63b
00000130: 4f1d 4dbe d50b 733f 32f5 623e d120 b6bd
00000140: 9423 73bd 6498 7d3d ee65 d3be a322 e83e
00000150: 7132 8f3c 9f94 a53e e39f c03d 272e 373f
00000160: a89f 2cbf ce98 1f3e 3c81 a8bd 7c38 033f
00000170: eb42 7dbf 31fa 5b3f 33c1 f1bd c9f0 b53f
00000180: 9636 093e 5a1c f83e c018 9cbf 3d35 a1bf
00000190: efb2 d33e d78a de3d a888 2ebf 5ba7 123d
000001a0: 220a 56be 973d 0f3f cdd8 293f 19f1 aabe
000001b0: d3bd f93c 1812 1abe f9e9 6b3d e763 fe3e
000001c0: fa5d f83e 2fa3 92be 567f 37be 9703 8e3f
000001d0: f289 1dbf e048 d3bc 9502 91be d288 62be
000001e0: ae4d 923f 8850 9d3f 0fc9 02bf 4b05 d93e
000001f0: cd53 9bbe 34a2 15be 1c99 cebe af24 aabf
00000200: d2ab c13d 270d 8abf 16fa 3abf 1fe9 07be
00000210: 5953 39bf defe bfbe 606e 38be da33 ac3f
00000220: 6f95 88be 066c bc3e 210e 82be 695b 93be
00000230: 965b c0be 3e55 f3bf 1de9 b2bc b383 973e
00000240: baad 0f3e 5fa2 113f 28ff 203d cf61 1d3e
00000250: 7fa8 49bf 8d56 5fbf ddef df3d ebc9 eabe
00000260: 8623 f9bc 23f0 703f 71e5 38bf 582b e03d
00000270: a44f 3abe ac47 a7bf 87d1 dfbe c48c 86bf
00000280: fbdf 853e 2444 59be a4dc 48bf 3f72 0b3e
00000290: 1aa1 283f 8883 173e 4c01 5a3f 1789 80bf
000002a0: 738b ea3c deae 01bf 1956 d93e 75e5 89be
000002b0: a4b1 25bf 5236 36be e659 d3be c3af 4bbf
000002c0: 1c12 cbbd d30a 1a3f 4bb4 94bf 06e2 843e
000002d0: db8e bdbe f05a 903f cc29 5b3f 81f1 85bf
000002e0: 2933 153c d1c0 c73f 2cd3 89be ec6c 2b3d
000002f0: b6c8 8f3f e541 cd3e 3917 4a3e 164c 2bbf
00000300: f9b6 48bf 829e 213f e43a f53e 6403 1d3d
00000310: 3243 94bf c548 32bf a1f4 80bf 30d6 353f
00000320: 38db 42be dcfa 9f3e 38cb 6ebe adf7 64bd
00000330: 6141 1bbd 829f 843e 3ae4 19be c26b 9f3e
00000340: 1a9c 8abe dd88 f3bd 6107 fb3d ea03 2f3f
00000350: 60a1 0a3f 60de 81bf 2020 95be 7b62 0fbd
00000360: fa06 0c3f b766 54bf ea54 253f 43e9 30bf
00000370: 8cc9 ddbe 0a4c fd3d eaf2 0c3f 38b0 243f
00000380: 08d8 2dbe 9e8e 0c3f 32ab 4d3f e546 3abf
00000390: b9fa 76be 51df febd 223e 11bf 8424 4d3f
000003a0: 3d32 0abd 537b c43d 4ee5 96bf dc1c a6be
000003b0: a62e 09bf 12f2 28bc e00d 56bd 26b9 333f
000003c0: 2539 c1bf cff6 01be d208 a9bd 501b 6a3f
000003d0: a2bc f2be 7dd2 aa3e ab4f 053e 8fa7 7dbf
000003e0: 5653 17bf c864 253f a1ef b0be 96ef 023e
000003f0: c9aa aa3e 8596 bf3d 46a8 863f fc65 c73e

_fc2.bias f4 [128]
0.023842108 -0.027244238 -0.03662663 -0.026245065 -0.051348098 0.045104425 -0.0106360065 -0.017506268
0.001398983 -0.008997204 0.03578581 -0.041120812 -0.045673944 0.006124332 -0.01258505 0.043661043
-0.006642894 0.04471264 -0.024109598 -0.029311094 -0.0020041713 -0.020124502 -0.0603382 -0.008566836
-0.045934957 -0.02706663 -0.055659488 0.03460348 -0.015878255 -0.0052137976 -0.052256696 -0.023186281
-0.05017143 -0.02952353 -0.052958656 0.0005496005 -0.0126200225 -0.027847342 -0.012089403 -0.042883657
0.057895333 -0.015915586 0.002473824 -0.022926578 -0.022413185 0.042920187 0.005376234 -0.03419994
-0.0077254786 0.02878898 -0.008767207 -0.01022139 -0.021699945 -0.022927718 -0.031140331 0.0380522
0.020761503 0.017338697 0.03695312 0.0013634113 -0.0144540705 0.021283219 0.0043502995 0.06093376
-0.05094609 0.050566692 -0.004072946 -0.00242763 0.006620858 0.011537318 0.0010446998 0.037942093
0.01364867 -0.030376118 -0.00853977 0.031247098 -0.057987638 0.054532807 0.025430698 0.059433296
-0.04981638 0.009820438 0.04952345 0.015378919 -0.028124947 -0.054531205 0.023458771 0.046623897
0.037101302 0.00981843 0.056796864 0.027815493 0.02765282 0.0189207 -0.037996806 0.009628768
-0.027964558 0.03798483 -0.00018783411 -0.029996498 -0.045415632 0.043316 0.017772952 -0.01904606
0.046658546 0.0053826394 -0.052904803 0.05998864 0.03458653 -0.054369025 -0.023690274 -0.045296818
0.05411645 -0.018503612 0.056246866 -0.0037281474 0.059847597 0.029384343 0.060272828 0.044081096
-0.05417729 0.026789343 -0.023526689 0.052299872 -0.04474867 -0.052828815 -0.022719733 -0.019924145
00000000: 8650 c33c 4f2f dfbc ce05 16bd e4ff d6bc
00000010: 6252 52bd 6bbf 383d a542 2ebc 4e69 8fbc
00000020: 145e b73a 0269 13bc 2494 123d 4c6e 28bd
00000030: 9a14 3bbd 9fae c83b 8731 4ebc ecd5 323d
00000040: a2ac d9bb 9a24 373d 7e81 c5bc d21d f0bc
00000050: 6a58 03bb 24dc a4bc 3025 77bd ea5b 0cbc
00000060: 4b26 3cbd d6ba ddbc 34fb 63bd 61bc 0d3d
00000070: 1d13 82bc 81d8 aabb 1e0b 56bd 28f1 bdbc
00000080: 8f80 4dbd 54db f1bc 2deb 58bd 1113 103a
00000090: 36c4 4ebc 1c20 e4bc a212 46bc c6a6 2fbd
000000a0: a823 6d3d 6761 82bc e11f 223b 85d0 bbbc
000000b0: db9b b7bc 14cd 2f3d 1f2b b03b 3c15 0cbd
000000c0: 0326 fdbb ded6 eb3c 55a4 0fbc 9e77 27bc
000000d0: 15c4 b1bc e9d2 bbbc 021a ffbc a0dc 1b3d
000000e0: 0714 aa3c e209 8e3c 285c 173d 7eb4 b23a
000000f0: c4d0 6cbc 255a ae3c f58c 8e3b ae95 793d
00000100: d9ac 50bd 051f 4f3d 5976 85bb df18 1fbb
00000110: c8f3 d83b 0507 3d3c 4fee 883a 2b69 1b3d
00000120: ac9e 5f3c 56d7 f8bc 64ea 0bbc eaf9 ff3c
00000130: 7284 6dbd cb5d 5f3d 0a54 d03c 5470 733d
00000140: 430c 4cbd e7e5 203c 1ad9 4a3d ddf7 7b3c
00000150: 4a66 e6bc 1d5c 5fbd 9c2c c03c b3f8 3e3d
00000160: 89f7 173d 7bdd 203c d4a3 683d 51dd e33c
00000170: 2b88 e23c 95ff 9a3c 8aa2 1bbd fbc1 1d3c
00000180: ee15 e5bc fb95 1b3d 56f5 44b9 37bb f5bc
00000190: be05 3abd 1e6c 313d 9598 913c 7c06 9cbc
000001a0: 081d 3f3d da60 b03b b5b2 58bd a6b6 753d
000001b0: 9baa 0d3d 0eb2 5ebd 1b12 c2bc 2889 39bd
000001c0: 36a9 5d3d e394 97bc 1d63 663d ef53 74bb
000001d0: c122 753d 6fb7 f03c a4e0 763d 618e 343d
000001e0: 02e9 5dbd 5375 db3c 0bbb c0bc 6438 563d
000001f0: 624a 37bd 0763 58bd bc1e babc f637 a3bc

_fc3.weight f4 [4, 128]
-0.1367626 -0.14655365 -1.7391677 0.019639457 0.3312622 2.8133013 -0.44239295 -0.5958401
-0.1375201 -0.2758989 -0.31162426 -0.79164046 -0.39433232 0.4366622 0.23289126 -0.8251145
0.34549323 -0.632213 2.0550907 -0.08395491 -0.12141642 1.068856 0.6321847 0.22372536
0.5077985 0.7708469 -0.11369063 0.0060713287 0.6282055 0.1939675 0.07289347 -0.016665272
-0.14827323 -0.77589536 0.09082715 0.24669626 -0.06096578 -3.1512892 0.026405886 -1.0074269
-0.004602728 -0.13017456 -0.26050127 0.14259349 -0.20601626 -2.4370837 0.12342825 0.07126866
-0.0149419205 0.4538895 -1.6050198 1.7339138 -0.102599524 -0.18114397 0.5577476 0.30169332
-0.044512596 0.86734575 1.6020895 1.1291149 -0.69196165 0.37961414 1.0354166 0.51337737
1.5930688 -1.8535591 1.3027529 -0.4502625 -0.639442 0.09863702 0.3227945 -0.59869754
-0.43431705 -0.17109747 -1.5015093 0.16715422 -0.24530384 -2.1402602 -0.0996796 -3.3014576
-1.2011238 -2.337113 -0.7188579 0.38116127 -0.3048942 1.2503564 1.4520333 -0.50725514
0.08909399 -0.6034161 1.0670534 -0.5245011 -0.6091047 -0.1220223 -0.84978026 0.27093816
-2.307753 -0.200562 -1.8408451 -0.40076485 -0.38832375 0.26691514 -2.4873674 1.9045105
-0.70428675 -0.105089925 0.25301164 0.21173176 -0.2613267 1.8453281 3.114564 1.2707988
-0.6786939 1.0845168 0.55673283 0.66242474 0.93745345 -1.1318142 1.5649493 -0.29796025
0.03599865 -0.20206116 -0.43389252 -0.10738285 -1.8354098 0.791268 -0.7551406 1.2062429
0.9847045 0.0956683 -0.8613087 0.256391 -1.5271505 0.3836361 -1.1319839 -1.1572996
-0.38444337 -0.87313884 -1.6645377 -2.0833588 -1.3714674 -2.5439901 1.0952326 -0.3458468
-2.5809197 1.1008043 1.6598876 -1.8456708 -3.4748893 1.444346 -2.6808767 -0.37876284
2.7506635 -0.15205435 -1.9620407 -0.4004947 1.8845272 0.07655209 -2.385847 -1.9802401
2.4570947 -1.7879704 3.379007 2.8093739 -1.9059236 -0.42163354 -2.5631397 0.53780913
-0.78997546 -3.3208933 -0.30826786 -3.3349078 3.212665 1.419679 2.6223953 0.07311698
3.7432456 1.2896692 0.42497504 -1.1308794 0.4507885 -1.5595244 0.110931575 -0.2244186
-0.9375975 1.5401186 -0.20574306 0.7347724 -2.1333456 0.2017118 1.7234875 0.69509315
2.691216 -0.373723 1.0243177 0.118464105 -0.47055534 0.0681263 -1.6711996 -0.7026592
-1.5965201 0.98096246 0.05344454 -2.620627 -1.7730831 2.3815322 0.5411647 -0.8778623
2.576163 0.55582684 1.0254806 -1.2388123 3.740171 0.45779914 1.3669724 -2.3645418
0.72974885 0.5087337 -1.0301901 1.3662679 1.3598655 2.918217 0.5084152 0.36732608
-0.07578952 -1.0836667 0.47348067 1.0971743 3.099956 -0.12845276 0.10374694 0.43314934
-1.3937489 -0.5392212 -1.7183136 3.2245002 3.5045083 -1.984612 -1.8307167 0.07105649
2.4278595 0.7391649 -0.8577016 -1.0265683 0.95789635 0.3023702 1.1595987 -0.24167685
-0.026447609 2.3558455 0.5363952 2.1014857 -0.18651754 -2.340226 0.021069797 -0.6948625
00000000: 7f0b 0cbe 2912 16be 0c9d debf ede2 a03c
00000010: 339b a93e 210d 3440 5481 e2be fa88 18bf
00000020: 12d2 0cbe 9f42 8dbe 378d 9fbe f3a8 4abf
00000030: ede5 c9be 3092 df3e 0c7b 6e3e b43a 53bf
00000040: 7de4 b03e b6d8 21bf 9b86 0340 8df0 abbd
00000050: 2ca9 f8bd 46d0 883f dbd6 213f 4318 653e
00000060: 15ff 013f 3956 453f a2d6 e8bd fff1 c63b
00000070: 13d2 203f 6b9f 463e 2c49 953d 9c85 88bc
00000080: f0d4 17be 14a1 46bf 9603 ba3d f29d 7c3e
00000090: 41b7 79bd b9ae 49c0 2851 d83c 5df3 80bf
000000a0: 7bd2 96bb 7b4c 05be 6c60 85be 0704 123e
000000b0: edf5 52be 2ef9 1bc0 f3c7 fc3d 4ef5 913d
000000c0: f5ce 74bc 3464 e83e 4a71 cdbf e3f0 dd3f
000000d0: b31f d2bd ce7d 39be 8cc8 0e3f 8c77 9a3e
000000e0: d752 36bd 5f0a 5e3f 4511 cd3f d686 903f
000000f0: 6624 31bf c95c c23e 8888 843f b36c 033f
00000100: aee9 cb3f 6d41 edbf 9bc0 a63f ce88 e6be
00000110: 79b2 23bf 3502 ca3d 5245 a53e 3e44 19bf
00000120: ce5e debe 2d34 2fbe 7531 c0bf 7a2a 2b3e
00000130: ee30 7bbe 06fa 08c0 d124 ccbd 154b 53c0
00000140: 6dbe 99bf 4293 15c0 1207 38bf 9227 c33e
00000150: 181b 9cbe ae0b a03f 3adc b93f 79db 01bf
00000160: e976 b63d 7a79 1abf 3595 883f b445 06bf
00000170: 49ee 1bbf d4e6 f9bd 338b 59bf 68b8 8a3e
00000180: 3ab2 13c0 2060 4dbe d0a0 ebbf 0d31 cdbe
00000190: 5fd2 c6be 1aa9 883e 0731 1fc0 00c7 f33f
000001a0: 234c 34bf 6339 d7bd be8a 813e 36d0 583e
000001b0: 9dcc 85be b633 ec3f 0455 4740 89a9 a23f
000001c0: e2be 2dbf 72d1 8a3f 0b86 0e3f ab94 293f
000001d0: f3fc 6f3f 4adf 90bf 4250 c83f 3f8e 98be
000001e0: 5273 133d 1fe9 4ebe 2927 debe 8aeb dbbd
000001f0: b5ee eabf 8a90 4a3f e550 41bf 2b66 9a3f
00000200: 9815 7c3f beed c33d ba7e 5cbf ae45 833e
00000210: ab79 c3bf f36b c43e d9e4 90bf 6522 94bf
00000220: c3d5 c4be 0786 5fbf 920f d5bf c055 05c0
00000230: 3e8c afbf bcd0 22c0 9530 8c3f d512 b1be
00000240: ca2d 25c0 28e7 8c3f 3277 d43f f13e ecbf
00000250: 9664 5ec0 54e0 b83f 7c93 2bc0 34ed c1be
00000260: df0a 3040 23b4 1bbe 2624 fbbf a40d cdbe
00000270: 3038 f13f 58c7 9c3d b8b1 18c0 8278 fdbf
00000280: 0a41 1d40 37dc e4bf a741 5840 c8cc 3340
00000290: 4ef5 f3bf 5ae0 d7be 7b0a 24c0 dcad 093f
000002a0: d53b 4abf 8489 54c0 49d5 9dbe 216f 55c0
000002b0: 4e9c 4d40 0bb8 b53f 53d5 2740 5bbe 953d
000002c0: 5691 6f40 e113 a53f 5496 d93e a8c0 90bf
000002d0: c0cd e63e 7f9e c7bf 1830 e33d fdcd 65be
000002e0: 6406 70bf 9b22 c53f 4fae 52be 0b1a 3c3f
000002f0: bc88 08c0 8a8d 4e3e 3d9b dc3f a0f1 313f
00000300: e23c 2c40 9f58 bfbe d81c 833f 4f9d f23d
00000310: a1ec f0be cd85 8b3d dee9 d5bf 79e1 33bf
00000320: c55a ccbf 5b20 7b3f a9e8 5a3d 5ab8 27c0
00000330: 63f4 e2bf 066b 1840 c589 0a3f 95bb 60bf
00000340: dbdf 2440 ab4a 0e3f f342 833f 6791 9ebf
00000350: f65e 6f40 a664 ea3e f4f8 ae3f a754 17c0
00000360: d2d0 3a3f 5f3c 023f 45dd 83bf dee1 ae3f
00000370: 1310 ae3f 11c4 3a40 8027 023f 2a12 bc3e
00000380: 8937 9bbd 97b5 8abf 0f6c f23e 3570 8c3f
00000390: ae65 4640 1f89 03be 4779 d43d c0c5 dd3e
000003a0: 5d66 b2bf 670a 0abf b3f1 dbbf 365e 4e40
000003b0: dd49 6040 c407 febf ed54 eabf 1186 913d
000003c0: 0d62 1b40 e939 3d3f 5592 5bbf 9766 83bf
000003d0: b238 753f 44d0 9a3e bb6d 943f 237a 77be
000003e0: a8a8 d8bc 2cc6 1640 3251 093f be7e 0640
000003f0: 74fe 3ebe 43c6 15c0 919a ac3c 82e2 31bf

_fc3.bias f4 [4]
-0.2902277 -0.15842938 0.048933487 -0.18015932
00000000: ba98 94be 503b 22be 7b6e 483d af7b 38be

_bn0.weight f4 [33]
0.77412367 -0.34877264 0.8079874 0.062179845 0.038650226 0.19826704 0.021082535 0.07338037
0.033803187 0.0862987 0.05505204 0.120788515 -0.06707117 1.3207252 0.5684675 1.1683731
0.081254296 0.089740396 0.040381923 0.0742008 0.13206422 0.06475396 0.09081197 0.39277887
-0.23681189 0.43912938 1.1796145 0.7471999 -1.03969 0.7522769 0.51797694 0.7275408
1.31717
00000000: f82c 463f 5492 b2be 43d8 4e3f 4bb0 7e3d
00000010: b34f 1e3d 8406 4b3e 48b5 ac3c 7348 963d
00000020: 3675 0a3d 5fbd b03d 3f7e 613d f85f f73d
00000030: 9c5c 89bd 860d a93f 1687 113f 408d 953f
00000040: a768 a63d d0c9 b73d 8467 253d 97f6 973d
00000050: d83b 073e b99d 843d a0fb b93d 501a c93e
00000060: d17e 72be 91d5 e03e 9cfd 963f 7e48 3f3f
00000070: 9014 85bf 3895 403f 239a 043f 1d40 3a3f
00000080: 0799 a83f

_bn0.bias f4 [33]
0.0036264386 -0.0022115794 0.0011173736 0.0014975358 -1.14597815e-05 -0.0009068052 0.00291561 -0.0008651401
0.0052180006 -0.0018555014 0.0015773736 0.0050958623 0.0029861913 0.003344573 0.00057472644 0.0048620137
0.0034392397 -0.0019354959 -0.006132542 -0.0018565131 -0.003497347 0.0009612427 -0.0038284147 -0.008586505
-0.003033756 0.0030880314 -0.0017026833 4.774063e-05 -0.0014465037 0.00012771958 0.0001218119 -7.01177e-05
-0.0050970684
00000000: 8ba9 6d3b 25f0 10bb d674 923a f748 c43a
00000010: 6343 40b7 abb6 6dba d213 3f3b 92ca 62ba
00000020: c3fb aa3b 4c34 f3ba e0bf ce3a 31fb a63b
00000030: fab3 433b a030 5b3b 3da9 163a 8751 9f3b
00000040: de64 613b 77b0 fdba 7ef3 c8bb 3e56 f3ba
00000050: bf33 65bb e8fb 7b3a 24e6 7abb 6aae 0cbc
00000060: fbd1 46bb 9260 4a3b 922c dfba 1c3d 4838
00000070: 9c98 bdba 77ec 0539 4475 ff38 270c 93b8
00000080: 4f05 a7bb

_bn0.running_mean f4 [33]
-0.1589677 -2.6261897 0.72029334 0.89191943 -0.021193948 -0.0066815023 0.09956227 0.006750119
0.0042495537 -0.0033248053 -0.022085791 0.007894879 -0.003959889 -0.23312005 -2.570128 0.9011112
0.010507881 -0.0131255435 0.0009315714 -0.015048701 -0.037144035 -0.010415024 -0.028173044 -0.0077439165
0.10923224 -0.024430348 -0.025109127 -0.99999976 -0.030524861 0.0 0.99999976 0.0
-0.013940754
00000000: 6ec8 22be 7e13 28c0 2565 383f d554 643f
00000010: ee9e adbc 81f0 dabb 4ee7 cb3d 1a30 dd3b
00000020: d73f 8b3b fae4 59bb 43ed b4bc 8659 013c
00000030: f5c1 81bb 06b7 6ebe fa7c 24c0 39af 663f
00000040: 3f29 2c3c 850c 57bc b334 743a d48e 76bc
00000050: 5824 18bd c7a3 2abc 28cb e6bc aec0 fdbb
00000060: 27b5 df3d 2722 c8bc a8b1 cdbc fcff 7fbf
00000070: 460f fabc 0000 0000 fcff 7f3f 0000 0000
00000080: c367 64bc

_bn0.running_var f4 [33]
4.0184574 0.39484316 4.216221 0.02549987 0.06714849 0.0080827605 0.093621865 0.2570113
0.05791979 0.1212257 2.3050141 0.8766239 2.2181835 18.371187 1.6245272 20.827602
0.08608801 0.26011732 0.07555419 0.57635057 1.7004278 0.74636245 0.5911837 7.4456773
3.8267293 8.388729 32.34263 6e-45 31.736134 6e-45 6e-45 6e-45
0.33241543
00000000: 3497 8040 e228 ca3e 48eb 8640 1ae5 d03c
00000010: 2685 893d 8e6d 043c d2bc bf3d fc96 833e
00000020: 4d3d 6d3d 2e45 f83d 5a85 1340 6d6a 603f
00000030: b8f6 0d40 31f8 9241 82f0 cf3f ee9e a641
00000040: e94e b03d 192e 853e 28bc 9a3d b68b 133f
00000050: 9ea7 d93f 9c11 3f3f d157 173f fd42 ee40
00000060: 22e9 7440 3c38 0641 da5e 0142 0400 0000
00000070: 9ae3 fd41 0400 0000 0400 0000 0400 0000
00000080: 5b32 aa3e

_bn1.weight f4 [256]
0.61847717 0.009186906 0.5889822 0.9023781 1.0486488 0.23898734 0.7744535 0.81430554
0.76720476 0.7161774 0.3716747 0.6587522 0.71115416 0.9945542 0.57985264 0.7068972
0.6308491 0.6651321 0.61506206 0.7406455 0.6354828 0.4654174 -0.6134075 0.6287602
0.5446212 0.80917716 0.8529573 0.3551298 0.78567296 0.0032702205 0.81992155 0.87812936
0.9753567 0.68503827 0.71474314 0.4884789 0.82938695 0.8497433 0.42074892 0.7666887
0.85940963 0.73215777 0.39554724 0.4242938 0.683705 0.8453615 0.5189283 0.99096924
0.5229319 0.9168734 0.65369904 0.72068226 0.5748393 0.5828039 0.92494357 0.7466075
0.95702875 0.6057085 0.37367827 0.8577569 0.8630465 1.015174 1.1340327 0.014381786
0.1143339 0.8362005 0.73208684 0.7289187 0.79542875 0.75455683 0.62628174 -0.006380645
0.7533636 0.54029757 0.0128193395 0.71611446 1.1848421 0.54294544 0.70948315 0.010614782
0.053749476 0.22225675 0.69221616 0.84051013 1.3536466 0.4740798 0.38707957 0.89808017
1.0011145 0.72173375 -0.014949116 0.37529764 0.74881095 0.5600661 0.6993154 -0.5710516
0.997225 1.0528818 1.1043515 0.18495388 0.5626345 0.6537251 0.7130108 0.0058674137
0.69855285 1.1292063 0.5496325 0.81805223 0.765955 0.81271726 0.07411516 1.2593573
0.74345374 1.1684026 -0.011306483 0.34713602 0.7193437 0.89348227 0.25128332 0.7015683
0.5946836 0.46345413 0.54615325 0.6293577 0.18724972 0.5847914 0.8440898 1.3889502
0.5222153 0.6861473 0.8902769 0.6852122 0.54015917 0.8047356 0.53016394 0.6365776
0.23601346 0.8278154 1.0275798 0.70539725 1.0192534 1.1050519 0.6699264 1.3869506
0.5611092 0.62726504 0.009979508 0.9210675 0.65604717 0.82675856 0.41051736 0.63696903
0.62859005 0.8280078 0.74954885 0.5524685 0.65699464 0.5959805 0.74706 1.0381753
0.91560996 0.69996905 0.58966786 0.88477397 0.742084 0.011570045 0.6930961 0.91936666
0.6913644 0.93567735 0.67305523 0.7265489 0.9725235 0.017148465 0.6957303 0.7521658
0.9061645 0.91064155 1.0682518 0.9036132 1.1447003 0.4950508 0.82793635 0.6139878
0.66360754 0.7564055 0.70698047 0.98391473 1.0166346 -0.44305447 1.0418278 0.8856349
-0.041737873 1.1602281 0.93349457 0.006469738 0.72250926 1.5576419 0.8012945 0.6096326
0.56250155 0.57238257 0.6001611 0.55718577 0.5970976 0.4184941 0.6628641 0.8946143
0.9512722 -0.010255776 0.13972 0.8587339 0.82038254 0.67341375 0.71884096 0.01894072
0.6829214 1.0516453 0.879771 0.74504733 0.6517711 0.7314097 0.67069584 0.97093767
0.934082 0.5447961 0.80086386 0.83515114 0.7211259 0.9615392 0.90836567 0.9925074
0.036210448 0.9252598 0.582321 1.1664966 0.8859144 0.92093533 0.6850357 0.58538413
0.44639888 0.0016610314 0.30407813 0.6945153 0.812097 0.40184185 0.82944065 0.90466154
1.0371914 0.6082719 0.87552434 0.78062564 0.36619768 0.8037585 0.60893023 1.1949246
00000000: 8554 1e3f ad84 163c 8ac7 163f 4002 673f
00000010: 203a 863f 19b9 743e 9642 463f 5476 503f
00000020: 8867 443f 6757 373f 254c be3e fca3 283f
00000030: 330e 363f 1b9b 7e3f 3971 143f 37f7 343f
00000040: 547f 213f 1946 2a3f b574 1d3f f29a 3d3f
00000050: 00af 223f 304b ee3e 4608 1dbf 6ef6 203f
00000060: 4c6c 0b3f 3c26 4f3f 695b 5a3f 93d3 b53e
00000070: dd21 493f 3251 563b 61e6 513f 16cd 603f
00000080: fab0 793f ab5e 2f3f 68f9 363f e819 fa3e
00000090: b452 543f c788 593f 676c d73e b645 443f
000000a0: 4502 5c3f b16e 3b3f 2b85 ca3e 093d d93e
000000b0: 4a07 2f3f 9c69 583f 7cd8 043f 29b0 7d3f
000000c0: ddde 053f 37b8 6a3f d258 273f a27e 383f
000000d0: ab28 133f a332 153f 1ac9 6c3f ab21 3f3f
000000e0: d6ff 743f b60f 1b3f c252 bf3e f595 5b3f
000000f0: 9ef0 5c3f 39f1 813f fc27 913f 95a1 6b3c
00000100: e427 ea3d 3c11 563f 0b6a 3b3f 6a9a 3a3f
00000110: 38a1 4b3f a32a 413f 0054 203f bb14 d1bb
00000120: 70dc 403f f150 0a3f 3508 523c 4753 373f
00000130: e8a8 973f 79fe 0a3f b0a0 353f 9fe9 2d3c
00000140: 6928 5c3d 4697 633e 1435 313f ac2b 573f
00000150: 4b44 ad3f 96ba f23e 4b2f c63e 95e8 653f
00000160: 8524 803f 8bc3 383f 23ed 74bc 0327 c03e
00000170: 13b2 3f3f 7e60 0f3f 5606 333f 7030 12bf
00000180: 234a 7f3f d5c4 863f 645b 8d3f 8d64 3d3e
00000190: d108 103f 875a 273f e087 363f 6f43 c03b
000001a0: 5cd4 323f d589 903f b7b4 0c3f df6b 513f
000001b0: a015 443f 3d0e 503f b0c9 973d 9f32 a13f
000001c0: fc52 3e3f 378e 953f d43e 39bc d0bb b13e
000001d0: e926 383f 41bb 643f 35a8 803e fb99 333f
000001e0: 2f3d 183f dc49 ed3e b3d0 0b3f 961d 213f
000001f0: 64be 3f3e e4b4 153f 4516 583f 1fc9 b13f
00000200: e7af 053f 59a7 2f3f 30e9 633f 116a 2f3f
00000210: df47 0a3f 2703 4e3f d3b8 073f c0f6 223f
00000220: 83ad 713e b6eb 533f bc87 833f ea94 343f
00000230: e576 823f 5772 8d3f 4c80 2b3f 9987 b13f
00000240: daa4 0f3f 7194 203f 1781 233c 14cb 6b3f
00000250: b5f2 273f 73a6 533f 552f d23e 6710 233f
00000260: 47eb 203f 52f8 533f 6fe2 3f3f 936e 0d3f
00000270: cd30 283f 2e92 183f 533f 3f3f eee2 843f
00000280: 6a65 6a3f 2c31 333f 79f4 163f 8c80 623f
00000290: 38f9 3d3f 4990 3d3c bf6e 313f 9d5b 6b3f
000002a0: 42fd 303f 8d88 6f3f 594d 2c3f 1cff 393f
000002b0: 4df7 783f f07a 8c3c 621b 323f f08d 403f
000002c0: 66fa 673f ce1f 693f 7abc 883f 3253 673f
000002d0: 8a85 923f 4c77 fd3e a3f3 533f 4e2e 1d3f
000002e0: 2fe2 293f caa3 413f acfc 343f d6e1 7b3f
000002f0: 1521 823f 09d8 e2be 9d5a 853f f8b8 623f
00000300: 55f5 2abd 5b82 943f 80f9 6e3f 1900 d43b
00000310: 5ef6 383f cf60 c73f a321 4d3f e210 1c3f
00000320: 1a00 103f aa87 123f 28a4 193f baa3 0e3f
00000330: 63db 183f dc44 d63e 76b1 293f 7105 653f
00000340: 9386 733f d807 28bc c212 0f3e fcd5 5b3f
00000350: 9704 523f d864 2c3f f605 383f 9229 9b3c
00000360: f0d3 2e3f 509c 863f ac38 613f 6cbb 3e3f
00000370: 79da 263f ab3d 3b3f b9b2 2b3f 5f8f 783f
00000380: ff1f 6f3f c277 0b3f 6a05 4d3f 77cc 553f
00000390: b59b 383f 6f27 763f a78a 683f f714 7e3f
000003a0: 6851 143d d4dd 6c3f fd12 153f c34f 953f
000003b0: 49cb 623f 6bc2 6b3f 805e 2f3f bcdb 153f
000003c0: 658e e43e f7b6 d93a 21b0 9b3e c1cb 313f
000003d0: 97e5 4f3f 37be cd3e 3956 543f e697 673f
000003e0: b0c2 843f b5b7 1b3f 5d22 603f 15d7 473f
000003f0: 437e bb3e 1ec3 4d3f dae2 1b3f 4af3 983f

_bn1.bias f4 [256]
-0.5532869 -0.09056638 0.083735414 -1.0950518 -0.94450086 0.03797811 -0.5644745 -0.85725796
-0.36972183 -0.52005917 -0.0027810892 -0.69211644 -0.315476 -1.1642855 -1.0817922 -0.49124718
-1.0873249 -0.6542877 0.010005965 -0.114698246 -0.79167897 -0.18741922 -0.6100155 -0.54820496
-0.34460306 -1.0072114 -1.1244303 -0.0494713 -0.9914866 -0.0214146 -0.7731634 -0.40644863
-0.65905845 -0.80496943 -0.54484546 -0.3643197 -0.37165478 -0.52401656 -0.3991012 -0.2967961
-0.4326694 -0.6689974 -0.23214085 -0.12977889 -0.59977657 -0.58458054 0.07168809 -0.8800992
-0.5407633 -0.7409361 -0.6575495 -0.7859209 -0.3702246 -0.70101017 -0.6980701 -1.0171524
-0.5810535 -0.6603072 -0.40485904 -0.3087101 -0.87689894 -0.5640452 -0.6752409 -0.06869285
-0.6855748 -0.041696362 -0.5159623 -0.7721385 -0.27552667 -0.27978477 -0.91325986 -0.028565621
-0.952822 -0.38631886 -0.07140534 -0.40561268 -0.46704602 -0.78743804 -0.05640456 -0.09077072
-0.27436706 -0.17501664 -0.6418167 -0.84291714 -0.8097841 -0.44390535 0.40636718 0.1395814
-1.254597 -0.8649397 -0.13269007 -0.027170997 -0.77755463 -1.042114 -0.7449365 -0.756553
-0.44812074 -0.40915135 -0.84580064 0.016352342 -0.4687882 -0.47664678 -0.56098276 -0.114268884
-0.45449328 -0.88521475 -0.1551036 -0.31234005 -0.7585466 -0.34353217 -0.3475897 -0.594463
-0.42005745 -0.9818574 -0.059857532 -0.2554085 -0.6454468 -0.78657985 -0.17187162 -0.7016452
-0.5038957 -0.45963368 -0.38543975 -0.709658 -0.82499874 -0.42147142 -0.39575583 -0.7671736
-0.6828318 -0.64395934 -0.6417773 -0.8501462 -0.662727 -0.744511 -0.6662 -0.16836378
-0.22287016 -0.69996464 -0.7006641 -0.42736563 -1.0257543 -0.90332156 0.017353928 -0.8049598
-0.61040837 -0.41805738 -0.079177104 -0.64015526 -0.63427806 -0.8294102 -0.1300496 -0.32920942
-0.6585056 -0.9140443 -0.52250934 -0.27236807 -0.24184561 -1.1057831 -0.6378552 -0.42970106
-1.1673564 -1.1016068 -0.4757502 -0.6039907 -0.60928065 -0.08901185 -0.8449304 -0.99617654
-0.123425074 -0.5569751 -0.40980613 -0.88379437 -0.9785268 -0.14758354 -0.41422585 -0.6422559
-0.4156937 -0.16690876 -0.25620744 -0.87897885 -0.58575594 -0.45646966 -0.56446195 -0.26760587
-0.010491351 -0.8430491 -1.1705773 -0.5563515 -0.98838985 0.6347352 -0.9533039 -0.5634166
0.27414492 -0.978106 -0.31685516 -0.07460198 -0.19695291 -0.16771239 -0.6686939 -0.08348126
-0.75995004 -0.8907215 -0.75967234 -0.19693574 -0.5926655 -0.8240255 -0.5017384 -0.9997147
-0.7868206 -0.09577707 0.5757397 -1.0689402 -0.34791437 -0.69940716 -0.12459464 -0.15044563
-0.08778741 -0.7431573 -0.9291696 -0.7781879 -0.11709269 -0.64763516 -0.5353382 -0.7405378
-0.8891403 -0.007861503 -0.8930666 -0.4024182 -0.5658863 -0.14789303 -0.91873336 -0.060219985
-0.1330936 -0.9452944 -0.6030928 -0.51509064 -0.8375263 -0.54933405 -0.82572085 -0.6533661
-0.012289737 -0.06504575 0.2428087 -0.86495775 -0.9787428 0.9081927 -0.5484868 -0.85333455
-0.95966285 -0.5259323 -0.75007516 -0.47071323 -0.1678643 -0.7876525 -0.47599402 -0.77756846
00000000: 36a4 0dbf de7a b9bd 797d ab3d a82a 8cbf
00000010: cfca 71bf ef8e 1b3d 6781 10bf 4275 5bbf
00000020: 2e4c bdbe 9922 05bf ef42 36bb 8b2e 31bf
00000030: 1286 a1be 4f07 95bf 2b78 8abf c084 fbbe
00000040: 762d 8bbf 667f 27bf 0ff0 233c eae6 eabd
00000050: 79ab 4abf d3ea 3fbe fa29 1cbf 2957 0cbf
00000060: d06f b0be 4eec 80bf 55ed 8fbf 6ba2 4abd
00000070: 11d2 7dbf ac6d afbc 09ee 45bf 091a d0be
00000080: 0eb8 28bf 7a12 4ebf fe7a 0bbf 1d88 babe
00000090: 8949 bebe f325 06bf fe56 ccbe a9f5 97be
000000a0: d886 ddbe 6a43 2bbf 55b6 6dbe c2e4 04be
000000b0: f58a 19bf 12a7 15bf 35d1 923d 2e4e 61bf
000000c0: 776f 0abf fdad 3dbf 2a55 28bf 1d32 49bf
000000d0: 148e bdbe 6775 33bf b9b4 32bf 0d32 82bf
000000e0: ecbf 14bf e509 29bf af49 cfbe 400f 9ebe
000000f0: 737c 60bf 4465 10bf 96dc 2cbf d6ae 8cbd
00000100: d581 2fbf cec9 2abd 1b16 04bf deaa 45bf
00000110: d511 8dbe f33f 8fbe 66cb 69bf 7302 eabc
00000120: 25ec 73bf 96cb c5be f73c 92bd 77ac cfbe
00000130: a820 efbe 8a95 49bf 7808 67bd 00e6 b9bd
00000140: d779 8cbe 9037 33be 194e 24bf 6bc9 57bf
00000150: 034e 4fbf 9047 e3be 5c0f d03e 6dee 0e3e
00000160: a296 a0bf b06c 5dbf e8df 07be b695 debc
00000170: d20d 47bf fe63 85bf 29b4 3ebf 75ad 41bf
00000180: 1570 e5be 497c d1be 6486 58bf 59f5 853c
00000190: 0205 f0be 0c0b f4be 919c 0fbf ce05 eabd
000001a0: 58b3 e8be 6f9d 62bf 7ad3 1ebe 09eb 9fbe
000001b0: 1c30 42bf 73e3 afbe 47f7 b1be ba2e 18bf
000001c0: c511 d7be 025b 7bbf 2c2d 75bd e7c4 82be
000001d0: 003c 25bf 4c5d 49bf 1dff 2fbe 059f 33bf
000001e0: 4fff 00bf 1b55 ebbe 5c58 c5be 26ac 35bf
000001f0: 1e33 53bf 1acb d7be 82a0 cabe 7d65 44bf
00000200: 11ce 2ebf 85da 24bf 844b 24bf 2ea3 59bf
00000210: 7aa8 29bf 4698 3ebf 158c 2abf 8e67 2cbe
00000220: 1338 64be e230 33bf b95e 33bf abcf dabe
00000230: eb4b 83bf 1540 67bf d329 8e3c d811 4ebf
00000240: b943 1cbf 9e0b d6be 9b27 a2bd 37e1 23bf
00000250: 0c60 22bf 3a54 54bf b92b 05be 238e a8be
00000260: d393 28bf cffe 69bf 2cc3 05bf d473 8bbe
00000270: 60a6 77be 4d8a 8dbf 7a4a 23bf c701 dcbe
00000280: ef6b 95bf 7401 8dbf 8895 f3be 229f 1abf
00000290: d1f9 1bbf d84b b6bd 5c4d 58bf 6d05 7fbf
000002a0: 49c6 fcbd ec95 0ebf 1cd2 d1be 5940 62bf
000002b0: bb80 7abf 2420 17be 6915 d4be e26a 24bf
000002c0: ced5 d4be 21ea 2abe 9f2d 83be c204 61bf
000002d0: 1af4 15bf 64b6 e9be 9480 10bf a303 89be
000002e0: eae3 2bbc 11d2 57bf 7ad5 95bf 0d6d 0ebf
000002f0: 1e07 7dbf 027e 223f b90b 74bf 123c 10bf
00000300: b95c 8c3e 2865 7abf d73a a2be ecc8 98bd
00000310: 06ae 49be ccbc 2bbe 862f 2bbf 39f8 aabd
00000320: 168c 42bf 5306 64bf e379 42bf 86a9 49be
00000330: edb8 17bf 56f3 52bf ee71 00bf 4ded 7fbf
00000340: 136d 49bf c526 c4bd ad63 133f 08d3 88bf
00000350: d521 b2be 590c 33bf 7a2b ffbd 6b0e 1abe
00000360: e3c9 b3bd 8f3f 3ebf 0fde 6dbf 5237 47bf
00000370: 4bce efbd 6bcb 25bf ed0b 09bf e393 3dbf
00000380: b39e 63bf 89cd 00bc 03a0 64bf c209 cebe
00000390: eddd 10bf 4571 17be 1c32 6bbf 3ba9 76bd
000003a0: b049 08be d0fe 71bf 4a64 1abf fbdc 03bf
000003b0: 2068 56bf 28a1 0cbf 7162 53bf 0043 27bf
000003c0: e55a 49bc b536 85bd d8a2 783e df6d 5dbf
000003d0: e38e 7abf 517f 683f a269 0cbf 2274 5abf
000003e0: 77ac 75bf 80a3 06bf ed04 40bf 5301 f1be
000003f0: 9ee4 2bbe 98a3 49bf 7db5 f3be ba0e 47bf

_bn1.running_mean f4 [256]
0.089770176 0.15374218 -0.04848843 0.1484456 -0.0059077255 -0.17159297 -0.15877491 -0.0896279
0.004748831 0.13979565 -0.07652061 -0.022193473 0.12028938 -0.04100476 0.08230814 -0.013484214
-0.06752865 -0.108793266 0.17509665 -0.092401564 0.024282651 0.06123272 0.028244168 -0.01856189
-0.0399577 -0.07662896 0.08026935 -0.0673681 0.078153156 0.09016724 0.06851034 -0.09177977
-0.10926345 -0.05138204 0.040795743 0.007259244 0.17773296 0.11915508 -0.07351848 0.12883349
-0.09383655 -0.05024417 0.121289775 -0.13944921 -0.03878942 -0.14669143 0.072655156 0.12970564
0.15852217 -0.048471242 -0.12808758 0.09614749 -0.12382676 -0.057532456 -0.13723396 0.12930976
-0.022110576 0.025132395 -0.0025090375 0.013987321 -0.067325614 0.1752025 -0.14725664 -0.02249832
-0.0998825 -0.12089901 0.09099417 0.12148797 0.089813314 0.060848836 0.12488467 0.092983454
-0.040913224 -0.0832812 0.049596984 0.116856486 0.11330484 0.009579117 0.17115323 -0.12517764
0.07064726 0.14867665 0.015933907 0.1017819 0.170984 -0.13019712 0.11764575 0.07439619
0.08728834 0.09627938 0.103844844 0.054356795 0.08950313 -0.17388037 -0.17216787 0.08657533
0.17830262 -0.040714905 0.13458434 -0.037840586 0.09057587 -0.010551633 0.08366733 -0.072822176
-0.14780565 0.10521966 -0.0672121 0.13518621 0.04112103 -0.07822801 0.16454539 0.16471075
-0.09173743 0.08125246 0.04812057 -0.10867125 0.012780331 -0.14062804 0.019698517 -0.16067998
0.15602134 0.088383414 0.14054556 0.026161289 -0.08094599 0.09699094 0.068481244 0.09090396
-0.01511671 0.18331876 -0.107530706 -0.14922588 0.04978048 0.16760439 0.0321106 -0.06605986
-0.14084429 0.11798343 -0.17275539 -0.060916774 0.1059603 -0.08026142 -0.120726936 -0.0878161
0.07935276 -0.079482876 -0.043135673 -0.03545292 0.09992017 0.15571396 0.01634737 -0.014767686
-0.017568968 0.083669335 0.13125584 0.033167683 0.10505899 -0.060838416 -0.0013238653 -0.13551576
0.07653349 -0.0840867 -0.029133685 -0.17725174 0.03182463 0.056413792 0.12052314 -0.038000174
0.0030827813 0.15729077 0.008576071 0.13641495 0.18071336 0.1479132 0.07288973 0.11295153
0.15619466 -0.0019705337 0.12144364 -0.06338764 -0.04837596 0.080361225 -0.104082204 -0.066330895
0.0013544712 0.0036206017 0.006954046 -0.026221376 0.051903944 0.17804629 -0.061425835 0.08072368
0.037196707 0.10489595 0.14336137 -0.01639222 -0.035467125 -0.06250039 -0.036516394 -0.084581144
-0.046617374 0.11206098 0.05057697 -0.075438775 0.10405267 0.013185587 0.0007391094 0.05634531
-0.09966356 -0.017401585 0.13667786 0.11521005 0.10447458 -0.037459277 0.021026667 0.11196867
0.029459152 0.08361975 0.09854044 0.07839908 0.07765864 -0.113577664 -0.17257303 -0.17297915
0.14243938 -0.11002103 -0.1279282 0.016917126 -0.029811373 0.0444139 -0.030211873 0.13968833
-0.16466351 -0.17588215 0.15220541 -0.082333855 0.043975003 0.055055782 0.028643614 -0.11223918
0.027938193 -0.11418252 0.14946738 0.036746617 0.12031802 0.12876894 0.08018724 0.049101256
0.093578264 -0.10626811 0.13920464 -0.06599805 0.12931064 -0.01866563 0.076738514 0.13769732
00000000: 6dd9 b73d 976e 1d3e ce9b 46bd 2002 183e
00000010: 9895 c1bb 11b6 2fbe e495 22be d58e b7bd
00000020: 159c 9b3b 9726 0f3e d6b6 9cbd 16cf b5bc
00000030: 475a f63d 9bf4 27bd 2c91 a83d e5ec 5cbc
00000040: 764c 8abd 01cf debd 894c 333e 083d bdbd
00000050: 69ec c63c 29cf 7a3d 5060 e73c 1b0f 98bc
00000060: afaa 23bd a5ef 9cbd 4264 a43d 49f8 89bd
00000070: c30e a03d 9aa9 b83d 264f 8c3d 08f7 bbbd
00000080: 84c5 dfbd f975 52bd 7019 273d f4de ed3b
00000090: a1ff 353e 9407 f43d db90 96bd edec 033e
000000a0: 612d c0bd d5cc 4dbd c666 f83d c6cb 0ebe
000000b0: a8e1 1ebd 4736 16be 3acc 943d 8ed1 043e
000000c0: a353 223e c889 46bd 6429 03be fae8 c43d
000000d0: e298 fdbd 27a7 6bbd 0f87 0cbe c769 043e
000000e0: 3d21 b5bc 74e2 cd3c aa6e 24bb 142b 653c
000000f0: 03e2 89bd 4968 333e 72ca 16be 664e b8bc
00000100: 328f ccbd e699 f7bd 275b ba3d afce f83d
00000110: 0bf0 b73d a13c 793d 89c3 ff3d 1c6e be3d
00000120: a094 27bd 558f aabd 3526 4b3d 7452 ef3d
00000130: 5e0c e83d bbf1 1c3c cb42 2f3e 912e 00be
00000140: 83af 903d b13e 183e d387 823c 0773 d03d
00000150: 6e16 2f3e 6552 05be 41f0 f03d 085d 983d
00000160: 3bc4 b23d 202e c53d 9bac d43d 3ba5 5e3d
00000170: 6b4d b73d b20d 32be c64c 30be 684e b13d
00000180: f694 363e acc4 26bd 7ad0 093e bbfe 1abd
00000190: d77f b93d c2e0 2cbc c759 ab3d cb23 95bd
000001a0: 5d5a 17be 687d d73d 7fa6 89bd 416e 0a3e
000001b0: 866e 283d 0236 a0bd 967e 283e efa9 283e
000001c0: d5e0 bbbd b167 a63d 131a 453d 088f debd
000001d0: 9864 513c cc00 10be c95e a13c 4b89 24be
000001e0: 0fc4 1f3e 5d02 b53d 2deb 0f3e 3350 d63c
000001f0: 03c7 a5bd 30a3 c63d e53f 8c3d db2b ba3d
00000200: 14ac 77bc eab7 3b3e 0f39 dcbd abce 18be
00000210: 9ee6 4b3d 7ca0 2b3e 6886 033d 644a 87bd
00000220: 7c39 10be 4ca1 f13d cae6 30be de83 79bd
00000230: b701 d93d 1960 a4bd af3f f7bd edd8 b3bd
00000240: b383 a23d ebc7 a2bd 08af 30bd 1537 11bd
00000250: f2a2 cc3d 7b73 1f3e ebea 853c 2af4 71bc
00000260: ccec 8fbc d45a ab3d ee67 063e d6da 073d
00000270: 2b29 d73d b431 79bd 8c85 adba a5c4 0abe
00000280: 97bd 9c3d a635 acbd c4a9 eebc 7b81 35be
00000290: 8b5a 023d 2612 673d d6d4 f63d 12a6 1bbd
000002a0: 7d08 4a3b d510 213e a682 0c3c 5cb0 0b3e
000002b0: ec0c 393e 8f76 173e 3647 953d 2253 e73d
000002c0: 7ef1 1f3e 1224 01bb 71b7 f83d 61d1 81bd
000002d0: df25 46bd 6d94 a43d 0d29 d5bd 7ed8 87bd
000002e0: 8388 b13a 9e47 6d3b c4de e33b 36ce d6bc
000002f0: 3b99 543d c451 363e a899 7bbd 7552 a53d
00000300: 935b 183d b0d3 d63d 53cd 123e fa48 86bc
00000310: fa45 11bd 3400 80bd 3792 15bd e138 adbd
00000320: dcf1 3ebd 3a80 e53d cc29 4f3d a57f 9abd
00000330: 9119 d53d 5c08 583c cbc0 413a 57ca 663d
00000340: 691c ccbd c58d 8ebc 48f5 0b3e 3ff3 eb3d
00000350: c5f6 d53d e66e 19bd 1e40 ac3c d44f e53d
00000360: 5254 f13c d540 ab3d 92cf c93d b28f a03d
00000370: 7e0b 9f3d 689b e8bd fcb6 30be 7221 31be
00000380: a1db 113e b552 e1bd 9cff 02be c995 8a3c
00000390: fb36 f4bc 59eb 353d e47e f7bc 750a 0f3e
000003a0: 8d9d 28be 731a 34be bcdb 1b3e a79e a8bd
000003b0: 221f 343d 2c82 613d 03a6 ea3c a8dd e5bd
000003c0: a3de e43c 86d8 e9bd fa0d 193e 9f83 163d
000003d0: 4b69 f63d 01dc 033e 3539 a43d 661e 493d
000003e0: f6a5 bf3d 18a3 d9bd a98b 0e3e fc29 87bd
000003f0: 026a 043e aae8 98bc 1529 9d3d 8700 0d3e
