project2-continuous-control/results/session_submission/checkpoint_critic.pth (torch_old, 88306 bytes, 9 tensors)

_fc1.weight f4 [128, 33]
0	0xbe511c17	-0.20420872
1	0x3e72b2fe	0.23701093
2	0xbd1826ad	-0.03714626
3	0xbe72afad	-0.23699827
4	0xbd065cfc	-0.03280352
5	0x3f6f96ad	0.9358929
6	0x3cc5c692	0.024142537
7	0xbd5c38bb	-0.05376504
8	0xbda7381f	-0.08165001
9	0x3d49c09e	0.04925596
10	0x3e409aa4	0.1880899
11	0x3efc2c56	0.49252576
12	0xbf0a45ca	-0.5401274
13	0xbf040e77	-0.5158457
14	0x3e57799a	0.21042481
15	0x3e9baef1	0.30406907
16	0x3ded02da	0.115728095
17	0xbe914b99	-0.2837799
18	0xbedac114	-0.42725432
19	0x3eb557ae	0.35418457
20	0x3e00687a	0.12539855
21	0x3ea9ee77	0.33189747
22	0xbf02da8a	-0.51114714
23	0xbf18a884	-0.59632134
24	0x3f486295	0.78275424
25	0x3ed38b91	0.41317418
26	0x3d1c4bf2	0.038158365
27	0xbe040215	-0.12891419
28	0xbec893a8	-0.39175153
29	0xbdd58f48	-0.10427719
30	0xbd136af1	-0.03599066
31	0x3d1b1c7c	0.03786896
32	0xbce421e9	-0.0278482
33	0xbe4dfc3a	-0.20115748
34	0xbeb475ee	-0.35246223
35	0xbd3ba720	-0.04581368
36	0x3d8adf89	0.06780917
37	0xbd0f8d60	-0.035046935
38	0xbe5e10df	-0.21686123
39	0x372c967a	1.02870345e-05
40	0x3dc3462f	0.09534871
41	0xbdc81192	-0.09768976
42	0xbeafb01f	-0.34314057
43	0xbe93e8a8	-0.2888844
44	0xbc3c9c93	-0.01151194
45	0xbe333cd8	-0.17503679
46	0x3d302398	0.043002695
47	0x3e18bcdd	0.14915796
48	0xbcdea86f	-0.027179925
49	0xbec5c936	-0.38630074
50	0x3e464ee8	0.19366038
51	0x3e88ba4b	0.2670463
52	0xbe34b0c4	-0.17645556
53	0xbe2eef4d	-0.17083474
54	0x3ee5b92c	0.44867837
55	0xbd2d9767	-0.042380717
56	0xbe860b19	-0.26180342
57	0xbcf87ee1	-0.030333938
58	0xbd85d7a2	-0.06535269
59	0x3e7062cb	0.23475187
60	0xbb3de58e	-0.0028975937
61	0xbe3832c8	-0.17988122
62	0xbdba16b1	-0.09086359
63	0xbb268ec1	-0.0025414678
64	0x3b9fc34d	0.0048755766
65	0xbef9b2c4	-0.487692
66	0x3dfcaff6	0.123382494
67	0x3f3917ba	0.7230183
68	0xbd0049ff	-0.03132057
69	0xbd6c8cf4	-0.05775161
70	0x3b5247c6	0.0032086237
71	0xbd073cfe	-0.03301715
72	0xbc403cc2	-0.011733236
73	0xbe1a03b7	-0.1504048
74	0xbe7ef289	-0.24897207
75	0x3dad4589	0.084605284
76	0xbeec31e5	-0.46131817
77	0xbeaef4b5	-0.34171072
78	0x3dfc17e9	0.12309248
79	0xbec2a384	-0.38015378
80	0xbf834863	-1.0256466
81	0x3e1cbd25	0.15306528
82	0xbd3a56df	-0.045493003
83	0x3e637f08	0.22216427
84	0xbe920f1b	-0.2852715
85	0x3ba02d97	0.0048882472
86	0xbd3ab825	-0.04558577
87	0xbe11e139	-0.14246072
88	0x3dafdd91	0.08587182
89	0xbda8c00d	-0.08239756
90	0xbf2754f5	-0.6536401
91	0x3dec2955	0.11531321
92	0x3ea6c8b4	0.32575
93	0x3bcbc9a4	0.006219106
94	0xbe3e6a48	-0.1859523
95	0xbc14c7a2	-0.009080799
96	0x3d11ba20	0.035577893
97	0x3cce648b	0.025194427
98	0xbc89cfb6	-0.016822677
99	0xbe4a8bcb	-0.1977989
100	0xbd8d09f8	-0.06886667
101	0xbd48eace	-0.049052052
102	0x3d97b160	0.074068785
103	0x3d35d01c	0.04438792
104	0x3e982c11	0.2972112
105	0x3e484af9	0.1955985
106	0xbe23f84a	-0.16012684
107	0x3cedb682	0.02901769
108	0xbe5ab6d7	-0.2135881
109	0xbe87a4f7	-0.26493046
110	0xbd982f07	-0.07430845
111	0xbe713cec	-0.23558396
112	0xbdd48f2d	-0.10378871
113	0xbc922a32	-0.017842386
114	0x3d7965f7	0.060888257
115	0x3cadaaaf	0.021199552
116	0xbdeff89b	-0.117173396
117	0xbe09f5e0	-0.134727
118	0x3e6b23c8	0.22962868
119	0xbd526e43	-0.051374685
120	0xbd6f6a2e	-0.05845087
121	0x3da4c99e	0.08046268
122	0xbb895500	-0.004191041
123	0x3e81e424	0.2536937
124	0xbe681959	-0.2266592
125	0x3ecba984	0.39777768
126	0xbd6439aa	-0.055719055
127	0xbe5d343f	-0.21601962
128	0x3d02c17f	0.031922814
129	0x3dfd92b5	0.12381498
130	0xbd252916	-0.040322386
131	0xbef43b1f	-0.47701356
132	0x3dff69d6	0.124713585
133	0x3ee6ef17	0.45104286
134	0x3e519994	0.20468742
135	0x3d62068c	0.055182025
136	0x3d8d8f96	0.069121525
137	0xbeaddaee	-0.33956093
138	0x3e06594e	0.13120005
139	0x3dacab48	0.08431107
140	0xbdb145c5	-0.086558856
141	0x3e82369e	0.25432295
142	0x3d22a080	0.039703846
143	0x3ed5b6f7	0.41741154
144	0xbca12885	-0.019672642
145	0x3e405ea9	0.1878611
146	0xbe9f9950	-0.31171656
147	0x3d8ebf56	0.06970088
148	0x3ddbb57a	0.10727973
149	0x3eae2681	0.3401375
150	0xbf0ffd86	-0.5624622
151	0xbcfd2ab3	-0.03090415
152	0xbebaee08	-0.36509728
153	0xbe5c91d2	-0.21540001
154	0xbedb751a	-0.4286278
155	0xbca10edb	-0.019660404
156	0x3b964f11	0.004587062
157	0xbdcc0e77	-0.099636964
158	0x3da9f16d	0.082980014
159	0xbd43f8ab	-0.04784457
160	0xbed8967a	-0.42302305
161	0xbd671139	-0.05641291
162	0xbd222679	-0.03958747
163	0x3c239481	0.009984137
164	0x3ee98fcb	0.45617518
165	0xbe271217	-0.16315494
166	0x3e8c644f	0.2742028
167	0x3f3579b1	0.7088881
168	0xbe6a9d32	-0.22911528
169	0x3c6d0a63	0.014467808
170	0x3de36268	0.11102754
171	0x3d298ac2	0.041392095
172	0x3e66bfa3	0.22534041
173	0x3d95ae89	0.073086806
174	0x3e1b6c31	0.1517799
175	0x3deb0bae	0.11476837
176	0x3f783ce4	0.9696791
177	0xbefeaea7	-0.49742624
178	0x3dd00d61	0.10158802
179	0xbe956730	-0.29180288
180	0xbe706dd8	-0.23479402
181	0xbf02a599	-0.5103393
182	0x3e61dcbb	0.22056858
183	0x3e5d84e4	0.21632725
184	0x3e024837	0.1272286
185	0xbfa75f88	-1.3076029
186	0xbdcbe242	-0.09955265
187	0x3ea7b25d	0.32753268
188	0xbe1c7c6d	-0.1528184
189	0xbf8985fc	-1.0744014
190	0x3eb3341c	0.35000694
191	0x3d23f46f	0.040028032
192	0x3e5a9437	0.21345602
193	0xbe93efe8	-0.2889397
194	0x3e435446	0.19075117
195	0xbd684dae	-0.056714706
196	0xbe62b9c1	-0.22141172
197	0x3d070c28	0.032970577
198	0xbdeb4e1e	-0.11489509
199	0x3efd60c4	0.4948789
200	0xbf37073a	-0.714954
201	0x3d824cb9	0.0636229
202	0xbc900b73	-0.017583584
203	0xbde4ca9b	-0.111714564
204	0x3cf004fa	0.029299248
205	0x3e3316e3	0.174892
206	0x3ddfdf81	0.10931302
207	0xbe8df00a	-0.27722198
208	0xbeb486a0	-0.3525896
209	0x3e9a93a6	0.30190772
210	0xbc01f485	-0.007931833
211	0xbd4496d8	-0.04799542
212	0xbe5299d3	-0.20566492
213	0x3ea149f8	0.31501746
214	0x3de66f87	0.11251741
215	0xbf04a0e8	-0.51808023
216	0x3e968b72	0.29403263
217	0xbba04a43	-0.004891665
218	0xbe86894b	-0.2627662
219	0xbe82ffc1	-0.2558575
220	0xbd17f2bb	-0.03709672
221	0x3e588517	0.2114452
222	0xbe84fe11	-0.25975087
223	0x3e08b2ee	0.13349506
224	0x3e33ccdc	0.17558616
225	0x3d7db899	0.061943624
226	0xbeaf2ca5	-0.3421375
227	0x3ccf765e	0.025324997
228	0x3b1327c2	0.0022454117
229	0xbbf16fc1	-0.0073680584
230	0xbe237391	-0.15962054
231	0x3ede2289	0.43385723
232	0x3ed3fafb	0.4140242
233	0xbe634530	-0.22194362
234	0x3d984e96	0.07436864
235	0xbd8ed7c9	-0.069747515
236	0x3e368465	0.17823942
237	0x3def594c	0.11686954
238	0xbd0a8f40	-0.03382802
239	0x3f0d8526	0.55281293
240	0x3e80ca39	0.25154284
241	0x3f53ce91	0.8273707
242	0xbf346231	-0.7046233
243	0xbee78016	-0.4521491
244	0x3deee25f	0.116642706
245	0xbf71a06a	-0.943854
246	0x3e87a4ad	0.26492825
247	0x3eb58541	0.35453227
248	0xbe8f7299	-0.2801712
249	0x3d089cd1	0.033352677
250	0xbd8db92b	-0.069200836
251	0xbea9413e	-0.33057588
252	0x3ea37ba5	0.3193027
253	0x3d655300	0.055987358
254	0xbe231d36	-0.15929112
255	0xbeca5468	-0.39517522

_fc1.bias f4 [128]
0	0xbf3f208d	-0.74659044
1	0xbe8d89ac	-0.27644098
2	0xbe3d4081	-0.18481638
3	0xbe8f0ab3	-0.2793785
4	0xbf158721	-0.58409315
5	0xbea13438	-0.31485152
6	0xbed94573	-0.42435798
7	0xbeafabba	-0.34310704
8	0xbead1f9a	-0.33813173
9	0xbecd1dae	-0.40061706
10	0xbf129a09	-0.5726629
11	0xbe39f456	-0.18159613
12	0xbd0813ab	-0.03322188
13	0x3da6116c	0.08108792
14	0xbebc309a	-0.3675583
15	0xbe90107f	-0.28137586
16	0xbef8af1f	-0.48571107
17	0xbe85ce48	-0.26133943
18	0xbefa3c04	-0.48873913
19	0xbd977a72	-0.073964015
20	0xbf1a8de0	-0.60372734
21	0xbee1aef0	-0.4407878
22	0xbe7585bb	-0.23976795
23	0xbef9643a	-0.4870928
24	0xbe530c51	-0.20610167
25	0xbf2621c5	-0.6489528
26	0xbe60391c	-0.21896785
27	0xbf34000e	-0.70312583
28	0xbeeb78a5	-0.45990482
29	0xbef5e90b	-0.4802936
30	0xbea822f2	-0.3283916
31	0xbeb13189	-0.34608105
32	0xbe021505	-0.12703331
33	0x3e177364	0.14790112
34	0xbec9c07e	-0.39404672
35	0xbee33c18	-0.44381785
36	0xbf5997ad	-0.84997064
37	0xbf24cd89	-0.6437612
38	0xbf1f4baf	-0.6222486
39	0xbf125792	-0.5716487
40	0xbe888e73	-0.2667118
41	0x3c0a1bd5	0.008429487
42	0xbec2bd0f	-0.38034865
43	0xbeda78f3	-0.42670402
44	0xbea0961c	-0.31364524
45	0xbecc9520	-0.39957523
46	0x3ddf4162	0.10901143
47	0x3de7d899	0.113206096
48	0xbf116536	-0.5679506
49	0xbe3f5f6e	-0.18688747
50	0xbeaf9c5f	-0.3429899
51	0xbf261306	-0.6487278
52	0xbeef2179	-0.46705225
53	0xbea5ac4d	-0.32358018
54	0xbedc45ea	-0.4302209
55	0xbf04907e	-0.5178298
56	0xbeaec8a0	-0.3413744
57	0xbedd413c	-0.43213832
58	0xbe9a0bdb	-0.3008717
59	0xbf16ce60	-0.58908653
60	0xbeb3558a	-0.350262
61	0xbeacb71f	-0.3373346
62	0xbec8ccf2	-0.3921886
63	0xbebb2b4b	-0.36556467
64	0xbf3ca9dd	-0.7369669
65	0xbf2e12bc	-0.67997336
66	0xbf1b77ca	-0.6072966
67	0xbf055428	-0.5208154
68	0xbf1231c4	-0.57107186
69	0xbec7a30a	-0.38991576
70	0xbed37761	-0.41302016
71	0xbe65fe4a	-0.22460285
72	0xbf30c7b7	-0.6905474
73	0xbd58cf96	-0.052932344
74	0x3d2fd5d1	0.04292852
75	0xbe98fdeb	-0.29881224
76	0xbed55d4b	-0.4167274
77	0xbf3f68e2	-0.74769413
78	0xbf1a9506	-0.6038364
79	0x3f17b08c	0.59253764
80	0xbe39e669	-0.18154301
81	0xbed34a21	-0.41267493
82	0xbf04f602	-0.5193788
83	0xbe73050a	-0.23732391
84	0xbee1e3c2	-0.44119078
85	0xbf3d19d7	-0.73867553
86	0xbefee3dc	-0.49783218
87	0xbf03178c	-0.51207805
88	0xbf335a82	-0.7005998
89	0x3e60cd46	0.21953306
90	0xbebf93b6	-0.37417382
91	0xbee49425	-0.44644275
92	0xbf2fa1a6	-0.6860603
93	0xbeeddfbe	-0.46459764
94	0xbe3bb17e	-0.18329427
95	0xbd08de53	-0.03341515
96	0xbee2a610	-0.4426732
97	0xbefc2f14	-0.49254668
98	0xbf2086aa	-0.6270548
99	0xbf109f59	-0.56493145
100	0xbe808c19	-0.25106886
101	0xbe185789	-0.14877142
102	0xbe3605ba	-0.17775622
103	0xbf063241	-0.5242043
104	0xbef3a3a6	-0.4758579
105	0xbd819210	-0.06326687
106	0xbe7ff650	-0.24996305
107	0xbeef845e	-0.46780676
108	0xbf2af731	-0.66783434
109	0xbf380421	-0.718813
110	0xbda09bb5	-0.07842199
111	0xbf008cff	-0.5021514
112	0xbef29f19	-0.47387007
113	0xbe83bfb5	-0.25732198
114	0xbe8ec534	-0.2788483
115	0xbe92cb81	-0.28670886
116	0xbd809634	-0.06278649
117	0xbec950c4	-0.39319432
118	0xbea730ae	-0.32654327
119	0xbef6d00f	-0.4820561
120	0xbeb5ea85	-0.35530487
121	0xbecdbc46	-0.40182704
122	0xbe39b991	-0.18137194
123	0xbeda8bc9	-0.42684773
124	0xbda47a3c	-0.08031127
125	0xbf2a569c	-0.66538405
126	0xbe6f4613	-0.23366575
127	0xbdae3fbc	-0.0850825

_fc2.weight f4 [128, 132]
0	0xbea4fcfd	-0.32224265
1	0x3e64f0b4	0.22357446
2	0x3d824288	0.06360346
3	0x3e8c2827	0.27374384
4	0x3e1bc8b8	0.15213287
5	0xbe7694a6	-0.24080142
6	0x3e39b12d	0.18133993
7	0x3e82e5b1	0.25565866
8	0xbd442787	-0.04788926
9	0x3e9ad6ec	0.30242097
10	0x3e311f38	0.17297065
11	0x3e2240f7	0.15845095
12	0xbf6407d3	-0.8907444
13	0x3e77b10f	0.24188636
14	0x3e80957e	0.25114053
15	0xbf5c8c82	-0.861519
16	0xbe10a611	-0.1412585
17	0x3e8d863d	0.27641478
18	0xbf0e0fc9	-0.55492836
19	0x3e619272	0.2202852
20	0x3e7a6c23	0.24455313
21	0xbe118a0c	-0.14212817
22	0xbe62163e	-0.22078797
23	0xbca31f7b	-0.019912472
24	0x3d989bef	0.07451617
25	0xbdf00a9a	-0.11720772
26	0x3b1771b1	0.0023108537
27	0xbed08147	-0.4072363
28	0x3d972e08	0.07381827
29	0xbe43b028	-0.19110167
30	0xbdc0dc3a	-0.09417005
31	0x3c9dea4f	0.019276766
32	0x3d42154f	0.047383603
33	0x3db57916	0.08860986
34	0xbddfbb81	-0.109244354
35	0xbf49defe	-0.78855884
36	0xbf12e95e	-0.5738734
37	0xbe3a197e	-0.18173787
38	0xbed7d90a	-0.42157775
39	0xbd9e02c6	-0.07715373
40	0xbf3d0ab2	-0.73844445
41	0xbf2a0466	-0.6641296
42	0xbcfe68f3	-0.031055903
43	0xbf0985ca	-0.5371977
44	0x3e420d75	0.18950446
45	0xbf5765dd	-0.84139806
46	0x3eb88ac3	0.36043367
47	0x3eb9a748	0.36260438
48	0x3cc4eb81	0.024038078
49	0x3e81aa1b	0.25325093
50	0xbe0b9940	-0.13632679
51	0xbea70536	-0.32621163
52	0xbe84599c	-0.25849617
53	0xbd59ce2e	-0.053175144
54	0xbec9b739	-0.393976
55	0x3e53e0bd	0.206912
56	0xbbfc77d2	-0.0077047134
57	0x3e784f6d	0.24249049
58	0x3ebd315e	0.36951727
59	0xbe3a3fbe	-0.18188378
60	0x3e710bc1	0.2353964
61	0x3e03964b	0.12850301
62	0x3d55d956	0.05220922
63	0xbeaa29f0	-0.3323512
64	0xbefc1650	-0.49235773
65	0x3dc80d30	0.0976814
66	0xbf0d93c6	-0.5530361
67	0xbc4dac59	-0.012553298
68	0xbe034be9	-0.12821926
69	0x3e1e8bda	0.15483037
70	0xbeb59019	-0.354615
71	0xbe4839bc	-0.19553274
72	0xbefc16ef	-0.49236247
73	0x3bfc4404	0.007698538
74	0xbcc64c93	-0.024206435
75	0xbe04e390	-0.12977433
76	0xbea6551d	-0.3248681
77	0x3d8c74a9	0.06858189
78	0xbf0c171b	-0.54722756
79	0x3f4cc936	0.79994524
80	0xbe983c10	-0.29733324
81	0xbdbfe0cc	-0.093690485
82	0x3d28c145	0.04119994
83	0xbed6dab2	-0.41963726
84	0xbe97f4f0	-0.2967906
85	0xbf46d69d	-0.77671224
86	0x3e6ec34c	0.23316687
87	0x3b0433e8	0.002017254
88	0xbeb87950	-0.36030054
89	0x3ea9f602	0.33195502
90	0xbe9f1fc5	-0.31078926
91	0xbebf9583	-0.37418756
92	0x3d211971	0.039330903
93	0xbe939add	-0.2882909
94	0xbd467d4d	-0.04845934
95	0x3e683727	0.22677289
96	0x3e6c2ff7	0.23065172
97	0xbec3ec9a	-0.3826645
98	0xbe804e1d	-0.25059596
99	0xbec17fa8	-0.37792706
100	0xbe2dba6a	-0.16965643
101	0xbf651223	-0.894808
102	0xbd3ef23c	-0.04661773
103	0x3d8b6726	0.068067834
104	0xba027504	-0.0004976543
105	0x3e91900b	0.2843021
106	0x3e8eb26c	0.278705
107	0x3bb93aa6	0.0056527434
108	0xbde56178	-0.11200231
109	0xbecf9bcd	-0.40548554
110	0xbe18519a	-0.14874879
111	0x3e29e20a	0.16590133
112	0xbef858ec	-0.48505342
113	0xbd627ef5	-0.055296857
114	0xbe062220	-0.13098955
115	0xbdc4a4bf	-0.09601735
116	0x3e2c1a97	0.16807018
117	0x3cd04d06	0.025427353
118	0x3eb67079	0.35632685
119	0xbd8be932	-0.06831588
120	0xbd031770	-0.032004774
121	0x3d4fbba9	0.050716076
122	0x3d3411d4	0.043962315
123	0x3e2680eb	0.16260116
124	0x3e92a19a	0.28638917
125	0xbe86bd5a	-0.2631634
126	0xbf03a958	-0.51430273
127	0x3e8ec10c	0.27881658
128	0xbc0a1312	-0.008427398
129	0x3b17eec7	0.0023183094
130	0x3ca83428	0.020532683
131	0xbc00d981	-0.007864357
132	0x3ea90a43	0.33015642
133	0xbccf8ecd	-0.025336647
134	0x3e223419	0.15840186
135	0xbdd65eb8	-0.10467285
136	0xbe0dc5fc	-0.13845056
137	0x3eecc172	0.46241337
138	0x3dbd47f9	0.09242243
139	0x3d7c64f9	0.061619733
140	0xbe39726a	-0.18110052
141	0x3e8bb29e	0.27284712
142	0xbe431025	-0.19049127
143	0xbc7700c3	-0.015075865
144	0x3f332241	0.6997414
145	0xbe9f873e	-0.3115787
146	0x3e19dcc7	0.15025626
147	0x3f86ba11	1.0525533
148	0xbf75478d	-0.958123
149	0xbf11d9ce	-0.5697297
150	0xbe8b601d	-0.27221766
151	0xbd8fa342	-0.07013561
152	0xbf801b33	-1.00083
153	0xbf56834f	-0.8379411
154	0xbf8ad38d	-1.084581
155	0x3f15febe	0.5859183
156	0x3e8464e7	0.25858232
157	0xbe894b41	-0.26815227
158	0x3da3c663	0.07996824
159	0xbc6cf93c	-0.014463719
160	0xbdeeaee7	-0.11654454
161	0x3f654c3a	0.8956944
162	0xbee16c35	-0.44027868
163	0xbed52701	-0.4163132
164	0xbf45bd5a	-0.7724205
165	0xbd6389e4	-0.055551425
166	0x3e843acf	0.25826117
167	0x3f0e33e2	0.55547917
168	0x3f58ffd9	0.8476539
169	0x3c893c88	0.016752496
170	0x3ec0616d	0.3757433
171	0x3fb6b1ec	1.4273047
172	0x3f07cb9a	0.53045046
173	0xbc4a44a6	-0.012345469
174	0x3e9e932e	0.30971664
175	0xbd486a77	-0.048929658
176	0xbe750707	-0.23928462
177	0xbe04acf5	-0.12956603
178	0xbdafa069	-0.08575518
179	0xbcc9a096	-0.024612706
180	0xbd48bf16	-0.04901036
181	0x3ec1374f	0.3773751
182	0xbf0a3ee5	-0.5400222
183	0x3f04fc24	0.51947236
184	0x3f09eb71	0.5387488
185	0x3f24e494	0.6441128
186	0xbf133b34	-0.5751221
187	0xbf10a346	-0.56499135
188	0xbdc7f778	-0.09763998
189	0xbeeb871d	-0.4600152
190	0xbc0419ee	-0.008062823
191	0xbf352300	-0.7075653
192	0x3dc2fcba	0.0952086
193	0xbe3bf931	-0.18356778
194	0x3e782006	0.24230966
195	0xbe0680f4	-0.13135129
196	0xbd3e5f8b	-0.046477836
197	0xbdcbe54b	-0.099558435
198	0xbee18acd	-0.4405121
199	0xbf00c945	-0.5030711
200	0xbe961fb6	-0.2932107
201	0xbeb2d740	-0.34929848
202	0xbea1ad3c	-0.3157748
203	0x3f0197af	0.50622076
204	0x3f2712e1	0.6526318
205	0xbe56ff9d	-0.20995946
206	0xbf37031d	-0.71489125
207	0xbf4e1ce5	-0.8051284
208	0x3e31cc86	0.17363176
209	0x3ebf80c3	0.37402925
210	0xbea2e2ca	-0.3181365
211	0x3d22d116	0.03975018
212	0x3eb1efb4	0.3475319
213	0x3ebedcfc	0.37277973
214	0x3e2afda4	0.16698319
215	0xbf205280	-0.62625885
216	0x3f12adca	0.5729643
217	0xbe638b8d	-0.22221203
218	0xbddc008f	-0.10742294
219	0xbe877db5	-0.26463094
220	0x3f529d60	0.82271385
221	0xbd465a63	-0.048426043
222	0xbe91240c	-0.28347814
223	0x3e0ef852	0.13961914
224	0x3eca559a	0.39518434
225	0xbda28080	-0.07934666
226	0xbe49b933	-0.19699554
227	0xbed52292	-0.41627938
228	0x3e94bd6c	0.29050767
229	0xbf301cc5	-0.687939
230	0xbf5d03b0	-0.8633375
231	0x3e5611a4	0.20905167
232	0xbdde0fed	-0.10842881
233	0x3f5de750	0.8668108
234	0xbe3b40b5	-0.18286403
235	0x3ec0d18a	0.37659866
236	0x3e854909	0.26032284
237	0x3e0e9758	0.1392492
238	0xbea7566a	-0.32683116
239	0xbf64f465	-0.89435416
240	0x3e2d991b	0.16952936
241	0x3f308d34	0.6896546
242	0x3dff74d5	0.12473456
243	0x3e25b205	0.1618119
244	0x3ef3945f	0.47574136
245	0x3dd01b51	0.1016146
246	0xbee2d767	-0.44304964
247	0xbc952d88	-0.018210188
248	0xbf5724ec	-0.84040713
249	0xbec0278a	-0.37530166
250	0x3d3cee79	0.046125863
251	0x3e1977d4	0.14987117
252	0xbef19776	-0.47185868
253	0xbf0ec3ea	-0.5576769
254	0xbe33f5b5	-0.17574199
255	0xbef20aa2	-0.47273737

_fc2.bias f4 [128]
0	0x3fa59186	1.2935035
1	0x3dc86f54	0.09786859
2	0xbe80a257	-0.25123855
3	0x3c004a0c	0.007830154
4	0xbe8f325c	-0.2796811
5	0xbdbe9d36	-0.09307329
6	0x3f679187	0.9045643
7	0xbe17b749	-0.14816011
8	0x3f5006e2	0.812605
9	0xbdbe0772	-0.09278764
10	0x3f06ed54	0.52705884
11	0x3ee30df5	0.44346586
12	0xbe6ad9dc	-0.2293467
13	0xbf05d89c	-0.52283645
14	0x3e406772	0.18789461
15	0x3f1fa0e9	0.62354904
16	0xbd8d2d2b	-0.06893381
17	0x3d414204	0.047182098
18	0xbe0b9ac6	-0.1363326
19	0x3f205e3b	0.62643784
20	0xbdef4056	-0.11682193
21	0xbf02895c	-0.50990844
22	0xbe99e847	-0.30060026
23	0xbe648d5c	-0.2231955
24	0xbdddc3f3	-0.1082839
25	0x3ef0c2c6	0.470236
26	0xbe08d03e	-0.13360688
27	0xbe9c130e	-0.30483288
28	0x3d540aec	0.05176823
29	0xbdf1bc24	-0.11803463
30	0xbe3e5b11	-0.18589427
31	0x3f22fc55	0.6366628
32	0x3e394e17	0.18096195
33	0x3dc93e13	0.09826293
34	0xbcc458c5	-0.02396811
35	0x3f03c37b	0.51470155
36	0x3d7688ca	0.060189046
37	0xbdd777bf	-0.10520887
38	0x3dbf1686	0.09330468
39	0xbf0aed06	-0.5426792
40	0x3f69067b	0.91025513
41	0xbdbfe8b2	-0.09370555
42	0x3eededde	0.4647054
43	0xbe7f2259	-0.24915446
44	0x3c85fb3d	0.016355151
45	0xbdc4ee4d	-0.09615765
46	0xbe2d51f4	-0.16925794
47	0xbd8b154a	-0.0679117
48	0x3f2ba7d0	0.67052937
49	0xbe711d07	-0.2354623
50	0x3f10133d	0.56279355
51	0xbe6359ac	-0.22202176
52	0xbe5610c4	-0.20904833
53	0xbea92623	-0.33036909
54	0x3ea12ea1	0.31480888
55	0x3efbc283	0.49171838
56	0x3f163dde	0.5868815
57	0xbc1598d3	-0.009130674
58	0x3e8a7f3e	0.27050203
59	0xbd2f690e	-0.042824797
60	0xbe36ac97	-0.17839275
61	0x39ae2404	0.000332147
62	0xbca986f0	-0.020694226
63	0x3e5208ee	0.20511219
64	0x3ea29ba4	0.3175937
65	0xbdd65484	-0.10465339
66	0xbe1858d3	-0.14877634
67	0xbe2be57a	-0.16786757
68	0xbdc88f59	-0.097929664
69	0xbf092b92	-0.5358211
70	0x3dd19a2f	0.10234486
71	0xbdf39415	-0.11893479
72	0xbe34898a	-0.17630592
73	0xbd4eceee	-0.050490312
74	0xbe03b489	-0.12861837
75	0x3e9408fd	0.28913108
76	0xbccf8050	-0.025329739
77	0xbe87efdf	-0.26550195
78	0xbe892b17	-0.26790687
79	0xbe0d0c3e	-0.13774201
80	0xbe684980	-0.22684288
81	0xbf030186	-0.511742
82	0x3f6bb60a	0.92074645
83	0xbe2f8c26	-0.17143306
84	0x3b95c739	0.0045708683
85	0x3f7989c7	0.97475857
86	0xbe5e29a2	-0.21695569
87	0xbe0fc2e2	-0.14039186
88	0x3f813481	1.0094148
89	0xbdb34509	-0.08753402
90	0x3f7165aa	0.9429575
91	0xbe6cdcb5	-0.23131068
92	0xbe5e8384	-0.21729857
93	0xbdc97f51	-0.09838737
94	0xbe64abb6	-0.22331128
95	0x3e4f8b42	0.20267966
96	0x3ec09978	0.37617087
97	0xbdf19aaf	-0.11797082
98	0xbf050ba5	-0.51970893
99	0xbdd6ece6	-0.104944035
100	0xbe211d85	-0.15733917
101	0x3f99991d	1.1999851
102	0xbee1b06e	-0.44079918
103	0xbe2fa4a6	-0.17152652
104	0xbe88a2eb	-0.26686797
105	0xbe745cef	-0.23863576
106	0xbe8fb715	-0.28069368
107	0xbd655ea2	-0.055998452
108	0xbdfc65a8	-0.12324077
109	0xbe6c3aff	-0.2306938
110	0xbdeda1d7	-0.11603134
111	0x3deaa6bb	0.114575826
112	0xbe35b307	-0.17744075
113	0xbdd6bf96	-0.10485761
114	0x3f63f66e	0.89047897
115	0x3e3885a2	0.18019727
116	0xbdcda696	-0.10041539
117	0xbe1a5800	-0.15072632
118	0x3ecc864b	0.39946207
119	0xbed9dd17	-0.4255149
120	0xbe2f93a4	-0.17146164
121	0xbe2f4578	-0.17116344
122	0xbdcf6218	-0.10126132
123	0xbe0f03f4	-0.13966352
124	0xbe534f2c	-0.2063567
125	0xbda6ce93	-0.0814487
126	0xbd254185	-0.040345687
127	0x3e411e89	0.18859304

_fc3.weight f4 [1, 128]
0	0x3ebec88b	0.37262377
1	0x3d35685d	0.04428898
2	0x3d9b7259	0.075901695
3	0xbb483c92	-0.003055368
4	0xbdd9788a	-0.10618694
5	0x3ca538f8	0.020168766
6	0x3dd2f45f	0.10300516
7	0xba1a5b82	-0.00058882695
8	0x3def35f6	0.11680214
9	0xbd08ef2d	-0.03343122
10	0x3e07494e	0.13211557
11	0x3cbcbaff	0.023038385
12	0x3d847890	0.06468308
13	0xbe2b6598	-0.16737974
14	0x3d9dd712	0.07707037
15	0x3db98b27	0.09059744
16	0x3d121991	0.035668913
17	0x3d15d45e	0.036579482
18	0x3db4cb4d	0.08827839
19	0x3d870c89	0.06594188
20	0x3d09b647	0.0336211
21	0xbd87c3c5	-0.06629137
22	0x3da6c168	0.08142358
23	0xbe5db3f4	-0.21650678
24	0xbd16069e	-0.036627404
25	0x3d9cc743	0.07655194
26	0xbc4f6c98	-0.012660168
27	0xbe66f3dc	-0.22553962
28	0x3d11a82e	0.03556078
29	0x3e0d7b30	0.13816524
30	0x3934addf	0.0001723091
31	0x3d955af6	0.0729274
32	0x3da32039	0.0796513
33	0x3da1cbf7	0.07900231
34	0x3d88682b	0.066604935
35	0x3cd0581a	0.025432635
36	0x3d2803df	0.041019317
37	0x3bed3bcf	0.0072397958
38	0x3d085205	0.033281345
39	0xbcd71875	-0.02625678
40	0x3e4117c0	0.18856716
41	0x3cbc3b24	0.02297742
42	0x3d1ca408	0.03824237
43	0xbd24d458	-0.04024157
44	0xbdee4434	-0.116341025
45	0x3c5b0655	0.013368209
46	0xbc09d1cb	-0.008411835
47	0x3cc8231f	0.02443081
48	0x3d7880c9	0.060669694
49	0x3b85182b	0.004061719
50	0x3cc7f807	0.02441026
51	0x3bc5118a	0.0060140537
52	0xbb7b40bc	-0.0038338145
53	0x3d9d5c6a	0.07683642
54	0x3cb6792c	0.022274576
55	0x3d881c1f	0.06645989
56	0x3e2d379c	0.16915745
57	0x3d9b67a8	0.0758813
58	0x3d2d564d	0.04231863
59	0x3d6641e9	0.0562152
60	0xbc1dad14	-0.009623785
61	0x3d384ae2	0.04499329
62	0xbdfdba4a	-0.123890474
63	0x3d6ce0a6	0.05783143
64	0x3d2b1344	0.04176642
65	0x3b7ea766	0.0038857101
66	0xbc8b68c2	-0.017017726
67	0x3d3e693f	0.04648709
68	0x3c47fb29	0.012205877
69	0xbe00ffc5	-0.12597568
70	0x3d7d72e8	0.06187716
71	0x3c7c8339	0.015412145
72	0x3cc65816	0.024211925
73	0x3d33a362	0.043856986
74	0xbca34fed	-0.019935573
75	0x3ccaae56	0.024741333
76	0xbac0f833	-0.0014722407
77	0xbdb71374	-0.08939257
78	0x3c02bd10	0.007979646
79	0x3bb06500	0.005383134
80	0x3d0a9d46	0.033841394
81	0xbce32e5d	-0.027732069
82	0x3dc95b6c	0.098318905
83	0x3c312a6e	0.010813339
84	0x3ca83d73	0.020537114
85	0x3db739ed	0.08946595
86	0x3b3d4ce8	0.002888495
87	0xbc96e780	-0.018420935
88	0x3dd7207d	0.105042435
89	0xbe19fbb5	-0.15037425
90	0x3dfcc4d0	0.123422265
91	0x3c2fc1b4	0.010727335
92	0xbe1a754b	-0.15083806
93	0x3bdc0876	0.006714876
94	0x3c482d06	0.012217766
95	0x3d113f23	0.035460602
96	0x3dc3eb22	0.095663324
97	0xbc05d845	-0.008169238
98	0xbd252b83	-0.0403247
99	0xbe3c9c09	-0.18418898
100	0xba9d9ef4	-0.0012025521
101	0x3e18b44c	0.14912528
102	0xbd18cd3c	-0.0373051
103	0xbc206857	-0.009790502
104	0xbddfdd60	-0.10930896
105	0x3dcfb1db	0.10141345
106	0xbd71bfb6	-0.05902072
107	0x3da5e6c4	0.08100656
108	0x3d7296a1	0.059225682
109	0x3c87d9cd	0.016583348
110	0xbc539982	-0.012915017
111	0x3cb7cfe5	0.022437999
112	0x3db59c7b	0.08867737
113	0x3cc2b200	0.023766518
114	0x3db245cb	0.08704718
115	0x3cf848b6	0.030308109
116	0x3b1ac0b3	0.0023613393
117	0xbccaba60	-0.024747074
118	0x3d2a6f84	0.041610256
119	0xbd12800f	-0.035766657
120	0xbd9c98cd	-0.07646332
121	0x3e2bb6a7	0.16768895
122	0xbcb1d5c8	-0.021708384
123	0x3d70b408	0.05876544
124	0xbcdd7127	-0.027031494
125	0x3dc4649f	0.095895045
126	0x3b609529	0.0034268594
127	0x3db5d5ef	0.08878695

_bn0.weight f4 [33]
0	0x3ebf1c34	0.37326205
1	0x3e1da6c3	0.15395646
2	0x3ebba724	0.36650956
3	0x3d3b6113	0.045746874
4	0xbbe45d8e	-0.0069691604
5	0x3dbd71ca	0.09250219
6	0x3b6a3209	0.003573539
7	0x3ce497db	0.027904442
8	0x3cb15651	0.021647604
9	0x3ca5c369	0.02023478
10	0x3d6a1f58	0.057158798
11	0x3d809499	0.06278343
12	0x3d1cb5f9	0.03825948
13	0x3f388ce2	0.7208997
14	0x3e93cfde	0.28869528
15	0x3f4854cf	0.7825441
16	0x3d36db68	0.044642836
17	0x3d662d2d	0.056195427
18	0x3ca04f20	0.01956898
19	0x3d340aa6	0.043955468
20	0x3d315659	0.04329524
21	0x3cf855ce	0.030314352
22	0x3cfcdad1	0.030866059
23	0x3e685364	0.22688061
24	0x3de9aca2	0.1140988
25	0x3e69f558	0.22847497
26	0x3f51777f	0.8182296
27	0x3f32343a	0.6961094
28	0x3f40381e	0.7508563
29	0x3eabd25e	0.33558935
30	0x3f48c0bd	0.78419095
31	0x3f4ecc8b	0.8078086
32	0x3f8aa20e	1.0830705

_bn0.bias f4 [33]
0	0x3bf15ee4	0.007366048
1	0xbe17ee0d	-0.14836903
2	0x3df82e17	0.12118166
3	0x3de0bd25	0.109735765
4	0x3b284ce7	0.0025680603
5	0xbd5dc021	-0.054138307
6	0x3b5c03f1	0.0033571685
7	0xbc87c5b3	-0.016573763
8	0x3af19a2b	0.0018432786
9	0x3b900707	0.004395369
10	0xbc6c72fc	-0.014431711
11	0xbcd56fd8	-0.026054308
12	0x3d1d7b8a	0.038447894
13	0xbda65f7a	-0.081236795
14	0x3d2f4854	0.042793587
15	0x3df097d4	0.11747709
16	0x3c9842e8	0.01858659
17	0x3c52227d	0.012825605
18	0xba045f74	-0.0005049624
19	0xbcc8a343	-0.024491912
20	0x3bca1958	0.006167572
21	0xbc658b1f	-0.01401022
22	0x3bf034be	0.007330506
23	0x3cb2b468	0.02181454
24	0x3bc7243d	0.006077318
25	0xbbe85f5f	-0.0070914472
26	0x3d0aa4f3	0.033848714
27	0xbaa32192	-0.0012445918
28	0x3d5c1e0e	0.0537396
29	0xba9f713f	-0.0012164487
30	0x3bcd63b3	0.0062679886
31	0x3b9dd18e	0.0048162406
32	0xbc84f2d5	-0.016229073

_bn0.running_mean f4 [33]
0	0xbe2ccce1	-0.1687503
1	0xc0288f10	-2.6337318
2	0x3f33a642	0.70175564
3	0x3f63d242	0.889927
4	0xbcb365f6	-0.021899205
5	0xbbafa709	-0.0053604883
6	0x3dc68266	0.0969284
7	0x3bc67054	0.006055871
8	0x3bd90d26	0.006623882
9	0xbbc5c626	-0.006035584
10	0xbcefc419	-0.029268311
11	0x3cbe9a6f	0.023266999
12	0x3ba49e8b	0.0050237826
13	0xbe8c9036	-0.27453774
14	0xc024d181	-2.575287
15	0x3f5e3d13	0.8681194
16	0x3c36ac5a	0.01114949
17	0xbc124702	-0.008928062
18	0xba06b142	-0.0005138108
19	0xbbd13430	-0.006384395
20	0xbd1c132b	-0.038104217
21	0xbb885eef	-0.0041617076
22	0xbd4ce7b2	-0.05002565
23	0x3b21c664	0.00246849
24	0x3ddfc7e3	0.10926797
25	0xbcc964eb	-0.024584254
26	0xbdcdd637	-0.10050624
27	0xbf7ffffc	-0.99999976
28	0xbd89edc3	-0.067348026
29	0x00000000	0.0
30	0x3f7ffffc	0.99999976
31	0x00000000	0.0
32	0xbc97a5cf	-0.01851168

_bn0.running_var f4 [33]
0	0x4080fe16	4.0310163
1	0x3ec6f098	0.38855433
2	0x40863d08	4.19495
3	0x3cf62b0b	0.030049821
4	0x3d8a4f26	0.067533776
5	0x3c043041	0.008068145
6	0x3dbe0d57	0.09279888
7	0x3e837333	0.25673828
8	0x3d6d7921	0.057976846
9	0x3df9a5ca	0.12189825
10	0x4014b8e4	2.3237848
11	0x3f5bb646	0.85825
12	0x400e5662	2.2240224
13	0x4193d77b	18.480215
14	0x3fd0c29d	1.6309391
15	0x41a59565	20.697947
16	0x3daeae39	0.08529324
17	0x3e86604a	0.26245338
18	0x3d99a8d1	0.07502902
19	0x3f135ed8	0.57566595
20	0x3fd81b70	1.6883373
21	0x3f40d098	0.7531829
22	0x3f15e446	0.5855144
23	0x40efda84	7.4954243
24	0x40757a6b	3.8355968
25	0x4108887f	8.533324
26	0x42024ea8	32.576813
27	0x00000004	6e-45
28	0x41fc3643	31.526495
29	0x00000004	6e-45
30	0x00000004	6e-45
31	0x00000004	6e-45
32	0x3eabaace	0.3352875
